macros/Timing_estimation/models/August_05/run_5_3context_1flows_8hl_64hu_2000bs_checkpoint_e38.pth (torch, 602612 bytes, 72 tensors)

flows.0.mprqat.autoregressive_net.initial_layer.weight f4 [64, 1]
000000 48 57 05 80 06 5b 05 80 cb 59 05 00 fb 59 05 00
       -4.90488e-40 -4.9183e-40 4.91389e-40 4.91456e-40
000010 f7 57 05 80 ee 57 05 80 ef 57 05 00 57 59 05 80
       -4.90733e-40 -4.90721e-40 4.90722e-40 -4.91227e-40
000020 88 58 05 00 6a 57 05 00 44 5c 05 80 5c 57 05 00
       4.90937e-40 4.90536e-40 -4.92276e-40 4.90516e-40
000030 92 59 05 80 bc 5c 05 00 3c 59 05 00 b5 5d 05 80
       -4.91309e-40 4.92444e-40 4.91189e-40 -4.92793e-40
000040 e0 58 05 80 c6 57 05 00 19 58 05 00 0e 58 05 00
       -4.9106e-40 4.90665e-40 4.90781e-40 4.90766e-40
000050 3e 5b 05 00 9f 57 05 00 e8 5c 05 00 1b 5c 05 00
       4.91909e-40 4.9061e-40 4.92506e-40 4.92219e-40
000060 a1 5a 05 80 70 5a 05 80 da 5d 05 80 82 58 05 00
       -4.91689e-40 -4.9162e-40 -4.92845e-40 4.90928e-40
000070 92 58 05 00 80 58 05 00 1a 59 05 00 26 58 05 80
       4.9095e-40 4.90925e-40 4.91141e-40 -4.90799e-40
000080 50 59 05 80 96 58 05 80 26 58 05 00 3a 5a 05 80
       -4.91217e-40 -4.90956e-40 4.90799e-40 -4.91545e-40
000090 61 57 05 00 0d 5d 05 00 cc 5c 05 80 91 58 05 00
       4.90523e-40 4.92558e-40 -4.92467e-40 4.90949e-40
0000a0 a7 57 05 80 6d 58 05 00 82 5d 05 00 c3 5a 05 80
       -4.90621e-40 4.90899e-40 4.92722e-40 -4.91737e-40
0000b0 8c 57 05 00 f1 57 05 00 d8 5d 05 00 01 59 05 00
       4.90583e-40 4.90725e-40 4.92842e-40 4.91106e-40
0000c0 6a 5a 05 80 39 5d 05 80 9f 5d 05 00 4a 5c 05 00
       -4.91612e-40 -4.9262e-40 4.92762e-40 4.92285e-40
0000d0 23 5a 05 80 74 57 05 00 56 59 05 80 82 5b 05 00
       -4.91512e-40 4.9055e-40 -4.91225e-40 4.92004e-40
0000e0 cc 5c 05 80 a0 5a 05 00 1b 58 05 00 8f 5a 05 80
       -4.92467e-40 4.91688e-40 4.90784e-40 -4.91664e-40
0000f0 68 5d 05 00 82 5b 05 00 97 59 05 00 11 5b 05 00
       4.92685e-40 4.92004e-40 4.91316e-40 4.91846e-40

flows.0.mprqat.autoregressive_net.initial_layer.bias f4 [64]
000000 ee 88 31 3e 77 95 db 3c 6a b9 d4 3e 71 08 a0 3d
       0.17337391 0.026804669 0.4154771 0.0781411
000010 be 53 01 bd 55 3d 78 3e 14 bc 04 bf 75 05 89 be
       -0.031574003 0.24242146 -0.51849484 -0.26761976
000020 a9 4c 6f 3e 7e 1d 91 3e 0a 57 75 3f 8c c8 56 3e
       0.23369087 0.28342813 0.95835936 0.2097494
000030 a0 d0 4b bf 13 58 1d bf d8 42 c5 3e fc 00 99 bd
       -0.7961521 -0.61462516 0.3852756 -0.07470891
000040 43 8c ef 3e 36 ae 51 3f 86 03 1b 3f e1 17 42 bd
       0.467867 0.8190645 0.6055225 -0.047386054
000050 d8 58 8d 3e 90 05 04 bf bd ca 12 be d3 8b 6b be
       0.27606845 -0.5157099 -0.14335151 -0.23002557
000060 11 dd 3c bf 84 03 ca bd f6 c9 5e 3f a8 5a aa bd
       -0.7377482 -0.09863952 0.8702692 -0.083180726
000070 98 0e 7f 3f 88 b9 1b bf c5 83 f1 3c bd 45 94 be
       0.99631643 -0.60829973 0.029481778 -0.28959456
000080 a7 9b a8 3e 99 77 3c 3f ad 79 47 bf bb a9 31 be
       0.32931253 0.7361999 -0.7792004 -0.17349903
000090 db ca 06 3e da 36 35 3c f9 5a 80 3e e9 25 33 be
       0.1316332 0.011060441 0.25069407 -0.1749493
0000a0 a6 55 70 3e ba 26 cd 3e 04 f1 8d be 11 39 c0 3e
       0.23470172 0.4006861 -0.27722943 0.37543538
0000b0 d6 81 da 3e f3 b2 9f be b4 85 5f 3f bf 39 53 3f
       0.42677182 -0.31191215 0.8731339 0.8250999
0000c0 09 b7 28 bf cc 25 a1 3e a7 6f 9a be 70 23 06 bf
       -0.6590429 0.3147415 -0.3016331 -0.52397823
0000d0 6d 88 6e 3f ac 51 e4 3e 4a ef 69 be 14 86 22 3f
       0.9317692 0.4459356 -0.22845188 0.63485837
0000e0 99 14 13 be bc f9 54 be 0a e2 05 bf 17 57 ab 3e
       -0.14363326 -0.20798391 -0.52298033 0.33464882
0000f0 4a b3 89 3e a2 aa 30 3f b3 3b 06 be ac 03 b1 be
       0.268946 0.69010365 -0.13108711 -0.34573114

flows.0.mprqat.autoregressive_net.initial_layer.mask f4 [64, 1]
000000 00 00 00 00 00 00 00 00 00 00 00 00 00 00 00 00
       0.0 0.0 0.0 0.0
000010 00 00 00 00 00 00 00 00 00 00 00 00 00 00 00 00
       0.0 0.0 0.0 0.0
000020 00 00 00 00 00 00 00 00 00 00 00 00 00 00 00 00
       0.0 0.0 0.0 0.0
000030 00 00 00 00 00 00 00 00 00 00 00 00 00 00 00 00
       0.0 0.0 0.0 0.0
000040 00 00 00 00 00 00 00 00 00 00 00 00 00 00 00 00
       0.0 0.0 0.0 0.0
000050 00 00 00 00 00 00 00 00 00 00 00 00 00 00 00 00
       0.0 0.0 0.0 0.0
000060 00 00 00 00 00 00 00 00 00 00 00 00 00 00 00 00
       0.0 0.0 0.0 0.0
000070 00 00 00 00 00 00 00 00 00 00 00 00 00 00 00 00
       0.0 0.0 0.0 0.0
000080 00 00 00 00 00 00 00 00 00 00 00 00 00 00 00 00
       0.0 0.0 0.0 0.0
000090 00 00 00 00 00 00 00 00 00 00 00 00 00 00 00 00
       0.0 0.0 0.0 0.0
0000a0 00 00 00 00 00 00 00 00 00 00 00 00 00 00 00 00
       0.0 0.0 0.0 0.0
0000b0 00 00 00 00 00 00 00 00 00 00 00 00 00 00 00 00
       0.0 0.0 0.0 0.0
0000c0 00 00 00 00 00 00 00 00 00 00 00 00 00 00 00 00
       0.0 0.0 0.0 0.0
0000d0 00 00 00 00 00 00 00 00 00 00 00 00 00 00 00 00
       0.0 0.0 0.0 0.0
0000e0 00 00 00 00 00 00 00 00 00 00 00 00 00 00 00 00
       0.0 0.0 0.0 0.0
0000f0 00 00 00 00 00 00 00 00 00 00 00 00 00 00 00 00
       0.0 0.0 0.0 0.0

flows.0.mprqat.autoregressive_net.context_layer.weight f4 [64, 3]
000000 28 93 f7 3d 62 98 cb 3d c6 2f ca 3e f3 24 86 be
       0.12088615 0.09941174 0.39489573 -0.26200065
000010 e6 70 c5 3c a5 9f 6f be d5 f8 af 3e 75 77 93 3e
       0.024101686 -0.23400743 0.3436953 0.28802076
000020 e2 78 d0 be e7 0a e2 be 0c b0 6e 3b 69 0a d0 bd
       -0.40717226 -0.44148943 0.003642085 -0.101582356
000030 09 a2 96 3e e0 58 06 3f 59 96 95 bd 33 75 0d bf
       0.29420498 0.5247936 -0.07304067 -0.55256957
000040 e8 d2 a9 be 80 bb 35 3e 0f 08 61 bd cd 72 7c 3c
       -0.3316872 0.17747307 -0.054939326 0.01540823
000050 a7 95 fc 3e c3 be 09 be 4d 18 84 be 88 91 c0 3d
       0.49332926 -0.13451676 -0.2579979 0.09402758
000060 f3 8d 69 3e 3f 66 97 3e 98 31 a1 be cb a2 02 3f
       0.22808056 0.29570195 -0.3148315 0.5102965
000070 a2 7f a5 3e 8e 3e c2 be af e4 2c 3e 88 79 64 be
       0.3232394 -0.3793835 0.16884111 -0.22311985
000080 ac 1d 03 be 10 d2 98 be 2d 14 0e bd 91 eb d9 3e
       -0.12804288 -0.29847765 -0.03468721 0.42562535
000090 2c 20 5e bd 3a 5b c9 3e d5 70 23 3e 9d d1 8f be
       -0.0542299 0.39327413 0.15961011 -0.2808961
0000a0 d8 6b cd be de b5 83 3e d4 d7 87 3e 6e d8 6b 3e
       -0.4012134 0.2572469 0.2653185 0.2303178
0000b0 42 85 b4 be b7 7e 70 be 8d 79 9c be 07 57 4f 3e
       -0.35257918 -0.23485838 -0.30561486 0.20248042
0000c0 12 ae 07 bf bb 4d cf be 59 da 55 3e db 9c 9e bd
       -0.52999985 -0.4048899 0.20884074 -0.077447616
0000d0 f5 0c 8a bd b3 9a f4 3e 3d b9 c9 be e4 6c fc 3e
       -0.067407526 0.47774276 -0.39399138 0.49301827
0000e0 e1 91 1f be 83 10 09 bf 8b 1d 1e be 86 35 b9 3d
       -0.15582992 -0.5354082 -0.15440957 0.09043412
0000f0 03 1e e2 3e 81 6d a3 be 63 68 b1 be 76 f9 09 bf
       0.44163522 -0.31919482 -0.34649953 -0.5389627
000100 13 f3 d8 be a9 59 e6 3d 5c a8 d6 be d4 8b 05 bf
       -0.4237295 0.1124757 -0.41925323 -0.52166486
000110 92 d8 f0 3e ef d5 ad 3e 6f f5 97 be 72 a4 6b 3e
       0.4704023 0.3395228 -0.29679438 0.2301195
000120 35 fa 24 be 8a 2c 97 3b 5c b0 9e be f7 bf 41 3e
       -0.16111071 0.0046134638 -0.30993927 0.18920885
000130 32 bf c2 be 7e bf f3 3e 5f 30 a3 3d 26 0d e0 3e
       -0.38036495 0.47607034 0.079682104 0.4376003
000140 2d 05 67 be a6 1a 48 bd 5f bf b1 be f0 00 de be
       -0.22560568 -0.04885354 -0.34716317 -0.4336009
000150 f7 4c 8c 3c 21 51 f5 3d 18 aa 10 bb a2 ce aa 3d
       0.017126543 0.11978365 -0.002207404 0.08340193
000160 c2 ce f9 3e fb 4a 9e bb 70 6e d3 3e 41 a6 f4 be
       0.48790556 -0.0048307157 0.41295195 -0.47783092
000170 2f 32 bd 3e 99 1f d9 bd 30 2a d3 be 0d e7 6a bc
       0.3695235 -0.1060173 -0.41243124 -0.014337313
000180 35 36 c5 3e b5 d9 e3 3e 13 b9 d3 3e 28 af d7 bd
       0.3851792 0.44502035 0.41352138 -0.10531455
000190 83 e7 02 be 73 41 8d be 81 18 86 3e 55 f3 e3 3e
       -0.12783627 -0.27588996 0.2619057 0.44521585
0001a0 d6 21 ba be 26 b0 2c be b5 25 8a 3e e7 a0 fe 3d
       -0.3635394 -0.1686407 0.26981893 0.124330334
0001b0 44 14 e8 3e 4a 25 92 3d 3e a3 fb be c5 08 2c 3a
       0.4532796 0.071360186 -0.4914798 0.0006562586
0001c0 1e 42 6e 3d 43 1b 9b 3e cc 27 09 3d 4f 86 d5 3e
       0.058168523 0.30294237 0.03348522 0.41704032
0001d0 0a f4 b8 be e0 36 04 3f a0 aa 7a 3d be d8 b7 3e
       -0.36123687 0.5164623 0.061197877 0.3590755
0001e0 e6 d9 ba be 10 3f ed bd 99 9c 0f 3d 75 da 39 bd
       -0.36494368 -0.11584294 0.035061453 -0.045374352
0001f0 15 f8 8f 3e ba b6 e7 3d 25 35 0e 3f d9 61 2b bc
       0.2811896 0.11314149 0.5554984 -0.01046034
000200 70 1d 3b be 00 c3 43 be ce 3b d9 be 75 0f 13 be
       -0.18272948 -0.19117355 -0.4242844 -0.14361365
000210 cb af 03 bd 5d 1d 64 3e 47 e1 ee 3d f9 c8 93 be
       -0.03215007 0.22276826 0.11664062 -0.28864267
000220 e3 46 ae 3e 9d 40 15 be 9a ff c9 3e 77 32 8d be
       0.34038457 -0.1457543 0.3945282 -0.27577564
000230 97 91 b2 3e 98 b6 8e be 5d ee dd 3d ba 74 f8 be
       0.348767 -0.27873683 0.1083648 -0.48526555
000240 5f 00 4c 3e ab 0b 24 3e 27 59 c0 3e 5f 3f 32 3d
       0.19922017 0.16020076 0.37568018 0.043517467
000250 25 f8 f7 3d 9a e4 21 3e ff 76 ee be 13 af 0c 3e
       0.12107877 0.15809861 -0.46575162 0.1373866
000260 52 56 0c 3f 8b 12 67 be 93 fc e3 3e 1c 81 07 be
       0.54819214 -0.22565667 0.44528636 -0.13232845
000270 6a 6e b7 3e 7d 7c 94 be c3 7a e2 bc f7 dc f2 be
       0.35826427 -0.29001227 -0.027646428 -0.47434208
000280 c4 08 ac 3d 63 69 b2 be 3c 51 e0 be 6c 89 4e bd
       0.084001094 -0.3484603 -0.43811977 -0.050424024
000290 4a c9 33 be ee a4 82 3e 85 ee b1 3e fd f1 03 3f
       -0.17557254 0.25516456 0.34752288 0.5154112
0002a0 c3 c1 50 bd 6b 1f ad 3e e3 47 04 3e 8d 3a cd be
       -0.050966036 0.33813033 0.12918048 -0.40083733
0002b0 f1 71 67 3e 36 22 ad be bd c4 a9 3e c7 47 9f 3e
       0.22602059 -0.33815163 0.33157912 0.3110945
0002c0 48 c2 ca 3e bd af e3 be cd 77 0a 3f c8 7e ac be
       0.3960135 -0.44470015 0.5408905 -0.33690476
0002d0 73 d1 8f 3d f7 5e 8b be 45 87 f9 3e 14 39 43 be
       0.07022371 -0.2722089 0.48736015 -0.19064742
0002e0 f3 ef 57 3e aa d8 40 3e 87 98 63 3d f8 7c fb 3d
       0.21087627 0.18832651 0.055565383 0.12279695
0002f0 4b ec 9a be 34 52 87 be 9b 9f bf 3d ba ce ed be
       -0.30258402 -0.26429904 0.09356614 -0.46446782

flows.0.mprqat.autoregressive_net.context_layer.bias f4 [64]
000000 09 49 80 be e5 43 f2 3e ca 3b a3 3e ee 6e 1e bd
       -0.2505572 0.47317424 0.31881553 -0.03868001
000010 64 d9 12 3e 7c f2 04 3f 9e be 2a 3f 2b 30 d8 3e
       0.1434074 0.519325 0.6669711 0.4222425
000020 4b da e9 3d 1a 01 67 be a4 dd 9a 3e 44 de 8f 3c
       0.11418589 -0.22559014 0.30247223 0.01756204
000030 f9 e6 fc be 1a ec a7 bd 01 5c fe bd 3f aa 86 3d
       -0.49394968 -0.0819933 -0.12419892 0.065754406
000040 df 02 c3 3d 74 d3 2e be 6e 33 8f be cc 32 05 be
       0.09522032 -0.1707285 -0.27968925 -0.13007659
000050 99 1e d3 be 71 04 c2 3e ac 40 e0 3d 77 18 8f bc
       -0.41234282 0.37894014 0.10949835 -0.01746772
000060 ee f3 91 3e c1 32 89 3d 70 9f c5 3e a2 3a a8 bd
       0.28506416 0.06699134 0.38598204 -0.08214308
000070 85 04 22 3e c5 8a 86 3d f3 21 0c 3d ff ac e4 be
       0.15822037 0.06569437 0.034212064 -0.44663236
000080 22 b5 55 3d ba e9 9a be 8f 09 4e bd e0 2c 96 be
       0.052174695 -0.30256444 -0.050302085 -0.29331112
000090 f7 c7 60 3e 15 99 88 3d da 01 00 be f8 04 40 3e
       0.2195128 0.06669823 -0.12500706 0.18751895
0000a0 33 83 85 bb f8 44 e8 3e 98 2e af 3d 21 a7 b5 3e
       -0.004074478 0.4536512 0.08553809 0.35479072
0000b0 c3 ed 35 be a3 04 cd be fc a2 cc 3e af 21 58 be
       -0.1776648 -0.400426 0.39968097 -0.211066
0000c0 12 1e 3f 3e f9 43 a4 3e 6d 02 37 3e bf 01 bb 3d
       0.18663815 0.3208311 0.17872019 0.091311924
0000d0 91 56 1a 3e 98 5d 82 be 82 6d 64 bc 80 5f 6c 3e
       0.15072085 -0.2546203 -0.013942124 0.23083305
0000e0 2d 7d 09 bd bb 98 23 3e d7 bd 69 3e 7d df 9c be
       -0.033566643 0.15976231 0.22826324 -0.30639258
0000f0 3e 6b 0c 3f 79 4d ba 3e dd 89 77 3e 15 94 a5 3e
       0.5485114 0.36387232 0.24173684 0.3233954

flows.0.mprqat.autoregressive_net.blocks.0.context_layer.weight f4 [64, 3]
000000 a9 28 00 3e 4c d4 4e 3e bd 6b a6 3d 45 5a 54 bd
       0.1251551 0.20198172 0.08126018 -0.0518439
000010 1a 14 c0 bc 14 e4 93 bc 43 f8 38 3d 3a 6e 7d 3d
       -0.023447085 -0.018053092 0.045158636 0.0618727
000020 08 1f dc bb 0e 48 d1 bb a1 d7 8d bb 6c e3 59 3d
       -0.0067175664 -0.0063867634 -0.0043286835 0.053195402
000030 e3 4f 88 be bf 82 44 bb bc 69 4a 3e 24 f3 8c 3d
       -0.2662345 -0.0029985157 0.19766897 0.06882313
000040 b1 0a 2a bb 80 0e 42 bd cc fc 5e 3e 08 2d 66 3e
       -0.0025946314 -0.04737711 0.21776122 0.22478116
000050 5d 4d ba bd b3 1f 07 be 60 17 0e 3f 66 fa 67 bd
       -0.09096787 -0.13195686 0.5550442 -0.056635283
000060 38 4b d5 3d 94 59 57 3d 78 d1 86 3d 10 17 0a bb
       0.104147375 0.052575663 0.06582922 -0.0021070875
000070 b1 b1 b7 3e 7a 7a bd be 1d 61 81 be 2d 4d 25 3c
       0.35877755 -0.37007505 -0.25269404 0.010089201
000080 dd 9f 67 bd 66 bf 62 be 15 69 8c 3e a8 11 da bc
       -0.056548942 -0.22143325 0.2742392 -0.026619747
000090 b1 5f 54 3d 85 dd 09 3c 39 ce 53 3e 51 36 de 3b
       0.05184907 0.008414631 0.20684136 0.0067813774
0000a0 73 36 49 3b 59 4b 69 3c 50 47 3e 3d 34 7d 18 3d
       0.003070262 0.014239156 0.046454728 0.037228778
0000b0 16 1c 96 3c 7f 2a ed 3d 44 bd 81 3c 8b b4 d5 bd
       0.01832394 0.11580371 0.01583732 -0.104348265
0000c0 5c 76 89 be 79 50 ad 3e 37 82 8e bd b1 7f 1e 3e
       -0.26848114 0.33850458 -0.0695843 0.15478398
0000d0 61 db d0 be 44 c4 ec 3b d7 b6 21 3d e4 d6 05 bf
       -0.40792373 0.007225545 0.03948101 -0.5228102
0000e0 49 21 99 bd 95 b7 5c 3c a4 4d 45 3d 89 52 c1 3d
       -0.07477052 0.013471504 0.048169747 0.094395705
0000f0 29 74 0f be a6 3f 0c 3e ae 65 90 be df ae 03 3d
       -0.14009155 0.13696155 -0.28202575 0.032149192
000100 ac 2f 00 3d 94 93 ea 3d 2d c8 49 bc 72 eb c7 bd
       0.031295463 0.114539295 -0.012315792 -0.097617045
000110 95 3d 9a bd aa 9d eb bd 69 0e 37 3e 02 9f 96 be
       -0.07531277 -0.115046814 0.17876591 -0.29418188
000120 13 31 10 be ba f1 a5 3a b9 4e bb 3b 39 f3 29 be
       -0.1408122 0.0012660541 0.0057161716 -0.16596688
000130 3f e2 69 3e 2c 1e 85 be 33 f5 de 3c eb 04 f9 be
       0.22840212 -0.25999582 0.02721653 -0.48636565
000140 31 fd 2e bd ac eb 3a 3d 1a 6e 46 3e 8a 8a 67 3e
       -0.04272193 0.04563491 0.19377938 0.22611442
000150 9c 28 79 bd 53 57 9f 3d f8 9a 7e be a1 ea b6 3b
       -0.060829744 0.07780328 -0.24863803 0.005582169
000160 38 23 ea 3d cd bf 1c bd 4d 88 3a be 16 fd a7 bd
       0.11432499 -0.038268853 -0.18216057 -0.08202569
000170 ca 12 a6 3d 82 89 06 3c 26 9d 42 3d e8 99 71 bc
       0.081090525 0.008211495 0.04751315 -0.014746167
000180 e6 a1 00 3e 12 9b 10 3d 67 b5 48 3d e7 6c 55 3e
       0.1256176 0.035304137 0.049001124 0.20842324
000190 71 8f 90 be 8f a6 dc 3d c0 33 d9 b9 09 bb 5d 3e
       -0.28234437 0.10773956 -0.00041428022 0.2165338
0001a0 96 44 b5 3c 73 26 b9 3c a3 f3 d8 3b bd 77 46 3d
       0.02212743 0.022601342 0.0066208406 0.048454035
0001b0 29 55 d3 3d 96 bf ab 3c e8 be 8d bd 4f 73 89 3d
       0.103189774 0.020965379 -0.06921178 0.067114465
0001c0 ff a1 6a bc 51 41 82 3d 52 e8 55 3b 4b 84 d9 bb
       -0.014320849 0.06360114 0.0032639694 -0.006638085
0001d0 6a 09 d5 bc b4 c8 25 be b4 88 0b be 7f d8 c4 bd
       -0.026005466 -0.16189843 -0.13626367 -0.09611606
0001e0 88 a0 b0 bd 10 a0 94 bc 83 29 20 3b 0d bc 8b 3c
       -0.08624369 -0.01814273 0.0024438805 0.017057443
0001f0 f1 19 11 3e 10 7e a5 3d 1c a2 ce bd 3a c3 67 bd
       0.14170052 0.08080685 -0.10089514 -0.056582667
000200 22 a4 94 3d 54 33 29 3c 81 4e bb bb de fc 75 bd
       0.07257868 0.010327179 -0.0057161455 -0.060055606
000210 f1 e8 c3 bd 0d 5b 9c 3e 07 2b 4d be fc 78 63 3b
       -0.095659144 0.30538216 -0.20035945 0.0034709563
000220 5b 26 8f bb d6 cd 08 bc 6e 78 8a be fc 45 ce bd
       -0.004368586 -0.008349856 -0.27045006 -0.10071942
000230 95 6f 9e be 25 18 cc bc 8f 0b 47 bc 1f c4 02 3d
       -0.30944505 -0.024913857 -0.012148752 0.031925317
000240 a1 5b e2 3d 9f f1 f9 3c ab 63 e5 bc 37 d4 ba be
       0.11052633 0.030510722 -0.028001627 -0.36490032
000250 62 87 30 3e 73 9c f4 3c ab 9d d0 ba ad 90 bc 3e
       0.17239144 0.029859757 -0.0015916129 0.3682913
000260 36 28 e1 3e 1f 17 31 3b 5d 45 95 3d 9c e6 da 3d
       0.4397599 0.0027021838 0.072886206 0.106885165
000270 5c 34 8e be 32 1e 90 be 03 d7 3d 3d b3 8d 66 3e
       -0.27774322 -0.28148037 0.04634763 0.22514991
000280 1f a6 89 be 48 93 1d 3b 86 a2 93 bd 85 87 34 bd
       -0.26884553 0.0024044085 -0.07208733 -0.044074554
000290 24 c6 20 bd 34 d0 94 be 44 df c4 bd aa d0 e9 bd
       -0.03925146 -0.29065096 -0.09612897 -0.11416753
0002a0 01 1c 1c be 19 5d 2e bd 6b 34 08 be fa fc 90 bb
       -0.15245058 -0.042569254 -0.13301246 -0.0044246884
0002b0 88 68 c6 be c3 9e d6 be 63 30 bd bd ad 1d 57 be
       -0.38751626 -0.41918 -0.09237745 -0.21007414
0002c0 fd ce 0d be 7f 3b 06 3e a8 b7 96 bb a3 05 a0 3b
       -0.13848491 0.13108633 -0.0045995302 0.0048834844
0002d0 b4 78 3c be 81 ba 1c be 02 a4 c4 3d 6c d7 83 be
       -0.1840542 -0.1530552 0.096015945 -0.2575029
0002e0 4f 0c ff 3c f2 3f f9 bd 5c c4 e4 3d 5b 90 9f 3c
       0.031133799 -0.121704 0.11170265 0.019478014
0002f0 80 ca 81 3c ca fe 23 be 3a 72 07 bd f8 1b 89 3c
       0.01584363 -0.16015163 -0.03306792 0.01673697

flows.0.mprqat.autoregressive_net.blocks.0.context_layer.bias f4 [64]
000000 39 13 97 3d 8e d0 4f bd 53 95 2d 3d e3 6c a3 bd
       0.07376713 -0.050736003 0.042378735 -0.07979753
000010 88 e2 3b 3d 8a b2 24 3d 99 c7 55 3d 5e 15 c5 3e
       0.045870334 0.04020933 0.052192304 0.38492864
000020 da fd 05 bd 00 e0 ec 3d bf aa 0a bd be 7d cc 3b
       -0.032712795 0.11566162 -0.033854242 0.0062405756
000030 af f5 e5 3d be 99 7c 3d 90 26 b3 3d 02 3a 2f 3d
       0.11228501 0.061670057 0.087475896 0.04277993
000040 e4 71 a9 3a 65 7d c5 ba 1a ea 24 bc 5d c6 fd bd
       0.0012927619 -0.0015067278 -0.01006558 -0.123913504
000050 27 fc 10 3e 94 4d 92 3d 50 8c 15 bd 04 c6 05 3d
       0.14158688 0.07143703 -0.036510766 0.032659546
000060 6f 4b 30 3c 44 58 eb bd 20 72 56 3e 12 3e cc 3c
       0.010760172 -0.11491445 0.20941973 0.024931941
000070 5d 69 ec 3e 2a cc 8f 3d 81 6e 43 3c 9f 16 e6 bc
       0.46174136 0.07021363 0.011928202 -0.028086958
000080 2d 0c bc 3c 9d 21 96 3b d9 ab d1 3c 51 05 25 3d
       0.022955025 0.0045816437 0.025594639 0.040288273
000090 b8 c4 43 3d 0e 3d 2e bd ef 7d d7 3c 0e f3 a2 bb
       0.047795027 -0.042538695 0.026305167 -0.004972822
0000a0 97 2b 3e bb 57 fc 8a 3e fa 08 c9 3c 24 ab a6 3d
       -0.002901768 0.27145645 0.024540413 0.08138111
0000b0 38 2c 97 bc ef da 86 3d 81 a5 0b 3e 69 81 81 bd
       -0.018453702 0.06584727 0.13637353 -0.06323511
0000c0 11 09 c8 bc 81 36 fc 3c e7 9a a7 bd 30 f9 68 3c
       -0.024418386 0.030787708 -0.08183842 0.014219567
0000d0 84 0b 44 3c 11 42 f0 3b 66 e6 29 bd 61 ec ac 3d
       0.011965636 0.0073320945 -0.04147949 0.08443523
0000e0 fc bb 85 3c da 2f 4f 3e cb 9e e0 3c 52 61 92 3b
       0.01632499 0.20233098 0.027419468 0.004467168
0000f0 ea b6 b4 bd ef c0 47 bc 17 f9 59 3c 91 d4 78 3b
       -0.088239506 -0.012191995 0.013304017 0.0037968496

flows.0.mprqat.autoregressive_net.blocks.0.linear_layers.0.weight f4 [64, 64]
000000 59 9b 30 bc 0b 8c 49 3d 13 e1 ad bb 58 c3 5d 3d
       -0.010779225 0.04920582 -0.005306372 0.054141372
000010 e3 a2 aa bb 41 2d 54 3d 68 75 1d 3d 1d 25 31 3d
       -0.005207406 0.05180097 0.038442045 0.043248285
000020 e3 64 a2 bb 28 8b dc bb 7a 66 54 b9 88 fa 4e 3d
       -0.0049558743 -0.006730456 -0.00020256071 0.050531894
000030 0d c4 00 3d 63 6d 4e 3d 18 ec 61 bb 2d 10 36 3d
       0.03143697 0.050397288 -0.0034472998 0.04444902
000040 91 b4 52 3d 5b d6 14 3d ad bf 54 3d 38 c5 58 3d
       0.051441733 0.036337238 0.05194061 0.052922457
000050 88 e9 c6 bb fc 68 59 3d 0e 32 4c 3d 7b 59 84 bc
       -0.0060703196 0.053078637 0.049852423 -0.016155949
000060 a4 6e 58 3d d5 33 cd bc 9f 55 7e bb 30 aa 27 3d
       0.05283989 -0.02504913 -0.0038808358 0.040933788
000070 6c ab 8f bb b1 c7 2e bb 25 ba 96 bc e8 9d 3e 3d
       -0.0043844488 -0.0026669318 -0.018399308 0.04653731
000080 9f 4b 05 bc 74 54 30 3d 8a c2 ab bb 14 05 41 3d
       -0.008135705 0.04304929 -0.0052416967 0.047123984
000090 57 06 17 bc 80 01 f4 3b 62 cf 8a b9 33 07 67 bc
       -0.00921782 0.007446468 -0.00026475923 -0.0141008375
0000a0 a7 88 55 3d b4 18 c7 3c 07 76 6f bc ce 8e 3b 3d
       0.052132275 0.024303772 -0.014615542 0.045790486
0000b0 0c 72 c5 3c 5b 09 67 3d cc d5 9f bc c5 0a 60 3d
       0.024102233 0.056405406 -0.019511126 0.05469777
0000c0 bb ad 16 bc 3e 95 e4 bb f6 33 5e 3d 34 41 4d 3d
       -0.009196694 -0.006975799 0.054248773 0.05011101
0000d0 74 9d 53 bc e5 b5 62 3d e9 db 5f 3d 9a 74 19 bc
       -0.012915958 0.05534925 0.054653082 -0.009366179
0000e0 67 29 c0 3c b1 9d 66 3d fd 85 06 bc ca cc 60 3d
       0.023457242 0.05630273 -0.008210656 0.054882802
0000f0 b0 73 3b bc 0a 59 3d 3d d4 57 93 3a 36 3a 61 3d
       -0.011441156 0.046227492 0.0011241385 0.054987155
000100 94 02 65 bd 91 93 0c 3b 91 30 63 3c e8 07 2d ba
       -0.05591066 0.002145026 0.01386656 -0.00066006044
000110 ec b4 f0 3c 88 25 6c 3b 79 ee 08 3d 11 67 27 ba
       0.029383145 0.0036033113 0.03343055 -0.00063859025
000120 08 a9 0e 3d fa 05 49 3d ea b7 59 3d d2 99 cf 3b
       0.03482917 0.049077965 0.05315391 0.0063354755
000130 01 80 a6 bd 5b 96 6d bb b9 de 88 3d 1f 70 e4 b9
       -0.081298836 -0.003625295 0.06683106 -0.00043571086
000140 da a7 39 3b 84 84 05 3d 45 2f 80 3b 58 77 76 ba
       0.0028328807 0.03259708 0.003911885 -0.0009401939
000150 8e 72 97 3c 3a 94 bf ba 81 43 23 3b cc 8b f1 3d
       0.018487241 -0.0014616319 0.0024912062 0.11794242
000160 f1 b8 11 bc 3a a5 4b 3d 1f 54 e5 3d c8 c4 87 bc
       -0.008894191 0.04971812 0.111976855 -0.016573325
000170 3d a5 c7 bc d7 97 ab bc 6a 1a 90 3d 98 69 7e bc
       -0.024370784 -0.020946426 0.07036288 -0.015528105
000180 fb f8 eb bc c3 40 af 3a a3 3b b4 bc fa 98 e1 3b
       -0.028805247 0.0013370741 -0.022001093 0.0068846913
000190 db 80 6b bd 12 b1 6a 3d d2 e7 a9 3c 96 f2 b4 3c
       -0.057495933 0.057297774 0.020740423 0.02208833
0001a0 6b 8f d6 3a 9b 67 38 3d 91 a1 d6 bd 8c 98 53 39
       0.0016369646 0.04502068 -0.10480035 0.00020179356
0001b0 a8 59 2e 3c fa 7e 70 bb cf 8e 06 3e 1c 2e 59 ba
       0.010641493 -0.0036696778 0.13140415 -0.0008284764
0001c0 49 f6 87 3c e0 7f c5 3c a5 ec 81 bb 1e 07 e4 ba
       0.01659693 0.024108827 -0.003964978 -0.0017397141
0001d0 fc 4c 5f 3d f6 52 9f b8 d2 ca 0d bb 85 1f 61 bd
       0.054516777 -7.5971635e-05 -0.0021635783 -0.0549617
0001e0 ee 63 f9 bc 29 3f c8 b9 c5 f1 a8 bd 88 a3 5d 3a
       -0.030443158 -0.0003819403 -0.08249239 0.0008454849
0001f0 cc e3 16 bd 36 bf b0 3b e1 3d 8a bc a8 64 4e bb
       -0.036838338 0.005393888 -0.01687521 -0.0031493101
000200 ce 8a aa 3d 10 aa 65 3b a0 66 7c bd 28 d4 5b 3b
       0.08327256 0.0035043992 -0.06162131 0.0033543203
000210 19 61 13 3d 3e 76 8a 3b e2 32 2d 3c 08 51 8e 3b
       0.03598127 0.0042255213 0.010571213 0.004343156
000220 ab 50 c6 bd 57 33 9a 3d 40 f1 ba 3d 5b 9e e7 bb
       -0.09683355 0.075293235 0.09128046 -0.007068438
000230 ac b0 8f bc 8e 65 ee b8 0e b7 86 3c cd 7a 3c 3a
       -0.017540298 -0.000113676404 0.01644471 0.00071899296
000240 1c f9 d1 3a 39 85 54 3c a1 25 dc bb e2 c2 4f 3b
       0.0016019675 0.012971216 -0.006718353 0.0031701853
000250 c7 f0 a0 bc 61 b8 70 3b ee 99 50 bb 06 3e 92 3c
       -0.019646062 0.0036730992 -0.003183003 0.01785184
000260 23 13 45 3a 4c 59 5d 3c 16 e6 f3 3b 55 ce 85 bb
       0.0007517805 0.01351006 0.0074432 -0.0040834346
000270 28 60 5d 3d 60 82 eb bc e3 08 f3 3d 15 8a 05 3b
       0.05404678 -0.028748691 0.118669294 0.0020376493
000280 07 1b b2 bd df 0c 1a 3b ac 3e b4 3a 5e 8e 1a bc
       -0.08696561 0.0023506207 0.0013751588 -0.009433357
000290 14 b4 c0 3d 28 8a 09 3c 67 93 82 bd 4c b2 9f 3d
       0.09409347 0.008394755 -0.06375771 0.07797679
0002a0 7b 77 ac 3b 9e 9e 56 bd 75 7f fe 3d c6 4e 8e 3b
       0.0052632666 -0.052397363 0.12426654 0.0043428866
0002b0 91 d5 5a bd 26 28 07 bc 3d 29 98 3b 8c c7 37 3b
       -0.05342633 -0.008249318 0.004643588 0.0028042523
0002c0 3d 32 8c bd 51 d8 0d 3b a1 21 04 bc e0 06 75 bc
       -0.0684552 0.0021643827 -0.008064658 -0.014955252
0002d0 58 d8 01 3d d5 e8 34 3b 91 89 23 3b cb 1a 5f bd
       0.031700462 0.00276046 0.0024953822 -0.05446891
0002e0 e1 c0 2f bb 95 c1 58 3b e9 31 d4 3d c2 6d 21 bc
       -0.0026817846 0.0033074368 0.10361082 -0.009852828
0002f0 75 93 9c 3d 93 df 5a 3c 0f 26 51 3d d2 21 19 3b
       0.07645313 0.013358968 0.051061686 0.0023366106
000300 d5 5a 39 bd 35 03 b1 3b ec bb b5 bc db 57 d0 ba
       -0.04525264 0.0054019936 -0.022184335 -0.0015895324
000310 ad 50 f7 3c 12 83 aa bb 12 bf 95 3c a9 d7 3a bb
       0.030189836 -0.005203613 0.018279586 -0.002850989
000320 e6 1b 7b bd f4 53 bf 3c 83 65 aa 3d fe ae 2d 3c
       -0.061305903 0.023355462 0.08320143 0.010600803
000330 70 7c 9b 3d 13 2e 96 bb 75 b3 43 3d dd 44 17 3a
       0.07592094 -0.004583129 0.047778565 0.00057704543
000340 ce 7e 30 3c e0 9d ae 3c d3 9f 0a 3c 67 20 a0 bb
       0.01077242 0.021315515 0.008460957 -0.004886675
000350 79 cc 31 bc 60 ee 8b ba 4d 6e 05 3b 57 81 a6 bd
       -0.010851973 -0.00106759 0.0020359934 -0.08130138
000360 0d 2d bb bb 6e 64 ac bd cb ec 97 3d 7a a5 b9 bc
       -0.0057121576 -0.08417593 0.074182115 -0.022661913
000370 30 a1 a9 3d 6a 6f a8 3d 87 c1 8b bd 76 f1 94 bc
       0.08282697 0.082243755 -0.06824022 -0.018181544
000380 97 b1 cc bd 64 ce af ba 74 ae 8f 3c 9d 29 15 3b
       -0.0999481 -0.001341295 0.01753924 0.00227604
000390 64 36 09 3e c3 9c 9a bc e1 48 78 bd 88 92 a2 3c
       0.13399655 -0.018873578 -0.060616378 0.019845262
0003a0 56 3d a8 3b f5 20 08 3d a5 ea a0 3d ba cd 57 bb
       0.005134265 0.033234555 0.07857255 -0.003292902
0003b0 e6 59 02 3d 72 1a e3 ba 28 95 31 3a f9 29 08 bc
       0.031824015 -0.0017326607 0.000677424 -0.008310788
0003c0 9b f9 7f bd 4f 09 62 bd 59 0b 4f bb 93 1f bc 39
       -0.0624939 -0.05518466 -0.0031592457 0.0003588168
0003d0 a6 f1 e5 3d 49 a2 6d 3b cd 52 37 ba 9d e7 59 3d
       0.112277314 0.003626006 -0.0006993234 0.0531994
0003e0 b7 41 5b 3d c9 93 53 3b 82 26 08 3e f3 d4 3c bc
       0.053529467 0.0032284132 0.1329594 -0.01152538
0003f0 6b 86 f4 bc 78 b2 bc 3c 53 ca 90 bd 66 c9 5b ba
       -0.029849252 0.02303432 -0.0706984 -0.0008384198

flows.0.mprqat.autoregressive_net.blocks.0.linear_layers.0.bias f4 [64]
000000 4b 3c 5a bb b1 7b 18 3e 76 85 73 3d ab c2 ad 3d
       -0.0033300098 0.14890935 0.05945345 0.084843956
000010 72 c7 ce 3d 02 c4 fd 3d a6 bf 19 3e e0 5e 05 80
       0.10096635 0.12390901 0.15014514 -4.93212e-40
000020 76 0a 1d 3e 9e d4 04 3e 1e 87 aa 3d 90 af 0f 3e
       0.15336022 0.12971732 0.08326553 0.14031816
000030 e6 20 e9 3d ba 57 05 80 fc 41 15 3e b8 7a d8 3d
       0.11383228 -4.90648e-40 0.14575952 0.10570282
000040 f7 ad bc 3d 2d 34 c9 3d af 42 25 3e 6d dd b8 3d
       0.09212869 0.09824405 0.16138719 0.090266086
000050 64 7f b5 3d 97 0a f5 3d 31 9b b9 3c 0b 56 93 bd
       0.088621885 0.119649105 0.022657009 -0.07194146
000060 62 e2 d1 3d 8b d4 e3 3d af e4 13 3e 70 e9 3f 3e
       0.10248257 0.11124524 0.14442705 0.18741393
000070 c2 86 c2 3d 6f f8 20 3e fa 51 d7 3d 85 81 08 3e
       0.09498359 0.1571977 0.10513683 0.13330658
000080 71 3d c5 bc 90 64 19 3e 80 e1 46 3e ca 2f 11 3e
       -0.02407715 0.14979768 0.19421959 0.14178386
000090 fb e6 2b 3e ac 34 31 3e 45 44 ef 3d 80 88 59 3e
       0.16787331 0.17305249 0.11682943 0.21243477
0000a0 f9 47 c1 3d 22 ad 39 3e 3b bf db 3d 05 bf 51 3e
       0.09437556 0.18132451 0.10729834 0.20483024
0000b0 d7 f3 f1 3d 45 86 00 3e e8 30 c7 3d 62 26 0a 3e
       0.11814087 0.1255122 0.09726125 0.13491204
0000c0 10 3f 25 3e b4 cd 1d 3e 44 d3 30 3e 5c dc 06 3e
       0.16137338 0.15410501 0.17268091 0.13169998
0000d0 92 0d 4c 3e bb b2 e4 3d f5 f6 38 3e bc ad c8 3d
       0.19927052 0.11166903 0.18062957 0.09798762
0000e0 b7 3a 6a 3e 19 59 5d 3e 75 5e fd 3d f6 37 cd 3d
       0.2287396 0.2161602 0.12371532 0.10020439
0000f0 5e e7 09 3e 9d 29 bb 3d 65 bf f4 3d 94 90 31 bd
       0.13467166 0.091387965 0.11950568 -0.04335077

flows.0.mprqat.autoregressive_net.blocks.0.linear_layers.0.mask f4 [64, 64]
000000 00 00 80 3f 00 00 80 3f 00 00 80 3f 00 00 80 3f
       1.0 1.0 1.0 1.0
000010 00 00 80 3f 00 00 80 3f 00 00 80 3f 00 00 80 3f
       1.0 1.0 1.0 1.0
000020 00 00 80 3f 00 00 80 3f 00 00 80 3f 00 00 80 3f
       1.0 1.0 1.0 1.0
000030 00 00 80 3f 00 00 80 3f 00 00 80 3f 00 00 80 3f
       1.0 1.0 1.0 1.0
000040 00 00 80 3f 00 00 80 3f 00 00 80 3f 00 00 80 3f
       1.0 1.0 1.0 1.0
000050 00 00 80 3f 00 00 80 3f 00 00 80 3f 00 00 80 3f
       1.0 1.0 1.0 1.0
000060 00 00 80 3f 00 00 80 3f 00 00 80 3f 00 00 80 3f
       1.0 1.0 1.0 1.0
000070 00 00 80 3f 00 00 80 3f 00 00 80 3f 00 00 80 3f
       1.0 1.0 1.0 1.0
000080 00 00 80 3f 00 00 80 3f 00 00 80 3f 00 00 80 3f
       1.0 1.0 1.0 1.0
000090 00 00 80 3f 00 00 80 3f 00 00 80 3f 00 00 80 3f
       1.0 1.0 1.0 1.0
0000a0 00 00 80 3f 00 00 80 3f 00 00 80 3f 00 00 80 3f
       1.0 1.0 1.0 1.0
0000b0 00 00 80 3f 00 00 80 3f 00 00 80 3f 00 00 80 3f
       1.0 1.0 1.0 1.0
0000c0 00 00 80 3f 00 00 80 3f 00 00 80 3f 00 00 80 3f
       1.0 1.0 1.0 1.0
0000d0 00 00 80 3f 00 00 80 3f 00 00 80 3f 00 00 80 3f
       1.0 1.0 1.0 1.0
0000e0 00 00 80 3f 00 00 80 3f 00 00 80 3f 00 00 80 3f
       1.0 1.0 1.0 1.0
0000f0 00 00 80 3f 00 00 80 3f 00 00 80 3f 00 00 80 3f
       1.0 1.0 1.0 1.0
000100 00 00 80 3f 00 00 80 3f 00 00 80 3f 00 00 80 3f
       1.0 1.0 1.0 1.0
000110 00 00 80 3f 00 00 80 3f 00 00 80 3f 00 00 80 3f
       1.0 1.0 1.0 1.0
000120 00 00 80 3f 00 00 80 3f 00 00 80 3f 00 00 80 3f
       1.0 1.0 1.0 1.0
000130 00 00 80 3f 00 00 80 3f 00 00 80 3f 00 00 80 3f
       1.0 1.0 1.0 1.0
000140 00 00 80 3f 00 00 80 3f 00 00 80 3f 00 00 80 3f
       1.0 1.0 1.0 1.0
000150 00 00 80 3f 00 00 80 3f 00 00 80 3f 00 00 80 3f
       1.0 1.0 1.0 1.0
000160 00 00 80 3f 00 00 80 3f 00 00 80 3f 00 00 80 3f
       1.0 1.0 1.0 1.0
000170 00 00 80 3f 00 00 80 3f 00 00 80 3f 00 00 80 3f
       1.0 1.0 1.0 1.0
000180 00 00 80 3f 00 00 80 3f 00 00 80 3f 00 00 80 3f
       1.0 1.0 1.0 1.0
000190 00 00 80 3f 00 00 80 3f 00 00 80 3f 00 00 80 3f
       1.0 1.0 1.0 1.0
0001a0 00 00 80 3f 00 00 80 3f 00 00 80 3f 00 00 80 3f
       1.0 1.0 1.0 1.0
0001b0 00 00 80 3f 00 00 80 3f 00 00 80 3f 00 00 80 3f
       1.0 1.0 1.0 1.0
0001c0 00 00 80 3f 00 00 80 3f 00 00 80 3f 00 00 80 3f
       1.0 1.0 1.0 1.0
0001d0 00 00 80 3f 00 00 80 3f 00 00 80 3f 00 00 80 3f
       1.0 1.0 1.0 1.0
0001e0 00 00 80 3f 00 00 80 3f 00 00 80 3f 00 00 80 3f
       1.0 1.0 1.0 1.0
0001f0 00 00 80 3f 00 00 80 3f 00 00 80 3f 00 00 80 3f
       1.0 1.0 1.0 1.0
000200 00 00 80 3f 00 00 80 3f 00 00 80 3f 00 00 80 3f
       1.0 1.0 1.0 1.0
000210 00 00 80 3f 00 00 80 3f 00 00 80 3f 00 00 80 3f
       1.0 1.0 1.0 1.0
000220 00 00 80 3f 00 00 80 3f 00 00 80 3f 00 00 80 3f
       1.0 1.0 1.0 1.0
000230 00 00 80 3f 00 00 80 3f 00 00 80 3f 00 00 80 3f
       1.0 1.0 1.0 1.0
000240 00 00 80 3f 00 00 80 3f 00 00 80 3f 00 00 80 3f
       1.0 1.0 1.0 1.0
000250 00 00 80 3f 00 00 80 3f 00 00 80 3f 00 00 80 3f
       1.0 1.0 1.0 1.0
000260 00 00 80 3f 00 00 80 3f 00 00 80 3f 00 00 80 3f
       1.0 1.0 1.0 1.0
000270 00 00 80 3f 00 00 80 3f 00 00 80 3f 00 00 80 3f
       1.0 1.0 1.0 1.0
000280 00 00 80 3f 00 00 80 3f 00 00 80 3f 00 00 80 3f
       1.0 1.0 1.0 1.0
000290 00 00 80 3f 00 00 80 3f 00 00 80 3f 00 00 80 3f
       1.0 1.0 1.0 1.0
0002a0 00 00 80 3f 00 00 80 3f 00 00 80 3f 00 00 80 3f
       1.0 1.0 1.0 1.0
0002b0 00 00 80 3f 00 00 80 3f 00 00 80 3f 00 00 80 3f
       1.0 1.0 1.0 1.0
0002c0 00 00 80 3f 00 00 80 3f 00 00 80 3f 00 00 80 3f
       1.0 1.0 1.0 1.0
0002d0 00 00 80 3f 00 00 80 3f 00 00 80 3f 00 00 80 3f
       1.0 1.0 1.0 1.0
0002e0 00 00 80 3f 00 00 80 3f 00 00 80 3f 00 00 80 3f
       1.0 1.0 1.0 1.0
0002f0 00 00 80 3f 00 00 80 3f 00 00 80 3f 00 00 80 3f
       1.0 1.0 1.0 1.0
000300 00 00 80 3f 00 00 80 3f 00 00 80 3f 00 00 80 3f
       1.0 1.0 1.0 1.0
000310 00 00 80 3f 00 00 80 3f 00 00 80 3f 00 00 80 3f
       1.0 1.0 1.0 1.0
000320 00 00 80 3f 00 00 80 3f 00 00 80 3f 00 00 80 3f
       1.0 1.0 1.0 1.0
000330 00 00 80 3f 00 00 80 3f 00 00 80 3f 00 00 80 3f
       1.0 1.0 1.0 1.0
000340 00 00 80 3f 00 00 80 3f 00 00 80 3f 00 00 80 3f
       1.0 1.0 1.0 1.0
000350 00 00 80 3f 00 00 80 3f 00 00 80 3f 00 00 80 3f
       1.0 1.0 1.0 1.0
000360 00 00 80 3f 00 00 80 3f 00 00 80 3f 00 00 80 3f
       1.0 1.0 1.0 1.0
000370 00 00 80 3f 00 00 80 3f 00 00 80 3f 00 00 80 3f
       1.0 1.0 1.0 1.0
000380 00 00 80 3f 00 00 80 3f 00 00 80 3f 00 00 80 3f
       1.0 1.0 1.0 1.0
000390 00 00 80 3f 00 00 80 3f 00 00 80 3f 00 00 80 3f
       1.0 1.0 1.0 1.0
0003a0 00 00 80 3f 00 00 80 3f 00 00 80 3f 00 00 80 3f
       1.0 1.0 1.0 1.0
0003b0 00 00 80 3f 00 00 80 3f 00 00 80 3f 00 00 80 3f
       1.0 1.0 1.0 1.0
0003c0 00 00 80 3f 00 00 80 3f 00 00 80 3f 00 00 80 3f
       1.0 1.0 1.0 1.0
0003d0 00 00 80 3f 00 00 80 3f 00 00 80 3f 00 00 80 3f
       1.0 1.0 1.0 1.0
0003e0 00 00 80 3f 00 00 80 3f 00 00 80 3f 00 00 80 3f
       1.0 1.0 1.0 1.0
0003f0 00 00 80 3f 00 00 80 3f 00 00 80 3f 00 00 80 3f
       1.0 1.0 1.0 1.0

flows.0.mprqat.autoregressive_net.blocks.0.linear_layers.1.weight f4 [64, 64]
000000 17 01 48 bb 00 b0 b8 3b 7d d7 65 3a 3a 8b 90 bb
       -0.0030518228 0.005636215 0.0008767767 -0.0044111283
000010 fa 60 f7 3a 9f ff 12 38 82 7f 76 ba 60 5a 05 00
       0.0018873506 3.504718e-05 -0.00094031554 4.91598e-40
000020 0b f2 c7 ba 5c ea de 39 dc 5c c8 bb e5 8d 8c ba
       -0.001525463 0.0004251775 -0.0061145853 -0.001072344
000030 2a 21 5a bb ae 5e 05 00 52 61 b0 3a ba a8 b9 3b
       -0.0033283927 4.93142e-40 0.0013456738 0.0056658657
000040 52 3c 40 bb 9b 98 34 39 64 19 57 3d a0 e2 6f bb
       -0.0029332829 0.00017222988 0.05251445 -0.0036603585
000050 32 2e 9b ba a6 b3 26 3a 0f f6 5f bb 71 8d c4 bb
       -0.0011839329 0.0006359167 -0.0034173762 -0.0059983064
000060 90 df fc ba 7a 5c eb 39 69 cf 02 3a 25 ce 92 3c
       -0.0019292701 0.00044891593 0.0004990013 0.017920563
000070 fe a8 20 3b 47 9a b6 ba 62 ba ba bb 67 63 e8 ba
       0.002451479 -0.0013931476 -0.005698488 -0.001772982
000080 0b 19 d4 bb 52 9a cb ba 1b 36 f2 3c f8 b9 3f bb
       -0.006472712 -0.0015533662 0.029566815 -0.0029255133
000090 e2 76 2b bb 6e 6c 65 3d 2c ee 00 3b df 8a 9d 3d
       -0.002616339 0.05601161 0.0019673212 0.07692503
0000a0 d5 23 8c ba 9a eb 1b 3d 96 f0 07 bc 59 fc 91 3d
       -0.0010691831 0.038066484 -0.008297106 0.071282096
0000b0 0a e0 f5 bb e9 99 5e bb 5f cb dd ba 9a 54 d6 3c
       -0.007503514 -0.003396625 -0.0016921571 0.026163388
0000c0 24 45 08 3d 7f 7a e1 3a 4d 13 f4 bb 80 89 2e bc
       0.033269063 0.0017202644 -0.00744859 -0.0106529
0000d0 70 3b 2d 3d c9 ea 74 ba e0 e5 28 3d a0 14 36 ba
       0.042293012 -0.0009342847 0.04123485 -0.00069458224
0000e0 45 80 0e 3d 9b 76 2d 3d 3c bd 22 bb d4 f0 e4 ba
       0.034790296 0.04234944 -0.002483203 -0.0017466792
0000f0 30 77 24 bc 4d a3 0b bb ef 6e 92 ba 6d 58 80 bb
       -0.010038182 -0.0021307052 -0.0011171977 -0.003916791
000100 bd 03 30 bc ee f5 90 bc a3 fb 8a 3d 1b d4 95 bc
       -0.010743079 -0.017695393 0.06786277 -0.018289616
000110 f5 45 72 bc fb 12 a1 bc 08 1a a8 bc d0 59 05 00
       -0.014787187 -0.01966237 -0.020520225 4.91396e-40
000120 b2 36 c1 bb 00 75 a4 bc 77 dc 1a bc 5f c6 95 bc
       -0.005896413 -0.020075321 -0.009451977 -0.018283067
000130 db 4e 9e bc fd 5b 05 80 f8 9f 87 3c 06 5c e1 bb
       -0.01932471 -4.92177e-40 0.016555771 -0.006877425
000140 de fc 25 bc e2 60 8c bc ca 6d 69 bc 28 c8 66 bc
       -0.010131089 -0.017136041 -0.014247367 -0.014085807
000150 b2 0b 67 bc e9 04 22 bc 5b d0 62 b9 ea 25 32 bc
       -0.0141019095 -0.009888866 -0.00021630658 -0.010873297
000160 50 86 87 bc 46 53 5c bc 44 d6 67 bc 81 42 17 bc
       -0.016543537 -0.013447588 -0.014150206 -0.009232164
000170 7a 7c 20 bc b9 c5 0e bc da 48 10 bc 7c 71 ab bc
       -0.0097953025 -0.008714133 -0.008806432 -0.020928137
000180 b9 03 2e bc 02 c4 69 bc 4c 34 ac bb 03 e7 ab bc
       -0.010621005 -0.014267923 -0.0052552577 -0.020984178
000190 c2 76 8a bc f7 79 6b bc 92 ea f3 3b 4e 0c 85 bc
       -0.016902331 -0.01437234 0.0074437344 -0.016241219
0001a0 b6 86 b7 bc b8 bd 29 bc 9f e8 ff bb a9 74 9d bc
       -0.022403102 -0.010360174 -0.007809713 -0.019220667
0001b0 ac 44 dd bb 0b 84 26 bc ed 8a 86 bc 69 39 39 bc
       -0.006752571 -0.010163317 -0.016423667 -0.011305192
0001c0 0b d8 15 bc 4a 23 4b bc 49 0e e5 bb cb b7 93 bb
       -0.009145747 -0.01239855 -0.0069902283 -0.004507994
0001d0 ef 3d 38 bc a1 38 0a bc 5f 0e c2 bb 0f 03 7e bc
       -0.011245235 -0.008436353 -0.0059221233 -0.015503659
0001e0 20 e0 56 bc 16 85 31 bc 47 77 9f bb 7e b2 75 bc
       -0.013114959 -0.010834953 -0.004866514 -0.014996169
0001f0 73 ca 3a bc aa 2e 22 3d ab 18 08 bc 39 bc 78 bc
       -0.011400807 0.039595284 -0.008306663 -0.0151815945
000200 97 be 0a bd 62 47 a0 3b 4a ce fa 3a fc 3a 43 bc
       -0.033873167 0.004891322 0.0019134965 -0.011915918
000210 b6 45 a7 3a 7f d0 71 ba 7c e3 7c 3a 20 5a 05 00
       0.0012761864 -0.0009224489 0.0009646935 4.91508e-40
000220 f2 99 06 bb 29 e9 08 ba fc 6e 26 bc 89 89 81 37
       -0.0020538536 -0.0005222732 -0.010158297 1.5442043e-05
000230 79 3b b9 38 f9 5e 05 80 37 f3 01 3b 2b 9f 77 bc
       8.832565e-05 -4.93247e-40 0.0019828805 -0.015113632
000240 36 83 a8 ba 8f e4 b4 3a 90 3b 83 3c d9 a3 59 bb
       -0.0012856487 0.0013801026 0.016019613 -0.0033209233
000250 fe 85 f1 b9 a2 3f fd bc e4 c0 70 bb 3c cb 76 bc
       -0.00046066934 -0.030914132 -0.0036736066 -0.015063103
000260 e1 35 73 ba b7 45 df b9 6e 0f 19 3a 7f 9a 65 bc
       -0.0009277743 -0.00042585816 0.0005838786 -0.0140138855
000270 53 18 9f 3c 75 a7 b2 b9 90 0d 0e bc 76 7b ca ba
       0.019420778 -0.0003407557 -0.008670226 -0.0015448171
000280 76 db f8 bc 1d dd 98 bc f6 fc a3 bb b6 40 93 ba
       -0.030378085 -0.018660123 -0.0050045205 -0.0011234495
000290 89 19 41 bb 5d e5 74 3c 04 cf 3f b9 67 13 5a 3c
       -0.0029464683 0.014947263 -0.00018292299 0.01331029
0002a0 1f de 02 bb 9d da ce 3c a8 01 f8 bc d4 5d b3 3c
       -0.001996882 0.025250727 -0.030274227 0.021895327
0002b0 d4 cf 44 bc 4a 99 4a bb f0 73 38 bb 62 0d 6b 3c
       -0.012012441 -0.0030914121 -0.0028145276 0.014346452
0002c0 65 0c 8d bc d6 ad 1a 3b 27 4e d6 bb 82 53 6c bc
       -0.017217824 0.002360215 -0.006540078 -0.014424207
0002d0 b6 c6 98 bb f6 00 2d bc 94 41 b9 3c c9 76 c1 ba
       -0.00466236 -0.010559311 0.022614278 -0.0014760132
0002e0 d2 d2 44 3c 5a e6 fe bb 76 dc 29 bb f7 4e df b9
       0.012013154 -0.007778925 -0.0025918758 -0.00042592708
0002f0 b4 23 67 bc 15 4d b9 ba 8d 77 dd bc 7b 01 f6 bc
       -0.014107633 -0.0014137352 -0.027034545 -0.030030003
000300 85 f9 05 bd f1 5e 51 bc 24 dc 51 bc b0 87 c6 3c
       -0.032708663 -0.012778983 -0.012808833 0.024234623
000310 3a c0 d3 bc df d3 d0 bc a5 f0 8b 3c f0 59 05 80
       -0.025848497 -0.025491653 0.017082522 -4.91441e-40
000320 2c db 07 3d 4c e2 d2 bc 1f c2 70 bc 68 9d 95 bc
       0.033168003 -0.025742672 -0.01469472 -0.018263534
000330 d9 f6 cf bc c1 5d 05 00 d5 cc 19 bc 82 a8 75 bc
       -0.02538626 4.9281e-40 -0.009387215 -0.014993789
000340 2a 56 84 bc 61 40 ed bc af eb cb 3b 60 04 8d bc
       -0.016154367 -0.028961362 0.006223164 -0.017214
000350 e5 ea 4a bc 27 da 85 bc b2 d0 bc 3b ae 30 18 bd
       -0.012385105 -0.016339375 0.005762183 -0.0371558
000360 5a b2 c0 bc 43 c1 47 bc 46 29 8d bc fd a6 81 bc
       -0.023522545 -0.012192073 -0.017231595 -0.015826697
000370 53 12 2a bd 4e 9f ae 3c 3a 7e 5e bc d0 da bd bc
       -0.04152138 0.021316197 -0.013579899 -0.023175627
000380 a8 1e 06 bd 11 2e c0 bc e1 1e 45 bc 44 34 cf bc
       -0.03274408 -0.023459466 -0.012031288 -0.025293477
000390 6d 25 cd 3c 47 2b 16 b9 5c cb e6 3b c9 c0 aa 39
       0.02504226 -0.00014321237 0.0070432853 0.00032568563
0003a0 85 af dd 3a e1 e5 35 3b 95 56 97 bc ba 80 06 bc
       0.0016913271 0.0027755427 -0.018473903 -0.008209402
0003b0 58 aa 0c 3d db 02 44 3b ef 89 b5 bc 21 88 50 bc
       0.03434214 0.0029908929 -0.022160498 -0.012727768
0003c0 3e c6 5e bc 93 ca 3c bc dd 51 52 bc b5 52 4c 3d
       -0.013597069 -0.011522907 -0.012836901 0.049883563
0003d0 58 c2 7f bc bb 45 82 bc 57 45 d4 bc 29 18 7e bc
       -0.0156103 -0.01590239 -0.02591197 -0.01550869
0003e0 59 a4 56 3c 5a 8c 5a bc 5e 36 03 3d 57 e2 9f bc
       0.013100707 -0.0133391265 0.03203427 -0.019517107
0003f0 b0 11 15 bc bc c4 10 3d 99 0f 77 bc e1 00 15 bd
       -0.009098455 0.03534387 -0.015079402 -0.03637779

flows.0.mprqat.autoregressive_net.blocks.0.linear_layers.1.bias f4 [64]
000000 b4 d7 11 3e 09 75 66 3c 8e 0a 04 3d ae ac 5a 3d
       0.1424244 0.014065989 0.03223663 0.053387336
000010 34 60 02 3e e6 65 0f 3d 63 89 26 3e 7d cf 92 3d
       0.12732011 0.035009287 0.16263346 0.071684815
000020 9c 4f 73 3d c3 1a a4 3c cc 58 17 3e 4e 95 03 3e
       0.059402093 0.020032292 0.14779967 0.12849924
000030 83 3e 90 bd db 32 80 3b 15 de e5 3d 6c 1e 40 3d
       -0.07043173 0.0039123124 0.112239994 0.046904013
000040 64 27 ac 3d 51 29 b6 3d 50 19 31 3b 47 11 74 3d
       0.08405951 0.08894599 0.0027023144 0.05958679
000050 9a b8 b3 bb c6 f2 3c 3d c4 78 69 3d be 9b d8 3d
       -0.0054846527 0.046129964 0.056999937 0.105765805
000060 20 a7 0f bd 7c 6a e4 3d de 00 9f 3d b5 24 49 bc
       -0.035071492 0.11153123 0.07763837 -0.012276818
000070 39 00 61 3e ba 79 0b 3d 21 ab 90 3d ed b5 9d bd
       0.21972741 0.034051634 0.0706389 -0.07700715
000080 c9 05 0d 3e 49 a8 9f bc 0c 1a db bd 41 a8 7b bc
       0.13771738 -0.019489424 -0.106983274 -0.015359939
000090 77 58 ba 3d 7a c5 d2 3d 85 54 01 3e df ea c6 3d
       0.090989046 0.10291572 0.12629898 0.09712767
0000a0 7e 5d e9 3b 7b 25 21 3e 80 71 71 3d ca 4f 52 3d
       0.007121741 0.15736954 0.058946133 0.051345624
0000b0 4f c4 ad 3d 4b 71 74 bd be cb 9f 3d fd 3d c8 3d
       0.084847085 -0.059678357 0.078025326 0.09777448
0000c0 74 a9 9a 3d eb 4a 07 3e 01 a6 82 3d 1b 15 b2 3c
       0.07551852 0.13212173 0.06379319 0.02173858
0000d0 70 b8 74 3d 43 14 88 3c 1c f5 96 3d 41 44 03 3e
       0.059746206 0.016611224 0.0737097 0.12819006
0000e0 eb 93 88 3c c2 ea 93 bd e1 18 9e 3d 34 24 cc 3c
       0.016672095 -0.07222511 0.07719589 0.024919607
0000f0 28 50 22 3e eb cc b9 3d 4a ca 2b 3d 85 ae bf bd
       0.1585089 0.09072288 0.041940965 -0.09359459

flows.0.mprqat.autoregressive_net.blocks.0.linear_layers.1.mask f4 [64, 64]
000000 00 00 80 3f 00 00 80 3f 00 00 80 3f 00 00 80 3f
       1.0 1.0 1.0 1.0
000010 00 00 80 3f 00 00 80 3f 00 00 80 3f 00 00 80 3f
       1.0 1.0 1.0 1.0
000020 00 00 80 3f 00 00 80 3f 00 00 80 3f 00 00 80 3f
       1.0 1.0 1.0 1.0
000030 00 00 80 3f 00 00 80 3f 00 00 80 3f 00 00 80 3f
       1.0 1.0 1.0 1.0
000040 00 00 80 3f 00 00 80 3f 00 00 80 3f 00 00 80 3f
       1.0 1.0 1.0 1.0
000050 00 00 80 3f 00 00 80 3f 00 00 80 3f 00 00 80 3f
       1.0 1.0 1.0 1.0
000060 00 00 80 3f 00 00 80 3f 00 00 80 3f 00 00 80 3f
       1.0 1.0 1.0 1.0
000070 00 00 80 3f 00 00 80 3f 00 00 80 3f 00 00 80 3f
       1.0 1.0 1.0 1.0
000080 00 00 80 3f 00 00 80 3f 00 00 80 3f 00 00 80 3f
       1.0 1.0 1.0 1.0
000090 00 00 80 3f 00 00 80 3f 00 00 80 3f 00 00 80 3f
       1.0 1.0 1.0 1.0
0000a0 00 00 80 3f 00 00 80 3f 00 00 80 3f 00 00 80 3f
       1.0 1.0 1.0 1.0
0000b0 00 00 80 3f 00 00 80 3f 00 00 80 3f 00 00 80 3f
       1.0 1.0 1.0 1.0
0000c0 00 00 80 3f 00 00 80 3f 00 00 80 3f 00 00 80 3f
       1.0 1.0 1.0 1.0
0000d0 00 00 80 3f 00 00 80 3f 00 00 80 3f 00 00 80 3f
       1.0 1.0 1.0 1.0
0000e0 00 00 80 3f 00 00 80 3f 00 00 80 3f 00 00 80 3f
       1.0 1.0 1.0 1.0
0000f0 00 00 80 3f 00 00 80 3f 00 00 80 3f 00 00 80 3f
       1.0 1.0 1.0 1.0
000100 00 00 80 3f 00 00 80 3f 00 00 80 3f 00 00 80 3f
       1.0 1.0 1.0 1.0
000110 00 00 80 3f 00 00 80 3f 00 00 80 3f 00 00 80 3f
       1.0 1.0 1.0 1.0
000120 00 00 80 3f 00 00 80 3f 00 00 80 3f 00 00 80 3f
       1.0 1.0 1.0 1.0
000130 00 00 80 3f 00 00 80 3f 00 00 80 3f 00 00 80 3f
       1.0 1.0 1.0 1.0
000140 00 00 80 3f 00 00 80 3f 00 00 80 3f 00 00 80 3f
       1.0 1.0 1.0 1.0
000150 00 00 80 3f 00 00 80 3f 00 00 80 3f 00 00 80 3f
       1.0 1.0 1.0 1.0
000160 00 00 80 3f 00 00 80 3f 00 00 80 3f 00 00 80 3f
       1.0 1.0 1.0 1.0
000170 00 00 80 3f 00 00 80 3f 00 00 80 3f 00 00 80 3f
       1.0 1.0 1.0 1.0
000180 00 00 80 3f 00 00 80 3f 00 00 80 3f 00 00 80 3f
       1.0 1.0 1.0 1.0
000190 00 00 80 3f 00 00 80 3f 00 00 80 3f 00 00 80 3f
       1.0 1.0 1.0 1.0
0001a0 00 00 80 3f 00 00 80 3f 00 00 80 3f 00 00 80 3f
       1.0 1.0 1.0 1.0
0001b0 00 00 80 3f 00 00 80 3f 00 00 80 3f 00 00 80 3f
       1.0 1.0 1.0 1.0
0001c0 00 00 80 3f 00 00 80 3f 00 00 80 3f 00 00 80 3f
       1.0 1.0 1.0 1.0
0001d0 00 00 80 3f 00 00 80 3f 00 00 80 3f 00 00 80 3f
       1.0 1.0 1.0 1.0
0001e0 00 00 80 3f 00 00 80 3f 00 00 80 3f 00 00 80 3f
       1.0 1.0 1.0 1.0
0001f0 00 00 80 3f 00 00 80 3f 00 00 80 3f 00 00 80 3f
       1.0 1.0 1.0 1.0
000200 00 00 80 3f 00 00 80 3f 00 00 80 3f 00 00 80 3f
       1.0 1.0 1.0 1.0
000210 00 00 80 3f 00 00 80 3f 00 00 80 3f 00 00 80 3f
       1.0 1.0 1.0 1.0
000220 00 00 80 3f 00 00 80 3f 00 00 80 3f 00 00 80 3f
       1.0 1.0 1.0 1.0
000230 00 00 80 3f 00 00 80 3f 00 00 80 3f 00 00 80 3f
       1.0 1.0 1.0 1.0
000240 00 00 80 3f 00 00 80 3f 00 00 80 3f 00 00 80 3f
       1.0 1.0 1.0 1.0
000250 00 00 80 3f 00 00 80 3f 00 00 80 3f 00 00 80 3f
       1.0 1.0 1.0 1.0
000260 00 00 80 3f 00 00 80 3f 00 00 80 3f 00 00 80 3f
       1.0 1.0 1.0 1.0
000270 00 00 80 3f 00 00 80 3f 00 00 80 3f 00 00 80 3f
       1.0 1.0 1.0 1.0
000280 00 00 80 3f 00 00 80 3f 00 00 80 3f 00 00 80 3f
       1.0 1.0 1.0 1.0
000290 00 00 80 3f 00 00 80 3f 00 00 80 3f 00 00 80 3f
       1.0 1.0 1.0 1.0
0002a0 00 00 80 3f 00 00 80 3f 00 00 80 3f 00 00 80 3f
       1.0 1.0 1.0 1.0
0002b0 00 00 80 3f 00 00 80 3f 00 00 80 3f 00 00 80 3f
       1.0 1.0 1.0 1.0
0002c0 00 00 80 3f 00 00 80 3f 00 00 80 3f 00 00 80 3f
       1.0 1.0 1.0 1.0
0002d0 00 00 80 3f 00 00 80 3f 00 00 80 3f 00 00 80 3f
       1.0 1.0 1.0 1.0
0002e0 00 00 80 3f 00 00 80 3f 00 00 80 3f 00 00 80 3f
       1.0 1.0 1.0 1.0
0002f0 00 00 80 3f 00 00 80 3f 00 00 80 3f 00 00 80 3f
       1.0 1.0 1.0 1.0
000300 00 00 80 3f 00 00 80 3f 00 00 80 3f 00 00 80 3f
       1.0 1.0 1.0 1.0
000310 00 00 80 3f 00 00 80 3f 00 00 80 3f 00 00 80 3f
       1.0 1.0 1.0 1.0
000320 00 00 80 3f 00 00 80 3f 00 00 80 3f 00 00 80 3f
       1.0 1.0 1.0 1.0
000330 00 00 80 3f 00 00 80 3f 00 00 80 3f 00 00 80 3f
       1.0 1.0 1.0 1.0
000340 00 00 80 3f 00 00 80 3f 00 00 80 3f 00 00 80 3f
       1.0 1.0 1.0 1.0
000350 00 00 80 3f 00 00 80 3f 00 00 80 3f 00 00 80 3f
       1.0 1.0 1.0 1.0
000360 00 00 80 3f 00 00 80 3f 00 00 80 3f 00 00 80 3f
       1.0 1.0 1.0 1.0
000370 00 00 80 3f 00 00 80 3f 00 00 80 3f 00 00 80 3f
       1.0 1.0 1.0 1.0
000380 00 00 80 3f 00 00 80 3f 00 00 80 3f 00 00 80 3f
       1.0 1.0 1.0 1.0
000390 00 00 80 3f 00 00 80 3f 00 00 80 3f 00 00 80 3f
       1.0 1.0 1.0 1.0
0003a0 00 00 80 3f 00 00 80 3f 00 00 80 3f 00 00 80 3f
       1.0 1.0 1.0 1.0
0003b0 00 00 80 3f 00 00 80 3f 00 00 80 3f 00 00 80 3f
       1.0 1.0 1.0 1.0
0003c0 00 00 80 3f 00 00 80 3f 00 00 80 3f 00 00 80 3f
       1.0 1.0 1.0 1.0
0003d0 00 00 80 3f 00 00 80 3f 00 00 80 3f 00 00 80 3f
       1.0 1.0 1.0 1.0
0003e0 00 00 80 3f 00 00 80 3f 00 00 80 3f 00 00 80 3f
       1.0 1.0 1.0 1.0
0003f0 00 00 80 3f 00 00 80 3f 00 00 80 3f 00 00 80 3f
       1.0 1.0 1.0 1.0
