macros/Timing_estimation/models/August_05/run_5_3context_1flows_8hl_64hu_2000bs_checkpoint_e0.pth (torch, 602511 bytes, 72 tensors)

flows.0.mprqat.autoregressive_net.initial_layer.weight f4 [64, 1]
000000 e3 dd 1d 3f 41 4b 15 3f bb 96 a1 ba 37 4b 1a be
       0.616667 0.58317953 -0.0012328246 -0.15067755
000010 d7 d7 12 3e f4 8e 42 3d 5d 15 45 bf a3 d2 bb 3e
       0.14340149 0.047499612 -0.7698572 0.3668414
000020 39 61 b3 be 54 d3 68 be fb be 19 3f ec ca 87 bd
       -0.35035113 -0.22736865 0.6005704 -0.06630501
000030 32 76 ca 3e 36 7c 09 be e4 4e 4b bf d7 ae 00 3e
       0.395433 -0.13426289 -0.7941725 0.12566696
000040 b6 6c 8f 3d 3f a6 b9 be 8a 84 4e bf 87 cd 05 bf
       0.07003157 -0.36259648 -0.8067099 -0.52266735
000050 bb a4 c2 bd c1 a3 61 bf d6 21 1e bf 5a f3 8b be
       -0.09504076 -0.88140494 -0.6177038 -0.273341
000060 7a d4 ff 3e 7f 58 4d 3f cb 79 eb 3d 2b e1 df be
       0.49966794 0.8021316 0.114978395 -0.43726477
000070 ed 78 a7 be e9 cd 25 bf 25 f9 83 bd 18 58 6d 3f
       -0.32709447 -0.6476732 -0.06444005 0.92712545
000080 2b ab 40 3f dc b2 c5 3d 32 cd 35 bf 2c cf bf 3e
       0.7526118 0.09653255 -0.7101623 0.37462747
000090 e1 99 2c bf 23 f4 57 bf e6 82 61 3f a7 de 11 bf
       -0.674223 -0.843569 0.8809036 -0.56980366
0000a0 93 ab 5e 3e 60 f1 4d bf ee d5 83 be 78 24 7d 3d
       0.21745138 -0.80446434 -0.25749153 0.061802357
0000b0 31 11 52 bf 0a 17 39 bf 68 b3 62 bf ec 48 68 bf
       -0.8205748 -0.7230078 -0.88555 -0.9073627
0000c0 0a 2f 4b 3e 33 ff 94 3d 94 ae 03 be 20 59 3b be
       0.19842163 0.07275238 -0.12859565 -0.18295717
0000d0 16 af e9 3e 11 75 63 bf d1 24 42 3f f6 31 1d bf
       0.45641392 -0.88850504 0.7583743 -0.6140436
0000e0 b0 37 27 3f c2 3a 72 bf 66 f2 23 bf 60 74 34 3f
       0.6531935 -0.9462091 -0.64041746 0.70490074
0000f0 80 60 cc be 20 07 4d bf 3d 43 1b bf 01 ab 20 bf
       -0.39917374 -0.80088997 -0.6064947 -0.6276093

flows.0.mprqat.autoregressive_net.initial_layer.bias f4 [64]
000000 33 19 a4 3c 14 9e 2c bd 06 1b 0f 3f b7 2c 86 bc
       0.020031547 -0.042142943 0.5590061 -0.016378744
000010 03 78 7e be 79 4c 3e 3e d3 ac 44 bf 35 95 e0 be
       -0.24850468 0.1858386 -0.7682621 -0.43863836
000020 d1 85 83 3e 89 82 ca 3e 0d 9f 6a 3f f1 4c 0b 3e
       0.2568803 0.39552715 0.9164894 0.1360357
000030 9b 4c 40 bf 86 fd 6f bf 0d 30 ad 3e cf b6 1f be
       -0.7511689 -0.9374622 0.33825722 -0.1559708
000040 9b 34 0c 3f 4f 8b 2f 3f f1 3f 60 3f e6 19 47 be
       0.5476777 0.68571943 0.87597567 -0.19443473
000050 b0 7b cc 3e f6 59 64 bf 1b e2 83 be 7a bb dd be
       0.39938116 -0.8919977 -0.25758442 -0.43307096
000060 0b a2 65 bf 7d bd 8f be a9 c7 53 3f 72 36 ce bd
       -0.8970038 -0.28074256 0.8272653 -0.10068978
000070 fd ca 62 3f 6b d5 35 bf a4 1f 05 be f5 eb 8c be
       0.88590986 -0.71028775 -0.13000351 -0.2752377
000080 3d 51 76 3e 6d e0 61 3f b0 06 74 bf c9 67 2d be
       0.24054427 0.8823307 -0.95322704 -0.16934122
000090 44 3c 01 3d db 42 e3 bd 34 c4 08 3e 2c ec e9 be
       0.031551614 -0.11096736 0.13356096 -0.45687997
0000a0 f1 db 85 3e 4f a5 8c 3e bc 5f e8 be 7d 5a e6 3e
       0.26144364 0.2746987 -0.4538554 0.44990912
0000b0 82 23 aa 3e 3b be ab be 85 c2 61 3f 3a 55 70 3f
       0.33230215 -0.33543572 0.8818744 0.93880045
0000c0 2d b9 4c bf 6f 1f 30 3e 87 87 ed be 91 ab 35 bf
       -0.79970056 0.17199491 -0.46392462 -0.70964915
0000d0 48 50 5f 3f d4 d0 35 3f cb de ec be 24 32 0e 3f
       0.87231874 0.7102177 -0.46263728 0.5554526
0000e0 da 44 58 be 00 e1 3d be b5 13 21 bf 02 b2 cf 3e
       -0.21120015 -0.18542862 -0.62920696 0.40565497
0000f0 75 be d8 3d 07 0d 2a 3f 17 6a 47 be ec e9 a6 be
       0.10583202 0.6642613 -0.19474064 -0.32600343

flows.0.mprqat.autoregressive_net.initial_layer.mask f4 [64, 1]
000000 00 00 00 00 00 00 00 00 00 00 00 00 00 00 00 00
       0.0 0.0 0.0 0.0
000010 00 00 00 00 00 00 00 00 00 00 00 00 00 00 00 00
       0.0 0.0 0.0 0.0
000020 00 00 00 00 00 00 00 00 00 00 00 00 00 00 00 00
       0.0 0.0 0.0 0.0
000030 00 00 00 00 00 00 00 00 00 00 00 00 00 00 00 00
       0.0 0.0 0.0 0.0
000040 00 00 00 00 00 00 00 00 00 00 00 00 00 00 00 00
       0.0 0.0 0.0 0.0
000050 00 00 00 00 00 00 00 00 00 00 00 00 00 00 00 00
       0.0 0.0 0.0 0.0
000060 00 00 00 00 00 00 00 00 00 00 00 00 00 00 00 00
       0.0 0.0 0.0 0.0
000070 00 00 00 00 00 00 00 00 00 00 00 00 00 00 00 00
       0.0 0.0 0.0 0.0
000080 00 00 00 00 00 00 00 00 00 00 00 00 00 00 00 00
       0.0 0.0 0.0 0.0
000090 00 00 00 00 00 00 00 00 00 00 00 00 00 00 00 00
       0.0 0.0 0.0 0.0
0000a0 00 00 00 00 00 00 00 00 00 00 00 00 00 00 00 00
       0.0 0.0 0.0 0.0
0000b0 00 00 00 00 00 00 00 00 00 00 00 00 00 00 00 00
       0.0 0.0 0.0 0.0
0000c0 00 00 00 00 00 00 00 00 00 00 00 00 00 00 00 00
       0.0 0.0 0.0 0.0
0000d0 00 00 00 00 00 00 00 00 00 00 00 00 00 00 00 00
       0.0 0.0 0.0 0.0
0000e0 00 00 00 00 00 00 00 00 00 00 00 00 00 00 00 00
       0.0 0.0 0.0 0.0
0000f0 00 00 00 00 00 00 00 00 00 00 00 00 00 00 00 00
       0.0 0.0 0.0 0.0

flows.0.mprqat.autoregressive_net.context_layer.weight f4 [64, 3]
000000 f7 da fa 3d 04 94 d0 3d 0e 2a ce 3e 69 ff 89 be
       0.122487955 0.10184482 0.4026646 -0.26952675
000010 76 e0 6f 3c 28 46 65 be 32 dc ae 3e 3c 9a 97 3e
       0.014640918 -0.22390044 0.3415237 0.2960986
000020 84 fd f9 be c9 db e8 be a3 f1 ec b9 0e 39 ba bd
       -0.4882623 -0.45480183 -0.0004519346 -0.090929136
000030 dd c8 94 3e bc 3e 0b 3f 3d ba df bd b3 b8 12 bf
       0.29059497 0.543926 -0.10924194 -0.5731308
000040 cd 75 ab be cd b9 35 3e b0 8b 72 bd 35 b1 f3 3c
       -0.33488312 0.17746659 -0.059215248 0.029747585
000050 fa 4e 02 3f f0 ca 0f be 88 19 8c be 22 3c d3 3d
       0.5090176 -0.14042258 -0.2736323 0.10314204
000060 1a 37 6c 3e b8 b9 a3 3e bb 44 ba be f0 f5 04 3f
       0.23067895 0.3197763 -0.36380562 0.5193777
000070 e8 02 af 3e 64 b2 df be 64 16 2f 3e ec a7 69 be
       0.34181905 -0.4369079 0.17098385 -0.22817963
000080 e7 07 2c be d3 47 a1 be ad ef 4a bd 9d 01 ea 3e
       -0.1679989 -0.3150011 -0.04954498 0.45704356
000090 68 e4 5c bd 9e c7 ca 3e 98 4e 08 3e 7d 16 97 be
       -0.053928763 0.3960542 0.13311231 -0.29509345
0000a0 33 89 e0 be 20 a5 91 3e ff de 89 3e a4 67 76 3e
       -0.43854675 0.28446293 0.26927945 0.24062973
0000b0 21 cf ce be 6d 90 76 be b0 b7 a1 be a9 85 80 3e
       -0.40392402 -0.24078532 -0.31585455 0.25101975
0000c0 2d 88 0d bf 12 80 de be c1 b6 51 3e 2b b2 a8 bd
       -0.5528591 -0.43457085 0.20479871 -0.08237108
0000d0 45 fc 8c bd 63 42 f2 3e 32 bb d6 be ec cb 02 3f
       -0.06884054 0.47316274 -0.41939694 0.5109241
0000e0 5b 6a 28 be f9 ca 0e bf e3 93 21 be 1e f4 c6 3d
       -0.16446821 -0.5577846 -0.1577907 0.097145304
0000f0 4c 41 e7 3e e2 4d a0 be 96 d9 c8 be 2d 87 13 bf
       0.45167005 -0.3130942 -0.39228505 -0.57628137
000100 2a 4f e6 be 0b 90 be 3d b0 5e e1 be 38 3e 0e bf
       -0.44982272 0.09304818 -0.44017553 -0.5556369
000110 6d 73 f2 3e bc 4e b1 3e 3e 84 9b be 94 b1 78 3e
       0.47353688 0.34630382 -0.3037433 0.2428649
000120 b7 a5 28 be 8e 9d 15 bc b9 9a a6 be 38 28 42 3e
       -0.16469465 -0.009131802 -0.3253992 0.18960655
000130 d1 95 ce be e1 8c e5 3e f6 60 aa 3d 9c 2a e9 3e
       -0.40348676 0.44834045 0.08319275 0.4554032
000140 7a 8d 6a be 4d 50 4a bd c0 2f ba be 86 4e ea be
       -0.22905532 -0.049392987 -0.36364555 -0.45763034
000150 d7 78 9a 3c 36 07 00 3e 44 7a e3 3c 2a 63 ac 3d
       0.018856449 0.12502751 0.027768262 0.084173515
000160 e6 78 fb 3e 30 98 44 bb 3c a3 d7 3e 2c 2e 04 bf
       0.49115676 -0.0029997937 0.42116725 -0.5163295
000170 04 1a b0 3e e5 3f dc bd 40 8f db be 92 f1 31 bd
       0.34394848 -0.107543744 -0.4288273 -0.04344327
000180 f9 de c3 3e 62 17 ea 3e 56 02 c8 3e 45 77 dc bd
       0.38256052 0.45720965 0.39064282 -0.10764936
000190 08 bd 08 be e8 72 96 be c1 7b 86 3e fb a8 ee 3e
       -0.1335336 -0.29384542 0.26266292 0.46613297
0001a0 e9 0b d3 be 4c c3 2f be 72 f8 8c 3e f1 97 16 3e
       -0.41220024 -0.17164344 0.275333 0.14706399
0001b0 00 8a e9 3e 5d 1e 8d 3d a4 98 0b bf c4 b8 1e ba
       0.45613098 0.06890557 -0.54529786 -0.0006054754
0001c0 b4 7e 83 3d 77 e0 a7 3e cc bd 05 3d 52 44 de 3e
       0.06420651 0.3278844 0.032651708 0.434115
0001d0 ac e2 b8 be f5 9f 05 3f ee 5d 88 3d 1f 6c aa 3e
       -0.36110437 0.521972 0.06658541 0.33285615
0001e0 03 71 c2 be 9d 09 03 be 8f 10 2b 3d eb 6d 4c bd
       -0.37976846 -0.12796636 0.04176384 -0.049909513
0001f0 10 26 98 3e 7a 59 0c 3e 5f 0d 0f 3f 7e 52 8c bc
       0.2971654 0.13706008 0.5587978 -0.01712918
000200 fe 15 66 be 09 55 49 be 2f c5 e5 be 3c 5f 11 be
       -0.22469327 -0.19661345 -0.44877002 -0.14196485
000210 35 30 0c bd a8 39 74 3e bb 11 1d 3e 97 b4 96 be
       -0.03422566 0.23850119 0.15338795 -0.29434654
000220 ed 4c ae 3e 3f 3f 0e be 6e f3 ca 3e 24 ba 93 be
       0.34043065 -0.13891314 0.39638847 -0.28852952
000230 df b4 a8 3e 7f 01 95 be b8 0c cc 3d 68 e9 0c bf
       0.32950494 -0.29102704 0.099633634 -0.5504365
000240 34 82 51 3e 91 c0 29 3e 32 fc cb 3e 05 4c 2a 3d
       0.20459825 0.16577365 0.39840847 0.041576404
000250 a6 ab 06 3e c8 42 4e 3e 33 76 f6 be b5 bd 13 3e
       0.13151416 0.20142663 -0.48137054 0.14427836
000260 08 f4 0f 3f 6a 2f 6b be c0 5a e6 3e 2c 93 e8 bd
       0.5623174 -0.22967306 0.44991112 -0.11356196
000270 1f 7b ba 3e 46 63 96 be bf a0 cd 3a 5f 5b fd be
       0.3642206 -0.29372615 0.0015688165 -0.49483773
000280 b3 9d a8 3d e9 43 b9 be d1 c5 e9 be 05 1e 70 bd
       0.08233204 -0.36184624 -0.45658734 -0.05862238
000290 89 d3 3e be a8 3a 82 3e a4 55 b9 3e 71 da 00 3f
       -0.18635382 0.25435376 0.3619815 0.50333315
0002a0 53 04 44 bd 1d 5d ae 3e 97 83 0d 3e 69 7e d6 be
       -0.047855686 0.34055415 0.13819729 -0.41893318
0002b0 e1 a0 65 3e 60 ed b8 be 92 00 ab 3e 61 2f a0 3e
       0.22424652 -0.36118603 0.33398873 0.31286147
0002c0 0d 5d c6 3e ed a2 ea be e0 cb 10 3f f3 47 b2 be
       0.38742867 -0.45827428 0.5656109 -0.34820518
0002d0 b1 6b 8f 3d ce 9b 93 be 4e 89 fb 3e f5 ef 4b be
       0.070029624 -0.28829807 0.49128193 -0.19915755
0002e0 9d 85 6f 3e a3 43 43 3e 16 40 5e 3d 97 6a 03 3e
       0.23390813 0.1906877 0.054260336 0.1283363
0002f0 b3 4d 95 be 73 1d 8c be 12 6d b9 3d 76 5c fe be
       -0.29160842 -0.27366218 0.09054007 -0.49679917

flows.0.mprqat.autoregressive_net.context_layer.bias f4 [64]
000000 f4 65 00 bf 31 02 0e 3f ff 1f d2 3e 96 db 39 be
       -0.5015557 0.55472094 0.41040036 -0.18150172
000010 85 2a 6a bc e2 ae 0e 3f 65 84 07 3f 6d f6 e0 3e
       -0.014292364 0.557356 0.52936393 0.43938008
000020 21 2c 96 3d af d9 b6 be f5 f1 f4 3d 94 ef 05 be
       0.07332636 -0.35712954 0.11960212 -0.13079673
000030 84 c2 df be 9d c2 14 be da ee c3 be ca 19 6f 3d
       -0.4370309 -0.14527364 -0.38268167 0.058374204
000040 d9 6f 14 3b f0 fc d4 be 24 f5 0c bf ea 63 a1 be
       0.0022649674 -0.41599226 -0.55061555 -0.3152154
000050 57 4d fb be 08 c2 c2 3e 15 a5 c8 3d be 79 3d be
       -0.49082443 0.3803866 0.09797112 -0.18503472
000060 84 0b ed 3e 21 41 9b bd 2c ad 72 3e 42 d0 cb bd
       0.46297848 -0.07580782 0.23698872 -0.099518314
000070 90 4d 0a bc e4 41 d5 3c 18 a0 fd bd 42 b9 f5 be
       -0.008441344 0.026032396 -0.12384051 -0.47992903
000080 a2 04 10 be c1 9c a6 be b8 f9 8f 3d 09 c6 a4 be
       -0.14064267 -0.3254147 0.07030052 -0.3218234
000090 8b 22 16 3e b4 46 54 bd 89 37 a9 be 4b 45 4b 3d
       0.14661615 -0.05182524 -0.33050182 0.04962663
0000a0 1c ef 9c bd 81 e3 a9 3e 9b 7f ad 3d 88 13 d7 3e
       -0.07662794 0.33181384 0.084716044 0.4200709
0000b0 51 15 ae be 28 ee ea be c6 5d 9b 3e f2 ee b3 be
       -0.34000638 -0.45884824 0.3034498 -0.35143238
0000c0 9b 8e f7 3d c6 ea 36 3e 10 36 fc 3d 46 c4 b2 3d
       0.12087747 0.17862996 0.12314999 0.087288424
0000d0 8d 9f 60 3c 33 46 d1 be 30 b6 1c be 64 b3 72 3d
       0.013709915 -0.4087387 -0.15303874 0.05925311
0000e0 cd dd ad bd d7 2c a5 3e 49 0e 4a 3e 26 16 fa be
       -0.08489571 0.32260773 0.19732012 -0.48845023
0000f0 46 03 d6 3e 29 d4 94 3e ae a6 75 3e d7 28 04 3f
       0.41799372 0.29068115 0.23989365 0.51624817

flows.0.mprqat.autoregressive_net.blocks.0.context_layer.weight f4 [64, 3]
000000 f3 06 b7 3e ba d0 08 3f 74 38 0b 3e 15 92 e1 bd
       0.3574749 0.5344349 0.13595754 -0.11014191
000010 8d fa 77 be 20 0b 9c 3c f4 0d 56 3e 45 6e e9 bd
       -0.24216671 0.019048274 0.2090376 -0.11397985
000020 14 e3 dc be 89 7b 76 be 14 c2 17 3e b9 13 de 3e
       -0.43141997 -0.24070562 0.14820129 0.43374422
000030 3a 25 d9 be 8d 1e 3e 3b 08 71 c5 3e 44 e8 e0 3e
       -0.42411214 0.002900991 0.38562799 0.43927205
000040 46 d9 22 be d9 d4 b7 be d9 1f d0 3e 7c 3f 04 3f
       -0.15903196 -0.35904577 0.40649298 0.5165937
000050 04 22 ab be bc 7d 02 be aa 22 10 3f 8a f3 09 bd
       -0.3342439 -0.12743276 0.56302893 -0.033679523
000060 b9 89 07 3f 6d 4f 95 3d 90 c7 fd 3e aa b1 ff bb
       0.52944523 0.0729054 0.49566317 -0.0078031616
000070 be 65 b8 3e 5e f7 de be 46 60 ce be 7c 65 08 3d
       0.36015123 -0.435481 -0.40307826 0.033299908
000080 79 a9 b8 bd cc ec a6 be a5 42 d5 3e b0 1c 6e 3d
       -0.09016699 -0.32602537 0.41652408 0.058132827
000090 50 65 6c 3e 7c 30 12 3e e0 56 e0 3e d8 b3 13 3e
       0.23085523 0.14276308 0.4381628 0.14424074
0000a0 d2 60 e6 3c 8b 8d fd bd 08 90 4f 3e 0c 3f 8c bd
       0.02812234 -0.12380513 0.20269787 -0.06847963
0000b0 9b 06 60 3a 88 ab cd 3e 8a 55 96 bd 9d 55 f8 be
       0.0008545906 0.4016993 -0.07340534 -0.48502818
0000c0 d2 fb b1 be 18 ba de 3e 51 4b 96 be 8f 79 13 3e
       -0.34762436 0.43501353 -0.29354337 0.1440184
0000d0 2b 57 df be 6a 15 88 3c ec 8d e2 3c 7f e1 0e bf
       -0.4362119 0.016611774 0.027655564 -0.5581283
0000e0 cf 9c cd bd 15 5f ad 3c 33 42 0e 3e ce 0f 38 3e
       -0.100396745 0.021163503 0.1389244 0.17974779
0000f0 db 0f 29 be 45 00 5d 3e 63 77 ec be 9a ca 46 3e
       -0.16509955 0.21582134 -0.46184835 0.19413224
000100 f3 a6 81 bd 04 0b 53 3e 6a be 03 be cc 7f df be
       -0.06330671 0.20609671 -0.12865606 -0.4365219
000110 ae df 69 be 1f 2e de bd 9e cc 43 3e c0 22 bb be
       -0.22839233 -0.10848641 0.19121024 -0.3654995
000120 fd f0 02 bf eb c4 16 be ae af 2c 3e 76 a6 1e be
       -0.5114897 -0.14723556 0.16863891 -0.15493187
000130 ac c1 7f 3e 1e 1c b7 be 58 77 1a 3d 35 36 05 bf
       0.24976224 -0.3576364 0.03771147 -0.5203584
000140 81 5b bd bd a9 e3 eb 3d b4 6e c0 3e 37 7f d9 3e
       -0.092459686 0.11518032 0.3758446 0.4247987
000150 7c 48 e4 bd 1c c2 9c 3c 23 3f bd be 71 4f 06 3d
       -0.11146638 0.019135527 -0.36962232 0.032790605
000160 27 a5 b6 3a d5 02 e2 bd 90 50 b3 be 9f 0f 3f be
       0.0013934717 -0.110356964 -0.35022402 -0.18658303
000170 71 ef a8 3d 45 87 d1 3e b2 eb 03 3f 6e 67 44 3e
       0.08248795 0.40923515 0.5153152 0.1918008
000180 de 2b 43 3e 23 6a 2b bc 2f d9 bf 3d 1b 17 6d 3e
       0.19059703 -0.010462317 0.09367596 0.23153345
000190 57 ca a4 be 39 3b 96 3e b1 04 f9 3e 95 88 f0 3e
       -0.32185623 0.29342058 0.48636392 0.46979204
0001a0 b6 3a aa 3e d9 da a4 3e fc 3e 96 3d b8 e3 9a 3e
       0.33247918 0.32198218 0.07336232 0.3025186
0001b0 4f c4 83 3e e8 69 a7 39 06 38 74 be 37 dd 07 3e
       0.2573571 0.00031931628 -0.23849496 0.1326798
0001c0 7a 85 eb bd 8a ea 85 3c 7e f4 78 3d df c9 1d 3d
       -0.11500068 0.016347189 0.06078004 0.038522597
0001d0 14 56 9d bd 81 bc 67 be ed a7 d3 be a8 38 7d be
       -0.07682434 -0.22630502 -0.41339055 -0.24728644
0001e0 cb 1c d6 be e0 7f 9f be a0 f1 63 3e 18 3c 11 3d
       -0.41818842 -0.31152248 0.22260141 0.0354577
0001f0 51 89 1b 3e bf ca a0 3d c2 7d b0 be cf a5 9b be
       0.15189101 0.07851171 -0.34470946 -0.3039994
000200 5a fe 0f 3e be 29 89 3e d2 dd 1b be 5e 46 a7 be
       0.14061871 0.2678966 -0.15221336 -0.32670873
000210 86 9c a1 bd f7 08 a9 3e 8a 4f ac be 4c 23 86 3e
       -0.078911826 0.33014652 -0.33654433 0.26198804
000220 54 88 3c be cf 03 97 be 43 74 c3 be 26 17 82 be
       -0.1841138 -0.29495093 -0.38174638 -0.25408286
000230 d3 69 00 bf 38 63 be be 19 50 1d 3d bb 45 ca 3d
       -0.50161475 -0.37185073 0.038406465 0.09876581
000240 91 12 d9 3e ad bb c0 bd e1 b7 8b be 6c 01 01 bf
       0.42396978 -0.09410796 -0.27288726 -0.50392795
000250 75 6a 8d 3e 15 f7 4f bb b0 53 00 bc c7 35 fe 3e
       0.27620283 -0.0031732966 -0.007832453 0.49650404
000260 24 13 02 3f 6c fc 45 3e b0 82 37 bd 2b 32 9d 3e
       0.50810456 0.19334573 -0.044802368 0.30702338
000270 ad 85 c2 be 26 04 08 bf ad 20 d8 bc 67 74 af 3e
       -0.37992612 -0.5313133 -0.026382769 0.34268495
000280 61 aa c8 be ae 44 91 3d a0 c3 c1 be 0e 28 06 bf
       -0.3919249 0.07093178 -0.37844563 -0.5240487
000290 02 5d b7 be 14 4d ec be 36 83 90 be 3e 77 49 be
       -0.35813147 -0.46152556 -0.28225106 -0.19674394
0002a0 db ac b6 be f1 c8 89 be cc 87 a1 be c1 4a e5 bb
       -0.35678753 -0.2691112 -0.31548917 -0.0069974368
0002b0 5d 73 b1 be 37 04 f8 be 1d 1c 46 be bb 43 f7 be
       -0.34658328 -0.48440716 -0.19346662 -0.48293862
0002c0 89 1e ba be 1a f3 02 3f ee 19 62 38 89 08 cb 3e
       -0.3635142 0.51152194 5.3906748e-05 0.3965495
0002d0 32 e5 59 be 01 73 a6 be 95 9a 41 3d 5d 5f e4 be
       -0.21278837 -0.32509616 0.04726656 -0.44604006
0002e0 55 1c 1a 3e a2 a9 a0 be 3b 3d 04 3f 05 fd bc bc
       0.1504987 -0.3137942 0.5165593 -0.023069868
0002f0 e7 63 5e be 92 91 01 bf 3a 52 2c bd c5 20 50 be
       -0.21717797 -0.5061275 -0.042070605 -0.20325

flows.0.mprqat.autoregressive_net.blocks.0.context_layer.bias f4 [64]
000000 74 15 19 3e e5 51 58 3d 92 6b ab be 85 cb 83 3e
       0.1494959 0.052812476 -0.33480507 0.2574121
000010 08 61 59 3b f0 e8 da be b6 f2 69 be 5c 07 00 3f
       0.0033169407 -0.42755842 -0.22846493 0.5001123
000020 1e a2 86 3e b2 12 7e 3e a6 7f c9 be c4 92 ee be
       0.2629556 0.24811819 -0.393552 -0.46596348
000030 9f 7e 33 3e be 6f e5 3c 2a 23 07 3f 0a 20 0d b9
       0.17528771 0.028007384 0.5278803 -0.00013458743
000040 da 5e a2 be ef e0 de be e5 cf c0 bd 25 9b 05 bf
       -0.3171299 -0.43530986 -0.09414653 -0.52189857
000050 d0 c2 00 3f 73 6e a0 be 8d 70 a8 bc 94 15 98 bd
       0.5029726 -0.31334266 -0.02056148 -0.07425991
000060 55 44 7b be db 64 cb be e1 a2 aa 3e 6a 2f d1 3e
       -0.24537785 -0.39725384 0.33327392 0.40856487
000070 a8 11 dd 3e e6 e5 06 3d 60 08 47 be e9 14 07 3d
       0.43177533 0.032934092 -0.19436789 0.032978926
000080 38 af 8c be e0 de 8c 3d 16 92 c8 be 7f a8 3e 3e
       -0.2747743 0.068784475 -0.39173955 0.18618964
000090 97 ba ce 3e 32 88 a2 be 8e d1 1d bd b4 4d f9 be
       0.40376732 -0.31744534 -0.038529925 -0.48692095
0000a0 4a 46 b1 3d 1a 04 ea 3e 0a 40 3f 3e 38 73 e9 3c
       0.08655985 0.45706254 0.18676773 0.028497323
0000b0 da da 9e be 1f 1a 35 be 80 3e fd 3e 9a 97 77 3e
       -0.31026345 -0.17685746 0.49461746 0.24178925
0000c0 43 38 55 be 92 e9 aa bd 42 b4 76 be 62 6a 28 3e
       -0.20822243 -0.08345331 -0.240922 0.16446832
0000d0 98 ee 1f be af 31 c6 b7 14 67 bb 3d 0d a6 44 3e
       -0.1561836 -2.3626575e-05 0.0915052 0.19203968
0000e0 02 12 f6 3e 75 6b 62 3e 2c 01 c8 be 96 43 ff 3e
       0.48060614 0.22111304 -0.39063394 0.4985625
0000f0 c4 bb d4 be 3b 61 50 be 97 d2 ef 3e 72 47 b8 be
       -0.41549504 -0.2034959 0.46840355 -0.35992008

flows.0.mprqat.autoregressive_net.blocks.0.linear_layers.0.weight f4 [64, 64]
000000 cd e9 0c b9 03 a5 90 bd ee 0d ff 3b 52 3b 06 bd
       -0.00013438538 -0.070627235 0.007783643 -0.032771416
000010 66 0b 3c bd b7 0b 32 3b fa 54 b8 b9 cc 14 7b bd
       -0.045909308 0.0027167627 -0.00035158527 -0.06129913
000020 a2 ac a0 3c 73 6e 98 3c 87 7e 8a 3d 6a 2b 6e bb
       0.019613568 0.018607354 0.067624144 -0.0036341795
000030 5d b9 9b 3d b2 a4 9f bc 4b c8 b1 3d f7 48 95 bd
       0.076037146 -0.019487713 0.08680781 -0.072893076
000040 10 3b cb 3a 8e f1 57 bb cc f8 73 bd 34 2a 62 bd
       0.0015505273 -0.0032950374 -0.059563443 -0.05521603
000050 ee cb 95 bc 9f 8e e5 3a 36 88 26 bb 23 e7 71 bc
       -0.018285718 0.0017513818 -0.0025410778 -0.01476458
000060 a4 c5 7e 3d e2 6f 71 bd fb 87 7f bd 6e 8a 70 3d
       0.062200204 -0.05894459 -0.06238554 0.058725767
000070 81 d9 c5 3b 57 42 49 bd 1a e6 85 bb 85 25 8b bd
       0.0060378914 -0.049135532 -0.004086268 -0.06794266
000080 17 e4 6a bd bc 1a 15 3d f7 4f 69 3b ef cf 85 bd
       -0.05734643 0.03640245 0.0035600641 -0.06533801
000090 7c e0 43 bd e8 24 70 3d 38 64 46 bd 51 09 a5 bd
       -0.047821507 0.058628947 -0.04843542 -0.080584176
0000a0 0f 65 e2 ba 8c 07 a1 ad 21 c9 51 bd 00 cc 9b 3d
       -0.001727255 -1.8306932e-11 -0.051217202 0.07607269
0000b0 5f 5b 2c bd bf 68 a7 3d 9b b5 8c bd 8e 2b 08 bc
       -0.042079326 0.081742756 -0.06870576 -0.0083111655
0000c0 a7 f6 a8 b6 45 66 38 b9 85 4b ab bb 44 c1 b0 2f
       -5.0355043e-06 -0.00017585706 -0.0052275085 3.2151537e-10
0000d0 ce 9d 11 3d 81 6b 26 3c 67 65 f5 bc 30 b0 44 bd
       0.035550885 0.010157467 -0.029955579 -0.048019588
0000e0 9e 16 a9 bd 11 ef 41 bc fb 6b 43 3d 81 03 8a bc
       -0.08256267 -0.011836783 0.0477104 -0.016847374
0000f0 b8 0c 1f b2 f5 d2 93 3d 5f d3 84 bb f9 d8 a5 bc
       -9.25791e-09 0.07217971 -0.0040535177 -0.020245062
000100 40 10 94 bd 3e 0d 89 bc 8d 54 38 3b 04 b5 c0 bc
       -0.07229662 -0.016729947 0.0028126568 -0.023523815
000110 fe bf b1 3c 0e 0f c7 3c 52 ec 71 3d 0d 89 2a bd
       0.021697994 0.02429917 0.059063263 -0.041634608
000120 c1 2e d3 3c 61 29 27 3d 4f 22 3a 3d 12 01 1c bd
       0.02577913 0.040810946 0.045442875 -0.03808696
000130 fd cf d9 bd 6d 0a 29 3d d6 b9 75 3d 45 37 65 bd
       -0.10635374 0.04126971 0.05999168 -0.055960912
000140 e3 f2 64 ba 75 6a 4a bc 55 42 b4 b0 84 ac 3e b2
       -0.00087337027 -0.012354483 -1.3115576e-09 -1.1098681e-08
000150 18 00 2c 3c 8c af 45 bc 57 ad 1f 3d 20 44 ec 3d
       0.010498069 -0.012065779 0.03898367 0.11536431
000160 08 a2 bf 3a 5f bb 3e 3d f3 5b e1 3d 70 57 84 bc
       0.0014620433 0.04656541 0.11003866 -0.016154975
000170 23 8a bc bd 86 c8 ba bc 7a ab 83 3d c2 be b9 36
       -0.09206035 -0.022800695 0.06429191 5.535637e-06
000180 d1 bb 28 bd 57 ae 7a 37 55 eb f2 bc 53 cc 9f 3d
       -0.04119474 1.4941753e-05 -0.02965323 0.078026436
000190 0b ef 8b bd 07 b8 ca 3d d7 65 b4 3c 7b 97 66 3c
       -0.06832703 0.09898382 0.022021217 0.014074202
0001a0 36 68 85 b9 3e 18 06 3d fc a5 ed bd 33 43 32 bd
       -0.0002544538 0.032737963 -0.11603925 -0.043521117
0001b0 1a ce 95 bb a7 93 15 bd ac 6c 01 3e 9a 65 e0 bc
       -0.0045716884 -0.036517765 0.12639111 -0.027392197
0001c0 02 f8 16 3c 0e 0f a6 3b 0b 5b 8d bd 6b c7 1d bd
       0.009214403 0.0050677126 -0.06902131 -0.038520258
0001d0 46 b6 3e 3d 57 a5 05 3d d1 83 44 3d 63 0e 93 bd
       0.04656055 0.032628383 0.047977272 -0.071804784
0001e0 6c b5 61 bd 74 41 58 3c 0f 4d c4 bd ad 94 2c bc
       -0.055104658 0.013199199 -0.0958501 -0.010533494
0001f0 c4 97 7b bd 91 bf b0 bd 13 c5 e7 bc b4 03 c2 ba
       -0.06142403 -0.086302884 -0.028292214 -0.0014802129
000200 24 5f b2 3d b1 0e 7d ac a9 4c 93 bd 2e 19 0b bd
       0.08709553 -3.5961618e-12 -0.07192356 -0.03395956
000210 87 3e 09 3d 79 51 0d b4 5e 10 07 bd 8d 94 5a bd
       0.033506896 -1.3161288e-07 -0.032974593 -0.053364325
000220 c5 31 df bd e5 b1 91 3d 4c 82 b0 3d c5 5c 1d bd
       -0.10898165 0.07114009 0.08618602 -0.03841855
000230 e5 7e f9 ba ae 8b 0d 3d 29 ef 3a 3c d1 77 6c bd
       -0.001903501 0.034557037 0.011409559 -0.057731453
000240 06 94 84 bd 8c 3a 29 3d 23 49 29 bc b0 75 ad bc
       -0.06473546 0.0413156 -0.010332379 -0.021174282
000250 b2 1b 01 bd 34 55 12 af e6 e7 b2 bc 2a 69 e5 3b
       -0.031520553 -1.3308893e-10 -0.021839093 0.007001062
000260 12 51 c9 bc 61 8e 2c 39 e1 0d 81 3b c4 b1 71 b7
       -0.02457479 0.00016456239 0.003938422 -1.4406109e-05
000270 9f 4e 6e 3d 18 0a f5 bc 6b 4f e5 3d 99 11 2e a2
       0.058180448 -0.02991204 0.111967884 -2.3590713e-18
000280 78 e9 c6 bd 5b 4f c8 bc cc 84 9e ba 77 0b 0c bc
       -0.097124994 -0.024451902 -0.001209402 -0.008547655
000290 6f c4 b7 3d 1b 94 92 bb 43 97 91 bd a7 70 93 3d
       0.089730136 -0.004473222 -0.07108929 0.07199221
0002a0 c1 01 a1 b8 f8 ea be bd 93 be f5 3d 84 14 64 bd
       -7.677405e-05 -0.093221605 0.1199924 -0.055683628
0002b0 43 65 bc bd 27 47 95 3d 14 09 1f bc e8 17 56 3d
       -0.09199002 0.07288962 -0.009706754 0.052268893
0002c0 71 55 a4 bd 1f 32 19 bc 77 47 2d 3d aa 1c 92 3c
       -0.08024109 -0.009350329 0.042304482 0.017835934
0002d0 92 89 9f 3c 21 f6 dc 3c 1a 4f 44 bc 28 54 86 bd
       0.019474778 0.026972832 -0.01198175 -0.0655902
0002e0 77 e0 36 3c c3 f5 7e bd 74 9f d1 3d 6b 57 89 3c
       0.011161915 -0.062246095 0.102354914 0.016765317
0002f0 80 06 96 3d d5 dc 12 bd 6c cf 80 3d ed 5a 28 3d
       0.073254585 -0.035855133 0.062895626 0.04110234
000300 55 4d 75 bd 11 96 09 3a 9d fc 19 bd 96 b7 64 bd
       -0.059888203 0.0005248497 -0.037594426 -0.055839144
000310 92 8a 96 3c da 22 8b bd 9e 53 55 3d 3e c9 a0 3c
       0.018376622 -0.06793757 0.052081697 0.01962721
000320 21 5c 9d bd f9 b7 10 3c 3a 93 8f 3d 52 0f 2e 37
       -0.07683588 0.008832925 0.07010503 1.0374775e-05
000330 bb 08 ca 3d 5e 6d b5 ba f7 33 0c 3d 61 89 02 aa
       0.098649465 -0.0013841798 0.034229245 -1.1593982e-13
000340 14 c1 55 3d fd ce e7 b8 e3 3d 06 bb ee fb 80 bd
       0.052186087 -0.00011053493 -0.0020483665 -0.06298052
000350 c2 9e dd bc c1 8d 84 3c 39 8a dc ba 90 06 ca bd
       -0.02705324 0.016180875 -0.0016825862 -0.09864533
000360 bb ea df bc d7 f1 d1 bd 07 b3 81 3d 35 ee 51 ad
       -0.027333608 -0.102512054 0.06332975 -1.1933167e-11
000370 1c bd 92 3d 61 fb 9b 3d ac 48 ae bd d5 34 df bc
       0.07164976 0.07616306 -0.08509955 -0.027246872
000380 38 d4 ea bd ce 60 f6 bc 07 94 b5 3b 43 22 a0 b8
       -0.11466259 -0.030075457 0.005541328 -7.635776e-05
000390 71 0f f7 3d b8 9f 1a bd 03 a0 98 bd 92 fe b4 3b
       0.12063492 -0.037749976 -0.07452395 0.005523511
0003a0 b1 7a 1b 39 6e 7a fa 3c 4c 03 84 3d 57 c2 0b bc
       0.00014827658 0.030575957 0.06445941 -0.008530221
0003b0 41 2f 17 3d 43 76 91 a7 f3 55 77 bc a2 84 9d bd
       0.0369103 -4.0373804e-15 -0.0150961755 -0.07691313
0003c0 a2 38 9e bd 65 4f 9e bd fa e7 8b bd b1 d5 3d 3c
       -0.077256456 -0.07729987 -0.068313554 0.0115865925
0003d0 f4 fc c9 3d 7b b2 a6 3c 02 1c be bc e1 c4 29 3d
       0.098627 0.020348778 -0.023206715 0.041447524
0003e0 31 48 84 3d b2 1e 90 b6 2c 78 fa 3d 52 35 a4 bd
       0.06459082 -4.295108e-06 0.12229952 -0.080179825
0003f0 93 a0 3c bd 85 8a 09 3d a8 fb bb bd d4 c7 a3 35
       -0.046051573 0.03357937 -0.09178859 1.2202604e-06

flows.0.mprqat.autoregressive_net.blocks.0.linear_layers.0.bias f4 [64]
000000 82 cc 6c bb 99 f6 64 3c 3e 61 65 3d 31 e4 51 3c
       -0.0036132638 0.013974809 0.05600094 0.012810753
000010 1b 44 c2 bc be 7f 5b bc 7b 3d 14 3d 12 2d c6 37
       -0.023714116 -0.013397155 0.036191445 2.3624427e-05
000020 56 87 8c 3a 8c db be 3c 9d 09 23 3d 25 81 c0 3c
       0.0010721486 0.023298047 0.03980409 0.02349908
000030 8e 59 7a bc d3 63 e8 ba 7d 88 7d 3d 8c f5 76 bd
       -0.015280141 -0.0017729945 0.061897743 -0.060292765
000040 84 c4 bb 3c e2 b1 36 3d 0d 97 8f bd 97 0f 11 bd
       0.022920854 0.044603236 -0.070112325 -0.03541526
000050 18 bd 67 bd be 15 5b bd eb 2a 0c 3c 27 f7 45 bd
       -0.05657682 -0.05348753 0.008555154 -0.048331406
000060 9b eb 90 3c 64 00 9a bd 94 17 85 3d 8e 5b 00 3d
       0.01769047 -0.07519606 0.06498638 0.031337313
000070 ee c1 b3 3d 09 74 8f 3c 14 c3 d8 bc bb 75 65 3d
       0.087772235 0.017511385 -0.026460208 0.05602048
000080 f3 76 48 3c 7e 8c bc 3d 53 fc 7f 3d 41 8c ae 3d
       0.012235391 0.09206484 0.062496495 0.08522845
000090 6e ad 82 3d e0 86 48 bd 24 6c ff bb cd 30 1f bd
       0.06380735 -0.04895675 -0.007794874 -0.0388649
0000a0 4b e6 b3 3b ef d3 2d 38 75 9a 85 bc 44 16 91 3c
       0.0054900995 4.1443793e-05 -0.016309002 0.017710812
0000b0 ee 3d 44 3c 97 32 9f 3d ea 4e 90 bd 9e 25 af bd
       0.011977656 0.07773321 -0.07046302 -0.08552097
0000c0 7c cb 99 3c 11 0e e6 3c b5 6d ab 3d b3 25 96 3d
       0.018773787 0.02808288 0.08370534 0.07331409
0000d0 22 ac 8d 3c 08 4d b7 b8 89 e9 e9 3a 44 9a a5 bd
       0.017293993 -8.740468e-05 0.0017846088 -0.080860645
0000e0 a9 01 d4 3d 29 de a9 3d 75 5f 10 bd d9 39 68 bd
       0.10351879 0.08294327 -0.035247285 -0.056695793
0000f0 37 e9 af 3d 05 7c 70 3d 4d c6 a2 bc 0f 05 e6 3c
       0.08589404 0.058712024 -0.019869948 0.028078584

flows.0.mprqat.autoregressive_net.blocks.0.linear_layers.0.mask f4 [64, 64]
000000 00 00 80 3f 00 00 80 3f 00 00 80 3f 00 00 80 3f
       1.0 1.0 1.0 1.0
000010 00 00 80 3f 00 00 80 3f 00 00 80 3f 00 00 80 3f
       1.0 1.0 1.0 1.0
000020 00 00 80 3f 00 00 80 3f 00 00 80 3f 00 00 80 3f
       1.0 1.0 1.0 1.0
000030 00 00 80 3f 00 00 80 3f 00 00 80 3f 00 00 80 3f
       1.0 1.0 1.0 1.0
000040 00 00 80 3f 00 00 80 3f 00 00 80 3f 00 00 80 3f
       1.0 1.0 1.0 1.0
000050 00 00 80 3f 00 00 80 3f 00 00 80 3f 00 00 80 3f
       1.0 1.0 1.0 1.0
000060 00 00 80 3f 00 00 80 3f 00 00 80 3f 00 00 80 3f
       1.0 1.0 1.0 1.0
000070 00 00 80 3f 00 00 80 3f 00 00 80 3f 00 00 80 3f
       1.0 1.0 1.0 1.0
000080 00 00 80 3f 00 00 80 3f 00 00 80 3f 00 00 80 3f
       1.0 1.0 1.0 1.0
000090 00 00 80 3f 00 00 80 3f 00 00 80 3f 00 00 80 3f
       1.0 1.0 1.0 1.0
0000a0 00 00 80 3f 00 00 80 3f 00 00 80 3f 00 00 80 3f
       1.0 1.0 1.0 1.0
0000b0 00 00 80 3f 00 00 80 3f 00 00 80 3f 00 00 80 3f
       1.0 1.0 1.0 1.0
0000c0 00 00 80 3f 00 00 80 3f 00 00 80 3f 00 00 80 3f
       1.0 1.0 1.0 1.0
0000d0 00 00 80 3f 00 00 80 3f 00 00 80 3f 00 00 80 3f
       1.0 1.0 1.0 1.0
0000e0 00 00 80 3f 00 00 80 3f 00 00 80 3f 00 00 80 3f
       1.0 1.0 1.0 1.0
0000f0 00 00 80 3f 00 00 80 3f 00 00 80 3f 00 00 80 3f
       1.0 1.0 1.0 1.0
000100 00 00 80 3f 00 00 80 3f 00 00 80 3f 00 00 80 3f
       1.0 1.0 1.0 1.0
000110 00 00 80 3f 00 00 80 3f 00 00 80 3f 00 00 80 3f
       1.0 1.0 1.0 1.0
000120 00 00 80 3f 00 00 80 3f 00 00 80 3f 00 00 80 3f
       1.0 1.0 1.0 1.0
000130 00 00 80 3f 00 00 80 3f 00 00 80 3f 00 00 80 3f
       1.0 1.0 1.0 1.0
000140 00 00 80 3f 00 00 80 3f 00 00 80 3f 00 00 80 3f
       1.0 1.0 1.0 1.0
000150 00 00 80 3f 00 00 80 3f 00 00 80 3f 00 00 80 3f
       1.0 1.0 1.0 1.0
000160 00 00 80 3f 00 00 80 3f 00 00 80 3f 00 00 80 3f
       1.0 1.0 1.0 1.0
000170 00 00 80 3f 00 00 80 3f 00 00 80 3f 00 00 80 3f
       1.0 1.0 1.0 1.0
000180 00 00 80 3f 00 00 80 3f 00 00 80 3f 00 00 80 3f
       1.0 1.0 1.0 1.0
000190 00 00 80 3f 00 00 80 3f 00 00 80 3f 00 00 80 3f
       1.0 1.0 1.0 1.0
0001a0 00 00 80 3f 00 00 80 3f 00 00 80 3f 00 00 80 3f
       1.0 1.0 1.0 1.0
0001b0 00 00 80 3f 00 00 80 3f 00 00 80 3f 00 00 80 3f
       1.0 1.0 1.0 1.0
0001c0 00 00 80 3f 00 00 80 3f 00 00 80 3f 00 00 80 3f
       1.0 1.0 1.0 1.0
0001d0 00 00 80 3f 00 00 80 3f 00 00 80 3f 00 00 80 3f
       1.0 1.0 1.0 1.0
0001e0 00 00 80 3f 00 00 80 3f 00 00 80 3f 00 00 80 3f
       1.0 1.0 1.0 1.0
0001f0 00 00 80 3f 00 00 80 3f 00 00 80 3f 00 00 80 3f
       1.0 1.0 1.0 1.0
000200 00 00 80 3f 00 00 80 3f 00 00 80 3f 00 00 80 3f
       1.0 1.0 1.0 1.0
000210 00 00 80 3f 00 00 80 3f 00 00 80 3f 00 00 80 3f
       1.0 1.0 1.0 1.0
000220 00 00 80 3f 00 00 80 3f 00 00 80 3f 00 00 80 3f
       1.0 1.0 1.0 1.0
000230 00 00 80 3f 00 00 80 3f 00 00 80 3f 00 00 80 3f
       1.0 1.0 1.0 1.0
000240 00 00 80 3f 00 00 80 3f 00 00 80 3f 00 00 80 3f
       1.0 1.0 1.0 1.0
000250 00 00 80 3f 00 00 80 3f 00 00 80 3f 00 00 80 3f
       1.0 1.0 1.0 1.0
000260 00 00 80 3f 00 00 80 3f 00 00 80 3f 00 00 80 3f
       1.0 1.0 1.0 1.0
000270 00 00 80 3f 00 00 80 3f 00 00 80 3f 00 00 80 3f
       1.0 1.0 1.0 1.0
000280 00 00 80 3f 00 00 80 3f 00 00 80 3f 00 00 80 3f
       1.0 1.0 1.0 1.0
000290 00 00 80 3f 00 00 80 3f 00 00 80 3f 00 00 80 3f
       1.0 1.0 1.0 1.0
0002a0 00 00 80 3f 00 00 80 3f 00 00 80 3f 00 00 80 3f
       1.0 1.0 1.0 1.0
0002b0 00 00 80 3f 00 00 80 3f 00 00 80 3f 00 00 80 3f
       1.0 1.0 1.0 1.0
0002c0 00 00 80 3f 00 00 80 3f 00 00 80 3f 00 00 80 3f
       1.0 1.0 1.0 1.0
0002d0 00 00 80 3f 00 00 80 3f 00 00 80 3f 00 00 80 3f
       1.0 1.0 1.0 1.0
0002e0 00 00 80 3f 00 00 80 3f 00 00 80 3f 00 00 80 3f
       1.0 1.0 1.0 1.0
0002f0 00 00 80 3f 00 00 80 3f 00 00 80 3f 00 00 80 3f
       1.0 1.0 1.0 1.0
000300 00 00 80 3f 00 00 80 3f 00 00 80 3f 00 00 80 3f
       1.0 1.0 1.0 1.0
000310 00 00 80 3f 00 00 80 3f 00 00 80 3f 00 00 80 3f
       1.0 1.0 1.0 1.0
000320 00 00 80 3f 00 00 80 3f 00 00 80 3f 00 00 80 3f
       1.0 1.0 1.0 1.0
000330 00 00 80 3f 00 00 80 3f 00 00 80 3f 00 00 80 3f
       1.0 1.0 1.0 1.0
000340 00 00 80 3f 00 00 80 3f 00 00 80 3f 00 00 80 3f
       1.0 1.0 1.0 1.0
000350 00 00 80 3f 00 00 80 3f 00 00 80 3f 00 00 80 3f
       1.0 1.0 1.0 1.0
000360 00 00 80 3f 00 00 80 3f 00 00 80 3f 00 00 80 3f
       1.0 1.0 1.0 1.0
000370 00 00 80 3f 00 00 80 3f 00 00 80 3f 00 00 80 3f
       1.0 1.0 1.0 1.0
000380 00 00 80 3f 00 00 80 3f 00 00 80 3f 00 00 80 3f
       1.0 1.0 1.0 1.0
000390 00 00 80 3f 00 00 80 3f 00 00 80 3f 00 00 80 3f
       1.0 1.0 1.0 1.0
0003a0 00 00 80 3f 00 00 80 3f 00 00 80 3f 00 00 80 3f
       1.0 1.0 1.0 1.0
0003b0 00 00 80 3f 00 00 80 3f 00 00 80 3f 00 00 80 3f
       1.0 1.0 1.0 1.0
0003c0 00 00 80 3f 00 00 80 3f 00 00 80 3f 00 00 80 3f
       1.0 1.0 1.0 1.0
0003d0 00 00 80 3f 00 00 80 3f 00 00 80 3f 00 00 80 3f
       1.0 1.0 1.0 1.0
0003e0 00 00 80 3f 00 00 80 3f 00 00 80 3f 00 00 80 3f
       1.0 1.0 1.0 1.0
0003f0 00 00 80 3f 00 00 80 3f 00 00 80 3f 00 00 80 3f
       1.0 1.0 1.0 1.0

flows.0.mprqat.autoregressive_net.blocks.0.linear_layers.1.weight f4 [64, 64]
000000 2d 47 b3 98 44 41 14 3b 07 7b 21 b9 52 8c 83 bb
       -4.6342285e-24 0.002262191 -0.00015399988 -0.00401453
000010 51 3d 60 3a 0a 34 15 3a 9c ea 2f ba 8c bb e5 9a
       0.0008554059 0.00056916534 -0.000671068 -9.501518e-23
000020 2e 6b 82 ba 1f 69 15 3a a8 e9 90 bb ad 37 73 ba
       -0.0009950155 0.0005699563 -0.0044223852 -0.00092780107
000030 54 f6 c0 ba 85 a8 1c 98 bc ba 57 39 c5 7c 3d 3a
       -0.0014721849 -2.0247608e-24 0.00020573562 0.000722837
000040 20 64 09 bb da b8 e6 b9 78 78 6c 18 1e b8 22 bb
       -0.002096422 -0.00044006744 3.0563106e-24 -0.002482898
000050 ba 6d 43 38 e7 97 07 3b 01 da 87 ba b2 7e a4 93
       4.6593814e-05 0.0020689906 -0.0010364653 -4.152435e-27
000060 5e b0 39 ba 7b 29 db b9 9a 88 21 ba 97 d6 e6 3a
       -0.00070834707 -0.0004180184 -0.0006162018 0.001761156
000070 a5 b2 b6 3a fe bc 5c ba 8a 50 0a 3b 80 06 31 ba
       0.0013938738 -0.0008420496 0.0021105134 -0.0006752983
000080 de 97 81 16 3b 70 3b 3c 91 ee ad 3a e9 d7 b9 ba
       2.0936916e-25 0.011440332 0.0013269951 -0.0014178726
000090 dc ac 1d bb fc cd 65 94 2a dc cc 39 9e 6b a4 37
       -0.002405933 -1.1602169e-26 0.00039073947 1.9600437e-05
0000a0 c8 d9 04 b8 28 43 b2 39 f0 9b 03 3a 26 e7 77 3c
       -3.1674077e-05 0.0003400084 0.000502049 0.015130794
0000b0 bd ec 81 bb cc 77 c9 ba b2 74 f1 b9 61 80 f0 37
       -0.003964989 -0.0015370785 -0.00046054047 2.867001e-05
0000c0 a4 ae 67 3b ee b2 9c 3a 76 85 1b 3b 72 cd 97 bb
       0.0035351897 0.0011955181 0.0023730672 -0.0046326453
0000d0 63 cd 6e 3b 81 d5 6d 3a 48 14 91 39 48 60 d8 b8
       0.0036438338 0.0009072647 0.00027671666 -0.000103176164
0000e0 25 05 71 3c 1b c7 35 3b 85 d5 cb ba 9d ad a3 ba
       0.014710699 0.0027737084 -0.0015551305 -0.0012487654
0000f0 c8 b6 80 bb 63 33 b9 ba 97 21 ce 3a f5 be 16 1a
       -0.003928039 -0.0014129694 0.0015726563 3.1173527e-23
000100 b0 26 42 93 27 26 9a bb 4f 31 44 bc 86 ec a6 ba
       -2.4505317e-27 -0.004704255 -0.011974647 -0.0012735284
000110 d4 fb d2 ba 1a f0 02 bc 41 4f 36 bc 1e 3d 63 19
       -0.0016096779 -0.007991815 -0.011127294 1.17479675e-23
000120 f5 3f 2a bc 4e cb 0e bc 0b 72 4c 3b 5b c3 2a bc
       -0.010391225 -0.008715464 0.0031195905 -0.010422553
000130 89 65 05 bc c4 e9 18 95 70 9c 87 bc 63 96 17 3c
       -0.008141884 -3.0880564e-26 -0.016554087 0.009252164
000140 15 b0 2e 3a 77 ec 8c bb 8a 4c 47 96 0c d0 c1 ba
       0.00066638115 -0.0043006497 -1.6099243e-25 -0.0014786734
000150 af e4 56 bb bb 88 52 3b fb 2d f4 ba 37 64 1b 94
       -0.0032790115 0.0032124955 -0.0018629426 -7.845264e-27
000160 f6 dd 3a bb d0 2c d8 bb 01 78 87 bb c4 94 95 3b
       -0.0028513647 -0.006597139 -0.0041341786 0.0045648534
000170 32 bb 15 bc 74 4d 69 bc 7b eb 8e 3b 13 ff 13 bc
       -0.009138869 -0.014239658 0.0043615676 -0.009032982
000180 0c 54 4b 98 c8 ef cb ba 66 e9 14 3c 1a e4 1c bc
       -2.6279568e-24 -0.0015559131 0.00908885 -0.009575868
000190 56 b1 2b bc ac 8e 67 99 24 d8 c5 bb 92 36 ec b6
       -0.010479292 -1.19712324e-23 -0.006037729 -7.039701e-06
0001a0 73 44 04 bb ad 80 8f b8 3b 0e 0e 3c 1a 1b 61 bb
       -0.00201824 -6.842739e-05 0.008670385 -0.003434843
0001b0 56 c1 38 bb 84 56 3a bb 21 0e 82 bb e3 ae d8 39
       -0.002819141 -0.0028432915 -0.0039689695 0.0004132903
0001c0 b8 67 86 3b d9 5a 8d bc de 2c f0 3b 33 c5 90 ba
       0.0041017197 -0.017255234 0.0073295673 -0.0011045098
0001d0 f1 b4 a8 3a d2 8e cd 3b cf 86 23 b9 f4 dd a3 bb
       0.0012871308 0.006273129 -0.00015595111 -0.005000824
0001e0 f2 56 f4 bb 1b 90 b2 3a bc ab 13 bc f2 2e 40 bb
       -0.0074566538 0.0013623269 -0.009013113 -0.0029324857
0001f0 c2 c1 71 b9 01 e2 71 bc 03 27 b8 3b 69 f3 74 96
       -0.00023055731 -0.014763356 0.005619885 -1.978697e-25
000200 a8 82 10 13 17 e5 e7 38 b6 33 d5 38 82 50 77 bb
       1.8239774e-27 0.0001105761 0.000101662634 -0.0037737195
000210 57 cd 82 b9 90 71 7c ba 9c 78 ea 39 ba d4 3d 96
       -0.00024948522 -0.0009629959 0.0004472182 -1.5334423e-25
000220 cf aa 56 ba e5 42 40 ba 88 1e 49 bb 86 97 85 b9
       -0.00081889046 -0.0007334187 -0.0030688364 -0.0002548063
000230 54 e4 a1 39 97 ba ff 95 2f 67 d7 38 9c 86 8b 39
       0.0003087843 -1.03288067e-25 0.00010271218 0.00026612438
000240 b5 24 52 ba ce 80 b0 b9 3d 9a 55 9b 59 26 06 ba
       -0.0008016334 -0.00033665303 -1.7668784e-22 -0.00051174086
000250 cb de e6 b9 43 79 fb 39 f1 89 1e bb 05 f8 c4 93
       -0.00044035012 0.00047964798 -0.0024191106 -4.9721922e-27
000260 6b 5a 8f b8 7a 61 a7 ba 70 27 69 ba e4 47 03 3a
       -6.835613e-05 -0.0012770139 -0.0008894121 0.0005007966
000270 00 ff b4 3a 18 bc 6a b9 3d ac 39 3a b1 d2 05 ba
       0.0013808906 -0.0002238605 0.00070828554 -0.0005104943
000280 75 b9 61 15 fa e9 b8 3a ac ad b7 39 75 b7 3d b9
       4.5584688e-26 0.0014107816 0.00035033876 -0.00018092788
000290 20 f4 e4 ba 15 e5 b2 17 08 14 41 ba 2f 2f 8f 37
       -0.0017467774 1.1560809e-24 -0.00073653506 1.70689e-05
0002a0 d5 b1 cd b9 a9 b1 83 39 e9 13 6a 39 13 15 38 3c
       -0.00039233142 0.00025118634 0.00022323396 0.011235493
0002b0 f7 bc b4 bb 47 70 03 bb 9a 50 cd ba 36 37 c8 34
       -0.0055156904 -0.0020055936 -0.001566428 3.7293074e-07
0002c0 a8 b8 c0 3a 46 23 aa 38 dd f6 41 3a 4a 2f c9 bb
       0.0014703469 8.112802e-05 0.0007399151 -0.0061396705
0002d0 ef b6 a0 3a 14 65 df 39 46 31 de 36 51 89 36 ba
       0.001226155 0.00042609184 6.6218518e-06 -0.0006963211
0002e0 1b 4b f7 3b ab c6 88 3a e4 b8 8f ba 3f 03 1f 39
       0.007546795 0.0010435184 -0.0010965136 0.00015164631
0002f0 31 c8 a7 bb a0 f9 78 ba ea da 03 3a b9 58 4a 1b
       -0.0051203 -0.0009497646 0.0005029874 1.6737716e-22
000300 17 0c d8 16 4f cd c5 bb 51 ce 48 bc 2d 6b 64 ba
       3.4904312e-25 -0.0060364376 -0.012256221 -0.000871348
000310 67 13 ca 3a 85 67 48 bb 00 a0 05 bc ab a0 42 97
       0.0015417159 -0.003057928 -0.008155823 -6.288757e-25
000320 4e f3 25 bc 2f 5a 52 bb 9a 68 60 3c 47 7b a6 bb
       -0.010128809 -0.003209721 0.013696814 -0.005080614
000330 5f 7b 8e bb 1a 71 06 10 2f 03 82 bc 75 ee 68 3c
       -0.004348203 2.651397e-29 -0.015870659 0.014217009
000340 b9 35 9e 3b af 1d 48 b9 12 ba 34 18 fc 5f 2e 3c
       0.0048281816 -0.00019084544 2.3358396e-24 0.010643002
000350 36 dd da ba 37 ba 5a 3c 64 f5 d1 ba 7f 0e 12 15
       -0.0016698006 0.013350061 -0.0016018567 2.94959e-26
000360 b0 52 bc 3b 8c 0b 4e bb 21 0c d3 ba c4 40 78 3c
       0.005747162 -0.0031439988 -0.0016101637 0.01515216
000370 5b 1a 36 bc f0 e5 58 bc fc 2f 6a 3c bb e8 5b bb
       -0.011114682 -0.013238415 0.014293667 -0.0033555466
000380 2c 23 6c 16 88 63 86 3b bb 27 76 3c 95 76 8d bb
       1.9075026e-25 0.0041012205 0.015024121 -0.0043171146
000390 2c 69 46 bc e9 ab ef 11 67 07 b1 bb 91 25 17 b7
       -0.012110036 3.78135e-28 -0.0054024938 -9.009048e-06
0003a0 1d 24 41 3b 9e 75 bf b7 5c 15 5b 3c 75 c3 b4 bb
       0.0029470988 -2.2823744e-05 0.013371792 -0.0055164644
0003b0 71 0a 9f bb cf 3e 30 bb 3b 4d 8f 3b 37 2a 3c 3a
       -0.0048535396 -0.0026892906 0.0043732203 0.00071779214
0003c0 76 8d 6c 3c 87 b7 86 bc 3a e6 81 3c 4c 24 65 ba
       0.014438024 -0.016444935 0.01585685 -0.00087410654
0003d0 c2 68 4b 3c 10 b3 76 3c de d6 f1 39 e1 00 c4 3a
       0.012415113 0.01505734 0.0004612719 0.0014953875
0003e0 64 07 1f bc 1b d2 49 3c ab 37 0c bc c5 0b d3 3b
       -0.009706352 0.012318159 -0.008558194 0.006440612
0003f0 a2 f1 cf 3b 4d 89 73 bc f4 d6 76 3c 30 6f e7 18
       0.0063459435 -0.014864278 0.015065897 5.982437e-24

flows.0.mprqat.autoregressive_net.blocks.0.linear_layers.1.bias f4 [64]
000000 67 09 56 3c 83 cb 3e bb 93 96 2e ba 95 c5 9a ba
       0.013063765 -0.0029113002 -0.00066600105 -0.0011808152
000010 dd 73 85 3c 99 6f 01 3b 17 a4 52 3c 09 19 32 3c
       0.0162906 0.0019750355 0.012856505 0.010870227
000020 8a 92 55 bb 1b 25 97 bb 88 d3 93 3c 56 53 2b 3b
       -0.0032588565 -0.0046125776 0.018045202 0.0026142201
000030 25 c8 60 bc 4e 3f 70 bb a7 82 1f 3a 9c bb 08 3b
       -0.013719593 -0.0036658826 0.00060848374 0.0020863777
000040 fd 1b 55 3c 4e 21 0f 3c 80 ab a3 ba 3a 42 2f ba
       0.013007161 0.008735968 -0.0012487024 -0.0006685589
000050 bb e6 63 3c 8c 11 73 ba 25 bb 21 3c 27 f2 87 3c
       0.013909991 -0.0009272329 0.009871279 0.01659496
000060 b6 e7 65 bc 6e e5 84 3c 49 b2 e9 3c f3 5d b3 bc
       -0.014032295 0.016222682 0.028527396 -0.021895384
000070 d9 8e ba 3c 93 24 bb 3b f5 81 7f 3c e0 2c 8c bc
       0.022773193 0.005711147 0.015594949 -0.017111242
000080 96 30 0e 3c 53 31 61 bc 6c ac df bb 99 64 85 3a
       0.008678576 -0.01374467 -0.006825974 0.0010177075
000090 57 ec b8 3a 7c 27 8a 3c fb f9 af ba 59 f3 6a 3c
       0.0014108521 0.01686453 -0.001342594 0.014340245
0000a0 76 92 91 3b 64 5e 55 3c 6a 67 7a 3c 66 24 07 3a
       0.0044425083 0.013022993 0.015283445 0.0005155265
0000b0 d2 4c 92 3c d6 9c f3 bb 98 f1 62 3c 97 23 71 bc
       0.017858896 -0.007434468 0.013851546 -0.014717958
0000c0 d9 fa 5f 3c 56 62 ae 3c 48 5f 28 3b 7a 76 fd bb
       0.013670647 0.021287125 0.0025691558 -0.007735071
0000d0 09 64 85 3c 59 5b 81 bb b5 94 43 3c 2a ac 87 3c
       0.016283052 -0.003947657 0.01193731 0.016561586
0000e0 68 65 8b bc 50 f4 58 bc c0 c9 51 3c cc 14 a0 bb
       -0.017016128 -0.013241842 0.012804449 -0.0048852917
0000f0 8f d8 c0 3c 52 ac 19 3c a7 ef 90 bb 68 ef 4a bc
       0.023540763 0.009379463 -0.0044231 -0.01238618

flows.0.mprqat.autoregressive_net.blocks.0.linear_layers.1.mask f4 [64, 64]
000000 00 00 80 3f 00 00 80 3f 00 00 80 3f 00 00 80 3f
       1.0 1.0 1.0 1.0
000010 00 00 80 3f 00 00 80 3f 00 00 80 3f 00 00 80 3f
       1.0 1.0 1.0 1.0
000020 00 00 80 3f 00 00 80 3f 00 00 80 3f 00 00 80 3f
       1.0 1.0 1.0 1.0
000030 00 00 80 3f 00 00 80 3f 00 00 80 3f 00 00 80 3f
       1.0 1.0 1.0 1.0
000040 00 00 80 3f 00 00 80 3f 00 00 80 3f 00 00 80 3f
       1.0 1.0 1.0 1.0
000050 00 00 80 3f 00 00 80 3f 00 00 80 3f 00 00 80 3f
       1.0 1.0 1.0 1.0
000060 00 00 80 3f 00 00 80 3f 00 00 80 3f 00 00 80 3f
       1.0 1.0 1.0 1.0
000070 00 00 80 3f 00 00 80 3f 00 00 80 3f 00 00 80 3f
       1.0 1.0 1.0 1.0
000080 00 00 80 3f 00 00 80 3f 00 00 80 3f 00 00 80 3f
       1.0 1.0 1.0 1.0
000090 00 00 80 3f 00 00 80 3f 00 00 80 3f 00 00 80 3f
       1.0 1.0 1.0 1.0
0000a0 00 00 80 3f 00 00 80 3f 00 00 80 3f 00 00 80 3f
       1.0 1.0 1.0 1.0
0000b0 00 00 80 3f 00 00 80 3f 00 00 80 3f 00 00 80 3f
       1.0 1.0 1.0 1.0
0000c0 00 00 80 3f 00 00 80 3f 00 00 80 3f 00 00 80 3f
       1.0 1.0 1.0 1.0
0000d0 00 00 80 3f 00 00 80 3f 00 00 80 3f 00 00 80 3f
       1.0 1.0 1.0 1.0
0000e0 00 00 80 3f 00 00 80 3f 00 00 80 3f 00 00 80 3f
       1.0 1.0 1.0 1.0
0000f0 00 00 80 3f 00 00 80 3f 00 00 80 3f 00 00 80 3f
       1.0 1.0 1.0 1.0
000100 00 00 80 3f 00 00 80 3f 00 00 80 3f 00 00 80 3f
       1.0 1.0 1.0 1.0
000110 00 00 80 3f 00 00 80 3f 00 00 80 3f 00 00 80 3f
       1.0 1.0 1.0 1.0
000120 00 00 80 3f 00 00 80 3f 00 00 80 3f 00 00 80 3f
       1.0 1.0 1.0 1.0
000130 00 00 80 3f 00 00 80 3f 00 00 80 3f 00 00 80 3f
       1.0 1.0 1.0 1.0
000140 00 00 80 3f 00 00 80 3f 00 00 80 3f 00 00 80 3f
       1.0 1.0 1.0 1.0
000150 00 00 80 3f 00 00 80 3f 00 00 80 3f 00 00 80 3f
       1.0 1.0 1.0 1.0
000160 00 00 80 3f 00 00 80 3f 00 00 80 3f 00 00 80 3f
       1.0 1.0 1.0 1.0
000170 00 00 80 3f 00 00 80 3f 00 00 80 3f 00 00 80 3f
       1.0 1.0 1.0 1.0
000180 00 00 80 3f 00 00 80 3f 00 00 80 3f 00 00 80 3f
       1.0 1.0 1.0 1.0
000190 00 00 80 3f 00 00 80 3f 00 00 80 3f 00 00 80 3f
       1.0 1.0 1.0 1.0
0001a0 00 00 80 3f 00 00 80 3f 00 00 80 3f 00 00 80 3f
       1.0 1.0 1.0 1.0
0001b0 00 00 80 3f 00 00 80 3f 00 00 80 3f 00 00 80 3f
       1.0 1.0 1.0 1.0
0001c0 00 00 80 3f 00 00 80 3f 00 00 80 3f 00 00 80 3f
       1.0 1.0 1.0 1.0
0001d0 00 00 80 3f 00 00 80 3f 00 00 80 3f 00 00 80 3f
       1.0 1.0 1.0 1.0
0001e0 00 00 80 3f 00 00 80 3f 00 00 80 3f 00 00 80 3f
       1.0 1.0 1.0 1.0
0001f0 00 00 80 3f 00 00 80 3f 00 00 80 3f 00 00 80 3f
       1.0 1.0 1.0 1.0
000200 00 00 80 3f 00 00 80 3f 00 00 80 3f 00 00 80 3f
       1.0 1.0 1.0 1.0
000210 00 00 80 3f 00 00 80 3f 00 00 80 3f 00 00 80 3f
       1.0 1.0 1.0 1.0
000220 00 00 80 3f 00 00 80 3f 00 00 80 3f 00 00 80 3f
       1.0 1.0 1.0 1.0
000230 00 00 80 3f 00 00 80 3f 00 00 80 3f 00 00 80 3f
       1.0 1.0 1.0 1.0
000240 00 00 80 3f 00 00 80 3f 00 00 80 3f 00 00 80 3f
       1.0 1.0 1.0 1.0
000250 00 00 80 3f 00 00 80 3f 00 00 80 3f 00 00 80 3f
       1.0 1.0 1.0 1.0
000260 00 00 80 3f 00 00 80 3f 00 00 80 3f 00 00 80 3f
       1.0 1.0 1.0 1.0
000270 00 00 80 3f 00 00 80 3f 00 00 80 3f 00 00 80 3f
       1.0 1.0 1.0 1.0
000280 00 00 80 3f 00 00 80 3f 00 00 80 3f 00 00 80 3f
       1.0 1.0 1.0 1.0
000290 00 00 80 3f 00 00 80 3f 00 00 80 3f 00 00 80 3f
       1.0 1.0 1.0 1.0
0002a0 00 00 80 3f 00 00 80 3f 00 00 80 3f 00 00 80 3f
       1.0 1.0 1.0 1.0
0002b0 00 00 80 3f 00 00 80 3f 00 00 80 3f 00 00 80 3f
       1.0 1.0 1.0 1.0
0002c0 00 00 80 3f 00 00 80 3f 00 00 80 3f 00 00 80 3f
       1.0 1.0 1.0 1.0
0002d0 00 00 80 3f 00 00 80 3f 00 00 80 3f 00 00 80 3f
       1.0 1.0 1.0 1.0
0002e0 00 00 80 3f 00 00 80 3f 00 00 80 3f 00 00 80 3f
       1.0 1.0 1.0 1.0
0002f0 00 00 80 3f 00 00 80 3f 00 00 80 3f 00 00 80 3f
       1.0 1.0 1.0 1.0
000300 00 00 80 3f 00 00 80 3f 00 00 80 3f 00 00 80 3f
       1.0 1.0 1.0 1.0
000310 00 00 80 3f 00 00 80 3f 00 00 80 3f 00 00 80 3f
       1.0 1.0 1.0 1.0
000320 00 00 80 3f 00 00 80 3f 00 00 80 3f 00 00 80 3f
       1.0 1.0 1.0 1.0
000330 00 00 80 3f 00 00 80 3f 00 00 80 3f 00 00 80 3f
       1.0 1.0 1.0 1.0
000340 00 00 80 3f 00 00 80 3f 00 00 80 3f 00 00 80 3f
       1.0 1.0 1.0 1.0
000350 00 00 80 3f 00 00 80 3f 00 00 80 3f 00 00 80 3f
       1.0 1.0 1.0 1.0
000360 00 00 80 3f 00 00 80 3f 00 00 80 3f 00 00 80 3f
       1.0 1.0 1.0 1.0
000370 00 00 80 3f 00 00 80 3f 00 00 80 3f 00 00 80 3f
       1.0 1.0 1.0 1.0
000380 00 00 80 3f 00 00 80 3f 00 00 80 3f 00 00 80 3f
       1.0 1.0 1.0 1.0
000390 00 00 80 3f 00 00 80 3f 00 00 80 3f 00 00 80 3f
       1.0 1.0 1.0 1.0
0003a0 00 00 80 3f 00 00 80 3f 00 00 80 3f 00 00 80 3f
       1.0 1.0 1.0 1.0
0003b0 00 00 80 3f 00 00 80 3f 00 00 80 3f 00 00 80 3f
       1.0 1.0 1.0 1.0
0003c0 00 00 80 3f 00 00 80 3f 00 00 80 3f 00 00 80 3f
       1.0 1.0 1.0 1.0
0003d0 00 00 80 3f 00 00 80 3f 00 00 80 3f 00 00 80 3f
       1.0 1.0 1.0 1.0
0003e0 00 00 80 3f 00 00 80 3f 00 00 80 3f 00 00 80 3f
       1.0 1.0 1.0 1.0
0003f0 00 00 80 3f 00 00 80 3f 00 00 80 3f 00 00 80 3f
       1.0 1.0 1.0 1.0
