macros/Timing_estimation/models/August_05/run_5_3context_1flows_8hl_64hu_2000bs_checkpoint_e36.pth (torch, 602612 bytes, 72 tensors)

flows.0.mprqat.autoregressive_net.initial_layer.weight f4 [64, 1]
0	0x80055748	-4.90488e-40
1	0x80055b06	-4.9183e-40
2	0x000559cb	4.91389e-40
3	0x000559fb	4.91456e-40
4	0x800557f7	-4.90733e-40
5	0x800557ee	-4.90721e-40
6	0x000557ef	4.90722e-40
7	0x80055957	-4.91227e-40
8	0x00055888	4.90937e-40
9	0x0005576a	4.90536e-40
10	0x80055c44	-4.92276e-40
11	0x0005575c	4.90516e-40
12	0x80055992	-4.91309e-40
13	0x00055cbc	4.92444e-40
14	0x0005593c	4.91189e-40
15	0x80055db5	-4.92793e-40
16	0x800558e0	-4.9106e-40
17	0x000557c6	4.90665e-40
18	0x00055819	4.90781e-40
19	0x0005580e	4.90766e-40
20	0x00055b3e	4.91909e-40
21	0x0005579f	4.9061e-40
22	0x00055ce8	4.92506e-40
23	0x00055c1b	4.92219e-40
24	0x80055aa1	-4.91689e-40
25	0x80055a70	-4.9162e-40
26	0x80055dda	-4.92845e-40
27	0x00055882	4.90928e-40
28	0x00055892	4.9095e-40
29	0x00055880	4.90925e-40
30	0x0005591a	4.91141e-40
31	0x80055826	-4.90799e-40
32	0x80055950	-4.91217e-40
33	0x80055896	-4.90956e-40
34	0x00055826	4.90799e-40
35	0x80055a3a	-4.91545e-40
36	0x00055761	4.90523e-40
37	0x00055d0d	4.92558e-40
38	0x80055ccc	-4.92467e-40
39	0x00055891	4.90949e-40
40	0x800557a7	-4.90621e-40
41	0x0005586d	4.90899e-40
42	0x00055d82	4.92722e-40
43	0x80055ac3	-4.91737e-40
44	0x0005578c	4.90583e-40
45	0x000557f1	4.90725e-40
46	0x00055dd8	4.92842e-40
47	0x00055901	4.91106e-40
48	0x80055a6a	-4.91612e-40
49	0x80055d39	-4.9262e-40
50	0x00055d9f	4.92762e-40
51	0x00055c4a	4.92285e-40
52	0x80055a23	-4.91512e-40
53	0x00055774	4.9055e-40
54	0x80055956	-4.91225e-40
55	0x00055b82	4.92004e-40
56	0x80055ccc	-4.92467e-40
57	0x00055aa0	4.91688e-40
58	0x0005581b	4.90784e-40
59	0x80055a8f	-4.91664e-40
60	0x00055d68	4.92685e-40
61	0x00055b82	4.92004e-40
62	0x00055997	4.91316e-40
63	0x00055b11	4.91846e-40

flows.0.mprqat.autoregressive_net.initial_layer.bias f4 [64]
0	0x3e2ebb2a	0.17063585
1	0x3cc40464	0.023927875
2	0x3ed55e6c	0.416736
3	0x3d99d3f1	0.07511128
4	0xbd19874c	-0.037482545
5	0x3e743bf5	0.23850997
6	0xbf06c036	-0.5263704
7	0xbe8b2855	-0.27179208
8	0x3e6e7d6b	0.2329003
9	0x3e91e03d	0.28491393
10	0x3f742535	0.95369273
11	0x3e53b2d8	0.20673692
12	0xbf4b417b	-0.7939679
13	0xbf1f7d20	-0.623003
14	0x3ec24db7	0.37949917
15	0xbd9863c0	-0.07440901
16	0x3eeeec4a	0.4666465
17	0x3f504f93	0.8137142
18	0x3f1def7e	0.6169356
19	0xbd4a4883	-0.04938556
20	0x3e8f2d75	0.27964368
21	0xbf064a57	-0.52457184
22	0xbe1268e1	-0.1429782
23	0xbe72e56f	-0.23720334
24	0xbf3c6a4f	-0.73599714
25	0xbdd53d66	-0.104121014
26	0x3f5dac9f	0.86591524
27	0xbdaf1b07	-0.08550077
28	0x3f7d3cdb	0.98920983
29	0xbf1c5f56	-0.6108297
30	0x3cc457e8	0.023967698
31	0xbe92d5b2	-0.28678662
32	0x3ea62502	0.3245011
33	0x3f3d4c86	0.7394489
34	0xbf471ba3	-0.77776545
35	0xbe2fbce9	-0.17161907
36	0x3e01e13c	0.12683576
37	0x3bcc02d5	0.0062259235
38	0x3e7bf4e3	0.24605136
39	0xbe429a40	-0.19004154
40	0x3e6ca71e	0.23110625
41	0x3eca075b	0.39458737
42	0xbe903dfb	-0.28172287
43	0x3ebef483	0.37295923
44	0x3ed83290	0.42226076
45	0xbe9e12a5	-0.308736
46	0x3f5f7782	0.8729173
47	0x3f5295fc	0.8226011
48	0xbf2a519f	-0.66530794
49	0x3e9d1042	0.30676466
50	0xbe9c0d83	-0.3047906
51	0xbf0634fd	-0.52424604
52	0x3f6d7eb7	0.92771477
53	0x3ee60f07	0.4493334
54	0xbe6ee9fb	-0.23331444
55	0x3f214e8b	0.6301047
56	0xbe149e4b	-0.14513509
57	0xbe52d237	-0.20588003
58	0xbf06af48	-0.5261121
59	0x3eaadec6	0.33373088
60	0x3e876c39	0.26449755
61	0x3f308688	0.6895528
62	0xbe099897	-0.13437115
63	0xbeb0785d	-0.3446683

flows.0.mprqat.autoregressive_net.initial_layer.mask f4 [64, 1]
0	0x00000000	0.0
1	0x00000000	0.0
2	0x00000000	0.0
3	0x00000000	0.0
4	0x00000000	0.0
5	0x00000000	0.0
6	0x00000000	0.0
7	0x00000000	0.0
8	0x00000000	0.0
9	0x00000000	0.0
10	0x00000000	0.0
11	0x00000000	0.0
12	0x00000000	0.0
13	0x00000000	0.0
14	0x00000000	0.0
15	0x00000000	0.0
16	0x00000000	0.0
17	0x00000000	0.0
18	0x00000000	0.0
19	0x00000000	0.0
20	0x00000000	0.0
21	0x00000000	0.0
22	0x00000000	0.0
23	0x00000000	0.0
24	0x00000000	0.0
25	0x00000000	0.0
26	0x00000000	0.0
27	0x00000000	0.0
28	0x00000000	0.0
29	0x00000000	0.0
30	0x00000000	0.0
31	0x00000000	0.0
32	0x00000000	0.0
33	0x00000000	0.0
34	0x00000000	0.0
35	0x00000000	0.0
36	0x00000000	0.0
37	0x00000000	0.0
38	0x00000000	0.0
39	0x00000000	0.0
40	0x00000000	0.0
41	0x00000000	0.0
42	0x00000000	0.0
43	0x00000000	0.0
44	0x00000000	0.0
45	0x00000000	0.0
46	0x00000000	0.0
47	0x00000000	0.0
48	0x00000000	0.0
49	0x00000000	0.0
50	0x00000000	0.0
51	0x00000000	0.0
52	0x00000000	0.0
53	0x00000000	0.0
54	0x00000000	0.0
55	0x00000000	0.0
56	0x00000000	0.0
57	0x00000000	0.0
58	0x00000000	0.0
59	0x00000000	0.0
60	0x00000000	0.0
61	0x00000000	0.0
62	0x00000000	0.0
63	0x00000000	0.0

flows.0.mprqat.autoregressive_net.context_layer.weight f4 [64, 3]
0	0x3df7d0dc	0.12100384
1	0x3dcb6d36	0.0993294
2	0x3eca58e0	0.3952093
3	0xbe862373	-0.2619892
4	0x3cc55cfd	0.024092192
5	0xbe6fc89f	-0.23416375
6	0x3eb02067	0.3439972
7	0x3e92ba95	0.28657976
8	0xbed0b880	-0.40765762
9	0xbee2102c	-0.44152963
10	0x3b6d4543	0.0036204613
11	0xbdcffb06	-0.10155301
12	0x3e969b19	0.29415205
13	0x3f065359	0.5247093
14	0xbd96e284	-0.07367423
15	0xbf0d9a67	-0.55313724
16	0xbea9a86a	-0.33136302
17	0x3e364d4e	0.17802927
18	0xbd61684c	-0.055031106
19	0x3c798591	0.015229599
20	0x3efca63d	0.4934558
21	0xbe09edcd	-0.1346962
22	0xbe83ffc3	-0.25781068
23	0x3dbf7fb5	0.0935053
24	0x3e691a3f	0.22763918
25	0x3e97a888	0.29620767
26	0xbea46c82	-0.32114035
27	0x3f02d0b8	0.5109973
28	0x3ea5805f	0.32324502
29	0xbec33b0c	-0.38130987
30	0x3e2c6d75	0.1683863
31	0xbe651cfe	-0.22374341
32	0xbe035e5f	-0.12828968
33	0xbe98e1f8	-0.298599
34	0xbd0e201a	-0.034698583
35	0x3ed9ff0b	0.42577395
36	0xbd5e3ce7	-0.0542573
37	0x3ec966f5	0.39336362
38	0x3e22c017	0.15893589
39	0xbe8fe83a	-0.28106862
40	0xbece3442	-0.40274245
41	0x3e845eae	0.25853485
42	0x3e880f48	0.2657416
43	0x3e6b0be6	0.22953758
44	0xbeb5ab2a	-0.3548215
45	0xbe70e6a5	-0.23525484
46	0xbe9c76b6	-0.3055932
47	0x3e50482c	0.20340031
48	0xbf07cb5f	-0.53044695
49	0xbecfc3e6	-0.40579146
50	0x3e56be69	0.20971073
51	0xbd9e9d54	-0.07744852
52	0xbd8a5c43	-0.06755879
53	0x3ef4909a	0.47766572
54	0xbec9fb93	-0.39449748
55	0x3efd8929	0.49518707
56	0xbe212e00	-0.15740204
57	0xbf093a3d	-0.5360449
58	0xbe1dc948	-0.15408814
59	0x3dba8275	0.09106914
60	0x3ee26722	0.4421931
61	0xbea3e5aa	-0.32011157
62	0xbeb0c9d9	-0.34528998
63	0xbf0a2a3a	-0.5397068
64	0xbed97d61	-0.4247847
65	0x3de5bc5e	0.11217569
66	0xbed6c2d7	-0.41945526
67	0xbf059baf	-0.5219068
68	0x3ef0f498	0.4706161
69	0x3eae2450	0.3401208
70	0xbe9832cd	-0.29726258
71	0x3e6d4058	0.23169076
72	0xbe250559	-0.16115321
73	0x3ba5368e	0.005041904
74	0xbe9e5191	-0.30921605
75	0x3e41e570	0.1893518
76	0xbec36d9c	-0.38169563
77	0x3ef3b9c1	0.47602656
78	0x3da2f77b	0.079573594
79	0x3edff9b4	0.43745196
80	0xbe67fc1f	-0.2265477
81	0xbd45cb92	-0.048289843
82	0xbeb2e77e	-0.3494224
83	0xbede6d24	-0.43442643
84	0x3c8ce216	0.01719765
85	0x3df5267f	0.11970233
86	0xbaa3e265	-0.0012503384
87	0x3daab9c6	0.08336215
88	0x3ef9d085	0.487919
89	0xbbb05646	-0.0053813783
90	0x3ed3a20e	0.41334575
91	0xbef5e3cf	-0.48025367
92	0x3ebd17b2	0.3693214
93	0xbdd8e8e5	-0.10591296
94	0xbed36431	-0.41287377
95	0xbc6136e2	-0.013745995
96	0x3ec593ea	0.38589412
97	0x3ee37e4f	0.44432303
98	0x3ed43d4a	0.4145301
99	0xbdd78133	-0.1052269
100	0xbe02ed0c	-0.12785739
101	0xbe8daa1a	-0.2766884
102	0x3e860183	0.26173028
103	0x3ee42fd3	0.44567737
104	0xbeb990a4	-0.36243165
105	0xbe2cb787	-0.16866885
106	0x3e8a2f54	0.26989233
107	0x3dfe4ddd	0.12417195
108	0x3ee86a4d	0.453936
109	0x3d8f80f7	0.0700702
110	0xbefca6f9	-0.4934614
111	0x3a09205e	0.00052309583
112	0x3d6eb6b7	0.05827972
113	0x3e9b7bec	0.30367982
114	0x3d094f65	0.033522982
115	0x3ed5aad2	0.41731888
116	0xbeb90db9	-0.36143282
117	0x3f043358	0.51640844
118	0x3d7746fb	0.060370427
119	0x3eb837da	0.3598011
120	0xbebb2fd1	-0.3655992
121	0xbded1321	-0.11575914
122	0x3d0edbae	0.03487747
123	0xbd3a6c41	-0.045513395
124	0x3e901682	0.28142172
125	0x3de93101	0.113863
126	0x3f0e1792	0.55504715
127	0xbc4ce2fa	-0.012505287
128	0xbe3a585c	-0.18197769
129	0xbe43bdbf	-0.19115351
130	0xbed96d69	-0.42466286
131	0xbe13a312	-0.14417675
132	0xbd0405a8	-0.032231957
133	0x3e64a9e4	0.22330433
134	0x3defd7da	0.11711092
135	0xbe93cabe	-0.28865618
136	0x3eae65b8	0.3406198
137	0xbe151dcb	-0.14562146
138	0x3eca56fb	0.39519486
139	0xbe8e0d85	-0.2774469
140	0x3eb26745	0.34844413
141	0xbe8eac2f	-0.2786574
142	0x3ddc4468	0.10755235
143	0xbef9e372	-0.4880634
144	0x3e4c5010	0.19952416
145	0x3e244628	0.16042387
146	0x3ec0ed04	0.3768083
147	0x3d31bf0e	0.043395095
148	0x3df7e5b3	0.121043585
149	0x3e238f48	0.15972626
150	0xbeee91a1	-0.4659548
151	0x3e0d0769	0.13772358
152	0x3f0c9baa	0.54925025
153	0xbe6731fe	-0.22577664
154	0x3ee45789	0.44598034
155	0xbe08e969	-0.13370289
156	0x3eb7a7fd	0.35870352
157	0xbe94bb91	-0.29049352
158	0xbcbcdb4e	-0.023053791
159	0xbef2f5fb	-0.47453293
160	0x3dacffe1	0.084472425
161	0xbeb2ba69	-0.34907845
162	0xbee04f2e	-0.4381041
163	0xbd4dd39f	-0.050250646
164	0xbe338ec9	-0.17534937
165	0x3e82a2dd	0.2551488
166	0x3eb2097d	0.34772864
167	0x3f03f769	0.5154939
168	0xbd5033ab	-0.050830524
169	0x3ead0362	0.33791643
170	0x3e034d96	0.12822565
171	0xbecd6a03	-0.40119943
172	0x3e67c412	0.22633389
173	0xbead73e3	-0.33877477
174	0x3ea9dbd3	0.33175525
175	0x3e9f3532	0.31095272
176	0x3eca5304	0.3951646
177	0xbee3bfb0	-0.44482183
178	0x3f0a85b9	0.54110295
179	0xbeac836e	-0.33694023
180	0x3d8ff555	0.07029215
181	0xbe8b905e	-0.2725858
182	0x3ef9910f	0.48743483
183	0xbe43588c	-0.19076747
184	0x3e581e2b	0.21105258
185	0x3e414123	0.18872504
186	0x3d62021b	0.05517779
187	0x3dfb4f90	0.12271035
188	0xbe9b2e9a	-0.30308992
189	0xbe876161	-0.26441482
190	0x3dc17f41	0.094481
191	0xbeee4c64	-0.46542656

flows.0.mprqat.autoregressive_net.context_layer.bias f4 [64]
0	0xbe81eaa3	-0.25374326
1	0x3ef15b01	0.47139743
2	0x3ea3905a	0.3194607
3	0xbd2b8121	-0.041871194
4	0x3e0d96d6	0.1382707
5	0x3f04815b	0.5175988
6	0x3f293c49	0.6610761
7	0x3ed6dbe8	0.4196465
8	0x3de3f33a	0.11130376
9	0xbe6b23e4	-0.2296291
10	0x3e973c4e	0.29538196
11	0x3c68da42	0.014212193
12	0xbefbb38c	-0.4916042
13	0xbdac4d5e	-0.08413194
14	0xbe08a8ce	-0.13345644
15	0x3d8807f1	0.0664214
16	0x3db9a191	0.090640195
17	0xbe35e7f8	-0.1776427
18	0xbe934d54	-0.28769934
19	0xbe07ca92	-0.13260868
20	0xbed383d2	-0.41311508
21	0x3ec0b3e9	0.3763726
22	0x3de30869	0.110855885
23	0xbcc20bee	-0.02368733
24	0x3e94ac7e	0.2903785
25	0x3d7f73b1	0.06236619
26	0x3ec2967e	0.3800544
27	0xbdacf51d	-0.08445189
28	0x3e18f869	0.14938511
29	0x3d83f0ea	0.06442435
30	0x3ceb5c3b	0.028730502
31	0xbee35c34	-0.44406283
32	0x3d393756	0.045218788
33	0xbe9a86d0	-0.3018098
34	0xbd415e22	-0.047208913
35	0xbe956256	-0.29176587
36	0x3e5ca278	0.21546352
37	0x3d7dcfbc	0.06196569
38	0xbe05d35e	-0.13068911
39	0x3e355acc	0.17710418
40	0xbc1f6848	-0.009729452
41	0x3ee5355c	0.44767272
42	0x3dacea49	0.08443124
43	0x3eb45ed2	0.35228592
44	0xbe3ca0e6	-0.18420753
45	0xbecb7ecc	-0.39745176
46	0x3ecad809	0.39617947
47	0xbe5e47e1	-0.21707107
48	0x3e3c991f	0.18417786
49	0x3ea0318b	0.31287798
50	0x3e353f1a	0.17699853
51	0x3dc05ef2	0.093931094
52	0x3e13909c	0.14410633
53	0xbe82901d	-0.25500575
54	0xbc91b5f6	-0.017786961
55	0x3e66cbed	0.22538729
56	0xbd0e7945	-0.03478362
57	0x3e27c671	0.16384293
58	0x3e67b800	0.22628784
59	0xbe9e949b	-0.30972752
60	0x3f0b67f9	0.54455525
61	0x3eb9cde2	0.3628989
62	0x3e76cd56	0.24101767
63	0x3ea77b16	0.32711095

flows.0.mprqat.autoregressive_net.blocks.0.context_layer.weight f4 [64, 3]
0	0x3e0040a5	0.1252466
1	0x3e4ef9e7	0.20212518
2	0x3da5b7a9	0.08091671
3	0xbd55f1e8	-0.052232653
4	0xbcbe5b90	-0.02323702
5	0xbc8934ee	-0.016748872
6	0x3d41678e	0.047217898
7	0x3d783fc0	0.06060767
8	0xbbda734d	-0.006666577
9	0xbbc7e1a3	-0.006099896
10	0xbbb13630	-0.005408071
11	0x3d5cdfd0	0.05392438
12	0xbe893fee	-0.26806587
13	0xbb1b6b3d	-0.0023715042
14	0x3e4d3374	0.20039159
15	0x3d97b6cc	0.074079126
16	0xbb3a975c	-0.0028471565
17	0xbd42d4c6	-0.047566198
18	0x3e5f4dba	0.21806994
19	0x3e660330	0.22462153
20	0xbdb9f2a9	-0.09079487
21	0xbe06f614	-0.13179809
22	0x3f0e2d54	0.55537915
23	0xbd69d7ea	-0.057090677
24	0x3dd90987	0.1059752
25	0x3d520bc3	0.051280748
26	0x3d871db0	0.06597459
27	0xbb366133	-0.0027828931
28	0x3eb8d3fc	0.3609923
29	0xbebc2cd4	-0.3675295
30	0xbe826e54	-0.254748
31	0x3c1a79a6	0.009428417
32	0xbd67ee23	-0.05662359
33	0xbe620c8a	-0.22075096
34	0x3e8ce60e	0.27519268
35	0xbcca6029	-0.024704056
36	0x3d50dbff	0.050991055
37	0x3c08f06d	0.008358103
38	0x3e5937bb	0.21212666
39	0x3bdda09b	0.0067635304
40	0x3b5592a1	0.0032588618
41	0x3c7207d9	0.014772379
42	0x3d43cea8	0.047804505
43	0x3d1e341a	0.038623907
44	0x3c934bc6	0.017980468
45	0x3decf745	0.115706004
46	0x3c74f957	0.014952025
47	0xbdd468cb	-0.1037155
48	0xbe89b0d9	-0.26892737
49	0x3ead4cde	0.33847708
50	0xbd902467	-0.07038193
51	0x3e1e702f	0.15472482
52	0xbed14683	-0.4087411
53	0x3c043bf6	0.008070936
54	0x3d22d03d	0.039749373
55	0xbf05ed0c	-0.5231483
56	0xbd933bc5	-0.071891345
57	0x3c5e7cf0	0.013579592
58	0x3d44c042	0.048034914
59	0x3dc26888	0.09492594
60	0xbe0f4110	-0.13989663
61	0x3e0c3a9e	0.13694236
62	0xbe91593d	-0.28388396
63	0x3d07ad44	0.033124223
64	0x3d011090	0.031509936
65	0x3def3794	0.116805226
66	0xbc4bfc37	-0.012450269
67	0xbdc92070	-0.0982064
68	0xbd9d6db9	-0.076869436
69	0xbdec3299	-0.11533088
70	0x3e36f37b	0.17866318
71	0xbe9714e2	-0.2950812
72	0xbe158bfc	-0.14604181
73	0x3a9ce724	0.0011970741
74	0x3bb99407	0.005663398
75	0xbe29a2f6	-0.16566071
76	0x3e6a162f	0.22860025
77	0xbe872f17	-0.26403114
78	0x3cd9f759	0.026607202
79	0xbef9cc4d	-0.48788682
80	0xbd415add	-0.047205795
81	0x3d3d0036	0.04614278
82	0x3e464165	0.19360884
83	0x3e6f2f1f	0.23357819
84	0xbd7ccb3b	-0.061717253
85	0x3d9f2121	0.07769991
86	0xbe808660	-0.2510252
87	0x3bb49a06	0.005511525
88	0x3dea2b04	0.11433986
89	0xbd1cd170	-0.038285673
90	0xbe3b1d5b	-0.18272917
91	0xbda824fc	-0.08210179
92	0x3dae3508	0.08506209
93	0x3c0dd16e	0.008655889
94	0x3d3d2483	0.0461774
95	0xbc73d3eb	-0.014882068
96	0x3e01de93	0.12682562
97	0x3d0f937f	0.035052773
98	0x3d4fbf9a	0.050719835
99	0x3e5586b3	0.20852165
100	0xbe908158	-0.2822368
101	0x3ddcb1ea	0.10776122
102	0xb9b29bd2	-0.000340669
103	0x3e5b5451	0.21418883
104	0x3cba2983	0.022724872
105	0x3cb59a59	0.022168325
106	0x3bcacf79	0.0061892834
107	0x3d478956	0.048714958
108	0x3ddd9a5a	0.10820456
109	0x3ca36bce	0.019948866
110	0xbd8df51c	-0.069315165
111	0x3d910205	0.07080463
112	0xbc6ef8df	-0.014585703
113	0x3d8302e5	0.063970365
114	0x3b567ae1	0.003272705
115	0xbbd1e5f4	-0.0064055864
116	0xbcd5afbe	-0.026084777
117	0xbe25df07	-0.1619836
118	0xbe0b540c	-0.1360628
119	0xbdc9948e	-0.09842788
120	0xbdb3934c	-0.08768329
121	0xbc926e83	-0.017874962
122	0x3bdf0614	0.0068061445
123	0x3c94acdb	0.01814883
124	0x3e0ff6ed	0.14059038
125	0x3da67c77	0.081292085
126	0xbdccaee7	-0.099942975
127	0xbd6bacd5	-0.057537872
128	0x3d8e5ba7	0.06951075
129	0x3c2c387f	0.010511517
130	0xbbb9c23b	-0.005668906
131	0xbd79568b	-0.06087355
132	0xbdbfefcf	-0.09371912
133	0x3e9e1657	0.3087642
134	0xbe51017e	-0.20410725
135	0x3b62cd2f	0.0034607162
136	0xbb906053	-0.004406014
137	0xbc0a19d8	-0.008429013
138	0xbe8aac2f	-0.2708449
139	0xbdcf4530	-0.10120618
140	0xbea02424	-0.31277573
141	0xbd17f087	-0.03709462
142	0xbc2128ad	-0.009836358
143	0x3d243b2f	0.040095504
144	0x3de2a0ea	0.11065848
145	0x3cfc5de3	0.030806487
146	0xbcf1aad1	-0.029500397
147	0xbeba1623	-0.36345014
148	0x3e3262f2	0.17420557
149	0x3cf4227e	0.029801603
150	0xbaa0cdfb	-0.0012268418
151	0x3ebccc62	0.36874682
152	0x3edebe1a	0.4350441
153	0x3b3b9ae4	0.0028626258
154	0x3d92b3f4	0.071632296
155	0x3dda5cc9	0.106622286
156	0xbe8df3b8	-0.27725005
157	0xbe907857	-0.28216812
158	0x3d38cac3	0.045115244
159	0x3e6702b5	0.22559626
160	0xbe897303	-0.2684556
161	0x3b687e8f	0.0035475825
162	0xbd9188f9	-0.071062036
163	0xbd3bfbfc	-0.045894608
164	0xbd21cb29	-0.03950039
165	0xbe95f3d4	-0.2928759
166	0xbdc1afdf	-0.09457373
167	0xbde4061c	-0.11133978
168	0xbe1bf238	-0.15229118
169	0xbd2d4a71	-0.04230732
170	0xbe07c925	-0.13260324
171	0xbb9282a8	-0.004471142
172	0xbec55a88	-0.38545632
173	0xbed6f7c5	-0.41985908
174	0xbdbe7fca	-0.093017176
175	0xbe56e99d	-0.20987554
176	0xbe0c3d36	-0.13695225
177	0x3e0100fd	0.12598033
178	0xbb5c2af3	-0.0033594936
179	0x3ba7df12	0.0051230276
180	0xbe3c132d	-0.1836669
181	0xbe1d3178	-0.15350902
182	0x3dc7b21d	0.09750769
183	0xbe847881	-0.25873187
184	0x3cf9d66c	0.030497752
185	0xbdfc97d4	-0.123336464
186	0x3de5485a	0.111954406
187	0x3cac918d	0.021065498
188	0x3c9acec4	0.018897422
189	0xbe23ea0b	-0.16007249
190	0xbd0666c7	-0.03281286
191	0x3c6ace20	0.014331371

flows.0.mprqat.autoregressive_net.blocks.0.context_layer.bias f4 [64]
0	0x3d94c0f7	0.072633676
1	0xbd40834e	-0.047000222
2	0x3d2b20c0	0.04177928
3	0xbda25b9e	-0.07927631
4	0x3d305caf	0.04305714
5	0x3d063628	0.03276649
6	0x3d45bcca	0.048275746
7	0x3ec4f1dc	0.38465774
8	0xbcf1de35	-0.029524902
9	0x3dedb644	0.1160703
10	0xbd2812e3	-0.041033637
11	0x3bcfe402	0.0063443193
12	0x3ddfb0b4	0.10922375
13	0x3d7198a3	0.058983456
14	0x3da7e590	0.081980824
15	0x3d276f0a	0.04087738
16	0x3aea22b0	0.0017863121
17	0xbc30374b	-0.01075537
18	0xbc19b52d	-0.009381575
19	0xbdfe597c	-0.124194115
20	0x3e14601d	0.1448979
21	0x3d8a838b	0.06763371
22	0xbd1a82ff	-0.037722584
23	0x3cf3e82d	0.029773796
24	0x3c11a7d5	0.008890112
25	0xbdfba0f2	-0.12286557
26	0x3e5221f7	0.20520769
27	0x3cf1866f	0.029483048
28	0x3ee98b79	0.45614222
29	0x3d8fb70a	0.07017334
30	0x3c048652	0.008088665
31	0xbce37b40	-0.027768731
32	0x3c957490	0.018244058
33	0x3b86819a	0.004104805
34	0x3cd27677	0.025691254
35	0x3d1f3fdc	0.03887926
36	0x3d2cb0f9	0.04216096
37	0xbd45dbfc	-0.048305497
38	0x3ccea973	0.025227284
39	0xbc466db2	-0.012111114
40	0xbb1f2853	-0.002428551
41	0x3e89ddd9	0.2692707
42	0x3cd1cf0f	0.025611429
43	0x3da5341a	0.08066578
44	0xbcd479b8	-0.025936946
45	0x3d856821	0.06514002
46	0x3e0c48bf	0.13699625
47	0xbd5a4ca5	-0.05329575
48	0xbcabe13c	-0.020981424
49	0x3d01f364	0.031726256
50	0xbda6f307	-0.081518225
51	0x3c6c832d	0.014435572
52	0x3c1d689c	0.00960746
53	0x3bf93828	0.0076055713
54	0xbd2b91a1	-0.04188693
55	0x3dabc6c7	0.08387523
56	0x3c931b0c	0.017957233
57	0x3e4e142f	0.20124887
58	0x3cc332fb	0.02382802
59	0x3b652848	0.0034966636
60	0xbdc16917	-0.094438724
61	0xbc4faf27	-0.012676037
62	0x3c7ec22f	0.015549227
63	0x3b8bbffa	0.0042648287

flows.0.mprqat.autoregressive_net.blocks.0.linear_layers.0.weight f4 [64, 64]
0	0xbc2a6b42	-0.010401549
1	0x3d46a9c4	0.048501745
2	0xbba7436a	-0.005104472
3	0x3d5ae49e	0.053440683
4	0xbbab00bd	-0.005218594
5	0x3d518d8b	0.051160377
6	0x3d1a2cb4	0.03764029
7	0x3d2edc87	0.04269078
8	0xbba07808	-0.0048971213
9	0xbbd2aa07	-0.0064289602
10	0x39b17339	0.00033845918
11	0x3d4c25e7	0.049840834
12	0x3cfa3420	0.030542433
13	0x3d4c0283	0.049807083
14	0xbb546377	-0.0032407918
15	0x3d33a1f7	0.043855634
16	0x3d5022b8	0.05081436
17	0x3d122b3a	0.035685755
18	0x3d515c75	0.051113565
19	0x3d56103b	0.052261572
20	0xbb98aba6	-0.004659134
21	0x3d56df78	0.05245921
22	0x3d49b6e5	0.049246687
23	0xbc72e812	-0.014825838
24	0x3d55b859	0.05217776
25	0xbcd006da	-0.025393892
26	0xbb8d7363	-0.0043167337
27	0x3d266ed7	0.04063305
28	0xbba8a10c	-0.0051461514
29	0xbb44b64d	-0.0030015886
30	0xbc8f5c8a	-0.01750018
31	0x3d3ca390	0.046054423
32	0xbc023ced	-0.007949096
33	0x3d2e3be6	0.042537592
34	0xbbab8aa8	-0.005235035
35	0x3d3d9648	0.046285897
36	0xbc0eeabc	-0.008722957
37	0x3bd43c69	0.006476928
38	0xba3dc184	-0.0007238614
39	0xbc5ef06f	-0.0136071285
40	0x3d52d8b2	0.051476188
41	0x3cbf4026	0.023346018
42	0xbc67a6c0	-0.014138877
43	0x3d396a90	0.04526764
44	0x3cbdc749	0.023166316
45	0x3d63ba2d	0.055597473
46	0xbca1954d	-0.019724512
47	0x3d5d0b8e	0.053966098
48	0xbc105fed	-0.008811933
49	0xbbed3a99	-0.0072396514
50	0x3d5b1979	0.05349109
51	0x3d49c485	0.04925968
52	0xbc24e61e	-0.01006463
53	0x3d5fc4e3	0.054631125
54	0x3d5d149b	0.05397473
55	0xbc179553	-0.00925191
56	0x3cb891a8	0.022530392
57	0x3d63745a	0.055530883
58	0xbc01cc44	-0.007922236
59	0x3d5d7096	0.05406245
60	0xbc4d748a	-0.012539992
61	0x3d39ee93	0.045393538
62	0x3a7394db	0.00092918955
63	0x3d5e4bfe	0.05427169
64	0xbd683089	-0.05668691
65	0x3b0c2fd6	0.0021390817
66	0x3c58c68d	0.013230932
67	0xba27b1d9	-0.0006397046
68	0x3cec95a2	0.028879944
69	0x3b6a590f	0.003575865
70	0x3d081e72	0.03323216
71	0xba242fbf	-0.0006263218
72	0x3d0cc9b0	0.03437203
73	0x3d46c3cf	0.04852658
74	0x3d57c089	0.05267385
75	0x3bcec9d8	0.0063106827
76	0xbda64a78	-0.081196725
77	0xbb68d1ef	-0.003552552
78	0x3d87c9aa	0.06630261
79	0xb9d8d436	-0.0004135684
80	0x3b382fdc	0.0028104698
81	0x3d046ae5	0.032328505
82	0x3b7edee7	0.0038890184
83	0xba717c83	-0.0009211974
84	0x3c943a86	0.018094312
85	0xbabe5560	-0.0014521293
86	0x3b245876	0.002507714
87	0x3df0f609	0.117656775
88	0xbc0fe4bc	-0.008782562
89	0x3d4a0d8c	0.049329326
90	0x3de3ad28	0.11117011
91	0xbc85b9bb	-0.016323915
92	0xbcd6f3ef	-0.026239363
93	0xbcaf7c5b	-0.021421602
94	0x3d8f5341	0.06998301
95	0xbc7e0034	-0.015502978
96	0xbcf14126	-0.02945001
97	0x3aaf4cbc	0.0013374309
98	0xbcb6f048	-0.022331372
99	0x3be20d2c	0.006898543
100	0xbd6d6dcc	-0.05796604
101	0x3d688de1	0.05677593
102	0x3ca5c423	0.020235127
103	0x3cb1568c	0.021647714
104	0x3ad6840f	0.0016366261
105	0x3d371d76	0.04470583
106	0xbdd791e9	-0.10525877
107	0x3934b1a0	0.00017232308
108	0x3c2af6d0	0.010434821
109	0xbb6d84d6	-0.0036242506
110	0x3e062bfb	0.13102715
111	0xba58c8cd	-0.0008269668
112	0x3c83bfcc	0.016082667
113	0x3cba8320	0.022767603
114	0xbb8233bc	-0.0039734524
115	0xbae24bb9	-0.0017264999
116	0x3d5d90f0	0.0540933
117	0xb866af16	-5.4999335e-05
118	0xbb0b4a16	-0.0021253875
119	0xbd649e67	-0.055815127
120	0xbcfa1f79	-0.030532585
121	0xb9bbb5ee	-0.00035802968
122	0xbdaa4895	-0.08314625
123	0x3a5e0562	0.000846943
124	0xbd1d36fd	-0.03838252
125	0x3bac1af7	0.005252238
126	0xbc8c694f	-0.017140059
127	0xbb4b3d36	-0.0031011826
128	0x3daa2483	0.08307745
129	0x3b50992c	0.0031829579
130	0xbd7de4b0	-0.06198567
131	0x3b4b31b8	0.0031004976
132	0x3d12b4d1	0.03581697
133	0x3b76e142	0.0037670885
134	0x3c1d3c60	0.009596914
135	0x3b80deaf	0.003932796
136	0xbdc7023c	-0.09717223
137	0x3d999e5b	0.07500907
138	0x3db9bf20	0.09069657
139	0xbbf9a8ef	-0.0076190154
140	0xbc894127	-0.0167547
141	0xb9a2d60d	-0.00031058528
142	0x3c846cf8	0.016165242
143	0x39b3df69	0.00034307994
144	0x3a982cab	0.0011609992
145	0x3c415635	0.0118003385
146	0xbbdb848a	-0.0066991495
147	0x3b3d5c5c	0.0028894162
148	0xbca512cc	-0.020150565
149	0x3b5e8d3d	0.0033958696
150	0xbb6bf8e9	-0.0036006516
151	0x3c8df92d	0.01733073
152	0x3a83b196	0.0010047432
153	0x3c5335c5	0.012891238
154	0x3befe71c	0.0073212516
155	0xbb5e5de6	-0.003393048
156	0x3d5b3661	0.053518657
157	0xbcea9437	-0.028635127
158	0x3df1f7df	0.11814856
159	0x3b241b54	0.0025040703
160	0xbdb2c9b2	-0.087298766
161	0x3b0ded10	0.0021656193
162	0x3aa4c5a3	0.0012571107
163	0xbc155cd7	-0.009116373
164	0x3dbfff0c	0.09374818
165	0x3c03ab52	0.008036451
166	0xbd8238a3	-0.06358459
167	0x3d9eed0d	0.077600576
168	0x3ba0de80	0.0049093366
169	0xbd57d4a2	-0.052693017
170	0x3dfdc378	0.12390798
171	0x3b805e85	0.0039175176
172	0xbd5b2093	-0.053497862
173	0xbc02647b	-0.007958527
174	0x3b83a388	0.004017297
175	0x3b303d80	0.0026892126
176	0xbd8ce88b	-0.068802916
177	0x3ae1692d	0.0017197483
178	0xbc0b7ba6	-0.008513367
179	0xbc6be6c3	-0.01439828
180	0x3cff0f36	0.031135183
181	0x3b26bdfe	0.0025442834
182	0x3b18cd7e	0.0023315842
183	0xbd60ad70	-0.054852903
184	0xbb0cc4eb	-0.0021479677
185	0x3b4e7a17	0.0031505877
186	0x3dd3c5e4	0.10340479
187	0xbc1f6381	-0.009728313
188	0x3d9b1d79	0.07573981
189	0x3c4eda8a	0.012625346
190	0x3d51a688	0.051184207
191	0x3b1d54d8	0.002400687
192	0xbd3b1230	-0.04567164
193	0x3bb102e6	0.005401957
194	0xbcba2682	-0.02272344
195	0xbacec6d2	-0.0015775806
196	0x3cf59fb5	0.02998338
197	0xbbaa6655	-0.005200187
198	0x3c953d02	0.018217567
199	0xbb35d83d	-0.0027747296
200	0xbd7d07c4	-0.061774984
201	0x3cbb13d1	0.022836598
202	0x3da91716	0.082563564
203	0x3c2da7de	0.010599105
204	0x3d9be52d	0.07612071
205	0xbb938b11	-0.004502662
206	0x3d41e4aa	0.04733721
207	0x3a24ae47	0.0006282073
208	0x3c30b5e6	0.0107855555
209	0x3cadfd42	0.021238927
210	0x3c0a5e84	0.008445386
211	0xbb9f8783	-0.004868449
212	0xbc3e02b6	-0.011597326
213	0xba88105c	-0.0010380852
214	0x3b085c98	0.0020807143
215	0xbda835d5	-0.08213393
216	0xbbb95ae3	-0.0056565865
217	0xbdae8451	-0.08521331
218	0x3d970015	0.073730625
219	0xbcb7bfb0	-0.02243027
220	0x3da80f47	0.08206039
221	0x3da82a84	0.08211234
222	0xbd8d80cb	-0.06909331
223	0xbc94496b	-0.018101415
224	0xbdcd8f9e	-0.100371584
225	0xbaa87b91	-0.0012854208
226	0x3c8dcf47	0.017310752
227	0x3b155fce	0.00227927
228	0x3e08b8c2	0.1335173
229	0xbc9e615c	-0.019333534
230	0xbd7a655e	-0.061131828
231	0x3c9e1a96	0.019299787
232	0x3ba8984f	0.0051451097
233	0x3d07a19a	0.0331131
234	0x3d9fcd39	0.07802815
235	0xbb531d49	-0.00322135
236	0x3d0236d7	0.03179058
237	0xbae15b4a	-0.0017193344
238	0xb8373506	-4.3679982e-05
239	0xbc08338f	-0.008313074
240	0xbd80ee6e	-0.06295477
241	0xbd657d9d	-0.056027997
242	0xbb4f4ff9	-0.003163336
243	0x39c0fe15	0.000368104
244	0x3de4b7d8	0.11167878
245	0x3b6e43a1	0.0036356228
246	0xba316a41	-0.0006767847
247	0x3d58ff37	0.052977767
248	0x3d5b7936	0.053582393
249	0x3b53e654	0.0032333331
250	0x3e07e84f	0.13272212
251	0xbc3cf832	-0.011533784
252	0xbcff3a5b	-0.031155756
253	0x3cbc2b07	0.022969736
254	0xbd91ea6b	-0.0712479
255	0xba55e446	-0.00081593206

flows.0.mprqat.autoregressive_net.blocks.0.linear_layers.0.bias f4 [64]
0	0xbbacb43d	-0.0052705095
1	0x3e125907	0.14291774
2	0x3d5b8863	0.053596865
3	0x3daa1ce2	0.0830629
4	0x3dc75bc0	0.09734297
5	0x3df45469	0.119301625
6	0x3e157570	0.1459558
7	0x80055ee0	-4.93212e-40
8	0x3e18739e	0.14887854
9	0x3e009754	0.12557727
10	0x3da90254	0.08252397
11	0x3e0b12ca	0.13581386
12	0x3de11914	0.109911114
13	0x800557ba	-4.90648e-40
14	0x3e0f3e54	0.1398862
15	0x3dcd7e7b	0.1003389
16	0x3db8b619	0.09019107
17	0x3dc396b4	0.09550229
18	0x3e1db29f	0.1540017
19	0x3db318a0	0.08744931
20	0x3db0d3c8	0.08634144
21	0x3de7d927	0.113207154
22	0x3cc410ec	0.02393385
23	0xbd8b1756	-0.0679156
24	0x3dcc89bc	0.09987208
25	0x3dda83f8	0.10669702
26	0x3e0f4486	0.13990983
27	0x3e36b272	0.17841509
28	0x3dbedee4	0.09319857
29	0x3e1aaeba	0.15105715
30	0x3dcf1f40	0.10113382
31	0x3e0507a7	0.129912
32	0xbcc36740	-0.023852944
33	0x3e1719d3	0.14755945
34	0x3e3f77c4	0.1869803
35	0x3e0d9560	0.13826513
36	0x3e2747d1	0.1633599
37	0x3e29e416	0.16590914
38	0x3de4b041	0.1116643
39	0x3e508247	0.20362197
40	0x3dbe021d	0.09277747
41	0x3e3254c9	0.17415155
42	0x3dd250a1	0.10269285
43	0x3e4a603d	0.19763274
44	0x3dec5164	0.115389615
45	0x3dfc7bb9	0.12328286
46	0x3dbe9624	0.09305981
47	0x3e02273f	0.12710284
48	0x3e200b4b	0.15629308
49	0x3e179ff8	0.14807117
50	0x3e2b0206	0.1669999
51	0x3e048936	0.12942967
52	0x3e435bf1	0.19078042
53	0x3ddd9c0d	0.1082078
54	0x3e2ff56c	0.17183465
55	0x3dc0f184	0.094210654
56	0x3e63ece3	0.22258334
57	0x3e54c1dd	0.20777078
58	0x3df51e89	0.11968715
59	0x3dc4ee70	0.09615791
60	0x3e07cb62	0.13261178
61	0x3db4e3a5	0.08832482
62	0x3de82fbd	0.1133723
63	0xbd2c4681	-0.042059425

flows.0.mprqat.autoregressive_net.blocks.0.linear_layers.0.mask f4 [64, 64]
0	0x3f800000	1.0
1	0x3f800000	1.0
2	0x3f800000	1.0
3	0x3f800000	1.0
4	0x3f800000	1.0
5	0x3f800000	1.0
6	0x3f800000	1.0
7	0x3f800000	1.0
8	0x3f800000	1.0
9	0x3f800000	1.0
10	0x3f800000	1.0
11	0x3f800000	1.0
12	0x3f800000	1.0
13	0x3f800000	1.0
14	0x3f800000	1.0
15	0x3f800000	1.0
16	0x3f800000	1.0
17	0x3f800000	1.0
18	0x3f800000	1.0
19	0x3f800000	1.0
20	0x3f800000	1.0
21	0x3f800000	1.0
22	0x3f800000	1.0
23	0x3f800000	1.0
24	0x3f800000	1.0
25	0x3f800000	1.0
26	0x3f800000	1.0
27	0x3f800000	1.0
28	0x3f800000	1.0
29	0x3f800000	1.0
30	0x3f800000	1.0
31	0x3f800000	1.0
32	0x3f800000	1.0
33	0x3f800000	1.0
34	0x3f800000	1.0
35	0x3f800000	1.0
36	0x3f800000	1.0
37	0x3f800000	1.0
38	0x3f800000	1.0
39	0x3f800000	1.0
40	0x3f800000	1.0
41	0x3f800000	1.0
42	0x3f800000	1.0
43	0x3f800000	1.0
44	0x3f800000	1.0
45	0x3f800000	1.0
46	0x3f800000	1.0
47	0x3f800000	1.0
48	0x3f800000	1.0
49	0x3f800000	1.0
50	0x3f800000	1.0
51	0x3f800000	1.0
52	0x3f800000	1.0
53	0x3f800000	1.0
54	0x3f800000	1.0
55	0x3f800000	1.0
56	0x3f800000	1.0
57	0x3f800000	1.0
58	0x3f800000	1.0
59	0x3f800000	1.0
60	0x3f800000	1.0
61	0x3f800000	1.0
62	0x3f800000	1.0
63	0x3f800000	1.0
64	0x3f800000	1.0
65	0x3f800000	1.0
66	0x3f800000	1.0
67	0x3f800000	1.0
68	0x3f800000	1.0
69	0x3f800000	1.0
70	0x3f800000	1.0
71	0x3f800000	1.0
72	0x3f800000	1.0
73	0x3f800000	1.0
74	0x3f800000	1.0
75	0x3f800000	1.0
76	0x3f800000	1.0
77	0x3f800000	1.0
78	0x3f800000	1.0
79	0x3f800000	1.0
80	0x3f800000	1.0
81	0x3f800000	1.0
82	0x3f800000	1.0
83	0x3f800000	1.0
84	0x3f800000	1.0
85	0x3f800000	1.0
86	0x3f800000	1.0
87	0x3f800000	1.0
88	0x3f800000	1.0
89	0x3f800000	1.0
90	0x3f800000	1.0
91	0x3f800000	1.0
92	0x3f800000	1.0
93	0x3f800000	1.0
94	0x3f800000	1.0
95	0x3f800000	1.0
96	0x3f800000	1.0
97	0x3f800000	1.0
98	0x3f800000	1.0
99	0x3f800000	1.0
100	0x3f800000	1.0
101	0x3f800000	1.0
102	0x3f800000	1.0
103	0x3f800000	1.0
104	0x3f800000	1.0
105	0x3f800000	1.0
106	0x3f800000	1.0
107	0x3f800000	1.0
108	0x3f800000	1.0
109	0x3f800000	1.0
110	0x3f800000	1.0
111	0x3f800000	1.0
112	0x3f800000	1.0
113	0x3f800000	1.0
114	0x3f800000	1.0
115	0x3f800000	1.0
116	0x3f800000	1.0
117	0x3f800000	1.0
118	0x3f800000	1.0
119	0x3f800000	1.0
120	0x3f800000	1.0
121	0x3f800000	1.0
122	0x3f800000	1.0
123	0x3f800000	1.0
124	0x3f800000	1.0
125	0x3f800000	1.0
126	0x3f800000	1.0
127	0x3f800000	1.0
128	0x3f800000	1.0
129	0x3f800000	1.0
130	0x3f800000	1.0
131	0x3f800000	1.0
132	0x3f800000	1.0
133	0x3f800000	1.0
134	0x3f800000	1.0
135	0x3f800000	1.0
136	0x3f800000	1.0
137	0x3f800000	1.0
138	0x3f800000	1.0
139	0x3f800000	1.0
140	0x3f800000	1.0
141	0x3f800000	1.0
142	0x3f800000	1.0
143	0x3f800000	1.0
144	0x3f800000	1.0
145	0x3f800000	1.0
146	0x3f800000	1.0
147	0x3f800000	1.0
148	0x3f800000	1.0
149	0x3f800000	1.0
150	0x3f800000	1.0
151	0x3f800000	1.0
152	0x3f800000	1.0
153	0x3f800000	1.0
154	0x3f800000	1.0
155	0x3f800000	1.0
156	0x3f800000	1.0
157	0x3f800000	1.0
158	0x3f800000	1.0
159	0x3f800000	1.0
160	0x3f800000	1.0
161	0x3f800000	1.0
162	0x3f800000	1.0
163	0x3f800000	1.0
164	0x3f800000	1.0
165	0x3f800000	1.0
166	0x3f800000	1.0
167	0x3f800000	1.0
168	0x3f800000	1.0
169	0x3f800000	1.0
170	0x3f800000	1.0
171	0x3f800000	1.0
172	0x3f800000	1.0
173	0x3f800000	1.0
174	0x3f800000	1.0
175	0x3f800000	1.0
176	0x3f800000	1.0
177	0x3f800000	1.0
178	0x3f800000	1.0
179	0x3f800000	1.0
180	0x3f800000	1.0
181	0x3f800000	1.0
182	0x3f800000	1.0
183	0x3f800000	1.0
184	0x3f800000	1.0
185	0x3f800000	1.0
186	0x3f800000	1.0
187	0x3f800000	1.0
188	0x3f800000	1.0
189	0x3f800000	1.0
190	0x3f800000	1.0
191	0x3f800000	1.0
192	0x3f800000	1.0
193	0x3f800000	1.0
194	0x3f800000	1.0
195	0x3f800000	1.0
196	0x3f800000	1.0
197	0x3f800000	1.0
198	0x3f800000	1.0
199	0x3f800000	1.0
200	0x3f800000	1.0
201	0x3f800000	1.0
202	0x3f800000	1.0
203	0x3f800000	1.0
204	0x3f800000	1.0
205	0x3f800000	1.0
206	0x3f800000	1.0
207	0x3f800000	1.0
208	0x3f800000	1.0
209	0x3f800000	1.0
210	0x3f800000	1.0
211	0x3f800000	1.0
212	0x3f800000	1.0
213	0x3f800000	1.0
214	0x3f800000	1.0
215	0x3f800000	1.0
216	0x3f800000	1.0
217	0x3f800000	1.0
218	0x3f800000	1.0
219	0x3f800000	1.0
220	0x3f800000	1.0
221	0x3f800000	1.0
222	0x3f800000	1.0
223	0x3f800000	1.0
224	0x3f800000	1.0
225	0x3f800000	1.0
226	0x3f800000	1.0
227	0x3f800000	1.0
228	0x3f800000	1.0
229	0x3f800000	1.0
230	0x3f800000	1.0
231	0x3f800000	1.0
232	0x3f800000	1.0
233	0x3f800000	1.0
234	0x3f800000	1.0
235	0x3f800000	1.0
236	0x3f800000	1.0
237	0x3f800000	1.0
238	0x3f800000	1.0
239	0x3f800000	1.0
240	0x3f800000	1.0
241	0x3f800000	1.0
242	0x3f800000	1.0
243	0x3f800000	1.0
244	0x3f800000	1.0
245	0x3f800000	1.0
246	0x3f800000	1.0
247	0x3f800000	1.0
248	0x3f800000	1.0
249	0x3f800000	1.0
250	0x3f800000	1.0
251	0x3f800000	1.0
252	0x3f800000	1.0
253	0x3f800000	1.0
254	0x3f800000	1.0
255	0x3f800000	1.0

flows.0.mprqat.autoregressive_net.blocks.0.linear_layers.1.weight f4 [64, 64]
0	0xbb23e48c	-0.002500805
1	0x3bb95c19	0.005656731
2	0x3a70b33f	0.0009181983
3	0xbb8e6401	-0.0043454175
4	0x3afd1802	0.0019309523
5	0x38d11d6e	9.971378e-05
6	0xba6a46b0	-0.0008936925
7	0x00055a60	4.91598e-40
8	0xbac3fa5e	-0.0014951935
9	0x39fa75c5	0.0004777146
10	0xbbc723ed	-0.0060772807
11	0xba8876c9	-0.0010411377
12	0xbb565d0f	-0.0032709276
13	0x00055eae	4.93142e-40
14	0x3ab5e58f	0.0013877618
15	0x3bccbf05	0.0062483572
16	0xbb3e70f3	-0.0029059022
17	0x39649e31	0.00021802705
18	0x3d580e43	0.052747976
19	0xbb6c2885	-0.0036034894
20	0xba9535af	-0.0011383797
21	0x3a972f04	0.0011534397
22	0xbb596eb7	-0.0033177563
23	0xbbb8b6c0	-0.00563702
24	0xbaf3358e	-0.0018555389
25	0x39fe674b	0.00048523615
26	0x3a0d0fdd	0.0005381087
27	0x3c968bd4	0.018377222
28	0x3ad89d32	0.001652634
29	0xbab0eb03	-0.0013497773
30	0xbbb50ffb	-0.0055255867
31	0xbae07119	-0.001712355
32	0xbbc1b94e	-0.0059119826
33	0xba8d399a	-0.0010774613
34	0x3cf641b5	0.030060628
35	0xbb3b83b9	-0.0028612448
36	0xbb28e707	-0.0025772469
37	0x3d648df4	0.05579944
38	0x3b02b057	0.0019941533
39	0x3d993378	0.0748052
40	0xba84988a	-0.0010116261
41	0x3d1ba9fa	0.0380039
42	0xbbff00d2	-0.00778208
43	0x3d9226a2	0.07136275
44	0xbbf5365a	-0.007483286
45	0xbb5ad92d	-0.0033393607
46	0xbad592f3	-0.0016294405
47	0x3cd98974	0.0265548
48	0x3d0a1f87	0.033721473
49	0x3ae9efba	0.0017847933
50	0xbbe5f15c	-0.0070172977
51	0xbc2dd319	-0.010609412
52	0x3d2f168b	0.042746108
53	0xb9f6f0ff	-0.00047100332
54	0x3d298763	0.04138888
55	0xba29fe89	-0.0006484767
56	0x3d0efe91	0.034910742
57	0x3d2eed5b	0.04270683
58	0xbb206779	-0.0024475737
59	0xbadd7e98	-0.001689869
60	0xbc21ddbc	-0.009879526
61	0xbb09d03d	-0.002102866
62	0xba1cc2f9	-0.0005979981
63	0xbb5c1d39	-0.0033586754
64	0xbc2f8b2f	-0.010714336
65	0xbc9987e3	-0.018741554
66	0x3d6b399e	0.057427995
67	0xbc97c653	-0.018527186
68	0xbc720de8	-0.014773823
69	0xbca11baf	-0.01966652
70	0xbcabc351	-0.020967158
71	0x000559d0	4.91396e-40
72	0xbbd1edd3	-0.0064065247
73	0xbca47a1b	-0.020077756
74	0xbc1a1854	-0.009405214
75	0xbc95f001	-0.01830292
76	0xbc9e3b53	-0.019315397
77	0x80055bfd	-4.92177e-40
78	0x3c4abb61	0.012373776
79	0xbbe088b8	-0.0068522356
80	0xbc26b5c7	-0.010175175
81	0xbc8bd0ab	-0.017067274
82	0xbc68c558	-0.014207207
83	0xbc6685e7	-0.014070011
84	0xbc67d230	-0.014149234
85	0xbc2149fd	-0.0098443
86	0xb995c6c1	-0.00028567578
87	0xbc31cd0f	-0.010852112
88	0xbc87904c	-0.016548298
89	0xbc5e05f7	-0.013551227
90	0xbc6d4102	-0.014480831
91	0xbc165b8c	-0.0091771
92	0xbc1ac2dc	-0.009445872
93	0xbc1c2ab9	-0.00953167
94	0xbc0fd4ca	-0.00877876
95	0xbcac200a	-0.021011371
96	0xbc2d9bf3	-0.010596263
97	0xbc69058d	-0.014222515
98	0xbbab2e06	-0.0052239923
99	0xbcac30bb	-0.02101933
100	0xbc8eef41	-0.01744807
101	0xbc6998a0	-0.01425758
102	0x3bf305fb	0.0074164844
103	0xbc86408b	-0.016388198
104	0xbcb95885	-0.022625217
105	0xbc260842	-0.010133805
106	0xbbff14d2	-0.0077844644
107	0xbc9cc725	-0.019137928
108	0xbbeb347b	-0.007177887
109	0xbc2c59e1	-0.010519476
110	0xbc867277	-0.016412003
111	0xbc32c150	-0.010910347
112	0xbc153cca	-0.0091087315
113	0xbc5a2dfc	-0.013316628
114	0xbbe3d97f	-0.006953418
115	0xbb9bf251	-0.004759111
116	0xbc377088	-0.011196263
117	0xbc09c4ce	-0.008408738
118	0xbbbb1362	-0.0057090977
119	0xbc8013a1	-0.01563436
120	0xbc5852c8	-0.01320333
121	0xbc30f52c	-0.010800641
122	0xbbaba1dc	-0.005237801
123	0xbc757bea	-0.014983157
124	0xbc3c39a8	-0.011488356
125	0x3d14bd82	0.03631354
126	0xbc076f47	-0.008266277
127	0xbc784eb1	-0.01515548
128	0xbd097bc1	-0.033565287
129	0x3ba7d9b6	0.0051223887
130	0x3b0b180d	0.0021224052
131	0xbc46109f	-0.012088924
132	0x3ac3a6f2	0.0014927073
133	0xba725a4f	-0.00092450244
134	0x3a8550aa	0.0010171134
135	0x00055a20	4.91508e-40
136	0xbb0f7693	-0.0021890744
137	0xb9f3dd34	-0.0004651338
138	0xbc29169e	-0.010320334
139	0xb75717f9	-1.282058e-05
140	0x370ae3ad	8.278451e-06
141	0x80055ef9	-4.93247e-40
142	0x3b0cffa9	0.002151469
143	0xbc699458	-0.014256559
144	0xbaabbc4e	-0.0013102384
145	0x3acfb755	0.0015847484
146	0x3c818f33	0.015815353
147	0xbb615809	-0.0034384748
148	0xba01c69a	-0.00049505534
149	0xbcf0a06c	-0.02937337
150	0xbb7c4c80	-0.0038497746
151	0xbc7ab7e7	-0.015302635
152	0xba6f1985	-0.0009120929
153	0xb9a9dd82	-0.00032399228
154	0x3a4f8702	0.0007916541
155	0xbc4bb7b5	-0.012433936
156	0x3c55aa9c	0.013041165
157	0xb9d6ea5b	-0.0004099187
158	0xbc1910ad	-0.009342355
159	0xbad96186	-0.001658485
160	0xbcfbea41	-0.03075135
161	0xbc8b4c9d	-0.017004305
162	0xbb87743a	-0.0041337283
163	0xbaa4072c	-0.0012514344
164	0xbb48124b	-0.0030528482
165	0x3c68692c	0.014185231
166	0xb7caabe7	-2.4160325e-05
167	0x3c3e1d14	0.011603612
168	0xbb0bd172	-0.0021334556
169	0x3ccb4d03	0.024816995
170	0xbcf521bd	-0.029923314
171	0x3cbb9524	0.022898264
172	0xbc4a93f9	-0.012364381
173	0xbb576373	-0.0032865673
174	0xbb3b7511	-0.0028603713
175	0x3c680c0a	0.014163027
176	0xbc7efac8	-0.015562721
177	0x3b278ea9	0.002556721
178	0xbbd61daf	-0.0065343003
179	0xbc760489	-0.01501573
180	0xbb38f14c	-0.0028219996
181	0xbc31d536	-0.010854056
182	0x3cad6bcb	0.021169564
183	0xbac7528a	-0.0015207094
184	0x3c4706d1	0.012147621
185	0xbbbe2283	-0.005802454
186	0xbb31dd6d	-0.0027140037
187	0xb9bc837f	-0.00035956127
188	0xbc70b3cc	-0.014691304
189	0xbac42220	-0.0014963783
190	0xbcd511f1	-0.026009532
191	0xbcf7256f	-0.030169217
192	0xbd05ad44	-0.032635942
193	0xbc51c451	-0.012803153
194	0xbc513258	-0.012768351
195	0x3cc65451	0.024210127
196	0xbcd3039d	-0.025758559
197	0xbcd055b4	-0.025431491
198	0x3c8c8974	0.017155387
199	0x800559f0	-4.91441e-40
200	0x3d07043b	0.03296302
201	0xbcd24f81	-0.025672676
202	0xbc6fb951	-0.014631585
203	0xbc9549de	-0.0182237
204	0xbccf572f	-0.025310127
205	0x00055dc1	4.9281e-40
206	0xbc185dbd	-0.009299693
207	0xbc7420fe	-0.014900444
208	0xbc840791	-0.01611689
209	0xbcec263d	-0.028826827
210	0x3bda68be	0.0066653183
211	0xbc8c990f	-0.017162828
212	0xbc499793	-0.0123042045
213	0xbc85240c	-0.01625254
214	0x3bbdc0be	0.005790799
215	0xbd17eb87	-0.03708985
216	0xbcc03820	-0.023464262
217	0xbc46441a	-0.012101198
218	0xbc8b536b	-0.01700755
219	0xbc80e74d	-0.015735293
220	0xbd28d0a0	-0.041214585
221	0x3cacfeec	0.02111765
222	0xbc5d6f96	-0.013515374
223	0xbcbdc781	-0.02316642
224	0xbd05d5ae	-0.032674484
225	0xbcbf6d97	-0.023367686
226	0xbc438e4f	-0.0119357845
227	0xbccee75f	-0.02525681
228	0x3ccbc62b	0.024874767
229	0x39963bd5	0.00028654808
230	0x3bed16ac	0.0072353687
231	0x3a023d86	0.0004968274
232	0x3ad462a3	0.0016203712
233	0x3b61c6d0	0.0034450777
234	0xbc96aebc	-0.018393867
235	0xbc00aeb2	-0.007854151
236	0x3d0bda88	0.034143955
237	0x3b3e92dd	0.0029079237
238	0xbcb50b98	-0.022100255
239	0xbc3a2bdd	-0.011362997
240	0xbc5d4f5d	-0.013507691
241	0xbc3755dd	-0.011189905
242	0xbc50d981	-0.0127471695
243	0x3d4bb932	0.049737163
244	0xbc7e51c0	-0.01552242
245	0xbc81a756	-0.015826862
246	0xbcd12b75	-0.025533417
247	0xbc7e580c	-0.015523922
248	0x3c5ede3f	0.013602792
249	0xbc591fef	-0.0132522425
250	0x3d02acd8	0.031903118
251	0xbc9f49e9	-0.019444423
252	0xbc1491b1	-0.009067939
253	0x3d0fa210	0.035066664
254	0xbc75998c	-0.014990222
255	0xbd14b6f9	-0.03630731

flows.0.mprqat.autoregressive_net.blocks.0.linear_layers.1.bias f4 [64]
0	0x3e0f424b	0.13990133
1	0x3c3d5d83	0.011557939
2	0x3cfc86e5	0.030826041
3	0x3d50d553	0.05098469
4	0x3dfd1fcf	0.12359583
5	0x3d062e0e	0.032758765
6	0x3e205137	0.15655981
7	0x3d8be952	0.06831612
8	0x3d684fad	0.05671661
9	0x3c92c5c5	0.01791657
10	0x3e122a3d	0.14273925
11	0x3e0144ab	0.12623851
12	0xbd8d296f	-0.068926685
13	0x3b1f17b7	0.002427561
14	0x3ddc1c8b	0.10747632
15	0x3d3eb8e0	0.04656303
16	0x3da649c1	0.08119536
17	0x3db1414a	0.08655031
18	0x3ba04506	0.0048910407
19	0x3d73183f	0.059349295
20	0xbb9dd1a5	-0.0048162513
21	0x3d392253	0.04519875
22	0x3d6df6b6	0.05809661
23	0x3dce2ac7	0.10066753
24	0xbd014073	-0.031555604
25	0x3ddd9993	0.108203076
26	0x3d9e7a0c	0.07738122
27	0xbc881b4f	-0.016614584
28	0x3e5977db	0.21237127
29	0x3d076120	0.03305161
30	0x3d8c2709	0.06843383
31	0xbd97612e	-0.073915824
32	0x3e09a43a	0.13441554
33	0xbc98bcfc	-0.018644802
34	0xbdd59bf5	-0.10430137
35	0xbc58e218	-0.013237499
36	0x3db28ac5	0.087178744
37	0x3dcc622a	0.09979661
38	0x3df35f32	0.118833914
39	0x3dba50e0	0.09097457
40	0x3b66f740	0.0035242587
41	0x3e190c16	0.14946017
42	0x3d71b144	0.059006944
43	0x3d49a537	0.049229827
44	0x3da43f0d	0.080198385
45	0xbd60d616	-0.05489167
46	0x3d9bdfa7	0.07611018
47	0x3dbff5a8	0.09373027
48	0x3d9579b0	0.07298601
49	0x3e011294	0.12604743
50	0x3d814f6c	0.06313977
51	0x3cc57148	0.024101868
52	0x3d720dd0	0.059095204
53	0x3c953c99	0.018217372
54	0x3d915935	0.07097093
55	0x3dfe26f5	0.12409774
56	0x3c814410	0.015779525
57	0xbd92c5a9	-0.07166607
58	0x3d9bb8b8	0.07603592
59	0x3cc2df80	0.023788214
60	0x3e1eb540	0.15498829
61	0x3db7d246	0.08975653
62	0x3d221ad9	0.039576385
63	0xbdbd0044	-0.09228566

flows.0.mprqat.autoregressive_net.blocks.0.linear_layers.1.mask f4 [64, 64]
0	0x3f800000	1.0
1	0x3f800000	1.0
2	0x3f800000	1.0
3	0x3f800000	1.0
4	0x3f800000	1.0
5	0x3f800000	1.0
6	0x3f800000	1.0
7	0x3f800000	1.0
8	0x3f800000	1.0
9	0x3f800000	1.0
10	0x3f800000	1.0
11	0x3f800000	1.0
12	0x3f800000	1.0
13	0x3f800000	1.0
14	0x3f800000	1.0
15	0x3f800000	1.0
16	0x3f800000	1.0
17	0x3f800000	1.0
18	0x3f800000	1.0
19	0x3f800000	1.0
20	0x3f800000	1.0
21	0x3f800000	1.0
22	0x3f800000	1.0
23	0x3f800000	1.0
24	0x3f800000	1.0
25	0x3f800000	1.0
26	0x3f800000	1.0
27	0x3f800000	1.0
28	0x3f800000	1.0
29	0x3f800000	1.0
30	0x3f800000	1.0
31	0x3f800000	1.0
32	0x3f800000	1.0
33	0x3f800000	1.0
34	0x3f800000	1.0
35	0x3f800000	1.0
36	0x3f800000	1.0
37	0x3f800000	1.0
38	0x3f800000	1.0
39	0x3f800000	1.0
40	0x3f800000	1.0
41	0x3f800000	1.0
42	0x3f800000	1.0
43	0x3f800000	1.0
44	0x3f800000	1.0
45	0x3f800000	1.0
46	0x3f800000	1.0
47	0x3f800000	1.0
48	0x3f800000	1.0
49	0x3f800000	1.0
50	0x3f800000	1.0
51	0x3f800000	1.0
52	0x3f800000	1.0
53	0x3f800000	1.0
54	0x3f800000	1.0
55	0x3f800000	1.0
56	0x3f800000	1.0
57	0x3f800000	1.0
58	0x3f800000	1.0
59	0x3f800000	1.0
60	0x3f800000	1.0
61	0x3f800000	1.0
62	0x3f800000	1.0
63	0x3f800000	1.0
64	0x3f800000	1.0
65	0x3f800000	1.0
66	0x3f800000	1.0
67	0x3f800000	1.0
68	0x3f800000	1.0
69	0x3f800000	1.0
70	0x3f800000	1.0
71	0x3f800000	1.0
72	0x3f800000	1.0
73	0x3f800000	1.0
74	0x3f800000	1.0
75	0x3f800000	1.0
76	0x3f800000	1.0
77	0x3f800000	1.0
78	0x3f800000	1.0
79	0x3f800000	1.0
80	0x3f800000	1.0
81	0x3f800000	1.0
82	0x3f800000	1.0
83	0x3f800000	1.0
84	0x3f800000	1.0
85	0x3f800000	1.0
86	0x3f800000	1.0
87	0x3f800000	1.0
88	0x3f800000	1.0
89	0x3f800000	1.0
90	0x3f800000	1.0
91	0x3f800000	1.0
92	0x3f800000	1.0
93	0x3f800000	1.0
94	0x3f800000	1.0
95	0x3f800000	1.0
96	0x3f800000	1.0
97	0x3f800000	1.0
98	0x3f800000	1.0
99	0x3f800000	1.0
100	0x3f800000	1.0
101	0x3f800000	1.0
102	0x3f800000	1.0
103	0x3f800000	1.0
104	0x3f800000	1.0
105	0x3f800000	1.0
106	0x3f800000	1.0
107	0x3f800000	1.0
108	0x3f800000	1.0
109	0x3f800000	1.0
110	0x3f800000	1.0
111	0x3f800000	1.0
112	0x3f800000	1.0
113	0x3f800000	1.0
114	0x3f800000	1.0
115	0x3f800000	1.0
116	0x3f800000	1.0
117	0x3f800000	1.0
118	0x3f800000	1.0
119	0x3f800000	1.0
120	0x3f800000	1.0
121	0x3f800000	1.0
122	0x3f800000	1.0
123	0x3f800000	1.0
124	0x3f800000	1.0
125	0x3f800000	1.0
126	0x3f800000	1.0
127	0x3f800000	1.0
128	0x3f800000	1.0
129	0x3f800000	1.0
130	0x3f800000	1.0
131	0x3f800000	1.0
132	0x3f800000	1.0
133	0x3f800000	1.0
134	0x3f800000	1.0
135	0x3f800000	1.0
136	0x3f800000	1.0
137	0x3f800000	1.0
138	0x3f800000	1.0
139	0x3f800000	1.0
140	0x3f800000	1.0
141	0x3f800000	1.0
142	0x3f800000	1.0
143	0x3f800000	1.0
144	0x3f800000	1.0
145	0x3f800000	1.0
146	0x3f800000	1.0
147	0x3f800000	1.0
148	0x3f800000	1.0
149	0x3f800000	1.0
150	0x3f800000	1.0
151	0x3f800000	1.0
152	0x3f800000	1.0
153	0x3f800000	1.0
154	0x3f800000	1.0
155	0x3f800000	1.0
156	0x3f800000	1.0
157	0x3f800000	1.0
158	0x3f800000	1.0
159	0x3f800000	1.0
160	0x3f800000	1.0
161	0x3f800000	1.0
162	0x3f800000	1.0
163	0x3f800000	1.0
164	0x3f800000	1.0
165	0x3f800000	1.0
166	0x3f800000	1.0
167	0x3f800000	1.0
168	0x3f800000	1.0
169	0x3f800000	1.0
170	0x3f800000	1.0
171	0x3f800000	1.0
172	0x3f800000	1.0
173	0x3f800000	1.0
174	0x3f800000	1.0
175	0x3f800000	1.0
176	0x3f800000	1.0
177	0x3f800000	1.0
178	0x3f800000	1.0
179	0x3f800000	1.0
180	0x3f800000	1.0
181	0x3f800000	1.0
182	0x3f800000	1.0
183	0x3f800000	1.0
184	0x3f800000	1.0
185	0x3f800000	1.0
186	0x3f800000	1.0
187	0x3f800000	1.0
188	0x3f800000	1.0
189	0x3f800000	1.0
190	0x3f800000	1.0
191	0x3f800000	1.0
192	0x3f800000	1.0
193	0x3f800000	1.0
194	0x3f800000	1.0
195	0x3f800000	1.0
196	0x3f800000	1.0
197	0x3f800000	1.0
198	0x3f800000	1.0
199	0x3f800000	1.0
200	0x3f800000	1.0
201	0x3f800000	1.0
202	0x3f800000	1.0
203	0x3f800000	1.0
204	0x3f800000	1.0
205	0x3f800000	1.0
206	0x3f800000	1.0
207	0x3f800000	1.0
208	0x3f800000	1.0
209	0x3f800000	1.0
210	0x3f800000	1.0
211	0x3f800000	1.0
212	0x3f800000	1.0
213	0x3f800000	1.0
214	0x3f800000	1.0
215	0x3f800000	1.0
216	0x3f800000	1.0
217	0x3f800000	1.0
218	0x3f800000	1.0
219	0x3f800000	1.0
220	0x3f800000	1.0
221	0x3f800000	1.0
222	0x3f800000	1.0
223	0x3f800000	1.0
224	0x3f800000	1.0
225	0x3f800000	1.0
226	0x3f800000	1.0
227	0x3f800000	1.0
228	0x3f800000	1.0
229	0x3f800000	1.0
230	0x3f800000	1.0
231	0x3f800000	1.0
232	0x3f800000	1.0
233	0x3f800000	1.0
234	0x3f800000	1.0
235	0x3f800000	1.0
236	0x3f800000	1.0
237	0x3f800000	1.0
238	0x3f800000	1.0
239	0x3f800000	1.0
240	0x3f800000	1.0
241	0x3f800000	1.0
242	0x3f800000	1.0
243	0x3f800000	1.0
244	0x3f800000	1.0
245	0x3f800000	1.0
246	0x3f800000	1.0
247	0x3f800000	1.0
248	0x3f800000	1.0
249	0x3f800000	1.0
250	0x3f800000	1.0
251	0x3f800000	1.0
252	0x3f800000	1.0
253	0x3f800000	1.0
254	0x3f800000	1.0
255	0x3f800000	1.0

flows.0.mprqat.autoregressive_net.blocks.1.context_layer.weight f4 [64, 3]
0	0xbb81d51f	-0.0039621736
1	0x3e79c73d	0.2439241
2	0xbd83014a	-0.0639673
3	0x3de3e3a9	0.11127407
4	0x3c91f0c0	0.017814994
5	0xbdea87bb	-0.1145167
6	0xbcaa3593	-0.0207775
7	0x3e8cf560	0.27530956
8	0x3d96a075	0.073548235
9	0x3b9ce176	0.004787619
10	0x3e586682	0.21132854
11	0xbd1e6620	-0.038671613
12	0x3e16449d	0.14674611
13	0x3d0cd15d	0.034379352
14	0x3d0a9b00	0.033839226
15	0xbe00c6a4	-0.12575775
16	0xbcd74cba	-0.026281703
17	0xbd80eda5	-0.06295327
18	0xbe21a1d4	-0.15784389
19	0xbe1b9493	-0.15193395
20	0xbe0f5927	-0.13998853
21	0xbe3b4e89	-0.18291678
22	0x3cddf37e	0.027093645
23	0x3e0ee026	0.13952693
24	0xbe1c6b0f	-0.15275215
25	0xbd4298d5	-0.047509033
26	0x3c0eae03	0.00870848
27	0xbe996504	-0.2995988
28	0x3eade942	0.33967024
29	0x3e5bbcf9	0.21458806
30	0xbe939f86	-0.28832644
31	0x3e68e4d8	0.22743547
32	0xbe2deadd	-0.16984124
33	0xbd0afa55	-0.03393014
34	0xbe7c5853	-0.24643068
35	0x3ebbe701	0.3669968
36	0xbec51839	-0.38495043
37	0xbd73cf4a	-0.059523858
38	0x3e834779	0.25640467
39	0x3c2fb663	0.010724637
40	0x3c31bcd0	0.010848239
41	0x3e98a950	0.29816675
42	0xbe252ab8	-0.16129577
43	0xbe521630	-0.20516276
44	0x3defc501	0.117074974
45	0x3df44924	0.11928013
46	0x3c4fa5fc	0.012673851
47	0x3ac277a9	0.0014836687
48	0x3db17651	0.08665145
49	0x3c763b32	0.015028762
50	0x3e290684	0.16506392
51	0xbebd4431	-0.36966088
52	0x3e3fcf7d	0.18731494
53	0x3eca7e21	0.39549354
54	0xbdab5b1c	-0.08366987
55	0x3c8eb65e	0.017420944
56	0x3c4c485e	0.012468426
57	0x3ca8689d	0.020557696
58	0x3cdcd579	0.02695726
59	0x3e7d9489	0.24763693
60	0xbdec08e0	-0.1152513
61	0x3e9827b0	0.2971778
62	0x3ecb3a47	0.396929
63	0xbc0eeb49	-0.008723089
64	0x3b69e69f	0.003569044
65	0xbd3a1d45	-0.04543807
66	0xbd6454c3	-0.055744898
67	0xbc6446ac	-0.013932865
68	0xbd98d344	-0.07462171
69	0xbc8af771	-0.016963692
70	0xbd9168a5	-0.071000375
71	0x3e526cb5	0.20549281
72	0xbcae4770	-0.021274298
73	0xbe3b3aad	-0.18284102
74	0x3f054df8	0.52072096
75	0x3d7c43cf	0.061588105
76	0xbeb5d9be	-0.35517687
77	0x3e99aa63	0.30012807
78	0xbd068ce0	-0.032849193
79	0x3f072800	0.5279541
80	0x3dc8d71c	0.09806654
81	0xbb47a487	-0.0030463056
82	0xbdf661ac	-0.12030348
83	0x3de55885	0.111985244
84	0xbd6c2397	-0.05765113
85	0x3f0f6338	0.5601077
86	0xbe37c9d9	-0.17948093
87	0x3b9caee7	0.004781592
88	0x3c3fc25f	0.0117040565
89	0x3e2ca0dd	0.1685824
90	0xbeb7df70	-0.35912657
91	0x3d4095da	0.04701791
92	0x3d5d8d5e	0.054089896
93	0xbd896eee	-0.06710611
94	0x3ec35a93	0.3815504
95	0xbeb7ae7e	-0.35875314
96	0x3e040925	0.12894113
97	0x3b6714d2	0.0035260213
98	0xbaa2a443	-0.0012408573
99	0x3c216c27	0.009852446
100	0x3e5d3a29	0.21604218
101	0xbe469c55	-0.19395573
102	0x3c10e36d	0.008843285
103	0x3cad8ce4	0.021185346
104	0xbdd7641e	-0.10517143
105	0xbd31940a	-0.04335407
106	0x3edec33d	0.4350833
107	0x3ebbd0d0	0.3668275
108	0x3e12021b	0.14258616
109	0x3df298e7	0.1184557
110	0x3c948118	0.018127963
111	0x3e0e8f17	0.13921772
112	0x3de11da4	0.109919816
113	0xbcbfa420	-0.02339369
114	0x3e7a713c	0.24457258
115	0xbe8dd5a6	-0.27702063
116	0xbcec10bc	-0.028816573
117	0xbe4d4295	-0.2004493
118	0xbddc1cae	-0.10747658
119	0x3ef1dbfa	0.4723814
120	0x3df8e4a4	0.12152985
121	0x3bea33e7	0.0071473005
122	0x3ccf0eb3	0.025275564
123	0xbe1c10c7	-0.15240775
124	0x3e66e325	0.22547586
125	0xbe385699	-0.18001784
126	0xbe05b57d	-0.13057514
127	0x3b9c1bff	0.0047640796
128	0xbdf51ca5	-0.11968354
129	0xbdcbd086	-0.09951882
130	0x3c63d921	0.013906748
131	0xbbd92795	-0.006627033
132	0x3e2961b4	0.16541177
133	0x3cba5468	0.022745326
134	0x3d52f21a	0.051500417
135	0xbd84d2b3	-0.064855
136	0x3e23713e	0.15961167
137	0x3e94b9f9	0.29048136
138	0x3ea0b3eb	0.31387267
139	0xbe9b0ad6	-0.30281705
140	0x3e086161	0.13318397
141	0xbc0ea56f	-0.008706435
142	0xbb92cd47	-0.0044800374
143	0x3e045f4b	0.12926976
144	0xbe916730	-0.28399038
145	0x3d95a590	0.07306969
146	0xbe85315a	-0.26014215
147	0x3e4b9565	0.19881208
148	0x3e7c0c9f	0.2461419
149	0xbc6b6cbc	-0.014369186
150	0x3a257428	0.0006311559
151	0x3e76ccce	0.24101564
152	0x3d3d4458	0.046207756
153	0x3cd48bf5	0.025945643
154	0xbe27bf23	-0.16381507
155	0x3d185924	0.037194386
156	0xbb8c5b5e	-0.0042833528
157	0xbb931749	-0.00448886
158	0x3d7cb2e3	0.061694037
159	0x3d87bbd4	0.06627622
160	0x3d501d7f	0.05080938
161	0x3c9d9998	0.019238278
162	0x3e8eb615	0.27873293
163	0xbec0043d	-0.37503234
164	0x3c829617	0.015940709
165	0x3cf04774	0.029330947
166	0x3c52176f	0.01282297
167	0x3e50956c	0.203695
168	0xbe908c8c	-0.2823223
169	0x3e307e79	0.17235745
170	0xbe0ae46d	-0.135637
171	0xbe389383	-0.18025021
172	0x3edd47a9	0.43218735
173	0xbddfdc2f	-0.109306686
174	0xba4c8998	-0.00078024855
175	0x3e3dc7db	0.1853327
176	0xbdd8f5ea	-0.105937794
177	0xbe01ca41	-0.1267481
178	0xb940989d	-0.000183674
179	0x3ceb2f5b	0.028709104
180	0x3e5f729f	0.21821068
181	0x3d9ff3eb	0.078101955
182	0x3e61d861	0.22055198
183	0xbb036494	-0.0020048963
184	0x3ee8669b	0.45390782
185	0xbe009459	-0.1255659
186	0xbebbeb09	-0.36702755
187	0x3ee78c54	0.4522425
188	0x3e42eca6	0.19035587
189	0xb81a8f31	-3.684982e-05
190	0xbeb39731	-0.35076287
191	0xbed97f55	-0.4247996
