macros/Timing_estimation/models/August_05/run_6_3context_1flows_8hl_64hu_2000bs_checkpoint_e1.pth (torch, 602511 bytes, 72 tensors)

flows.0.mprqat.autoregressive_net.initial_layer.weight f4 [64, 1]
00000000: 365b 0500 9959 0580 c006 3bbc 5057 0500
00000010: 2858 0580 d85b 0580 2f5d 0580 dd5c 0500
00000020: dd5d 0580 2322 56be 485b 0580 425b 0500
00000030: 395a 0580 5d57 0500 6058 0580 425c 0500
00000040: aaef 333e e45a 0580 e559 0500 be57 0500
00000050: 3661 973d 3b41 35be 1ae0 03be cd58 0500
00000060: 5e7c 363e 3459 0580 9bf3 e1bd ba5a 0500
00000070: e158 0580 4c58 0580 7963 b93d 187a 01b5
00000080: bb5a 0580 0e27 2d8f 41bc 0cbe f398 543e
00000090: 8992 4584 dc59 0580 485b 0580 0658 0580
000000a0: 4c5c 0580 67cf 1cbd 9257 0580 845a 0580
000000b0: d85a 0500 f15a 0500 c659 0500 8d63 3da0
000000c0: 8a9a b73d dead 5dbc 745b 0580 d057 0500
000000d0: 3570 63ba 6b5a 0580 8ec4 95bd 084f fd3d
000000e0: 1dcd ddbd 3b5a 0580 48f5 703d ea57 0580
000000f0: ca5c 0580 276b 0ebe c95c 0500 675a 0580
4.91898e-40 -4.91319e-40 -0.011415184 4.905e-40 -4.90802e-40 -4.92125e-40 -4.92605e-40 4.9249e-40
-4.92849e-40 -0.2091146 -4.91923e-40 4.91915e-40 -4.91543e-40 4.90518e-40 -4.9088e-40 4.92273e-40
0.17571893 -4.91783e-40 4.91426e-40 4.90653e-40 0.073915884 -0.17700665 -0.12878457 4.91033e-40
0.1782088 -4.91178e-40 -0.11032792 4.91724e-40 -4.91061e-40 -4.90852e-40 0.09052176 -4.8233915e-07
-4.91725e-40 -8.53708e-30 -0.13743688 0.2076147 -2.3224524e-36 -4.91413e-40 -4.91923e-40 -4.90754e-40
-4.92287e-40 -0.03828373 -4.90592e-40 -4.91648e-40 4.91766e-40 4.91801e-40 4.91382e-40 -1.6041861e-19
0.08965023 -0.013530223 -4.91985e-40 4.90679e-40 -0.0008676083 -4.91613e-40 -0.073128805 0.1236859
-0.10830138 -4.91546e-40 0.05882767 -4.90715e-40 -4.92464e-40 -0.13908063 4.92463e-40 -4.91608e-40

flows.0.mprqat.autoregressive_net.initial_layer.bias f4 [64]
00000000: 88c6 44bf 3c67 1cbf 219a c4bd c614 25bf
00000010: 236d d93e 10c1 d7be 4460 adbe 677e fa3e
00000020: bb50 8bbd a76a 41be 03a4 fa3e 1c7f ad3e
00000030: 3fdc 883e 0a54 533f b145 3a3e e0a6 0abe
00000040: fd8b bebe b905 1f3e 2523 da3e 5991 013e
00000050: f2e6 033f 1a1e ef3e bca3 793e 06cc 183e
00000060: a719 2f3f cbd5 29bf 3ba4 9c3e 4d91 ddbe
00000070: a933 41bf 4a31 493f 08ed 423f a935 22bf
00000080: 61a4 c4be cc07 32bf 94d3 363f 2e54 55bf
00000090: c94c a03e e539 4e3f 9bdc f83d c418 293f
000000a0: c784 e83e 5df1 2e3e 4068 2f3f c603 0abf
000000b0: ca7e 2cbf 5418 233e 36a9 b73e 5892 64bf
000000c0: bd48 d23d 10ab 323f 1f12 7b3d c008 44bf
000000d0: 5fa6 2f3f 4cc2 a83e 70e9 fcbd a58a 90bd
000000e0: 225c 513f 1c85 f13e 6b32 4fbe a791 6e3e
000000f0: 1ea0 783e b448 bd3e 05ac 15bf 926a 403e
-0.76865435 -0.61095023 -0.0959971 -0.6448482 0.42466077 -0.42139482 -0.33862507 0.48924562
-0.068025075 -0.18888341 0.48953256 0.3388604 0.26730534 0.8255011 0.18190648 -0.1354022
-0.37216178 0.15529527 0.42604938 0.12653102 0.5152427 0.46702653 0.24378866 0.14921579
0.6839852 -0.6634185 0.30594048 -0.43274918 -0.7546945 0.78590834 0.7614293 -0.6336313
-0.3840666 -0.6954315 0.7141659 -0.83331573 0.31308582 0.8055709 0.12151452 0.66053414
0.454138 0.1708426 0.6851845 -0.5391201 -0.67380965 0.15927249 0.35871285 -0.892858
0.1026778 0.6979227 0.06129658 -0.7657585 0.6861324 0.32960737 -0.12349212 -0.07057694
0.8178121 0.47171867 -0.20234077 0.2329775 0.2427983 0.3696953 -0.58465606 0.18790653

flows.0.mprqat.autoregressive_net.initial_layer.mask f4 [64, 1]
00000000: 0000 0000 0000 0000 0000 0000 0000 0000
00000010: 0000 0000 0000 0000 0000 0000 0000 0000
00000020: 0000 0000 0000 0000 0000 0000 0000 0000
00000030: 0000 0000 0000 0000 0000 0000 0000 0000
00000040: 0000 0000 0000 0000 0000 0000 0000 0000
00000050: 0000 0000 0000 0000 0000 0000 0000 0000
00000060: 0000 0000 0000 0000 0000 0000 0000 0000
00000070: 0000 0000 0000 0000 0000 0000 0000 0000
00000080: 0000 0000 0000 0000 0000 0000 0000 0000
00000090: 0000 0000 0000 0000 0000 0000 0000 0000
000000a0: 0000 0000 0000 0000 0000 0000 0000 0000
000000b0: 0000 0000 0000 0000 0000 0000 0000 0000
000000c0: 0000 0000 0000 0000 0000 0000 0000 0000
000000d0: 0000 0000 0000 0000 0000 0000 0000 0000
000000e0: 0000 0000 0000 0000 0000 0000 0000 0000
000000f0: 0000 0000 0000 0000 0000 0000 0000 0000
0.0 0.0 0.0 0.0 0.0 0.0 0.0 0.0
0.0 0.0 0.0 0.0 0.0 0.0 0.0 0.0
0.0 0.0 0.0 0.0 0.0 0.0 0.0 0.0
0.0 0.0 0.0 0.0 0.0 0.0 0.0 0.0
0.0 0.0 0.0 0.0 0.0 0.0 0.0 0.0
0.0 0.0 0.0 0.0 0.0 0.0 0.0 0.0
0.0 0.0 0.0 0.0 0.0 0.0 0.0 0.0
0.0 0.0 0.0 0.0 0.0 0.0 0.0 0.0

flows.0.mprqat.autoregressive_net.context_layer.weight f4 [64, 3]
00000000: d36e 46be b2a1 01bf 5235 123f f877 043f
00000010: e04c 81be fafd b43e 05a6 083f 5693 443e
00000020: fa8a ac3e f471 afbd 5e9d 02bf 5854 94be
00000030: bf29 e1be dd37 a43e f7c1 49be c08f abbe
00000040: 6e74 da3e 1ea3 103d 2f03 f03e 3cbf 103f
00000050: ed09 95be 61e7 f2be 3e73 0dbe 0b43 09bf
00000060: 8584 c9be 8311 0c3f dfb5 993e 7084 863e
00000070: cbb9 9fbe 0089 753e 3677 f63e f89f 053f
00000080: c7e1 07bf 7953 c0be 2746 f4be 4f51 b2be
00000090: 0b37 f0be d3a7 b8be ff75 053f ae3f ce3e
000000a0: 84ab dcbc 4da7 873e 70cd 913e 97d8 d4be
000000b0: 58fa 3c3e 90d2 373e 7197 0abe db9b cbbe
000000c0: 5c1b 9a3e aca9 a2be 3edc dfbe 74a3 ecbd
000000d0: e76d 4b3e 6265 45be 5d01 903e 61d0 683b
000000e0: b955 07be 0ded 883d 067c 1ebe 7616 0b3f
000000f0: 5fb0 8ebb 8945 133d 98ef ae3e 6bd9 143d
00000100: d23c 6f3e 8539 663e e2b7 693e 1060 c63c
00000110: 3cef 9cbe 83f2 8cbe c13e 8fbe b204 053d
00000120: 92f7 73be 22e2 0dbf 5d3b 66be b086 ca3d
00000130: 4c42 81bd 6421 85be 30af 33be 7b03 9e3e
00000140: e89c c4be 2f61 ebbe b6b1 50be b207 4e3d
00000150: f501 f3be 14cc d9be 6857 8cbe b63e 3abe
00000160: cd83 803e d74a 62be 8169 173e eb0f 7f3e
00000170: 3f62 b23d 58fe bd3e 0bad c5be ff2e ddbd
00000180: 8688 363e 4942 2fbd bc0b bc3e 47e9 49be
00000190: 23bd a5bd e504 313e a7b3 d63e 0560 803d
000001a0: cb85 9fbe ef0e 29bd e466 eabc 921c 0abf
000001b0: 9a8c 333e a2df e53e fc64 99be d0dc 513b
000001c0: 2cf2 873d d153 07bb a84a 773e b0da c13e
000001d0: e879 84be fcb4 e33b 8b8e 0cbf 20ba e53e
000001e0: 80a8 4e3d fc22 ed3e df38 7d3e 85ba bcbe
000001f0: 7ff5 58be 7e40 133c a4b7 d63e eaa2 f03e
00000200: ddf3 21bd 210c 7ebd 4b35 e1be 1c70 133f
00000210: f46c 95be ef1b 963e 16eb 95be 79bc 71be
00000220: f487 e3be d55a 033f 5828 ddbd 1e2c fa3c
00000230: b56e c63e d0c5 43bd 51e7 f5be 4518 b2bd
00000240: 38e1 01bf dbc7 f4be 2d61 bebe 9f88 a73e
00000250: af60 3d3e a908 ffbd 944e f1be 4db1 99be
00000260: 52de 92bc 6d5c 0b3f c44a e73e 3839 a3be
00000270: 2c7e 353e d1e3 f83d a0a3 183e 5c66 b5bd
00000280: 648a c3bd 57c8 053f dc61 72be bc29 a63d
00000290: 39f8 11bd 51be d4bd 8d67 003f deea b8be
000002a0: ed51 07bd 76d0 553e 7df6 023e 0ca1 133e
000002b0: f1e2 873e e7a8 813e 3050 38be 87a6 013f
000002c0: 820c efbe 6f7a d83e dadb 8cbe 3237 b93e
000002d0: 04c8 023e 46bb e83e 690f b13c 9a2a 06bf
000002e0: afc3 ae3e f3e4 cebc dec7 aa3e 6a05 4ebe
000002f0: e909 183f 2e7c c0bd 4f33 ebbd 7c44 89bc
-0.19378214 -0.5063735 0.5711261 0.5174556 -0.25253963 0.3535002 0.53378326 0.19196829
0.3369978 -0.08566657 -0.51021373 -0.289706 -0.43977162 0.3207387 -0.19702898 -0.3350811
0.42666954 0.03531181 0.4687743 0.565418 -0.29109135 -0.47442153 -0.13813493 -0.53617924
-0.39358917 0.5471422 0.3002157 0.26272917 -0.31196436 0.23978043 0.48137826 0.5219722
-0.53078884 -0.37563685 -0.47709772 -0.3482766 -0.46916994 -0.3606554 0.5213317 0.4028296
-0.026937254 0.26494828 0.2847705 -0.41571495 0.18454874 0.17951417 -0.13534333 -0.39767346
0.30099 -0.31770074 -0.4372272 -0.11554614 0.19866143 -0.19276956 0.2812604 0.0035524594
-0.13216294 0.06685839 -0.15476999 0.5433115 -0.004354521 0.035954986 0.3416717 0.03634016
0.23363045 0.2248288 0.22824052 0.024215728 -0.3065127 -0.27528772 -0.27977565 0.03247518
-0.2382491 -0.55423176 -0.22483583 0.09888971 -0.06311473 -0.26002038 -0.17547297 0.3086203
-0.3840096 -0.45972583 -0.20380291 0.050300308 -0.4746243 -0.42538512 -0.27410436 -0.18187985
0.25100556 -0.22098862 0.1478634 0.24908416 0.08710145 0.3710811 -0.38608584 -0.107999794
0.17825517 -0.042787824 0.36727703 -0.19717894 -0.080927156 0.17287023 0.4193394 0.06268314
-0.31156763 -0.041274007 -0.028613515 -0.53949845 0.17534104 0.4489718 -0.29959857 0.0032022484
0.066379875 -0.0020649324 0.24149573 0.37862158 -0.25874257 0.0069490653 -0.54905003 0.44868565
0.050453663 0.46315753 0.24728726 -0.36861053 -0.211874 0.008987544 0.41936982 0.46999294
-0.039539207 -0.062023286 -0.43985972 0.5759294 -0.29184687 0.29318187 -0.2928092 -0.23607053
-0.44439662 0.51310474 -0.107987106 0.030538615 0.38756338 -0.04779607 -0.48028043 -0.08696035
-0.5073428 -0.47808728 -0.37183514 0.3272142 0.18493913 -0.12452824 -0.47130263 -0.30018082
-0.017928276 0.54437906 0.4517423 -0.31879592 0.17723912 0.121528275 0.14906168 -0.08857414
-0.0954788 0.5225882 -0.23670143 0.08113429 -0.035637114 -0.103878625 0.50158006 -0.3611669
-0.033037115 0.20880303 0.1278934 0.14416903 0.2654033 0.25324175 -0.17999339 0.50644726
-0.4668923 0.4228091 -0.27511483 0.36174923 0.12771612 0.45455378 0.021613793 -0.52408755
0.3413367 -0.025255656 0.33355612 -0.20119253 0.5939012 -0.093986854 -0.11484396 -0.016756289

flows.0.mprqat.autoregressive_net.context_layer.bias f4 [64]
00000000: ed19 063f a1f1 213e 3ebb 1a3c 55e3 a5be
00000010: c0c4 c4be f94a 9b3e a0cd 4bbd 6026 b0be
00000020: 0ffe dc3e 60e2 96be 0707 ae3d c105 b7be
00000030: acbf 2cbe 9c70 103c 695f f63e 83f9 bbbe
00000040: 623f b13e acb4 f2be cbe2 4a3e 214a 65be
00000050: f747 223f bf16 cd3d c4aa b9be 6c03 8abe
00000060: 0dde 9f3e b81d 05bd 497d adbe ac55 9e3e
00000070: c07c ee3e a9d6 d83e 5d00 d83d 3078 1ebe
00000080: 8b86 553e 3049 853e 3201 943e 41c6 c9be
00000090: c593 d83e e12a e5bc 3435 403e c155 bbbe
000000a0: 3b9f 273d fdfa 833e 8a5f 9e3c 6795 a13e
000000b0: 7369 ce3d 3f84 cf3e 4527 a9be 6498 303e
000000c0: 3c35 8cbc 5a45 7a3d d5d8 ee3e 9363 8abe
000000d0: b9df b03e 152b c7be a4ac c2be 1fcf a63e
000000e0: 5c96 3abe a41e e2bd dcce ba3d 8cd3 053f
000000f0: 4ad4 753e 23ca 66be 549f 48be 5946 8dbd
0.5238331 0.1581483 0.009444056 -0.32400003 -0.38431358 0.30330637 -0.049756646 -0.34404278
0.4316258 -0.29469585 0.08497434 -0.35746577 -0.16869992 0.008815911 0.48119667 -0.367138
0.3461867 -0.47403467 0.19813077 -0.22391559 0.6339106 0.10014104 -0.36263096 -0.26955736
0.312241 -0.032499045 -0.33884647 0.30924737 0.46579552 0.42351273 0.10546944 -0.15475535
0.20852105 0.260324 0.28907162 -0.39409068 0.4230024 -0.027974548 0.18770295 -0.36588863
0.04092334 0.25777426 0.019332666 0.31559297 0.100787066 0.40530583 -0.33037773 0.17245632
-0.017115228 0.061101295 0.46649805 -0.27029094 0.34545687 -0.38900056 -0.3802234 0.32579896
-0.1822142 -0.110410005 0.091214865 0.5227592 0.24006763 -0.22538047 -0.19592029 -0.068981834

flows.0.mprqat.autoregressive_net.blocks.0.context_layer.weight f4 [64, 3]
00000000: 93b4 bbbb 97b9 a8be 7873 c1be 879a 56be
00000010: 91d0 05bd 6510 743e e742 133d f1f4 04bf
00000020: a473 b0be 7f4d e2bd 1dce 4cbb 1597 9f3c
00000030: 9afb 473c 9d5d 8c3e a864 f9bd f7f8 8a3c
00000040: 65c9 023e 8d08 18be b941 c63d 08ff 6dbe
00000050: 43c8 d0be 6e1a eabd 59cd 88bc f8ee 62bd
00000060: cae6 b7be 522b 993e 9e9e 2cbc 0cea 1f3e
00000070: 4984 89bd dab2 8a3b 51e6 4ebe 2364 f83b
00000080: 376e 0abc deee 0b3a 7ca3 f5be c12c d03d
00000090: 977b a3bb d4c4 fbbe 092d 4ebe a210 ccbd
000000a0: 6e93 7f3d f9ca 953d 5b95 203b f7f0 0f3d
000000b0: e3d7 efbd 81ba 903d 93b1 573d 3996 303c
000000c0: 4141 e2bd 8278 53bc 480b 873d b4cc a63d
000000d0: 5dd2 7d3c 2f36 0f3d 3e7f 5abc 14fc e33d
000000e0: ebe9 9d3e 93db 4abc a4e0 c6bd 9954 b13d
000000f0: 8bae 5d3e 3d7e bb3d fcf9 66be cf63 a2be
00000100: 9cc7 ea3e 8d10 b13e a6af 69bd 42f2 35bd
00000110: 888e 46bd cdd6 90bd 79b6 2fbc 4c1c 8c3c
00000120: 6547 19be 5d58 0cbe 40f6 bf3d 903a 19bd
00000130: f951 07bd 3f82 e23e 7be5 a03d 4e42 abbe
00000140: 1128 91bd defb 803e bc48 93be 2cad 583c
00000150: d372 0dbe 5ee7 b83c 9ae3 973c e625 5cbd
00000160: ac3b bf3e d2af 7a3e 528a 5d3d 3013 813d
00000170: 0dfd 23bb 032b fabd 574f 16be 972e ac3e
00000180: 3db2 423c c6c5 3f3c db82 783d e8f7 08bd
00000190: 1247 b4bd 7586 c3bc d13c 92bb cbbf a7bd
000001a0: 7f69 c4bd d76b 9bbe cf7a 583d 17bb fe3d
000001b0: 1356 92bc 7ae0 0a3d e7b8 693e e0ce 223e
000001c0: 360f 413c 957e 383e 34a8 493e 9634 7ebe
000001d0: 8169 ee3d dc98 1e3e 3cb0 b73c 1c16 b23d
000001e0: 0ee7 003d d07c 293e 12b0 043e dbc3 cfbd
000001f0: 44fa e5bc 8f2b f6ba 8a62 82be 31c9 d2bd
00000200: 9ac1 f73d a01c 95be 3e43 143d 1491 d33e
00000210: 8cfa c8bb 90ad 02ba 677d f1bc 0ccf 66be
00000220: 2b92 b43c b4b1 983d 79ea 453e 9245 99be
00000230: d179 d1bd 2013 123d a629 87bc 5824 88be
00000240: b191 9e3e 1674 a2be cf71 953c 2d8f d43d
00000250: 5c46 863c 009f a2bd 575d c23d 8b59 e3b9
00000260: 38cf 8cba 2973 0ebe dd8c c93a d437 153b
00000270: e3ac 0cbe 6727 90bc 548b c23e 4aab ff3c
00000280: 0553 1ebb 2f4d 9a3d 5f17 d93d 8470 f6bc
00000290: 1e4c 80bb 40e8 063d af1d a53a d11c 993a
000002a0: ebf2 143e 132b 003d 3fb5 bfbd e81b 013e
000002b0: 9869 9d3c d052 9bbc 9dd0 643e c5d9 a3be
000002c0: 5538 1ebc 3b5b 8abe 9a4d de3e 874d 3f3e
000002d0: 00fd 7dbc 241c f9be 2b9e c23e ab20 033e
000002e0: 2f79 863c f590 083e 6e26 813d 81dc 8b3c
000002f0: 0883 6f3c 70dc c93d feaf 083d 467b cb3b
-0.0057283132 -0.32954094 -0.37783408 -0.20957385 -0.032669608 0.23834379 0.035952475 -0.5193625
-0.34463227 -0.110499375 -0.0031250783 0.019481221 0.012205983 0.2741517 -0.12177402 0.016964419
0.12772138 -0.14847012 0.09680504 -0.23241818 -0.40777788 -0.11430822 -0.01669948 -0.05540368
-0.35918266 0.29915863 -0.010535864 0.15616626 -0.067146845 0.0042327465 -0.20205046 0.0075802966
-0.008449129 0.0005338023 -0.4797629 0.10164786 -0.0049890983 -0.49173605 -0.20134367 -0.0996411
0.06239646 0.073141046 0.0024503085 0.03514191 -0.11711099 0.07066823 0.052659582 0.010778003
-0.110476024 -0.012907149 0.065939486 0.08144513 0.015492049 0.034963783 -0.013336001 0.111320645
0.30842528 -0.012381452 -0.097108155 0.08658714 0.21648614 0.091549374 -0.22556299 -0.31716773
0.45855415 0.3458294 -0.057052277 -0.04442049 -0.048475772 -0.0707222 -0.010724657 0.017103337
-0.14968641 -0.13705583 0.0937314 -0.037409365 -0.03303716 0.44239995 0.0785627 -0.33449024
-0.0708772 0.2519216 -0.2876643 0.013224881 -0.13813333 0.022571262 0.018541146 -0.05374708
0.37350214 0.24481133 0.05408699 0.06302488 -0.0025022656 -0.12215235 -0.14678703 0.33629295
0.011883316 0.011704868 0.06067167 -0.033439547 -0.08802618 -0.023867825 -0.0044628163 -0.081908785
-0.09590434 -0.30355713 0.052851494 0.12438028 -0.017863309 0.033905484 0.22824441 0.15899229
0.011783412 0.18017037 0.1969307 -0.24824747 0.11641217 0.15487999 0.022422902 0.08695623
0.03147035 0.16551518 0.1295779 -0.10144778 -0.028073438 -0.0018781292 -0.25465804 -0.102922805
0.120974734 -0.29123402 0.03619694 0.41321623 -0.006133383 -0.0004984969 -0.029478742 -0.2253992
0.022042355 0.07455769 0.19327725 -0.2993589 -0.10228313 0.03566277 -0.016499352 -0.26590228
0.3097053 -0.31729192 0.018242745 0.10378871 0.016390972 -0.07940483 0.094904594 -0.0004336353
-0.0010742908 -0.13911118 0.0015377064 0.0022768872 -0.13737826 -0.017596914 0.37996924 0.031209607
-0.002415837 0.07534253 0.10600161 -0.030082949 -0.003915324 0.032936335 0.0012597347 0.0011681562
0.14545791 0.03129108 -0.09360742 0.12608302 0.01921539 -0.018960387 0.22345205 -0.32002082
-0.009656985 -0.27022728 0.4341858 0.18681918 -0.015502214 -0.48654282 0.38011298 0.1280543
0.016415207 0.13336547 0.06306158 0.017072918 0.014618643 0.09856498 0.033370964 0.0062097637

flows.0.mprqat.autoregressive_net.blocks.0.context_layer.bias f4 [64]
00000000: 9271 c1be 8bf1 183e 242e d5bd e16b 383a
00000010: 4544 e43c ed10 82bd 7ed1 28be 3a5c 0a3a
00000020: 7290 ca3d 2b29 ffba b379 df3a 0958 c3be
00000030: 74b6 fe3e 5440 89be bed9 d8be 47b6 073c
00000040: 66e7 293c 9f6d 0fbc 2b1e 0e3e dc4b f83e
00000050: b298 aa3b d7ad 3ebe a70d d63d b621 4db9
00000060: e807 a4bb 6187 c93d f24b 863e d95a 39bc
00000070: ef73 c1bb 5c02 63be 2864 47ba 144e 423e
00000080: 2f33 6d3d 8f63 493d 61eb 063f 1fef 663c
00000090: de72 c03e 0058 e83c f56b 3b3c 2dda 003d
000000a0: d19a 733d 0071 a6bb e1de 223e 8ce0 cebd
000000b0: 4e1f 22be d1a9 acbd 360a a83c b7a6 4b3d
000000c0: d588 4e3c 2428 573d d4f7 9b3a 8f02 2cbc
000000d0: fce6 43be 3d14 823d fedc 4cbc ceb5 59bb
000000e0: 3f17 96bb 06b8 9e3b 2cd3 06bb 4e55 7d3c
000000f0: c8e1 863e 1a79 aa3d 69ed 023c e0bc d23b
-0.3778196 0.14935891 -0.10409191 0.0007035118 0.027864585 -0.063508846 -0.16486165 0.0005278025
0.09890832 -0.0019467225 0.0017049819 -0.38153103 0.49748576 -0.2680689 -0.42353624 0.008283204
0.010370111 -0.008754163 0.13878696 0.48495376 0.005206191 -0.18621002 0.10451823 -0.00019562882
-0.0050058253 0.098402746 0.26229817 -0.011313164 -0.005903713 -0.22168869 -0.0007606172 0.18975097
0.05791014 0.049167212 0.5270291 0.014095097 0.37587637 0.028362274 0.011439313 0.03145807
0.059473816 -0.0050793886 0.15905334 -0.10101423 -0.15832254 -0.084308274 0.020512681 0.04971954
0.0126058655 0.052528515 0.001189942 -0.010498657 -0.19131082 0.063515164 -0.0125038605 -0.0033219936
-0.004580408 0.0048437146 -0.0020572646 0.015462233 0.26344132 0.083238795 0.007991173 0.006431207

flows.0.mprqat.autoregressive_net.blocks.0.linear_layers.0.weight f4 [64, 64]
00000000: 9ac9 9f3d a54e ebbb 4a01 853d bc96 3cbd
00000010: 11e7 523c 533b 7e3d e660 04bc 622a 7a3d
00000020: fd97 ca3c d86f 18bd 0ed7 dcbb c59d 9b3b
00000030: 9996 febc 2991 1d3e d19d db3c 502b 5e3d
00000040: fd6c 093d dbd5 02bd 393d 193e 9acd 833d
00000050: 7c38 163d 6187 ac3d 72ca eb3c 833b 903d
00000060: dd1c 9cbd 70ec a53d bc81 cc3b 92ba df3c
00000070: b788 91bd 5f8f 3d3b 410c 37bd c0c5 0c3e
00000080: 2c6b 80bc 2b00 67bd 3459 123e 734c adba
00000090: 1edc 883d eaa7 963d 361f 47bd e37f 573d
000000a0: 074c ff3d 1ea2 793c a805 ae3c 0ba3 883c
000000b0: e8f8 703d aa54 e13c 544c 32bd f290 1ebd
000000c0: a4e5 843d dcec 9f3d 2308 dbbc b9ff de3d
000000d0: 186a de3d 9e80 17bd 8985 6fbd 532f 6d3d
000000e0: ec6c 193d 5927 c03d bd0c 0e3c 46cf 103d
000000f0: 6d1f 583d 7da0 523d 7e0d 69bd 3334 c939
00000100: 6f57 0580 d55c 0580 a05d 0580 3059 0500
00000110: d25c 0580 905e 0580 ad5b 0580 015c 0580
00000120: 9ada 0580 7131 0100 8058 0580 565d 0500
00000130: 105b 0580 2221 0480 1d09 0100 025d 0500
00000140: 9757 0500 545b 0580 815d 0580 3b5d 0580
00000150: 7fbe 0580 e057 0580 62ad 0100 045c 0580
00000160: 5cbf 0100 00e1 0300 105d 0580 a05b 0580
00000170: fe33 0180 c058 0580 c65a 0580 5b5b 0500
00000180: e158 0580 7a5d 0580 d859 0580 a757 0580
00000190: e85c 0580 f75e 0580 135b 0580 605c 0580
000001a0: 5657 0580 1d5d 0580 b45b 0580 4e5a 0580
000001b0: 5157 0580 d45a 0580 6159 0580 4b5e 0580
000001c0: 04b5 0180 5857 0580 995d 0580 a657 0580
000001d0: 385c 0580 205c 0580 e85a 0580 bb57 0580
000001e0: 465d 0580 585e 0580 6b59 0580 e9aa 0280
000001f0: 7f57 0580 a06b 0680 735e 0580 735e 0580
00000200: 8a4c ef3c f6be 0f3b 6836 133c 2539 25bd
00000210: 849e d43b 36bf a63c 39d7 133e 8076 01bd
00000220: 4e23 18bd 3505 ad3c c371 043e bd7e d6bb
00000230: 829e 913c 937a 6abd e11c 35bd d353 cb3d
00000240: 7fd6 a6bb 0f76 7a3a a3ab a1bd 76fe 953d
00000250: 1678 ef3d 9ec4 963d 9088 95bd b8fd 0c3b
00000260: 5d85 f7ba 677b b13d 801d 0cbd e3ee b7bc
00000270: 2638 f8bc 02a5 a13c 300f 45bd 6de7 54bb
00000280: 7ac0 e53d 2c26 e53b 2232 d0bc 0b90 07bd
00000290: 5831 db3d 8591 e33c 154c 0b3e 2314 953c
000002a0: fa32 70bd eef1 a73c 8deb 903d 11d5 053d
000002b0: df7f 963a c879 d13c 4675 0c3d 3d00 bebc
000002c0: cc63 38bd 4efd 1d3d e02a 083d 49b5 7fbd
000002d0: 9956 8d3d 096e 143d 6004 df3a 7fe1 a63d
000002e0: 4872 f6bc 50d2 cb3d af58 b93c 93c0 1b3e
000002f0: 0d10 bebd f0aa ed3b 0b9a 4b3d 08c1 173d
00000300: f047 3a3d 2469 3c3c e9f3 f5bc 7bdf 3fbd
00000310: 14ef 823c e691 b7bb 5392 ef3b 51e4 423c
00000320: bd38 0ebd 6769 b3bc 9313 8cbb 9b95 703d
00000330: 6b89 99bb 8d5e 093d 735c a33b 0dd2 acbc
00000340: 4323 023c f736 5c3d 4968 a03c 3071 fabb
00000350: 7edd a33d 944d 833c 27d1 18b9 50f5 f53c
00000360: c939 a83c ba6e 323a 4af8 93bc be2b 893c
00000370: f2b2 40bd ce90 eabb ae8c 893c 33d6 2fbb
00000380: d34b 7b3c 50c0 223d 0f10 d3bc 2588 c0bb
00000390: 3475 b73c b16e 1238 d62a 87bc abf3 9dbb
000003a0: 21cb eb3c fac8 69bd 5a1c 263c 5297 193d
000003b0: 76a3 1b3c 9bc8 553d c8aa ec3c d853 133c
000003c0: 376c 583c 8237 56bb 3c1a 9a3d bac0 e13a
000003d0: 2739 94bb e896 c63c 3008 85bd 9512 553c
000003e0: 0a91 1a3d f43d 03bd c6c8 9ebd 1f34 9cbc
000003f0: d704 9f3b 2de2 7e3d a7cf b03c f304 b53b
0.07802124 -0.007181006 0.064943865 -0.04604219 0.012872473 0.062068295 -0.008079743 0.061075576
0.024730677 -0.037216038 -0.0067395037 0.004749032 -0.03107767 0.15387405 0.026808651 0.054240525
0.033551205 -0.03194223 0.14964761 0.064357 0.03667496 0.08424259 0.028783057 0.07042601
-0.07622693 0.081017375 0.0062410515 0.027310643 -0.071061544 0.0028924567 -0.04468942 0.1374731
-0.015676104 -0.056396645 0.14291841 -0.0013221636 0.06682609 0.07356246 -0.04861375 0.052612197
0.12465673 0.015236406 0.021242931 0.016679307 0.058831125 0.027506191 -0.043529823 -0.03871245
0.06489113 0.07808849 -0.026737278 0.10888619 0.108600795 -0.036987893 -0.05847696 0.05790646
0.03745739 0.09382505 0.008670029 0.03535392 0.052764345 0.051422585 -0.056897633 0.000383766
-4.90543e-40 -4.9248e-40 -4.92764e-40 4.91172e-40 -4.92475e-40 -4.931e-40 -4.92065e-40 -4.92182e-40
-5.37597e-40 1.09572e-40 -4.90925e-40 4.9266e-40 -4.91845e-40 -3.79228e-40 9.5105e-41 4.92542e-40
4.90599e-40 -4.9194e-40 -4.9272e-40 -4.92622e-40 -5.27515e-40 -4.90701e-40 1.54034e-40 -4.92186e-40
1.60482e-40 3.56221e-40 -4.92562e-40 -4.92046e-40 -1.10487e-40 -4.91015e-40 -4.91741e-40 4.9195e-40
-4.91061e-40 -4.9271e-40 -4.91407e-40 -4.90621e-40 -4.92506e-40 -4.93244e-40 -4.91849e-40 -4.92315e-40
-4.90508e-40 -4.9258e-40 -4.92074e-40 -4.91573e-40 -4.90501e-40 -4.9176e-40 -4.9124e-40 -4.93003e-40
-1.56772e-40 -4.9051e-40 -4.92754e-40 -4.9062e-40 -4.9226e-40 -4.92226e-40 -4.91788e-40 -4.90649e-40
-4.92638e-40 -4.93022e-40 -4.91255e-40 -2.44982e-40 -4.90565e-40 -5.89622e-40 -4.9306e-40 -4.9306e-40
0.029211301 0.002193389 0.008985139 -0.0403377 0.006488623 0.020354848 0.1443757 -0.03160715
-0.037143044 0.021120647 0.12934022 -0.00654587 0.017775778 -0.057245802 -0.044216994 0.099280976
-0.005091488 0.0009554335 -0.07894065 0.07323925 0.116928264 0.073617205 -0.07301438 0.0021513533
-0.001888435 0.08666115 -0.03420782 -0.022452777 -0.030300211 0.019732002 -0.048110187 -0.0032486573
0.112183526 0.006993076 -0.02541453 -0.033096354 0.10702771 0.02777935 0.13603242 0.018198078
-0.058642365 0.020501103 0.07076178 0.0326739 0.00114822 0.025570765 0.03429153 -0.023193473
-0.04501705 0.03857165 0.033244014 -0.062428746 0.06901283 0.03623775 0.0017014854 0.08148479
-0.03008379 0.09952223 0.022625295 0.1521018 -0.09280405 0.0072530434 0.049707454 0.037049323
0.04547876 0.011499677 -0.030023532 -0.046843987 0.015983142 -0.0056021092 0.0073111444 0.011895255
-0.03472208 -0.021900846 -0.0042747944 0.058736425 -0.004685571 0.033537436 0.004985386 -0.021096254
0.007942977 0.053763356 0.019580977 -0.0076428875 0.08001231 0.016028203 -0.00014573765 0.0300242
0.020535367 0.00068066607 -0.01806273 0.01674449 -0.047045656 -0.0071583753 0.016790714 -0.0026830554
0.015337902 0.039734185 -0.025764493 -0.0058756047 0.022394754 3.4912202e-05 -0.016499918 -0.0048203073
0.028783383 -0.05707643 0.0101385955 0.037497826 0.009499421 0.052193265 0.028890029 0.008992158
0.013209394 -0.0032686894 0.07524535 0.0017223575 -0.0045234147 0.02424188 -0.06495702 0.013004919
0.037735976 -0.032041505 -0.07753138 -0.019067822 0.004852872 0.062227417 0.021583391 0.0055242716

flows.0.mprqat.autoregressive_net.blocks.0.linear_layers.0.bias f4 [64]
00000000: 1192 ae3d 005a 0580 8b86 0f3e d524 9d3d
00000010: f561 9f3d 9695 8a3d 3302 1e3e a11b ef3d
00000020: bdeb a43d 9e5f ab3d 4458 0e3e 25a5 073e
00000030: ba5c 0580 5cbf 7a3d e900 f13d 3d48 d93d
00000040: 3cab 903d e7eb aa3d 4426 ea3d 018c 503d
00000050: 9592 a93d 7075 873d 447d c33d ad00 903d
00000060: d75f 073e c35a d93d df78 4a3d af52 6e3d
00000070: 0c01 883d d34c f83d 4861 a23d c403 f93d
00000080: 8593 873d 9fce dd3d c4f6 cc3d 6b05 063e
00000090: e8fa 053e f394 553d 999a bb3d db0c b13d
000000a0: dd89 053e e295 033e c669 ff3d f015 973d
000000b0: af15 da3d eca2 eb3d 1234 923d a7b6 a43d
000000c0: 5d6a 083e 3ee3 0b3e adf2 bd3d 0609 b33d
000000d0: d586 153e aedf 0c3e 1931 c13d c27c 0a3e
000000e0: 08d1 ea3d f2cb f33d 3358 e73d 335e 9e3d
000000f0: 7751 c73d aaba 213d db7e 813d 98ce 0d3d
0.08523954 -4.91463e-40 0.14016168 0.07673041 0.07782356 0.067668125 0.15430526 0.11675192
0.08052776 0.08367847 0.13900858 0.13246591 -4.92442e-40 0.06121765 0.11767752 0.106094815
0.0706391 0.08345776 0.1143308 0.050914768 0.082799114 0.06614196 0.09545377 0.07031379
0.13220154 0.106130145 0.049431678 0.058184322 0.06640825 0.12124028 0.07928711 0.12158921
0.06619934 0.108304255 0.10008004 0.13088004 0.13083994 0.052144002 0.091603465 0.0864503
0.13040872 0.12850145 0.124713466 0.07377231 0.10648667 0.11505684 0.07138838 0.08042651
0.13321824 0.13660905 0.09274802 0.087419555 0.14602216 0.13757202 0.09433193 0.13524154
0.11465651 0.11904134 0.112961195 0.07732811 0.09732335 0.039484657 0.06323024 0.03462085

flows.0.mprqat.autoregressive_net.blocks.0.linear_layers.0.mask f4 [64, 64]
00000000: 0000 803f 0000 803f 0000 803f 0000 803f
00000010: 0000 803f 0000 803f 0000 803f 0000 803f
00000020: 0000 803f 0000 803f 0000 803f 0000 803f
00000030: 0000 803f 0000 803f 0000 803f 0000 803f
00000040: 0000 803f 0000 803f 0000 803f 0000 803f
00000050: 0000 803f 0000 803f 0000 803f 0000 803f
00000060: 0000 803f 0000 803f 0000 803f 0000 803f
00000070: 0000 803f 0000 803f 0000 803f 0000 803f
00000080: 0000 803f 0000 803f 0000 803f 0000 803f
00000090: 0000 803f 0000 803f 0000 803f 0000 803f
000000a0: 0000 803f 0000 803f 0000 803f 0000 803f
000000b0: 0000 803f 0000 803f 0000 803f 0000 803f
000000c0: 0000 803f 0000 803f 0000 803f 0000 803f
000000d0: 0000 803f 0000 803f 0000 803f 0000 803f
000000e0: 0000 803f 0000 803f 0000 803f 0000 803f
000000f0: 0000 803f 0000 803f 0000 803f 0000 803f
00000100: 0000 803f 0000 803f 0000 803f 0000 803f
00000110: 0000 803f 0000 803f 0000 803f 0000 803f
00000120: 0000 803f 0000 803f 0000 803f 0000 803f
00000130: 0000 803f 0000 803f 0000 803f 0000 803f
00000140: 0000 803f 0000 803f 0000 803f 0000 803f
00000150: 0000 803f 0000 803f 0000 803f 0000 803f
00000160: 0000 803f 0000 803f 0000 803f 0000 803f
00000170: 0000 803f 0000 803f 0000 803f 0000 803f
00000180: 0000 803f 0000 803f 0000 803f 0000 803f
00000190: 0000 803f 0000 803f 0000 803f 0000 803f
000001a0: 0000 803f 0000 803f 0000 803f 0000 803f
000001b0: 0000 803f 0000 803f 0000 803f 0000 803f
000001c0: 0000 803f 0000 803f 0000 803f 0000 803f
000001d0: 0000 803f 0000 803f 0000 803f 0000 803f
000001e0: 0000 803f 0000 803f 0000 803f 0000 803f
000001f0: 0000 803f 0000 803f 0000 803f 0000 803f
00000200: 0000 803f 0000 803f 0000 803f 0000 803f
00000210: 0000 803f 0000 803f 0000 803f 0000 803f
00000220: 0000 803f 0000 803f 0000 803f 0000 803f
00000230: 0000 803f 0000 803f 0000 803f 0000 803f
00000240: 0000 803f 0000 803f 0000 803f 0000 803f
00000250: 0000 803f 0000 803f 0000 803f 0000 803f
00000260: 0000 803f 0000 803f 0000 803f 0000 803f
00000270: 0000 803f 0000 803f 0000 803f 0000 803f
00000280: 0000 803f 0000 803f 0000 803f 0000 803f
00000290: 0000 803f 0000 803f 0000 803f 0000 803f
000002a0: 0000 803f 0000 803f 0000 803f 0000 803f
000002b0: 0000 803f 0000 803f 0000 803f 0000 803f
000002c0: 0000 803f 0000 803f 0000 803f 0000 803f
000002d0: 0000 803f 0000 803f 0000 803f 0000 803f
000002e0: 0000 803f 0000 803f 0000 803f 0000 803f
000002f0: 0000 803f 0000 803f 0000 803f 0000 803f
00000300: 0000 803f 0000 803f 0000 803f 0000 803f
00000310: 0000 803f 0000 803f 0000 803f 0000 803f
00000320: 0000 803f 0000 803f 0000 803f 0000 803f
00000330: 0000 803f 0000 803f 0000 803f 0000 803f
00000340: 0000 803f 0000 803f 0000 803f 0000 803f
00000350: 0000 803f 0000 803f 0000 803f 0000 803f
00000360: 0000 803f 0000 803f 0000 803f 0000 803f
00000370: 0000 803f 0000 803f 0000 803f 0000 803f
00000380: 0000 803f 0000 803f 0000 803f 0000 803f
00000390: 0000 803f 0000 803f 0000 803f 0000 803f
000003a0: 0000 803f 0000 803f 0000 803f 0000 803f
000003b0: 0000 803f 0000 803f 0000 803f 0000 803f
000003c0: 0000 803f 0000 803f 0000 803f 0000 803f
000003d0: 0000 803f 0000 803f 0000 803f 0000 803f
000003e0: 0000 803f 0000 803f 0000 803f 0000 803f
000003f0: 0000 803f 0000 803f 0000 803f 0000 803f
1.0 1.0 1.0 1.0 1.0 1.0 1.0 1.0
1.0 1.0 1.0 1.0 1.0 1.0 1.0 1.0
1.0 1.0 1.0 1.0 1.0 1.0 1.0 1.0
1.0 1.0 1.0 1.0 1.0 1.0 1.0 1.0
1.0 1.0 1.0 1.0 1.0 1.0 1.0 1.0
1.0 1.0 1.0 1.0 1.0 1.0 1.0 1.0
1.0 1.0 1.0 1.0 1.0 1.0 1.0 1.0
1.0 1.0 1.0 1.0 1.0 1.0 1.0 1.0
1.0 1.0 1.0 1.0 1.0 1.0 1.0 1.0
1.0 1.0 1.0 1.0 1.0 1.0 1.0 1.0
1.0 1.0 1.0 1.0 1.0 1.0 1.0 1.0
1.0 1.0 1.0 1.0 1.0 1.0 1.0 1.0
1.0 1.0 1.0 1.0 1.0 1.0 1.0 1.0
1.0 1.0 1.0 1.0 1.0 1.0 1.0 1.0
1.0 1.0 1.0 1.0 1.0 1.0 1.0 1.0
1.0 1.0 1.0 1.0 1.0 1.0 1.0 1.0
1.0 1.0 1.0 1.0 1.0 1.0 1.0 1.0
1.0 1.0 1.0 1.0 1.0 1.0 1.0 1.0
1.0 1.0 1.0 1.0 1.0 1.0 1.0 1.0
1.0 1.0 1.0 1.0 1.0 1.0 1.0 1.0
1.0 1.0 1.0 1.0 1.0 1.0 1.0 1.0
1.0 1.0 1.0 1.0 1.0 1.0 1.0 1.0
1.0 1.0 1.0 1.0 1.0 1.0 1.0 1.0
1.0 1.0 1.0 1.0 1.0 1.0 1.0 1.0
1.0 1.0 1.0 1.0 1.0 1.0 1.0 1.0
1.0 1.0 1.0 1.0 1.0 1.0 1.0 1.0
1.0 1.0 1.0 1.0 1.0 1.0 1.0 1.0
1.0 1.0 1.0 1.0 1.0 1.0 1.0 1.0
1.0 1.0 1.0 1.0 1.0 1.0 1.0 1.0
1.0 1.0 1.0 1.0 1.0 1.0 1.0 1.0
1.0 1.0 1.0 1.0 1.0 1.0 1.0 1.0
1.0 1.0 1.0 1.0 1.0 1.0 1.0 1.0

flows.0.mprqat.autoregressive_net.blocks.0.linear_layers.1.weight f4 [64, 64]
00000000: 9e88 19bd 605d 0500 865a 0fbd a97a 053b
00000010: 98e7 2cbd 9d1a 02bd 0b92 713b b05c c3bc
00000020: 850e 27bd 3e13 37bd 0176 39bd fa96 32bd
00000030: a159 0500 6a53 493b dac0 2fbd a0b8 aeba
00000040: 739f 7a3b 7a06 31bd 18e6 1abd 5afb d4bc
00000050: 92ea 06bc 13a3 503b 59f9 0f3a 00b2 a7ba
00000060: 9bad d3bc 0cd3 e9bc 331d d2b9 bb83 1dbd
00000070: a277 483c d49b c13c b96f 48bd 6263 1dbd
00000080: de9f 0ebd e89c babc 61e2 a6bc 8e37 56bd
00000090: d357 f53b 333d 03bb a7e7 0bbc 76de e53c
000000a0: 565c efba 1a95 58bd 580f 47bd 1e65 2dbd
000000b0: 9f43 94bb 4c86 20bc 2d73 943c f632 933b
000000c0: cb4f 5abc d2fc 5cbd 8cf1 37bd 6806 e2ba
000000d0: 16d8 133d 494e 08bd 8b86 dbbc 5d62 16bd
000000e0: 0b9b 483b 4014 fdbc eb35 25bd ab09 51bd
000000f0: add4 4ebd cebd cbba fa37 c0bb 41bf 123b
00000100: b1ef 323d 005b 0580 3ec8 2c3d 771d b33c
00000110: 0fbe 3b3d f583 143d 9100 0d3d 350a 233d
00000120: 511c 423d beef 333d 2838 523d 9e7c 573d
00000130: 465a 0580 4c0b 8f3c cc69 3b3d 97e7 183d
00000140: 2f50 f93c 48c5 313d 94b5 2e3d 68fb 113d
00000150: a014 a23c 2a75 123d 6433 d13c 93d9 943c
00000160: 899b 473d 87f8 313d c5c8 ae3c 1606 333d
00000170: b9e4 acbb 3a15 d63c f580 6d3d ca57 2d3d
00000180: ba27 153d 111a de3c 2fc4 7b3c 47ff 693d
00000190: 3045 ab3c 2ecb e53c 961d 103d acfe a03c
000001a0: 8462 0a3d e2e0 7b3d 32b7 793d b73f f93c
000001b0: c3eb cf3c 62c7 cf3c a961 ae3c d5a2 fe3c
000001c0: ff56 f33c f679 823d df74 433d ef03 0c3d
000001d0: 5746 373d 567c 553d 5649 0c3d 4507 303d
000001e0: e12b cf3c 174e 593d ce29 1d3d c9ca 533d
000001f0: 7cf6 353d 96ad 9d3c d3d7 e73c c2ce b13c
00000200: 6f29 c2bb 2073 0680 3bfd bcbb 3e03 c3bb
00000210: f033 80bb d23d 81bb 011e b43a 8d64 a5bb
00000220: 0bd2 cfbb 8de1 9cbb 3306 a6bb 1462 afbb
00000230: 7e5a 0580 d3d3 c2b9 8881 c0bb 9ae0 143c
00000240: 4e75 09bc fa97 c0bb eb5c b1bb 4bb7 b6bb
00000250: 4c82 a13b 9d2c a03c efa3 1b3c 5bc2 92bb
00000260: 89bb 93bb f107 a0bb 13d7 48bb c5e7 b7bb
00000270: abd0 2eba 09bd 4f3c fdca b4bb 4169 9abb
00000280: d142 8bbb c9ce 86bb 263d 8dbb e528 9fbb
00000290: 30f0 6e3b 0868 9e3b b151 84b9 bfe0 ddba
000002a0: 80f8 0d3c f3e1 9bbb 7c22 a1bb ff75 bebb
000002b0: fcb7 1d3c 2a32 4dbb 3fcf 8f3b 3fb4 acbc
000002c0: 904c 92bb 09ed b6bb 220a 92bb f5a7 ca3b
000002d0: bf92 b23c e1b7 b9bb c809 1039 6abf abbb
000002e0: df47 1f3b 2d37 68bb 492a 8ebb ed33 aabb
000002f0: f8d5 a2bb b3e6 0a3b e104 3e3b 106c 75bc
00000300: 95f5 00bc d058 0500 00d5 253b c55a cb3b
00000310: 440f c7bb 01fc 56bb 4a9b 2cbc a8ff 0ebc
00000320: 14c4 8e3b 3f7d 6ebb d73f 3eba 61ea ba3b
00000330: 3f58 0500 caeb 1abc fc64 24bb e162 b3bb
00000340: a445 493b 6f35 c3bb 9738 01bc 6506 07bb
00000350: dfb4 b23b 8562 aabb 04ae 16ba 5f8a 523c
00000360: 66ee 72bc 988d 1abc f613 bd3a c9d1 efbb
00000370: c211 cf3c 0e3c fbba f975 7bbb 21f7 44bc
00000380: bd61 b0bb 7349 103b eb2e b33c 5819 543b
00000390: 583a 7e3c 2038 d239 12db 47bb f4d2 843c
000003a0: 6cb7 02bb b375 29bc dd26 e8bb c245 6a3b
000003b0: a8df 6f3a f6b0 043b 2726 9dbc def3 b2bb
000003c0: e4c4 a139 e5e8 46bc 0191 3ebc 325b b2bb
000003d0: 0456 5fbc 9692 a3bb 691d 2f3b 8869 dcbb
000003e0: 9f28 a03c 06e6 6abc 00a4 f83b a3f2 b9ba
000003f0: e078 3b3a 8eca a03b ea52 883a 8191 b63a
-0.037483804 4.92674e-40 -0.03499844 0.00203673 -0.042213053 -0.03176366 0.003686073 -0.023847908
-0.04078533 -0.044696085 -0.045278553 -0.043601014 4.9133e-40 0.0030719885 -0.042908527 -0.0013330169
0.0038242012 -0.043219067 -0.03781709 -0.02599876 -0.008234637 0.003183548 0.0005492173 -0.0012794137
-0.025839617 -0.028543018 -0.00040076076 -0.038455706 0.012235554 0.023633875 -0.048934672 -0.038424857
-0.03482043 -0.022779897 -0.020371618 -0.052299075 0.007487276 -0.0020025491 -0.008539117 0.02806018
-0.0018261771 -0.05287657 -0.048598617 -0.04233276 -0.0045246626 -0.009797644 0.018121326 0.004492159
-0.013324688 -0.053952046 -0.04490809 -0.0017244341 0.036094747 -0.033277784 -0.026797554 -0.0367149
0.003060999 -0.030893445 -0.040334623 -0.05103461 -0.050495792 -0.0015544237 -0.005866048 0.0022391828
0.04368562 -4.91822e-40 0.042183153 0.021864636 0.04583555 0.036258657 0.03442437 0.039804656
0.047390286 0.043929808 0.051323086 0.05260908 -4.91561e-40 0.017461441 0.045755193 0.037330236
0.030433742 0.043401033 0.042653635 0.03564015 0.019785225 0.035756268 0.0255372 0.018170154
0.048732314 0.043449905 0.021335969 0.043706976 -0.0052762893 0.026133168 0.05798431 0.04232005
0.03641484 0.027112039 0.015366598 0.057128217 0.020907015 0.028050985 0.035184465 0.019652687
0.033785358 0.06149376 0.060965724 0.03042589 0.025380975 0.025363628 0.021286802 0.031083504
0.029704569 0.063709185 0.04771888 0.03418344 0.044744816 0.05212053 0.034249626 0.042975683
0.025289478 0.053052988 0.038369946 0.051707063 0.04442452 0.019247811 0.028301155 0.021705035
-0.0059253494 -5.92312e-40 -0.005767492 -0.0059513142 -0.0039124414 -0.003944137 0.0013741852 -0.005047387
-0.0063421777 -0.00478763 -0.005066657 -0.005352268 -4.9164e-40 -0.00037160385 -0.0058748163 0.009086752
-0.008389784 -0.005877492 -0.005412688 -0.0055760494 0.0049288627 0.019552523 0.009499534 -0.0044787354
-0.00450844 -0.004883759 -0.0030645772 -0.005612346 -0.0006668667 0.012679347 -0.005517362 -0.0047122543
-0.0042499085 -0.004114006 -0.004310268 -0.00485717 0.003645908 0.004834179 -0.00025237867 -0.0016927941
0.008665204 -0.00475716 -0.004917441 -0.005812406 0.009626385 -0.0031310418 0.0043887193 -0.021082042
-0.0044646934 -0.005582456 -0.0044567743 0.006184573 0.02179849 -0.005667672 0.00013736554 -0.005241324
0.0024304313 -0.0035433278 -0.004338537 -0.0051941783 -0.0049693547 0.0021194636 0.0028994607 -0.014979377
-0.007871051 4.91037e-40 0.002530396 0.006205889 -0.006074818 -0.0032804015 -0.010535071 -0.008727945
0.0043568704 -0.003639057 -0.00072574377 0.0057042097 4.90834e-40 -0.009455631 -0.0025084605 -0.005474434
0.0030711675 -0.0059572975 -0.007887027 -0.0020603177 0.0054536904 -0.0051997327 -0.0005747976 0.012850373
-0.014827346 -0.009433173 0.0014425504 -0.0073187095 0.025277022 -0.0019167678 -0.0038369878 -0.012021811
-0.005382745 0.0022016435 0.021872958 0.003236374 0.01551684 0.00040096138 -0.0030495566 0.016213872
-0.0019945754 -0.010343003 -0.007084711 0.0035747145 0.0009150454 0.0020247079 -0.019183232 -0.0054612
0.00030855008 -0.012140487 -0.011631251 -0.0054430002 -0.013631348 -0.0049918396 0.002672041 -0.0067264475
0.01955062 -0.014337068 0.0075879097 -0.0014186691 0.00071514957 0.004906959 0.0010400687 0.0013928862

flows.0.mprqat.autoregressive_net.blocks.0.linear_layers.1.bias f4 [64]
00000000: 5d9d ce3c 85c9 193d 01d3 203c eba5 9fbb
00000010: 4890 b23c 0b5d 393d 24d5 c03c 099b 213d
00000020: 8cb8 963d ade9 473d ba3d af3c 8d4e 073d
00000030: 8c0a 34bd b67a 9d3d e87e 683d a62c 38bd
00000040: a8f8 86bb 6a7b 91bd 03ab 3a3d d25b 0d3e
00000050: 7a18 d13d 3b82 b83d ee92 473d 08ee 32bd
00000060: 9e92 8a3d 4709 453d 55d6 dfba b9c3 9e3c
00000070: 504a eebc a5d8 0f3d a1b1 dc3d 9038 873d
00000080: d7e9 913d a9d4 2dbc 4226 9a3d ae3a 81bc
00000090: 7774 123e 8993 ac3d 5e1c 10bd 3d3c 713d
000000a0: eadc a23d 7fee 0b3d d585 673d 15c8 b13d
000000b0: bd00 72bd 0959 9b3d 8fa4 683c 82a2 4dbd
000000c0: 43d1 ff3b 80a5 313c 00e7 7e3c 3148 32ba
000000d0: dedd d93d 0a82 7c3d 5c81 a7bc 5898 7abd
000000e0: 3124 4b3d 7d22 c53d eaf7 1fbd 163b aa3d
000000f0: 7b0b 223e 7632 a53c be3e 163d 8a07 f9bc
0.025221521 0.0375457 0.009815932 -0.004872074 0.021797314 0.04525475 0.023539133 0.039454494
0.07359418 0.048806835 0.021391738 0.033033896 -0.04395537 0.07689421 0.056761652 -0.044964455
-0.0041189976 -0.071036175 0.045573246 0.13804558 0.10209747 0.090092145 0.048724107 -0.043684036
0.06766246 0.04810455 -0.0017077426 0.019380437 -0.02908817 0.035118718 0.107760675 0.06602585
0.071246795 -0.010609784 0.07526828 -0.015775051 0.1430224 0.084265776 -0.035183303 0.05889534
0.07952292 0.034162994 0.056524117 0.08680741 -0.059082735 0.075853415 0.01419939 -0.050203808
0.0078069284 0.010842681 0.015558004 -0.00068009185 0.10638021 0.061647452 -0.020447426 -0.061180443
0.04959506 0.09625719 -0.03905479 0.08312051 0.15824692 0.020165663 0.03668093 -0.030399103

flows.0.mprqat.autoregressive_net.blocks.0.linear_layers.1.mask f4 [64, 64]
00000000: 0000 803f 0000 803f 0000 803f 0000 803f
00000010: 0000 803f 0000 803f 0000 803f 0000 803f
00000020: 0000 803f 0000 803f 0000 803f 0000 803f
00000030: 0000 803f 0000 803f 0000 803f 0000 803f
00000040: 0000 803f 0000 803f 0000 803f 0000 803f
00000050: 0000 803f 0000 803f 0000 803f 0000 803f
00000060: 0000 803f 0000 803f 0000 803f 0000 803f
00000070: 0000 803f 0000 803f 0000 803f 0000 803f
00000080: 0000 803f 0000 803f 0000 803f 0000 803f
00000090: 0000 803f 0000 803f 0000 803f 0000 803f
000000a0: 0000 803f 0000 803f 0000 803f 0000 803f
000000b0: 0000 803f 0000 803f 0000 803f 0000 803f
000000c0: 0000 803f 0000 803f 0000 803f 0000 803f
000000d0: 0000 803f 0000 803f 0000 803f 0000 803f
000000e0: 0000 803f 0000 803f 0000 803f 0000 803f
000000f0: 0000 803f 0000 803f 0000 803f 0000 803f
00000100: 0000 803f 0000 803f 0000 803f 0000 803f
00000110: 0000 803f 0000 803f 0000 803f 0000 803f
00000120: 0000 803f 0000 803f 0000 803f 0000 803f
00000130: 0000 803f 0000 803f 0000 803f 0000 803f
00000140: 0000 803f 0000 803f 0000 803f 0000 803f
00000150: 0000 803f 0000 803f 0000 803f 0000 803f
00000160: 0000 803f 0000 803f 0000 803f 0000 803f
00000170: 0000 803f 0000 803f 0000 803f 0000 803f
00000180: 0000 803f 0000 803f 0000 803f 0000 803f
00000190: 0000 803f 0000 803f 0000 803f 0000 803f
000001a0: 0000 803f 0000 803f 0000 803f 0000 803f
000001b0: 0000 803f 0000 803f 0000 803f 0000 803f
000001c0: 0000 803f 0000 803f 0000 803f 0000 803f
000001d0: 0000 803f 0000 803f 0000 803f 0000 803f
000001e0: 0000 803f 0000 803f 0000 803f 0000 803f
000001f0: 0000 803f 0000 803f 0000 803f 0000 803f
00000200: 0000 803f 0000 803f 0000 803f 0000 803f
00000210: 0000 803f 0000 803f 0000 803f 0000 803f
00000220: 0000 803f 0000 803f 0000 803f 0000 803f
00000230: 0000 803f 0000 803f 0000 803f 0000 803f
00000240: 0000 803f 0000 803f 0000 803f 0000 803f
00000250: 0000 803f 0000 803f 0000 803f 0000 803f
00000260: 0000 803f 0000 803f 0000 803f 0000 803f
00000270: 0000 803f 0000 803f 0000 803f 0000 803f
00000280: 0000 803f 0000 803f 0000 803f 0000 803f
00000290: 0000 803f 0000 803f 0000 803f 0000 803f
000002a0: 0000 803f 0000 803f 0000 803f 0000 803f
000002b0: 0000 803f 0000 803f 0000 803f 0000 803f
000002c0: 0000 803f 0000 803f 0000 803f 0000 803f
000002d0: 0000 803f 0000 803f 0000 803f 0000 803f
000002e0: 0000 803f 0000 803f 0000 803f 0000 803f
000002f0: 0000 803f 0000 803f 0000 803f 0000 803f
00000300: 0000 803f 0000 803f 0000 803f 0000 803f
00000310: 0000 803f 0000 803f 0000 803f 0000 803f
00000320: 0000 803f 0000 803f 0000 803f 0000 803f
00000330: 0000 803f 0000 803f 0000 803f 0000 803f
00000340: 0000 803f 0000 803f 0000 803f 0000 803f
00000350: 0000 803f 0000 803f 0000 803f 0000 803f
00000360: 0000 803f 0000 803f 0000 803f 0000 803f
00000370: 0000 803f 0000 803f 0000 803f 0000 803f
00000380: 0000 803f 0000 803f 0000 803f 0000 803f
00000390: 0000 803f 0000 803f 0000 803f 0000 803f
000003a0: 0000 803f 0000 803f 0000 803f 0000 803f
000003b0: 0000 803f 0000 803f 0000 803f 0000 803f
000003c0: 0000 803f 0000 803f 0000 803f 0000 803f
000003d0: 0000 803f 0000 803f 0000 803f 0000 803f
000003e0: 0000 803f 0000 803f 0000 803f 0000 803f
000003f0: 0000 803f 0000 803f 0000 803f 0000 803f
1.0 1.0 1.0 1.0 1.0 1.0 1.0 1.0
1.0 1.0 1.0 1.0 1.0 1.0 1.0 1.0
1.0 1.0 1.0 1.0 1.0 1.0 1.0 1.0
1.0 1.0 1.0 1.0 1.0 1.0 1.0 1.0
1.0 1.0 1.0 1.0 1.0 1.0 1.0 1.0
1.0 1.0 1.0 1.0 1.0 1.0 1.0 1.0
1.0 1.0 1.0 1.0 1.0 1.0 1.0 1.0
1.0 1.0 1.0 1.0 1.0 1.0 1.0 1.0
1.0 1.0 1.0 1.0 1.0 1.0 1.0 1.0
1.0 1.0 1.0 1.0 1.0 1.0 1.0 1.0
1.0 1.0 1.0 1.0 1.0 1.0 1.0 1.0
1.0 1.0 1.0 1.0 1.0 1.0 1.0 1.0
1.0 1.0 1.0 1.0 1.0 1.0 1.0 1.0
1.0 1.0 1.0 1.0 1.0 1.0 1.0 1.0
1.0 1.0 1.0 1.0 1.0 1.0 1.0 1.0
1.0 1.0 1.0 1.0 1.0 1.0 1.0 1.0
1.0 1.0 1.0 1.0 1.0 1.0 1.0 1.0
1.0 1.0 1.0 1.0 1.0 1.0 1.0 1.0
1.0 1.0 1.0 1.0 1.0 1.0 1.0 1.0
1.0 1.0 1.0 1.0 1.0 1.0 1.0 1.0
1.0 1.0 1.0 1.0 1.0 1.0 1.0 1.0
1.0 1.0 1.0 1.0 1.0 1.0 1.0 1.0
1.0 1.0 1.0 1.0 1.0 1.0 1.0 1.0
1.0 1.0 1.0 1.0 1.0 1.0 1.0 1.0
1.0 1.0 1.0 1.0 1.0 1.0 1.0 1.0
1.0 1.0 1.0 1.0 1.0 1.0 1.0 1.0
1.0 1.0 1.0 1.0 1.0 1.0 1.0 1.0
1.0 1.0 1.0 1.0 1.0 1.0 1.0 1.0
1.0 1.0 1.0 1.0 1.0 1.0 1.0 1.0
1.0 1.0 1.0 1.0 1.0 1.0 1.0 1.0
1.0 1.0 1.0 1.0 1.0 1.0 1.0 1.0
1.0 1.0 1.0 1.0 1.0 1.0 1.0 1.0

flows.0.mprqat.autoregressive_net.blocks.1.context_layer.weight f4 [64, 3]
00000000: bf2c 18be 7f4d 633d 7459 f1bd fe48 41be
00000010: 8fa6 3c3c 0d85 5cbe 2352 af3c d6d9 f6be
00000020: 41d4 f9ba c023 21be 6b9a 87bd 3727 f8bb
00000030: a285 273d a65e 22be d0aa 783e 6854 693e
00000040: d962 a9be 658b a63c c22c 8e3d a7e4 1e3e
00000050: 7910 c63d 4e93 e6bc a958 8d3e ffa8 2cbe
00000060: 0e4a 9dbe 59ca fe3e 4dda b43c 1999 633a
00000070: 5a04 953b de02 ce3d 14bf 14bb 92ec 313e
00000080: 5a87 183d f6f0 fabb b691 10bf 161d b43e
00000090: 5f07 293d b377 da3d 654e 3a3e de83 943d
000000a0: be89 ddbe 484e 96bd 3189 9d3d a32e 6dbe
000000b0: 4374 97be 4740 8a3b 2319 0e3e 1caa dd3b
000000c0: 91a2 bbbe 8743 cc3e fbb5 fe3d d266 90bc
000000d0: 5f13 d33e 443c 763e 7aaa 67be 9a96 d33c
000000e0: b7a9 c43c 8dd5 80be fa75 0dbd 7364 98be
000000f0: 6112 a7bd dc8f 11be bf70 0d3f 295a 123e
00000100: 74b3 5f3c c9a9 07be 3715 6e3d c186 de3c
00000110: 4c74 113c dba8 963d f65c 683d 9137 303d
00000120: 6b6a 1abe 878e 2cbd eb68 8e3d aaa9 9c3d
00000130: 0aff 96bc f262 563b 4716 cbbd c3af 093e
00000140: 8027 493e a6e0 7abe b22c 183e 56ef 2fbe
00000150: c224 34be 9a8a aa3e 9859 96be 9f5e 53be
00000160: 5799 993e 867b 813c 7260 fa3d 0fe2 54bb
00000170: 8101 043e 45e5 25be 39fd 8cbd 4867 493d
00000180: 485a 42be dc05 af3c b927 bebd 0e24 c2bd
00000190: a9ce 57bc ef0b 893b 04f3 673e c45a b9be
000001a0: a785 83be 211e a03d d7f0 af3d 9579 4b3d
000001b0: 2333 c3bd 6997 973d 741a 62be 5974 a2be
000001c0: 718d f93e 6f5e 2cbd 07ea 9c3e 47b6 b0be
000001d0: 0deb 6b3c 52a1 84bc 566e 6a3c 6c30 0dbe
000001e0: 65ea 3a3b b950 2d3e 90e5 05bd fd9c 8dbd
000001f0: a25f d13c 08fe 3dbd 65fa 93be 326c b13e
00000200: c1cd e4bd 5899 7b3e 00bc a4be b6bb eebd
00000210: 0bdb 09bd 89f9 d63c a3f7 4bbe 604c 8dbe
00000220: f34a 413e 68fb 823d d456 80bd a194 903e
00000230: 05ba d9be e11e 023d fc6c 1b3e d7fc 90be
00000240: 7efc 923e 3027 91be c885 a83c 5633 0cbb
00000250: 1180 803e ce43 8b3e f402 cabd a217 43bd
00000260: 534b b63b 2d0f c13d 1f87 f13b 7fbe 88bb
00000270: 294e 30be be47 07be 9b09 923e d2e2 9dbe
00000280: 1b1f c83e d530 943d ad50 a53e 7d56 80be
00000290: 7ac1 e9bb c3ee 66be 876e 61bc 6592 88bd
000002a0: 6868 8e3e 2e12 88be fece 353e 2763 46be
000002b0: 111e 023f 3d2c 3e3e 082d 573c 0570 013c
000002c0: ea1a 813c a2cb 2d3e 37d9 f6bd 66b4 8e3d
000002d0: 7e05 0d3e 9b56 353c f19f 26bd 4cc7 8c3d
000002e0: 9c8f 4a3e eae5 7ebd dbc7 a0be 609e bcbb
000002f0: afe3 a43e 6273 86bc 3244 05bf 73b5 6c3e
-0.1486082 0.055493828 -0.1178464 -0.188755 0.01151432 -0.2153513 0.02140147 -0.4821307
-0.0019060449 -0.15736294 -0.0662125 -0.007573034 0.040898927 -0.15856418 0.2428391 0.22786105
-0.33083227 0.02033014 0.069421306 0.15516911 0.09671111 -0.028146412 0.27606705 -0.16861342
-0.30720562 0.49763754 0.02207675 0.0008682176 0.004547638 0.100591406 -0.00226969 0.173754
0.037238456 -0.0076581193 -0.5647234 0.3517844 0.041266795 0.10667362 0.18193968 0.07251714
-0.4326915 -0.0733915 0.07692183 -0.23162322 -0.29580888 0.0042190882 0.13876776 0.0067646634
-0.36647466 0.3989527 0.12437054 -0.017627154 0.41225716 0.24046427 -0.22623625 0.025828648
0.024006708 -0.25162926 -0.03453634 -0.29764137 -0.081578024 -0.14215034 0.5525016 0.14292206
0.013653625 -0.13248362 0.0581257 0.027163865 0.008877825 0.073564254 0.05672928 0.043021742
-0.15079658 -0.042128112 0.06953605 0.07649548 -0.018432159 0.0032712785 -0.099163584 0.13445954
0.19643974 -0.24499759 0.148608 -0.17181143 -0.17592147 0.3330887 -0.2936523 -0.20641564
0.29999802 0.01580597 0.12225427 -0.0032483374 0.12891199 -0.1620074 -0.06884236 0.049170762
-0.18979752 0.021365099 -0.0928492 -0.09479533 -0.01317183 0.004182331 0.22651297 -0.3620206
-0.25687906 0.07818247 0.085908584 0.049676497 -0.09531238 0.07401926 -0.22080404 -0.3172939
0.48740724 -0.042082246 0.306473 -0.34514067 0.014399302 -0.016190205 0.014308533 -0.13788003
0.0028521058 0.16925324 -0.03268963 -0.06914709 0.025558297 -0.04638484 -0.28901973 0.3465286
-0.11172057 0.24570215 -0.32174683 -0.11656897 -0.03365616 0.026242035 -0.19918685 -0.27597332
0.18876247 0.06395608 -0.06266561 0.28238395 -0.42524734 0.03176773 0.15178293 -0.28317901
0.2870826 -0.2835021 0.020571604 -0.0021392903 0.25097707 0.27200168 -0.098638445 -0.04762996
0.0055631786 0.09426723 0.007370844 -0.0041730995 -0.17217316 -0.13210961 0.28522953 -0.30837113
0.39086232 0.072358765 0.32288113 -0.25065985 -0.00713366 -0.22552018 -0.013759262 -0.066685475
0.2781403 -0.2657637 0.17754743 -0.19373761 0.5082713 0.18571563 0.013133295 0.007900243
0.015759904 0.16972211 -0.12053149 0.06968002 0.13771626 0.011068012 -0.040679876 0.0687395
0.19781345 -0.062230982 -0.31402478 -0.0057561845 0.3220496 -0.01641244 -0.5205718 0.23116092

flows.0.mprqat.autoregressive_net.blocks.1.context_layer.bias f4 [64]
00000000: ac71 6b3d add0 17bd d6e8 903d fe44 69bc
00000010: d1ab d53c 057c b63b 4069 213d 5f83 0b3e
00000020: 0e5f 2b3e 8611 72be 929f 393c 34f8 3c3d
00000030: fa44 8e3c fbca 0e3e 9f95 fbbc f431 983b
00000040: c96e 623d 8996 b03e f561 1cbd a10f c5bd
00000050: a143 263e 86e4 933c 80f6 88b9 7e22 e83c
00000060: 349d 1fbc be67 873b abae 593d d1f2 b33b
00000070: 21ef 4e3d b2d2 30bb 614c 4039 ae86 ec3c
00000080: 2e20 753d a868 90bb d253 d2bb dda3 323d
00000090: 79ea 013e f1ae 8abe c789 393c 8de1 9dbc
000000a0: 0876 00bd 668d 0e3b ead3 1a3e f888 163e
000000b0: ebc8 d13d 2020 563e bfd2 3a3d 1e7c 6abd
000000c0: da48 c13c efc1 043d 9e1f b13b c9fb 4c3c
000000d0: bf29 2fbe 0e5b 643e c41f 693c 1cda 1a3d
000000e0: e401 a8bb 00eb a23d 21cc bb3c 83a1 3bbc
000000f0: da03 483c d95f a23c 362c fb3d d472 ac3e
0.057481453 -0.037064243 0.0707566 -0.01423764 0.026082905 0.0055689835 0.039407015 0.13624333
0.16735479 -0.23639497 0.011329548 0.046135142 0.017366875 0.13944618 -0.030710993 0.0046446268
0.055281434 0.3448985 -0.038179357 -0.096221216 0.16236736 0.018053304 -0.00026123598 0.02833676
-0.00974207 0.00413224 0.053145092 0.0054915925 0.05052102 -0.0026981053 0.00018339 0.028872814
0.059845142 -0.0044070072 -0.0064186836 0.043613303 0.126871 -0.27086595 0.011324353 -0.01927259
-0.031362563 0.002175176 0.15119901 0.14700687 0.102434 0.20910692 0.04561114 -0.057247274
0.023594309 0.032411512 0.0054053804 0.012511202 -0.17105769 0.2230036 0.014228765 0.03780566
-0.0051271785 0.07954979 0.022924485 -0.011452082 0.0122079495 0.019821094 0.12264292 0.33681357
