macros/Timing_estimation/models/August_05/run_4_3context_1flows_8hl_64hu_2000bs_checkpoint_e3.pth (torch, 602511 bytes, 72 tensors)

flows.0.mprqat.autoregressive_net.initial_layer.weight f4 [64, 1]
000000 02 bc cd 3e 60 6e fc be 05 83 20 bd 30 c6 e2 be
       0.401825 -0.4930296 -0.03918745 -0.4429183
000010 35 57 3c bf 94 4d fe bc 60 78 21 be 26 9b 18 bf
       -0.7357057 -0.031042852 -0.15768576 -0.5961174
000020 08 dd f7 3d 07 fb bc 3e db f9 b1 3e 11 3b bb 3e
       0.12102705 0.3691027 0.34760937 0.36568502
000030 8f 6f 01 bf 09 32 35 3f c1 e9 14 af d7 b8 12 bf
       -0.5056085 0.7077947 -1.3543568e-10 -0.57313293
000040 60 13 94 3d f9 b3 9c be 7d 57 05 80 33 e0 e5 be
       0.07230258 -0.30606058 -4.90562e-40 -0.44897613
000050 f2 4c a8 39 7a 60 2d 3f ab 1e 2f 3f ea 72 39 bf
       0.00032100786 0.67725337 0.6840617 -0.7244097
000060 13 7a 2f 3d 4f 85 ad 3e 27 3d 31 bf cd f5 a6 3e
       0.04284103 0.3389077 -0.69233936 0.32609406
000070 ce 75 7f 38 84 6a 8d be b6 b9 0e 3f df 73 f5 3d
       6.0906452e-05 -0.27620327 0.5575212 0.11984991
000080 bf 83 03 b9 cc 92 cd 3e 52 df 29 3f e8 1b c1 bd
       -0.00012542213 0.4015106 0.66356385 -0.09429151
000090 eb 42 4b 3f 1a 75 ac 3c 82 1b 01 be 9a dc 8d 3e
       0.79398984 0.021051932 -0.1260815 0.27707368
0000a0 a9 49 5a 3c 47 bb 3e bf 86 71 86 bb 37 5e 2e 3f
       0.013323226 -0.7450451 -0.0041028885 0.6811251
0000b0 62 44 18 3f 45 7a cf 3d 36 8a 48 bf f1 eb 81 3e
       0.59479344 0.10130743 -0.78335893 0.25375322
0000c0 e8 ca 26 3f fe 8f 5a 3d d2 6e 4a bf c1 2f d6 be
       0.6515336 0.053359978 -0.7907535 -0.41833308
0000d0 73 e4 5d be ae 57 0f bf 5d a2 49 b3 0e b6 ea 3e
       -0.21669178 -0.55993164 -4.6946628e-08 0.45842022
0000e0 fe 3d 3b bf 70 1a 2f 3f 81 79 ee 3e ef 47 15 bf
       -0.7314147 0.68399715 0.46577075 -0.58312887
0000f0 93 c6 07 3f ce ca 16 3d d1 00 a9 3e fa 64 8d 3d
       0.53037375 0.036814503 0.33008435 0.069040254

flows.0.mprqat.autoregressive_net.initial_layer.bias f4 [64]
000000 e4 54 f6 be a3 ae 99 3e cb 5b f9 be af 29 97 be
       -0.4811164 0.3001605 -0.48702845 -0.2952399
000010 ba d2 36 bf df 66 3d bf b2 98 1b 3e 85 4f 38 bf
       -0.71415293 -0.73985094 0.15194967 -0.7199634
000020 52 6c b6 bd f0 a2 51 3f f0 05 4c bf 9b 62 1d 3f
       -0.08907379 0.8188925 -0.7969656 0.61478585
000030 e8 de a4 3e d0 48 3d 3e ff 14 e0 bb 8d 4e 53 bf
       0.32201314 0.18484807 -0.0068384404 -0.82541734
000040 eb c3 fa 3d f6 41 31 3f 5d 16 97 be 05 46 35 bf
       0.122444 0.69241273 -0.2950925 -0.70809966
000050 24 55 3a 3f 36 67 b8 3e 83 27 b2 3e 95 04 66 3f
       0.72786164 0.36016244 0.3479577 0.8985074
000060 c5 83 de be f4 a9 36 3f 47 a4 21 3f 71 29 16 3e
       -0.43459907 0.7135308 0.6314129 0.14664246
000070 ea 91 9d be d6 7f 20 3f 97 aa aa 3e be 38 25 bf
       -0.30775386 0.6269506 0.33333275 -0.64539707
000080 24 a5 3d 3f 2c b1 67 3f fa e3 23 bd 5e 70 d2 3e
       0.7408011 0.9050472 -0.040012337 0.41101354
000090 36 83 8f 3e 9f 0d 15 be 66 b7 6c 3f ab ab 39 3f
       0.28029794 -0.14555977 0.92467344 0.7252757
0000a0 6a bd 42 3f e3 45 30 3f 3c 2d a2 bc 5f b7 29 bf
       0.7607027 0.6885664 -0.01979696 -0.6629543
0000b0 61 e6 b8 3d e8 fb 6c 3e 72 35 d3 3e a6 e4 02 3e
       0.09028316 0.2314297 0.41251713 0.12782535
0000c0 ed 45 6f bf 3f 7d 0f bf 2a 9c 43 be 19 50 e1 3e
       -0.93466073 -0.56050485 -0.1910254 0.44006422
0000d0 6e 70 50 3e 60 d4 83 be ea c0 39 bf 15 8e 08 be
       0.20355389 -0.25747967 -0.7255999 -0.1333545
0000e0 7a e6 14 3f eb e9 83 3e ef c6 f1 3e 0d 01 e3 3e
       0.5816418 0.25764403 0.47222087 0.4433674
0000f0 d4 0a 03 3e d9 0b 50 3f 0c e2 05 3f 1f c3 cf be
       0.127971 0.8126808 0.52298045 -0.40578553

flows.0.mprqat.autoregressive_net.initial_layer.mask f4 [64, 1]
000000 00 00 00 00 00 00 00 00 00 00 00 00 00 00 00 00
       0.0 0.0 0.0 0.0
000010 00 00 00 00 00 00 00 00 00 00 00 00 00 00 00 00
       0.0 0.0 0.0 0.0
000020 00 00 00 00 00 00 00 00 00 00 00 00 00 00 00 00
       0.0 0.0 0.0 0.0
000030 00 00 00 00 00 00 00 00 00 00 00 00 00 00 00 00
       0.0 0.0 0.0 0.0
000040 00 00 00 00 00 00 00 00 00 00 00 00 00 00 00 00
       0.0 0.0 0.0 0.0
000050 00 00 00 00 00 00 00 00 00 00 00 00 00 00 00 00
       0.0 0.0 0.0 0.0
000060 00 00 00 00 00 00 00 00 00 00 00 00 00 00 00 00
       0.0 0.0 0.0 0.0
000070 00 00 00 00 00 00 00 00 00 00 00 00 00 00 00 00
       0.0 0.0 0.0 0.0
000080 00 00 00 00 00 00 00 00 00 00 00 00 00 00 00 00
       0.0 0.0 0.0 0.0
000090 00 00 00 00 00 00 00 00 00 00 00 00 00 00 00 00
       0.0 0.0 0.0 0.0
0000a0 00 00 00 00 00 00 00 00 00 00 00 00 00 00 00 00
       0.0 0.0 0.0 0.0
0000b0 00 00 00 00 00 00 00 00 00 00 00 00 00 00 00 00
       0.0 0.0 0.0 0.0
0000c0 00 00 00 00 00 00 00 00 00 00 00 00 00 00 00 00
       0.0 0.0 0.0 0.0
0000d0 00 00 00 00 00 00 00 00 00 00 00 00 00 00 00 00
       0.0 0.0 0.0 0.0
0000e0 00 00 00 00 00 00 00 00 00 00 00 00 00 00 00 00
       0.0 0.0 0.0 0.0
0000f0 00 00 00 00 00 00 00 00 00 00 00 00 00 00 00 00
       0.0 0.0 0.0 0.0

flows.0.mprqat.autoregressive_net.context_layer.weight f4 [64, 3]
000000 6e a6 01 bf e2 3f 11 bd 24 83 06 3f 9e 1a 72 be
       -0.50644577 -0.035461314 0.52543855 -0.23642966
000010 e9 f9 94 3e 3e 48 0f bf 2f c6 85 be e9 c5 fa be
       0.29096916 -0.5596961 -0.26127765 -0.48979118
000020 0d 8f 13 bd 92 46 ed 3e 34 0f 04 bf e4 53 ce be
       -0.036025096 0.46342903 -0.515857 -0.40298378
000030 fb 0d 04 be 77 28 e5 3e ee ff 56 be 0e 21 b8 bd
       -0.12895958 0.44757435 -0.20996067 -0.0899068
000040 c7 d8 f1 be e6 d2 12 bf 9d 75 45 bc dc 30 b0 3e
       -0.472357 -0.57353055 -0.012051967 0.34412277
000050 d1 94 f8 3e 85 9a 95 be c0 32 0d 3f d0 61 ff 3e
       0.48551038 -0.29219452 0.55155563 0.49879313
000060 8e 3d 92 be 8b 71 51 be 00 85 f1 3e d7 c5 fa 3e
       -0.28562587 -0.2045347 0.47171783 0.48979065
000070 b6 93 0c be 01 b7 b0 3c 6d dc 7c 3e ff 96 1a be
       -0.13728222 0.021571638 0.24693461 -0.15096663
000080 62 10 3e be 60 da 0a bd 03 16 ef be 5d 11 e6 3e
       -0.18560937 -0.033899665 -0.4669648 0.44935122
000090 09 4d 7d be 48 12 f4 be ce ea 59 be 8b 68 0b 3e
       -0.24736418 -0.47670197 -0.21280977 0.13614099
0000a0 57 61 86 3e 55 be 8e 3e db 0c 34 be a5 a1 0b be
       0.2624614 0.27879587 -0.17583029 -0.13635881
0000b0 b3 aa 18 3e 93 92 03 3f 9b 15 ec bd 34 bb 82 be
       0.14908867 0.5139553 -0.115275584 -0.2553345
0000c0 f5 67 9b 3e fd 52 8a be 6c fc 46 be b4 fd df 3e
       0.3035275 -0.2701644 -0.19432229 0.43748248
0000d0 21 92 cb be 2e f4 82 3e 96 b3 fb bd d3 47 0e be
       -0.39759925 0.2557692 -0.12290113 -0.13894586
0000e0 f1 4b 88 3e 73 0b 94 be fa 06 00 3e 95 b1 04 bf
       0.2662044 -0.28914985 0.12502661 -0.5183347
0000f0 31 bc 91 3d a7 a6 19 3e c8 10 57 be a4 73 a8 be
       0.07115973 0.15004979 -0.21002495 -0.32900727
000100 0f 2c 11 bf f5 31 01 3e c9 62 e9 3e 8a 61 e0 be
       -0.56707853 0.12616713 0.4558318 -0.43824416
000110 a0 08 3d 3e 1d 87 99 bc 6c 32 e1 3e 8e 4f 00 bf
       0.18460321 -0.018741185 0.4398378 -0.5012139
000120 e3 32 92 be eb 93 0c 3e 7c a6 49 be 58 74 b9 3e
       -0.28554448 0.13728301 -0.19692415 0.36221576
000130 73 42 ae be af 21 0f 3c 28 99 28 3e 30 5f 01 3f
       -0.34035072 0.008736058 0.16464674 0.5053587
000140 d1 60 09 3d fb a6 8a be db f1 03 3f 76 ca 7a be
       0.033539597 -0.2708052 0.5154092 -0.24491295
000150 5e 9b 80 3d 21 d3 9f 3e d0 a3 05 3f 8b 93 f2 3e
       0.06279634 0.31215766 0.52203083 0.4737819
000160 87 91 0b bf ea 45 fc 3d 8e 0a a8 3e 2b 00 84 3e
       -0.5451893 0.123180225 0.32820553 0.25781378
000170 ba b1 1e be 40 3b 10 3f de 27 e0 3e 52 86 79 3e
       -0.15497485 0.5634041 0.43780416 0.24367645
000180 37 b0 af 3e 5a 9e 86 3e 5a bf 1c be fa 19 07 3e
       0.3431413 0.26292688 -0.1530737 0.13193503
000190 c2 42 fa bd 58 5a a7 be 19 52 5e be 49 f0 99 bd
       -0.12219764 -0.32686114 -0.21711005 -0.07516534
0001a0 4e 20 92 3e 27 56 1c 3e b2 69 37 3e 8f 29 0a 3f
       0.28540272 0.1526724 0.17911413 0.53969663
0001b0 3a d7 02 3f 48 58 3c be 36 5b fa 3e fe 6b 91 bd
       0.5110966 -0.18393052 0.48897713 -0.07100676
0001c0 bc d8 0e 3f 5e 31 1c 3d 81 39 5e 3e 46 e9 c4 3d
       0.5579946 0.038133018 0.21701623 0.09614806
0001d0 b5 b4 9b 3c 17 8e 9c bd 5e 88 6a 3e 52 ed 11 3e
       0.019007066 -0.07644289 0.22903582 0.14250687
0001e0 18 aa ee be e7 dc ac be 00 15 0a bf 89 86 ed be
       -0.46614146 -0.33762285 -0.53938293 -0.46391705
0001f0 65 bc c7 be 92 5d 3e be a0 ae d7 3e 97 16 a6 be
       -0.3901092 -0.18590382 0.42125416 -0.3243911
000200 1e 10 15 be 88 e3 25 3e 59 3e c5 be 12 4e 1b 3e
       -0.1455693 0.16200078 -0.3852413 0.151665
000210 68 5f ae 3d 1d e3 a4 be e7 7a b0 bd 47 88 a3 bd
       0.08514291 -0.32204524 -0.08617192 -0.07984977
000220 c9 da c6 3e 96 01 97 be ab e3 e4 3e 31 0c de be
       0.38838795 -0.29493397 0.44704947 -0.43368676
000230 f9 f6 1d be cf e0 bb be 9b fc 8b 3e 51 4b f9 3e
       -0.15426244 -0.36694953 0.2734116 0.48690274
000240 40 0a ed 3e 56 3b d2 3d 1a 66 d2 3e ee 8e e7 3e
       0.46296883 0.10265224 0.41093522 0.45226234
000250 c6 1c b7 bd 7f 8e e2 bd dc 71 2c be 37 0b 67 be
       -0.08941035 -0.11062335 -0.16840309 -0.22562872
000260 10 9c d6 3e 03 33 06 be 2f 86 3e 3e dd 9d a8 3e
       0.4191594 -0.13105397 0.18605874 0.3293294
000270 f3 4e a4 be 05 a9 db be 2b 43 7b be 1f af fb bd
       -0.32091483 -0.4290239 -0.24537341 -0.12289261
000280 fb 7d 04 3f ab b5 ac 3c 12 05 54 3e 7e 0a 15 be
       0.5175473 0.02108272 0.20705059 -0.14554784
000290 f8 42 92 3e 35 4a d5 be 58 61 cf be 6e 3c fa 3e
       0.28566718 -0.41658178 -0.40503955 0.4887423
0002a0 ef fe 93 3e bb 19 01 3e ec f0 dd bd b8 0d a4 3d
       0.28905436 0.12607472 -0.10836968 0.08010429
0002b0 d8 ad 8f 3e 15 87 db 3e a8 66 9a be 17 d0 ad be
       0.2806232 0.42876497 -0.30156446 -0.33947822
0002c0 da f3 92 be 85 c1 03 3d 29 f7 1b be f0 72 d8 3e
       -0.2870167 0.032166976 -0.15231003 0.4227519
0002d0 a6 19 96 be df fd 45 bd 66 d3 f3 3e df 41 7b 3d
       -0.29316443 -0.048337813 0.47622222 0.061342116
0002e0 a0 31 73 bd 4b 6c 5e be 91 18 06 3f 09 e8 b2 3d
       -0.059373498 -0.21720998 0.52381235 0.087356634
0002f0 d2 04 2b be 5e 9c 37 3e 7c ec 0a bf ad 6b a2 3e
       -0.16701058 0.17930743 -0.54267097 0.31722775

flows.0.mprqat.autoregressive_net.context_layer.bias f4 [64]
000000 52 bb ef be 4b 0a 5f 3e aa 40 e2 3b 3c b2 bd 3e
       -0.46822602 0.2178127 0.006904681 0.37050045
000010 c4 54 9f 3e 79 b6 d5 be d5 38 ee 3e 4d cc 5a 3e
       0.3111936 -0.41740778 0.46527734 0.21366997
000020 c5 7a 4a be 78 a3 84 bd 26 d1 1b be 2f 6c e0 3d
       -0.19773395 -0.06476492 -0.15216503 0.109581344
000030 8b da 92 3e 50 7b 94 3c e9 9c b5 be 5f 75 a1 be
       0.2868236 0.018125206 -0.35471275 -0.3153486
000040 53 cc c1 3e 31 e0 8d 3e 38 6b e3 be 27 1b 40 bd
       0.378512 0.27710107 -0.4441774 -0.046900894
000050 15 93 c0 3d 91 e3 bd be ad 38 d6 be 70 6a 0c 3f
       0.09403054 -0.37087682 -0.41840115 0.5484991
000060 02 7d a4 3e 13 89 c7 3e 6b a9 0d 3f 7b d0 a9 3e
       0.32126623 0.38971767 0.55336636 0.3316687
000070 51 f5 c6 bc 48 25 b9 3e ec 10 b3 be e0 03 16 3e
       -0.024286898 0.36161256 -0.34973848 0.14649916
000080 e5 00 c9 be f7 e3 a9 be 84 e3 b6 3e fa b1 0b 3d
       -0.39258495 -0.33181736 0.35720456 0.03410528
000090 e9 24 f2 be a4 b0 ef be 5c cf be be d9 f4 ae be
       -0.47293785 -0.46814454 -0.37267578 -0.3417118
0000a0 cc ed 64 3d 1b fc 2c be 13 22 96 be b5 9d 0a bf
       0.055890843 -0.16893046 -0.29322872 -0.5414689
0000b0 6c fd 0e be cb ae 0c 3f 6f e5 40 3e dc 25 cd 3e
       -0.1396386 0.5495421 0.18837522 0.40067947
0000c0 9d 55 3a bd 00 37 f3 3b e9 61 e8 3e a4 29 9f be
       -0.045491803 0.007422328 0.453872 -0.31086457
0000d0 84 07 10 be 9f ed 91 be fb 08 ad 3e c0 4a c8 be
       -0.14065367 -0.28501603 0.33795914 -0.3911953
0000e0 98 0d 02 3e 30 cb a6 be f6 a2 7e be 8d 05 1b bd
       0.12700498 -0.32576895 -0.24866852 -0.03784709
0000f0 4c 38 e8 be fe f7 9e be c8 9f c6 3a d3 78 a1 be
       -0.4535545 -0.31048578 0.001515382 -0.31537494

flows.0.mprqat.autoregressive_net.blocks.0.context_layer.weight f4 [64, 3]
000000 e2 a1 a1 3d 38 69 9b 3b 94 e6 a0 be 7e 4b a3 3e
       0.07892205 0.0047427677 -0.31425917 0.31893533
000010 75 7a 52 be b3 3c 95 bd 27 97 fe 3b f4 e6 df bb
       -0.20554526 -0.07286968 0.0077694836 -0.0068329517
000020 97 e5 b9 bc 42 d1 9c 3e bb f4 53 3a fe 7c 2f be
       -0.022692485 0.306284 0.0008085479 -0.17137524
000030 20 fe 48 3d 81 f2 fc be 7a fe f2 3d 79 7c 9c be
       0.049070477 -0.49403766 0.11864944 -0.30563715
000040 e3 71 ec 3c 05 3d 7a be b0 40 c7 3d 3d 2b a4 b7
       0.0288629 -0.2443734 0.09729135 -1.9570458e-05
000050 85 1e de 3e 0c 37 ce bc 37 d5 1c 3e 91 01 5a 3e
       0.4338266 -0.025172733 0.1531571 0.2128966
000060 b5 f8 8e 3e c8 c0 b5 3e c0 41 11 bd 5c e1 9c bd
       0.27924123 0.35498643 -0.035463095 -0.076601714
000070 d7 e1 bf be 17 a1 b7 be a7 f5 49 3d 5b a1 af 3e
       -0.3747699 -0.3586509 0.049306538 0.34302792
000080 d2 4a 32 bd e9 80 d2 be b8 18 d4 3c 4e a8 ef 3e
       -0.043528385 -0.41113976 0.025890693 0.46808094
000090 03 10 9d be fb 36 d6 3e fa 08 dd 3c 84 63 97 be
       -0.30676278 0.41838822 0.02698182 -0.29568112
0000a0 3e 75 55 3d 93 8f 1c 3e 67 c4 06 be b3 8d a0 be
       0.052113764 0.15289144 -0.13160859 -0.31358108
0000b0 7b cd 3c 3d d1 d2 2d be 2a 96 88 be e7 fb 77 be
       0.0460944 -0.16974951 -0.26677066 -0.24217187
0000c0 47 d3 d1 3e a5 e9 4a be ae ca 8d bd 28 73 ab 3e
       0.40981504 -0.19815691 -0.06923424 0.33486295
0000d0 44 b3 ca be 11 05 04 3e f7 82 a5 3c 6f 1b d0 3e
       -0.39589894 0.12892558 0.02020405 0.4064593
0000e0 b3 49 19 bc 0c e7 86 bb 9c 28 af be db f9 d6 bd
       -0.00935595 -0.0041168984 -0.3421067 -0.10496875
0000f0 7e 42 2c bd 11 1c 89 be 0a 7a ed 3e bd 03 69 be
       -0.0420556 -0.26779225 0.4638217 -0.22755332
000100 df 46 97 be c8 cc bd bc b9 5f 8b be b9 8c aa 3c
       -0.29546258 -0.023168936 -0.27221468 0.020819055
000110 e8 65 ad be 76 c2 e4 ba af 21 0e bf 42 3c 59 bd
       -0.3386681 -0.0017452973 -0.5552015 -0.053035982
000120 fe e4 b8 3d a1 cb b1 3e 4d c3 9e bb 09 d6 a0 3d
       0.09028052 0.3472567 -0.004845059 0.07853324
000130 4f 36 af bb 7a 60 56 3e 66 30 83 3c 36 23 87 3e
       -0.0053470503 0.2093524 0.01601429 0.2639405
000140 78 88 1a 3e 4f 0c 61 3c 20 a5 47 3e 7b 93 c1 3e
       0.15091121 0.013735845 0.19496584 0.3780783
000150 f1 8e 8d be 7a 2c 6d 3d 9c 6f 52 3e d8 69 8b be
       -0.27648118 0.057903744 0.20550388 -0.2722919
000160 39 b1 9b be e0 46 12 3d ef a4 a0 3c 5b 71 05 bf
       -0.30408648 0.035712123 0.019609896 -0.5212609
000170 7a be 7e 3e c7 38 d0 be 93 a4 af 3d 6e be 99 3d
       0.24877349 -0.40668318 0.08576312 0.07507025
000180 26 bf 85 be db 2f ee bb c2 07 b8 3d 92 10 17 bc
       -0.26122397 -0.0072688884 0.08985855 -0.009220259
000190 fb 05 96 bc 7f 25 c4 3e 07 fe 9b 3e 21 cd 9f be
       -0.018313399 0.38309857 0.30467245 -0.31211188
0001a0 5b f5 b2 3c af b4 e5 3d 9e 36 c5 3e ab 50 d7 be
       0.02184551 0.11216103 0.38518232 -0.42053732
0001b0 7b c6 81 3d c3 3f d1 3e 2c e4 c7 3e d3 98 08 3e
       0.06336685 0.4086896 0.3904127 0.13339548
0001c0 ed ba d0 3c 55 f6 45 3d ae 72 82 b9 d4 99 d6 be
       0.025479758 0.048330624 -0.00024880975 -0.41914237
0001d0 f6 2d 3c be c3 07 28 be 3e 2f 06 3e 3e 1c 22 be
       -0.18376908 -0.16409211 0.13103959 -0.15831086
0001e0 79 5c 77 be 68 c1 70 bd e2 49 8b bc 10 e0 2d 3c
       -0.2415637 -0.058778197 -0.017003004 0.010612503
0001f0 6d b5 80 bd 2a 19 cc be bc b3 a9 3e 7f 6d 60 3b
       -0.06284604 -0.3986295 0.3314494 0.0034244952
000200 ae e3 c5 3e 7f 1f a0 3d 54 dc e9 be b5 ea dc be
       0.38650268 0.078185074 -0.4567591 -0.43147817
000210 56 02 96 3e 89 18 cf be a3 af 16 3e 6f 3b 16 be
       0.29298657 -0.40448406 0.14715438 -0.1467111
000220 54 24 07 3f 39 cc c8 be 2c 70 cb 3e 99 fa fd 3d
       0.5278981 -0.3921831 0.39734018 0.12401313
000230 0f 5f 18 3e d7 38 a2 3e bf 87 65 3e e5 fb b5 3e
       0.14880012 0.3168399 0.22415064 0.35543743
000240 78 3b 67 3c 8b 6c 8b 3e 00 f4 5b 3e d7 01 e7 3d
       0.0141133 0.2723125 0.21479797 0.11279648
000250 99 c8 82 3d 1f d2 89 3e 51 56 aa 3e a1 f4 e1 3d
       0.06385917 0.26918122 0.3326898 0.110329874
000260 4b 4d ee bd a4 2e dd 3e 82 ee d4 3e 58 bd cd be
       -0.11635836 0.43199646 0.41588217 -0.4018352
000270 84 c7 37 3d ed 24 0f 3e f7 d3 af bd fa c2 b6 be
       0.044868007 0.1397893 -0.08585351 -0.3569563
000280 21 75 a2 3c e3 92 a4 3e 1b b9 66 bd 94 33 ad be
       0.019831242 0.32143316 -0.056328874 -0.33828413
000290 4b 67 3e 3d 22 4b 47 3e 19 9c 8c be c0 d8 6b 3e
       0.046485227 0.19462255 -0.27462843 0.23031902
0002a0 a8 2e 8d be ea 6e 8a 3e e9 95 a0 be 4e b0 4d 3e
       -0.27574658 0.27037746 -0.31364372 0.20086786
0002b0 ec c4 a1 3e ab 0b 9a be 98 d2 b3 3e e2 3f ba 3e
       0.31595552 -0.30087027 0.35121608 0.36376864
0002c0 9e 0c 80 be 65 68 33 be 0b 2d 07 3f 1f 1d 11 be
       -0.25009626 -0.17520292 0.52803105 -0.14171265
0002d0 c1 c1 0a 3e 5b 92 60 be f8 5e 93 3e ac 59 ca b9
       0.13550474 -0.2193083 0.28783393 -0.00038595253
0002e0 cb 8b 25 bc fe 54 c4 be 43 f7 b7 be 3e 2d 0c 3d
       -0.01010413 -0.38346094 -0.35930833 0.034222834
0002f0 72 05 d8 bd 5b 06 28 bc 5b 9b a0 3e 77 cd e6 3e
       -0.105479136 -0.0102554215 0.31368527 0.45078632

flows.0.mprqat.autoregressive_net.blocks.0.context_layer.bias f4 [64]
000000 56 cb 0c bc 88 cb 3a be dd d6 8f bc 2d fc 0c ba
       -0.008593401 -0.18241704 -0.01755851 -0.00053781533
000010 08 af b1 3e 63 c1 52 be ad 0e d1 be ed df 86 be
       0.3470385 -0.20581584 -0.4083151 -0.26342717
000020 ae 20 08 3e ff e9 da 3e 5a ef f6 bb 03 b9 6f 3d
       0.13293716 0.4275665 -0.007535857 0.05852605
000030 8d e2 77 3c 46 0b 46 be 11 c3 7c be cb 18 2d bc
       0.0151296975 -0.19340238 -0.24683787 -0.010564993
000040 4f a7 54 bd 86 a7 35 3c 1e c3 30 bd e2 6d 38 be
       -0.05191737 0.011087304 -0.04315483 -0.18010667
000050 19 c3 e7 3d 6f 92 b1 3e 74 42 b8 be c5 bd 12 3f
       0.11316509 0.34682032 -0.359882 0.57320815
000060 bc e3 2c 3e 0c 1f 1d 3d 17 ed 3a be 28 5d 5b be
       0.16883749 0.038359687 -0.18254505 -0.21422255
000070 6b d5 e1 3e 00 4c 28 be 38 75 84 3d cb a5 92 3d
       0.44108137 -0.16435242 0.0646767 0.07160529
000080 4d cc 99 3e ed de 49 be 17 f0 da bc 4c 37 23 3e
       0.30038682 -0.19713946 -0.026725812 0.15939063
000090 21 09 a1 3e 75 54 c0 bd d1 16 4b be 34 7a 91 3d
       0.31452277 -0.09391109 -0.19832923 0.071033865
0000a0 9e fc 86 3c 0f d6 27 3d 66 7d b4 3e 73 00 e8 be
       0.01647788 0.040975627 0.3525192 -0.45312843
0000b0 c0 7f 08 3e 0d b5 22 3e eb 8d 35 3e 24 81 3f bc
       0.13329983 0.15889378 0.17729919 -0.011688504
0000c0 90 de e4 3d ab 81 9f be ce 52 ba be 02 cd f6 3c
       0.11175263 -0.31153616 -0.363913 0.030127052
0000d0 18 bc 12 bc cf e2 67 3e 5f 62 45 3e b3 96 b6 bc
       -0.008955978 0.22645114 0.19275807 -0.022288656
0000e0 e2 17 4b be f7 8e 86 bd 8b 6e 92 39 33 a7 2c 3c
       -0.1983333 -0.06570237 0.0002792965 0.01053791
0000f0 08 44 8d 3e 5b 19 30 3e 4d 6b 8e bd cf ff 3b be
       0.27590966 0.17197172 -0.0695406 -0.18359302

flows.0.mprqat.autoregressive_net.blocks.0.linear_layers.0.weight f4 [64, 64]
000000 f4 ac 8e 3d f5 5c a7 3c be cf 2c bd d7 48 3d 3d
       0.06966582 0.020430068 -0.042190306 0.046212044
000010 15 4a b5 3a a9 4e 21 bc 77 f5 d9 bc 87 0d 7e 3d
       0.0013831282 -0.009845414 -0.026606305 0.06202462
000020 70 67 69 3d 4a d3 ea bc 67 1c 69 bd 25 22 0c 3d
       0.05698341 -0.028665204 -0.056911852 0.03421225
000030 60 f4 5a 3c 67 47 88 3d 3b b3 51 bd 80 0d 86 3c
       0.013363928 0.06654244 -0.051196318 0.01636386
000040 2d 20 9c bd 44 37 02 bd 09 43 82 bd 29 87 63 bd
       -0.076233245 -0.031790987 -0.06360442 -0.05554882
000050 3b ad 3f bd 93 89 65 3d ac a3 a3 3d 89 9d 67 3c
       -0.046796065 0.056039404 0.07990202 0.01413668
000060 91 94 d8 bc 15 a2 fe 3c 9e c2 85 3d d0 ec 5e 3d
       -0.02643803 0.031083146 0.06531261 0.05442506
000070 fe b8 80 bd 28 2f 58 bc da 18 62 3d 65 8d ae 3d
       -0.062852845 -0.013194837 0.05519948 0.085230626
000080 50 68 3a 3d 42 38 bf bd 78 01 cd 3d 22 f7 81 bd
       0.045509636 -0.09336902 0.10010046 -0.06345965
000090 40 8a 1d bd 12 47 6b 3c 55 dc 97 bb 97 55 90 3d
       -0.038461924 0.014360206 -0.00463442 0.07047575
0000a0 36 c9 cd 3a d7 b9 6c 3d 89 96 a0 3d bb 1c b0 3c
       0.0015700224 0.05779442 0.07841212 0.021498075
0000b0 d7 da 4f bd f4 71 b0 3d c1 6a 1b bd 16 48 a9 3d
       -0.05074581 0.08615485 -0.037943605 0.082657024
0000c0 a8 05 56 3d 99 32 1c bb e7 38 81 3c 6d 40 25 bd
       0.052251488 -0.002383387 0.015774203 -0.040344644
0000d0 24 4c c6 3c e5 cc 09 3e 81 04 db 3d 9b 58 f9 3c
       0.024206229 0.13457067 0.106942184 0.030437758
0000e0 ba 7d 7d bc 5f 27 c3 bd 6f 2c 96 3d 46 e4 95 3c
       -0.01547187 -0.09528994 0.07332694 0.018297326
0000f0 4a cd f9 3c 2a 7f ad bc f1 a0 3a bd 03 f7 67 3d
       0.030493397 -0.0211788 -0.045563642 0.056632053
000100 dd 0b d5 3d 73 4c 5a 3d 57 08 81 bd e5 ca 31 bd
       0.10402653 0.053295564 -0.06300419 -0.043406386
000110 91 1f a7 3c d9 3e 42 bd 49 20 c0 bc 6d 47 d4 3d
       0.020400794 -0.047423217 -0.023452895 0.10365186
000120 70 99 87 bc 53 22 3c 3c 7d 71 51 3c a0 ad 21 3d
       -0.016552657 0.011482793 0.012783405 0.039472222
000130 a3 f6 bc 3c 06 0b 0a bc 07 34 10 3d 43 f1 7a 3d
       0.023066824 -0.00842548 0.035205867 0.06126524
000140 70 c4 bb 3b 81 40 2a 3c 43 72 82 bb dc 0f 0c 3c
       0.0057302043 0.0103913555 -0.003980906 0.008548703
000150 42 71 3b 3c cd ab 86 bb 64 08 10 3c bc ce 95 bc
       0.011440577 -0.0041098357 0.008791063 -0.018287055
000160 fb d2 4b 3d 9f 73 46 bd 09 ca b9 3c 27 44 86 bd
       0.049761754 -0.04845011 0.022679346 -0.06555968
000170 3f d2 95 bc 1a ef 01 3d 08 02 e5 bc 36 a5 14 bd
       -0.01828873 0.031722166 -0.02795507 -0.03629037
000180 4d bf 5f bb 3e 98 33 3b 45 be b6 bc 26 28 9d 3d
       -0.0034141124 0.0027403976 -0.022307524 0.07673673
000190 cd 05 bf bb 69 a9 96 3d f0 c6 61 3c 06 0e 03 3d
       -0.005829549 0.07356531 0.013780341 0.031995796
0001a0 4c 61 94 3a 3b 1f 9b 3d e2 7a 2e bd 11 c5 0f 3d
       0.0011320501 0.07574316 -0.04259766 0.035100047
0001b0 8c c3 56 3d af 37 31 bd 89 ce 4b bd b9 c1 85 3d
       0.05243258 -0.043265995 -0.049757514 0.0653109
0001c0 ee e0 61 bc a0 aa 09 bb 86 c3 24 3d d8 ad 1d 3d
       -0.013786538 -0.0021006241 0.04022553 0.03849587
0001d0 3a 28 29 3d 57 bc 00 3d 9b d1 d8 3c a1 69 3d bd
       0.04129813 0.031429615 0.026467135 -0.046243314
0001e0 65 56 7c bd 74 2a 9b 3c 32 58 00 bd 2e 9f 70 3c
       -0.06160583 0.018941142 -0.03133411 0.014686389
0001f0 5e c0 ba 3d f1 22 a8 3b 1c f5 98 3d 6e 6b e2 3c
       0.091187224 0.0051311185 0.07468626 0.027639117
000200 6d b1 03 3d 16 7c 19 bc 32 4e ac 3c 4c d6 36 bd
       0.03215163 -0.009367963 0.02103338 -0.044637963
000210 0f a1 c5 bc c4 2f e6 bb ba e8 89 3d db 68 12 3d
       -0.02412465 -0.007024737 0.06733842 0.03574453
000220 d3 a9 44 3d c1 33 7b 3b 3a be 4b b9 e3 79 89 3d
       0.04801352 0.0038330408 -0.00019430454 0.06712701
000230 e7 c7 84 3d 5c e1 2f bd f1 4d 3b 3d 08 67 90 3a
       0.06483441 -0.04293953 0.045728628 0.0011017034
000240 f6 03 5c bc b3 d1 11 3c d9 54 66 3d b7 81 b4 3c
       -0.013428679 0.008900094 0.05623326 0.02203451
000250 59 00 6f 3d a1 ee c5 3c aa d4 dc bc b3 dd 5a bd
       0.05834994 0.024161639 -0.026956875 -0.053434085
000260 f2 33 15 3d 95 b3 30 3b 42 08 80 3c b5 9f be 3d
       0.036426492 0.0026962508 0.015628938 0.093078054
000270 3c 5f b9 3c 68 d3 ca ba 44 8f 37 3d e5 aa b9 3c
       0.02262842 -0.0015474381 0.044814363 0.022664497
000280 56 47 42 bd 76 d6 57 3c 09 ab 71 3d 57 8d 38 bd
       -0.047431313 0.01317369 0.059001002 -0.045056667
000290 0d 38 27 bd bb ef fd 3c 1d c4 6e 3b 41 8d aa 3d
       -0.04082494 0.030998101 0.003643281 0.08327723
0002a0 97 c1 d0 3c 5c 4a 51 bd 60 ae c0 3b cc 63 95 3d
       0.025482936 -0.051096305 0.005880162 0.07294425
0002b0 73 b3 9b bc b3 fe 5c 3d e0 81 82 3d 44 18 b6 3d
       -0.019006466 0.053953838 0.06372428 0.08891347
0002c0 8d 3a 7b bd 65 4d 76 3b 00 17 9b 3b a4 86 7e 3d
       -0.061335135 0.0037582752 0.0047329664 0.062140122
0002d0 bd 42 68 bc a4 f4 f6 bc df b4 82 3d 9b cc 1f 3d
       -0.014176068 -0.03014595 0.06382155 0.039013486
0002e0 ff d2 ba 3c 93 2b 98 3c 22 94 33 3d 98 b4 24 3d
       0.022805689 0.018575465 0.043842442 0.04021129
0002f0 0f 28 5a 3d 2a 15 53 bd 20 7b e2 3a 3d 7d 87 3d
       0.05326086 -0.051533855 0.0017279126 0.06615684
000300 6d 42 e0 3c 63 02 81 bd 2b 9c 8c 3c 39 18 98 3b
       0.027375424 -0.06299283 0.01716431 0.0046415594
000310 42 c6 25 3d e0 42 aa ba 4d d0 8d 3d ec e1 9b b9
       0.040472277 -0.0012989901 0.06924496 -0.0002973223
000320 7a d8 e0 3c 1f 21 57 3d e2 65 d5 bb 92 23 7b 3d
       0.027446974 0.05252182 -0.0065123895 0.06131322
000330 40 82 b7 3d 97 60 1b 3b 1b b5 d8 3b d3 6d c4 3c
       0.0896039 0.0023708695 0.0066133863 0.02397815
000340 64 9e 22 3c de 55 90 3d 0c f5 49 bb b1 e8 9a 3d
       0.009925459 0.07047628 -0.0030816225 0.075639136
000350 f3 74 70 bd 51 63 88 3d 85 34 91 3c cb 32 6f bc
       -0.05870528 0.06659568 0.017725239 -0.014599512
000360 6f 76 e0 bc e4 71 a7 bd a9 99 db 3c a0 e0 48 bd
       -0.027400224 -0.0817602 0.02680667 -0.049042344
000370 61 e8 34 3d 4c da 90 3d 0a 51 80 bc 48 fa ed 3b
       0.044166926 0.07072887 -0.015663642 0.007262502
000380 ee bc 17 3d 1f 4e f7 3b e5 85 79 3c 68 dc ee 3c
       0.03704541 0.0075471546 0.015229677 0.029157832
000390 8e f9 e6 3c 61 f3 87 3d 4f f9 be 3d c7 07 30 3d
       0.028195169 0.06638218 0.093248956 0.042976167
0003a0 5c cd 5f 3d 9b d3 0e 3d 42 1d 41 bd 83 55 d0 3d
       0.054639205 0.03486977 -0.047147043 0.1017256
0003b0 50 2b be bd 04 df 21 bd 31 38 97 bd b1 28 28 3d
       -0.09285605 -0.039519325 -0.073837645 0.04105443
0003c0 7e 94 f3 3d 81 a8 f9 bc f7 b4 96 3c 6c 18 10 3d
       0.11893557 -0.030475857 0.018396838 0.03517954
0003d0 32 a7 19 bd bd 88 aa bc 4f 03 bb bb a9 47 4c 3d
       -0.037512966 -0.020817155 -0.0057071815 0.049873028
0003e0 23 cd c3 3c 62 5a 3e bd 99 d4 c0 3c ff 28 79 bd
       0.023901528 -0.046472915 0.023538874 -0.060830113
0003f0 1f c9 28 bd 02 b6 06 3e 43 b9 c7 3d 71 bc 09 3e
       -0.04120743 0.13155368 0.09752133 0.13450791

flows.0.mprqat.autoregressive_net.blocks.0.linear_layers.0.bias f4 [64]
000000 49 93 29 3d 02 51 ce 3d b6 ea 75 bc 14 6f 35 3d
       0.041400228 0.10074045 -0.015009573 0.044295385
000010 90 47 ec 3d 09 e5 0c 36 18 93 8b 3d 9e a7 02 3d
       0.11537087 2.0994942e-06 0.06815165 0.031898133
000020 5d 5d 28 bd ee 25 89 3b 69 41 ab 3d c9 2a 93 3d
       -0.041104663 0.00418543 0.08362085 0.07185895
000030 7f 02 5a 3d 18 3c be 3c 13 98 92 3d d8 e7 8f 3d
       0.053225037 0.023222014 0.07157912 0.070266426
000040 13 5f 1d 3d 8a 68 a7 3d f2 b8 91 bc 21 6a 5f 3d
       0.038420748 0.08174236 -0.017788384 0.05454457
000050 22 5f 47 3d fd 75 bc 3d 56 0c 82 3d 65 6c 02 3c
       0.04867471 0.09202192 0.06350009 0.007960414
000060 af 8b 9f 3d 34 2f 19 3d 78 bd 9f 3d 73 b5 3e 3d
       0.077903144 0.037398532 0.0779981 0.046559762
000070 71 15 03 3d 7b ee 51 3d 70 6f 01 3b 63 e6 9a 3d
       0.03200287 0.051252823 0.001975026 0.07563474
000080 b5 03 03 3d 41 b8 b5 3d 8f 14 57 bc 6e 10 a9 3c
       0.031985957 0.08873034 -0.01312746 0.020637717
000090 b7 2b be 3d de 00 12 b4 d9 44 89 3b 0a 0a f8 3c
       0.09285682 -1.3597625e-07 0.0041891155 0.030278224
0000a0 c5 e5 38 bb be 73 ca 3b 2f 0d d5 3c 79 5e 0e bb
       -0.0028213125 0.0061783483 0.026007263 -0.002172379
0000b0 54 de 3b bd 0f 09 01 3c 86 1e 40 bd 51 0b 17 bc
       -0.045866325 0.007875695 -0.04690411 -0.009219007
0000c0 8f 7e 98 a4 90 cb 6b 3c 0c 90 bd b7 b4 06 ee 3c
       -6.613389e-17 0.014391795 -2.2597633e-05 0.02905593
0000d0 ff 73 fb 3c e6 28 8e 3c 68 ba 68 bd c6 62 97 bc
       0.03069496 0.017353486 -0.056818396 -0.018479716
0000e0 6d 87 d4 3d 0f 4a 21 b0 f4 5b be bb 17 a2 2a 3d
       0.10377393 -5.86767e-10 -0.0058093015 0.041658487
0000f0 1a fb ec 3d ac 4f 08 3d fb c6 9d 3d 31 02 0a 3d
       0.11571331 0.033279106 0.07703968 0.033693496

flows.0.mprqat.autoregressive_net.blocks.0.linear_layers.0.mask f4 [64, 64]
000000 00 00 80 3f 00 00 80 3f 00 00 80 3f 00 00 80 3f
       1.0 1.0 1.0 1.0
000010 00 00 80 3f 00 00 80 3f 00 00 80 3f 00 00 80 3f
       1.0 1.0 1.0 1.0
000020 00 00 80 3f 00 00 80 3f 00 00 80 3f 00 00 80 3f
       1.0 1.0 1.0 1.0
000030 00 00 80 3f 00 00 80 3f 00 00 80 3f 00 00 80 3f
       1.0 1.0 1.0 1.0
000040 00 00 80 3f 00 00 80 3f 00 00 80 3f 00 00 80 3f
       1.0 1.0 1.0 1.0
000050 00 00 80 3f 00 00 80 3f 00 00 80 3f 00 00 80 3f
       1.0 1.0 1.0 1.0
000060 00 00 80 3f 00 00 80 3f 00 00 80 3f 00 00 80 3f
       1.0 1.0 1.0 1.0
000070 00 00 80 3f 00 00 80 3f 00 00 80 3f 00 00 80 3f
       1.0 1.0 1.0 1.0
000080 00 00 80 3f 00 00 80 3f 00 00 80 3f 00 00 80 3f
       1.0 1.0 1.0 1.0
000090 00 00 80 3f 00 00 80 3f 00 00 80 3f 00 00 80 3f
       1.0 1.0 1.0 1.0
0000a0 00 00 80 3f 00 00 80 3f 00 00 80 3f 00 00 80 3f
       1.0 1.0 1.0 1.0
0000b0 00 00 80 3f 00 00 80 3f 00 00 80 3f 00 00 80 3f
       1.0 1.0 1.0 1.0
0000c0 00 00 80 3f 00 00 80 3f 00 00 80 3f 00 00 80 3f
       1.0 1.0 1.0 1.0
0000d0 00 00 80 3f 00 00 80 3f 00 00 80 3f 00 00 80 3f
       1.0 1.0 1.0 1.0
0000e0 00 00 80 3f 00 00 80 3f 00 00 80 3f 00 00 80 3f
       1.0 1.0 1.0 1.0
0000f0 00 00 80 3f 00 00 80 3f 00 00 80 3f 00 00 80 3f
       1.0 1.0 1.0 1.0
000100 00 00 80 3f 00 00 80 3f 00 00 80 3f 00 00 80 3f
       1.0 1.0 1.0 1.0
000110 00 00 80 3f 00 00 80 3f 00 00 80 3f 00 00 80 3f
       1.0 1.0 1.0 1.0
000120 00 00 80 3f 00 00 80 3f 00 00 80 3f 00 00 80 3f
       1.0 1.0 1.0 1.0
000130 00 00 80 3f 00 00 80 3f 00 00 80 3f 00 00 80 3f
       1.0 1.0 1.0 1.0
000140 00 00 80 3f 00 00 80 3f 00 00 80 3f 00 00 80 3f
       1.0 1.0 1.0 1.0
000150 00 00 80 3f 00 00 80 3f 00 00 80 3f 00 00 80 3f
       1.0 1.0 1.0 1.0
000160 00 00 80 3f 00 00 80 3f 00 00 80 3f 00 00 80 3f
       1.0 1.0 1.0 1.0
000170 00 00 80 3f 00 00 80 3f 00 00 80 3f 00 00 80 3f
       1.0 1.0 1.0 1.0
000180 00 00 80 3f 00 00 80 3f 00 00 80 3f 00 00 80 3f
       1.0 1.0 1.0 1.0
000190 00 00 80 3f 00 00 80 3f 00 00 80 3f 00 00 80 3f
       1.0 1.0 1.0 1.0
0001a0 00 00 80 3f 00 00 80 3f 00 00 80 3f 00 00 80 3f
       1.0 1.0 1.0 1.0
0001b0 00 00 80 3f 00 00 80 3f 00 00 80 3f 00 00 80 3f
       1.0 1.0 1.0 1.0
0001c0 00 00 80 3f 00 00 80 3f 00 00 80 3f 00 00 80 3f
       1.0 1.0 1.0 1.0
0001d0 00 00 80 3f 00 00 80 3f 00 00 80 3f 00 00 80 3f
       1.0 1.0 1.0 1.0
0001e0 00 00 80 3f 00 00 80 3f 00 00 80 3f 00 00 80 3f
       1.0 1.0 1.0 1.0
0001f0 00 00 80 3f 00 00 80 3f 00 00 80 3f 00 00 80 3f
       1.0 1.0 1.0 1.0
000200 00 00 80 3f 00 00 80 3f 00 00 80 3f 00 00 80 3f
       1.0 1.0 1.0 1.0
000210 00 00 80 3f 00 00 80 3f 00 00 80 3f 00 00 80 3f
       1.0 1.0 1.0 1.0
000220 00 00 80 3f 00 00 80 3f 00 00 80 3f 00 00 80 3f
       1.0 1.0 1.0 1.0
000230 00 00 80 3f 00 00 80 3f 00 00 80 3f 00 00 80 3f
       1.0 1.0 1.0 1.0
000240 00 00 80 3f 00 00 80 3f 00 00 80 3f 00 00 80 3f
       1.0 1.0 1.0 1.0
000250 00 00 80 3f 00 00 80 3f 00 00 80 3f 00 00 80 3f
       1.0 1.0 1.0 1.0
000260 00 00 80 3f 00 00 80 3f 00 00 80 3f 00 00 80 3f
       1.0 1.0 1.0 1.0
000270 00 00 80 3f 00 00 80 3f 00 00 80 3f 00 00 80 3f
       1.0 1.0 1.0 1.0
000280 00 00 80 3f 00 00 80 3f 00 00 80 3f 00 00 80 3f
       1.0 1.0 1.0 1.0
000290 00 00 80 3f 00 00 80 3f 00 00 80 3f 00 00 80 3f
       1.0 1.0 1.0 1.0
0002a0 00 00 80 3f 00 00 80 3f 00 00 80 3f 00 00 80 3f
       1.0 1.0 1.0 1.0
0002b0 00 00 80 3f 00 00 80 3f 00 00 80 3f 00 00 80 3f
       1.0 1.0 1.0 1.0
0002c0 00 00 80 3f 00 00 80 3f 00 00 80 3f 00 00 80 3f
       1.0 1.0 1.0 1.0
0002d0 00 00 80 3f 00 00 80 3f 00 00 80 3f 00 00 80 3f
       1.0 1.0 1.0 1.0
0002e0 00 00 80 3f 00 00 80 3f 00 00 80 3f 00 00 80 3f
       1.0 1.0 1.0 1.0
0002f0 00 00 80 3f 00 00 80 3f 00 00 80 3f 00 00 80 3f
       1.0 1.0 1.0 1.0
000300 00 00 80 3f 00 00 80 3f 00 00 80 3f 00 00 80 3f
       1.0 1.0 1.0 1.0
000310 00 00 80 3f 00 00 80 3f 00 00 80 3f 00 00 80 3f
       1.0 1.0 1.0 1.0
000320 00 00 80 3f 00 00 80 3f 00 00 80 3f 00 00 80 3f
       1.0 1.0 1.0 1.0
000330 00 00 80 3f 00 00 80 3f 00 00 80 3f 00 00 80 3f
       1.0 1.0 1.0 1.0
000340 00 00 80 3f 00 00 80 3f 00 00 80 3f 00 00 80 3f
       1.0 1.0 1.0 1.0
000350 00 00 80 3f 00 00 80 3f 00 00 80 3f 00 00 80 3f
       1.0 1.0 1.0 1.0
000360 00 00 80 3f 00 00 80 3f 00 00 80 3f 00 00 80 3f
       1.0 1.0 1.0 1.0
000370 00 00 80 3f 00 00 80 3f 00 00 80 3f 00 00 80 3f
       1.0 1.0 1.0 1.0
000380 00 00 80 3f 00 00 80 3f 00 00 80 3f 00 00 80 3f
       1.0 1.0 1.0 1.0
000390 00 00 80 3f 00 00 80 3f 00 00 80 3f 00 00 80 3f
       1.0 1.0 1.0 1.0
0003a0 00 00 80 3f 00 00 80 3f 00 00 80 3f 00 00 80 3f
       1.0 1.0 1.0 1.0
0003b0 00 00 80 3f 00 00 80 3f 00 00 80 3f 00 00 80 3f
       1.0 1.0 1.0 1.0
0003c0 00 00 80 3f 00 00 80 3f 00 00 80 3f 00 00 80 3f
       1.0 1.0 1.0 1.0
0003d0 00 00 80 3f 00 00 80 3f 00 00 80 3f 00 00 80 3f
       1.0 1.0 1.0 1.0
0003e0 00 00 80 3f 00 00 80 3f 00 00 80 3f 00 00 80 3f
       1.0 1.0 1.0 1.0
0003f0 00 00 80 3f 00 00 80 3f 00 00 80 3f 00 00 80 3f
       1.0 1.0 1.0 1.0

flows.0.mprqat.autoregressive_net.blocks.0.linear_layers.1.weight f4 [64, 64]
000000 55 a5 de 3b 03 21 7d 3c 96 ab a2 3c a7 1d da 3b
       0.0067946115 0.015449765 0.01985721 0.006656367
000010 d6 af b4 3b d6 59 05 00 b6 fb 5d 3c ce f9 b0 3b
       0.0055141253 4.91405e-40 0.013548782 0.005400873
000020 bd 1b 4d 3c 2c f7 e6 3b 6d 64 bf 3b 02 c6 55 bc
       0.01251882 0.007048508 0.005840829 -0.013047697
000030 22 ed 95 3b 6a bd e9 3b 57 ad a0 3b 1d c1 c3 3b
       0.0045753876 0.0071331756 0.004903476 0.0059739486
000040 57 62 6f 3c 24 ca 6e 3c c0 d6 25 3c a8 cb a1 3b
       0.014610848 0.014574561 0.010122001 0.004937608
000050 0f 80 63 3c ff ad d7 3b 1d 5b c7 3b 78 82 af 3c
       0.013885512 0.0065820212 0.0060838596 0.021424517
000060 ae b8 e9 3b 07 06 99 3b 3a 29 d3 3b 2d b0 8c 3b
       0.0071326112 0.004669908 0.0064441236 0.0042934627
000070 cd 17 69 3c 31 f5 cd 3b 05 22 e6 38 77 99 c4 3b
       0.014226866 0.0062853326 0.00010973591 0.0059997397
000080 31 74 d4 3b b3 7b c5 3b 0f 13 bb 3b cc 3f bf 3b
       0.0064835777 0.006026709 0.005709059 0.0058364626
000090 31 70 b1 3b c3 0f 8a 34 d4 14 04 b9 99 dc 00 3c
       0.0054149856 2.571597e-07 -0.0001259626 0.007865095
0000a0 5c 51 d0 3b 65 7f 88 3c a5 24 c4 3b 47 5b 05 00
       0.006357355 0.016662309 0.0059858137 4.91922e-40
0000b0 9f 58 30 3c 37 64 c0 3b 23 6a 44 3c 30 da a5 3c
       0.010763316 0.0058713215 0.011988196 0.020245641
0000c0 10 5e 05 80 ab 9c ca 3b 9e df 2f b9 ce fe 58 3b
       -4.92921e-40 0.006183227 -0.00016772604 0.003311086
0000d0 4c c4 63 3c d5 b4 9b 3c cb 62 45 3c 3d 3b 59 3c
       0.013901781 0.019007126 0.01204748 0.013258752
0000e0 6f ca b9 3b 14 28 de b8 82 e5 d6 3b 82 4c e3 3b
       0.005669884 -0.0001059325 0.006558121 0.0069366107
0000f0 6a db d2 3b 29 cf a0 3c e4 0f a0 3c 4e f2 8a 3c
       0.0064348476 0.019630032 0.019538827 0.016961243
000100 87 63 79 3b 06 be 0a bc 0e 58 87 bc b1 e2 e0 3b
       0.0038053708 -0.008468157 -0.01652148 0.006862961
000110 5b f8 af 3b 2b 5a 05 80 56 85 53 3c d2 53 ba 3b
       0.0053701825 -4.91524e-40 0.012910208 0.0056862617
000120 ca 48 2a 3c bb 09 ae 3b a2 bb d5 3b 19 ca 28 bd
       0.010393331 0.0053112186 0.0065226117 -0.04120836
000130 e8 58 7d 3b 3d 80 a2 3b e0 9c bc 3b f7 1f ae 3b
       0.0038657729 0.004959135 0.0057560056 0.005313869
000140 d2 79 f2 bb 08 f6 3d bb c3 1d 0d 3c 9b f0 6d b9
       -0.007399776 -0.0028985757 0.008613053 -0.00022691714
000150 29 dc 8e bc 4e 54 aa 3b 82 ad 9b 3b e5 bc 14 bd
       -0.017438965 0.005198038 0.0047509084 -0.036312956
000160 cb 51 de 3b f0 83 bb bb da 73 c3 3b f2 44 80 bc
       0.006784653 -0.0057225153 0.0059647383 -0.015657876
000170 1c 8c 0d bc f5 96 d3 3b d4 ed 18 ba b9 89 a3 3b
       -0.008639362 0.0064572045 -0.0005833779 0.004990783
000180 33 b0 10 bb 31 7b bc 3b 31 e6 c5 3b 80 6f d6 3b
       -0.002207768 0.0057519902 0.006039404 0.0065440536
000190 26 a4 a9 3b 10 5f 45 34 fa 5f bc b9 08 8b d8 3b
       0.0051770387 1.8381638e-07 -0.00035929662 0.0066083707
0001a0 f2 48 c3 3b aa 99 fb bc 3d 65 d1 3b ec 5a 05 00
       0.0059596235 -0.030712921 0.0063902424 4.91794e-40
0001b0 d0 34 3b 3c 60 33 a3 3b 09 f1 68 3c 57 ab e5 ba
       0.011426166 0.0049804896 0.0142176235 -0.0017522377
0001c0 c9 5d 05 00 14 e0 d7 3b cb d5 d0 b9 87 61 f6 bb
       4.92821e-40 0.0065879915 -0.0003983214 -0.0075189504
0001d0 e7 0b 90 3b 7d 9b 9e bc cc a5 3d 3c d2 49 bb bb
       0.00439595 -0.019361252 0.011575174 -0.005715587
0001e0 fe 30 a2 3b 29 dc fd b7 49 f1 c2 3b 32 0b d0 3b
       0.004949688 -3.026247e-05 0.0059491736 0.006348991
0001f0 93 9b a5 3b b1 a5 b1 bc b5 eb b4 ba cc a7 e3 3a
       0.0050539463 -0.021685453 -0.0013803156 0.0017368733
000200 9f 32 15 3c 7d 55 8d 3c 98 24 72 3c 5f 6b 10 3c
       0.009106307 0.017252678 0.014779232 0.008814662
000210 0a f5 10 3c cf 5e 05 80 0b 2f 84 3c 94 dd 1f 3c
       0.008847484 -4.93188e-40 0.016135713 0.009757418
000220 e6 91 78 3c 6c e3 05 3c 2c 71 fa 3b 85 4d 83 bc
       0.015171504 0.008171897 0.0076428857 -0.016028175
000230 7f 95 db 3b cf 56 15 3c e4 12 06 3c b6 46 04 3c
       0.006701171 0.009114935 0.008183215 0.008073499
000240 1b 8c 29 3c a0 2d 9c 3c f5 8f 49 3c 09 58 da 3b
       0.010348345 0.019064724 0.012302388 0.0066633266
000250 ef c3 8f 3c da 59 f4 3b b6 cb 11 3c 2a 5c 81 3b
       0.017549483 0.007457 0.008898666 0.0039477544
000260 67 57 0f 3c 27 56 67 3b 67 78 16 3c d8 8a df 3a
       0.008748866 0.0035299154 0.00918398 0.0017054928
000270 0b af a3 3c 0c a9 0f 3c b9 3a 1d 3a 18 3c 0d 3c
       0.019980928 0.008768331 0.0005997825 0.0086202845
000280 5f fb 1f 3c cc ba ef 3b ee 83 e9 3b 1b 45 09 3c
       0.009764521 0.007315969 0.007126323 0.008378292
000290 89 e5 09 3c 0c b9 47 b4 b4 18 b9 39 2b f6 1c 3c
       0.008416542 -1.8600639e-07 0.00035304355 0.009580175
0002a0 f2 5e 1c 3c 8a bd 5a 3c 2c 3b 0d 3c 5d 5a 05 80
       0.009544121 0.013350854 0.008620065 -4.91594e-40
0002b0 47 0f 81 3c e7 58 fa 3b eb df 88 3c 66 51 86 3c
       0.015754355 0.0076399925 0.016708335 0.016396236
0002c0 8b 57 05 80 ad 18 0b 3c b5 c3 a9 39 01 58 09 b9
       -4.90582e-40 0.00848977 0.00032380005 -0.00013098122
0002d0 df cd b2 3c 47 bd 5e 3c 41 6b 56 3c 70 9a 87 3c
       0.021826683 0.013594932 0.013087095 0.016553134
0002e0 f4 b0 07 3c 68 ee 14 39 c5 1b 08 3c b6 71 14 3c
       0.008281935 0.00014203193 0.008307402 0.009060314
0002f0 c9 96 ea 3b 62 5e 77 3c e4 fe 97 3c 9d f8 9a 3c
       0.0071590883 0.015098186 0.018554159 0.018917376
000300 22 78 e0 ba 10 fa db 3b cb cc 57 3c 04 f1 d2 39
       -0.0017125646 0.0067131594 0.013171385 0.00040233892
000310 55 e0 71 b7 1f 5b 05 00 f8 b1 f2 bb 9b 60 8b ba
       -1.4416951e-05 4.91866e-40 -0.0074064694 -0.0010633649
000320 8e 6c 22 bc ec 06 3b ba e9 69 8c ba 9b 8b 16 3d
       -0.009913577 -0.00071345153 -0.0010712716 0.036754232
000330 ef 10 91 3a 9f 91 74 ba 60 00 40 ba a0 39 a3 ba
       0.0011067669 -0.00093295606 -0.00073242746 -0.0012453087
000340 92 e0 04 3c 4b cc 65 3b 15 aa b5 bb 47 b5 0e 3b
       0.008110182 0.0035064395 -0.005543957 0.002177553
000350 96 fc 17 3c 73 55 44 ba 1b 8c 8e ba 0e af 19 3c
       0.00927653 -0.00074895396 -0.0010875495 0.009380115
000360 25 78 3d ba 46 6c cc 3b 1d 5e 2d b9 b4 e1 88 3c
       -0.0007227681 0.006238493 -0.00016533626 0.016709186
000370 64 b4 0c 3c a6 1f 80 ba 73 0c 2e 3a 88 0b 6d b8
       0.00858793 -0.0009775057 0.00066394283 -5.6515943e-05
000380 d2 6a 70 3b 51 73 8c ba ba 88 ac b9 83 d7 6e ba
       0.0036684764 -0.0010715519 -0.00032908266 -0.0009111093
000390 74 2f cc 39 f3 39 1e b3 91 e9 20 3a a7 83 23 ba
       0.00038945267 -3.6839946e-08 0.000613832 -0.0006237574
0003a0 f3 ee cc b9 bb b6 c4 3c 5b d6 16 ba 13 58 05 00
       -0.00039087943 0.024012914 -0.00057539874 4.90773e-40
0003b0 1b 05 f3 bb b0 d0 df b9 41 3e 13 bc e0 ca 40 3b
       -0.00741638 -0.0004268936 -0.00898701 0.0029417798
0003c0 17 5a 05 00 5b ed a1 ba 5b c7 e6 39 32 ee e3 3b
       4.91496e-40 -0.0012354063 0.0004401755 0.0069558853
0003d0 c8 b6 b7 3a 58 e3 85 3c 5c d0 06 bc 09 6d f2 3b
       0.0014016265 0.016343758 -0.008228388 0.007398252
0003e0 ae 8e 9e 39 3e 05 e2 38 dc 7c 13 3a 73 87 be 39
       0.00030242413 0.00010777496 0.00056262105 0.00036340542
0003f0 82 cc 2c 3a bc 86 d0 3c ae 77 fc 3b 17 4e b3 3a
       0.00065917533 0.025454871 0.0077046966 0.0013679889

flows.0.mprqat.autoregressive_net.blocks.0.linear_layers.1.bias f4 [64]
000000 b9 e8 dd 3b b3 66 dd bc c1 bd 1c bc fc 3d 25 bb
       0.0067721275 -0.02702651 -0.009566725 -0.0025213948
000010 31 b3 25 3c 4c 02 86 bc c5 5c 1b 3d a1 c1 bf 3c
       0.010113523 -0.016358517 0.03793027 0.02340776
000020 37 34 7f 3c 10 52 20 3d d4 8b 01 bc a5 53 2a 3d
       0.015576414 0.03914076 -0.007906873 0.041583676
000030 fa 81 ad bc 86 5c 2b 3d 97 99 2d bc 3e cd 33 3c
       -0.021180142 0.041836284 -0.010595701 0.0109742265
000040 fe 87 63 3c ab 00 52 3d 20 30 39 3a 30 cc 5e bd
       0.0138874035 0.05127017 0.0007064361 -0.054393947
000050 ed d9 a8 3d 59 14 c9 3c 14 5b ea 3c 89 b6 9d 3d
       0.08244691 0.024545835 0.028607883 0.077008314
000060 20 c0 c5 bb ae 6a 0a 3c 96 ca e0 3c 5c 58 2e 3c
       -0.006034866 0.008448286 0.02744035 0.010641184
000070 f1 74 5d 3d 51 7e 1e 3d f5 6a 3c 3d 45 1a f2 3c
       0.054066602 0.038694683 0.04600044 0.029553542
000080 17 37 1a 3d 3e a2 dc 3d ba 50 ce 3c 13 ab 1b 3d
       0.037650194 0.10773133 0.025184978 0.038004946
000090 0c 71 de 3c e2 7f 1e bc 65 1c 49 3d b3 ee f9 3c
       0.027153514 -0.009674044 0.049099345 0.030509328
0000a0 af 33 ad 3c 02 d0 49 3c 9b c4 7c 3c d9 fc db bb
       0.021142809 0.012317659 0.015427734 -0.0067134914
0000b0 9b e1 09 bc 95 8f fd 3c f4 16 d8 3b b6 5d 6a 3c
       -0.008415605 0.030952254 0.006594533 0.014304569
0000c0 74 34 ae 3b 3c 50 af 3c e7 2f 44 3c 85 f4 02 3d
       0.0053163115 0.021400563 0.011974311 0.031971473
0000d0 d5 3a 12 bc 1d fd dc 3c f0 25 50 3d a5 83 25 3b
       -0.008925159 0.026976163 0.05081743 0.0025255468
0000e0 6b d3 f1 3c 96 b5 02 3d aa 05 80 bc 23 6c 76 3d
       0.029519757 0.031911455 -0.0156277 0.06016172
0000f0 53 83 a1 3c ea b0 4a 3d 05 76 ee 3c 7e 49 c3 3b
       0.01971594 0.049485125 0.02910901 0.0059596887

flows.0.mprqat.autoregressive_net.blocks.0.linear_layers.1.mask f4 [64, 64]
000000 00 00 80 3f 00 00 80 3f 00 00 80 3f 00 00 80 3f
       1.0 1.0 1.0 1.0
000010 00 00 80 3f 00 00 80 3f 00 00 80 3f 00 00 80 3f
       1.0 1.0 1.0 1.0
000020 00 00 80 3f 00 00 80 3f 00 00 80 3f 00 00 80 3f
       1.0 1.0 1.0 1.0
000030 00 00 80 3f 00 00 80 3f 00 00 80 3f 00 00 80 3f
       1.0 1.0 1.0 1.0
000040 00 00 80 3f 00 00 80 3f 00 00 80 3f 00 00 80 3f
       1.0 1.0 1.0 1.0
000050 00 00 80 3f 00 00 80 3f 00 00 80 3f 00 00 80 3f
       1.0 1.0 1.0 1.0
000060 00 00 80 3f 00 00 80 3f 00 00 80 3f 00 00 80 3f
       1.0 1.0 1.0 1.0
000070 00 00 80 3f 00 00 80 3f 00 00 80 3f 00 00 80 3f
       1.0 1.0 1.0 1.0
000080 00 00 80 3f 00 00 80 3f 00 00 80 3f 00 00 80 3f
       1.0 1.0 1.0 1.0
000090 00 00 80 3f 00 00 80 3f 00 00 80 3f 00 00 80 3f
       1.0 1.0 1.0 1.0
0000a0 00 00 80 3f 00 00 80 3f 00 00 80 3f 00 00 80 3f
       1.0 1.0 1.0 1.0
0000b0 00 00 80 3f 00 00 80 3f 00 00 80 3f 00 00 80 3f
       1.0 1.0 1.0 1.0
0000c0 00 00 80 3f 00 00 80 3f 00 00 80 3f 00 00 80 3f
       1.0 1.0 1.0 1.0
0000d0 00 00 80 3f 00 00 80 3f 00 00 80 3f 00 00 80 3f
       1.0 1.0 1.0 1.0
0000e0 00 00 80 3f 00 00 80 3f 00 00 80 3f 00 00 80 3f
       1.0 1.0 1.0 1.0
0000f0 00 00 80 3f 00 00 80 3f 00 00 80 3f 00 00 80 3f
       1.0 1.0 1.0 1.0
000100 00 00 80 3f 00 00 80 3f 00 00 80 3f 00 00 80 3f
       1.0 1.0 1.0 1.0
000110 00 00 80 3f 00 00 80 3f 00 00 80 3f 00 00 80 3f
       1.0 1.0 1.0 1.0
000120 00 00 80 3f 00 00 80 3f 00 00 80 3f 00 00 80 3f
       1.0 1.0 1.0 1.0
000130 00 00 80 3f 00 00 80 3f 00 00 80 3f 00 00 80 3f
       1.0 1.0 1.0 1.0
000140 00 00 80 3f 00 00 80 3f 00 00 80 3f 00 00 80 3f
       1.0 1.0 1.0 1.0
000150 00 00 80 3f 00 00 80 3f 00 00 80 3f 00 00 80 3f
       1.0 1.0 1.0 1.0
000160 00 00 80 3f 00 00 80 3f 00 00 80 3f 00 00 80 3f
       1.0 1.0 1.0 1.0
000170 00 00 80 3f 00 00 80 3f 00 00 80 3f 00 00 80 3f
       1.0 1.0 1.0 1.0
000180 00 00 80 3f 00 00 80 3f 00 00 80 3f 00 00 80 3f
       1.0 1.0 1.0 1.0
000190 00 00 80 3f 00 00 80 3f 00 00 80 3f 00 00 80 3f
       1.0 1.0 1.0 1.0
0001a0 00 00 80 3f 00 00 80 3f 00 00 80 3f 00 00 80 3f
       1.0 1.0 1.0 1.0
0001b0 00 00 80 3f 00 00 80 3f 00 00 80 3f 00 00 80 3f
       1.0 1.0 1.0 1.0
0001c0 00 00 80 3f 00 00 80 3f 00 00 80 3f 00 00 80 3f
       1.0 1.0 1.0 1.0
0001d0 00 00 80 3f 00 00 80 3f 00 00 80 3f 00 00 80 3f
       1.0 1.0 1.0 1.0
0001e0 00 00 80 3f 00 00 80 3f 00 00 80 3f 00 00 80 3f
       1.0 1.0 1.0 1.0
0001f0 00 00 80 3f 00 00 80 3f 00 00 80 3f 00 00 80 3f
       1.0 1.0 1.0 1.0
000200 00 00 80 3f 00 00 80 3f 00 00 80 3f 00 00 80 3f
       1.0 1.0 1.0 1.0
000210 00 00 80 3f 00 00 80 3f 00 00 80 3f 00 00 80 3f
       1.0 1.0 1.0 1.0
000220 00 00 80 3f 00 00 80 3f 00 00 80 3f 00 00 80 3f
       1.0 1.0 1.0 1.0
000230 00 00 80 3f 00 00 80 3f 00 00 80 3f 00 00 80 3f
       1.0 1.0 1.0 1.0
000240 00 00 80 3f 00 00 80 3f 00 00 80 3f 00 00 80 3f
       1.0 1.0 1.0 1.0
000250 00 00 80 3f 00 00 80 3f 00 00 80 3f 00 00 80 3f
       1.0 1.0 1.0 1.0
000260 00 00 80 3f 00 00 80 3f 00 00 80 3f 00 00 80 3f
       1.0 1.0 1.0 1.0
000270 00 00 80 3f 00 00 80 3f 00 00 80 3f 00 00 80 3f
       1.0 1.0 1.0 1.0
000280 00 00 80 3f 00 00 80 3f 00 00 80 3f 00 00 80 3f
       1.0 1.0 1.0 1.0
000290 00 00 80 3f 00 00 80 3f 00 00 80 3f 00 00 80 3f
       1.0 1.0 1.0 1.0
0002a0 00 00 80 3f 00 00 80 3f 00 00 80 3f 00 00 80 3f
       1.0 1.0 1.0 1.0
0002b0 00 00 80 3f 00 00 80 3f 00 00 80 3f 00 00 80 3f
       1.0 1.0 1.0 1.0
0002c0 00 00 80 3f 00 00 80 3f 00 00 80 3f 00 00 80 3f
       1.0 1.0 1.0 1.0
0002d0 00 00 80 3f 00 00 80 3f 00 00 80 3f 00 00 80 3f
       1.0 1.0 1.0 1.0
0002e0 00 00 80 3f 00 00 80 3f 00 00 80 3f 00 00 80 3f
       1.0 1.0 1.0 1.0
0002f0 00 00 80 3f 00 00 80 3f 00 00 80 3f 00 00 80 3f
       1.0 1.0 1.0 1.0
000300 00 00 80 3f 00 00 80 3f 00 00 80 3f 00 00 80 3f
       1.0 1.0 1.0 1.0
000310 00 00 80 3f 00 00 80 3f 00 00 80 3f 00 00 80 3f
       1.0 1.0 1.0 1.0
000320 00 00 80 3f 00 00 80 3f 00 00 80 3f 00 00 80 3f
       1.0 1.0 1.0 1.0
000330 00 00 80 3f 00 00 80 3f 00 00 80 3f 00 00 80 3f
       1.0 1.0 1.0 1.0
000340 00 00 80 3f 00 00 80 3f 00 00 80 3f 00 00 80 3f
       1.0 1.0 1.0 1.0
000350 00 00 80 3f 00 00 80 3f 00 00 80 3f 00 00 80 3f
       1.0 1.0 1.0 1.0
000360 00 00 80 3f 00 00 80 3f 00 00 80 3f 00 00 80 3f
       1.0 1.0 1.0 1.0
000370 00 00 80 3f 00 00 80 3f 00 00 80 3f 00 00 80 3f
       1.0 1.0 1.0 1.0
000380 00 00 80 3f 00 00 80 3f 00 00 80 3f 00 00 80 3f
       1.0 1.0 1.0 1.0
000390 00 00 80 3f 00 00 80 3f 00 00 80 3f 00 00 80 3f
       1.0 1.0 1.0 1.0
0003a0 00 00 80 3f 00 00 80 3f 00 00 80 3f 00 00 80 3f
       1.0 1.0 1.0 1.0
0003b0 00 00 80 3f 00 00 80 3f 00 00 80 3f 00 00 80 3f
       1.0 1.0 1.0 1.0
0003c0 00 00 80 3f 00 00 80 3f 00 00 80 3f 00 00 80 3f
       1.0 1.0 1.0 1.0
0003d0 00 00 80 3f 00 00 80 3f 00 00 80 3f 00 00 80 3f
       1.0 1.0 1.0 1.0
0003e0 00 00 80 3f 00 00 80 3f 00 00 80 3f 00 00 80 3f
       1.0 1.0 1.0 1.0
0003f0 00 00 80 3f 00 00 80 3f 00 00 80 3f 00 00 80 3f
       1.0 1.0 1.0 1.0
