macros/Timing_estimation/models/February_10/run_1/best_model.pth (torch, 311138 bytes, 29 tensors)

mlp1.0.weight f4 [32, 9]
0.37386438 -0.10598293 -0.23476115 0.15566696 -0.22645013 0.07786686 0.03180127 -0.3182193
-0.09209061 -0.3181158 0.12630978 0.3610598 -0.115610994 -0.23706506 -0.058844686 0.28972948
-0.09803071 -0.007302508 0.3141188 -0.21595396 0.38817984 -0.24992767 0.22041802 -0.28405303
-0.12687849 -0.37295327 0.23837633 -0.20198871 0.26257023 0.29731527 -0.29123664 -0.023672106
-0.2970849 0.13274078 0.12861763 -0.24843334 0.09582804 0.23923627 -0.15718065 -0.19547786
-0.044672787 0.1993789 0.26825294 -0.06092221 -0.24516855 0.20925365 -0.34848896 -0.050843816
-0.21502884 -0.26703775 0.013090118 -0.04909967 -0.10224952 0.12547933 -0.3241042 -0.33218002
-0.11459401 0.033578902 0.013570331 0.20915623 0.2547326 0.03350363 0.031284787 -0.13130213
0.21450438 0.08596315 0.00038780848 0.3041786 -0.081946336 0.33123663 0.41938838 -0.15420295
0.15911269 0.0025205256 0.13839173 -0.2221119 -0.247386 0.0733392 0.10190121 -0.13908073
-0.18225428 -0.158018 -0.18856208 -0.1463488 0.32371044 -0.1909428 0.32144484 -0.03029079
-0.2839643 -0.31971702 -0.11503422 -0.20463803 0.120621055 -0.029903408 0.16821979 -0.3085953
-0.3341075 0.012509006 0.29604965 -0.008243215 0.027288659 -0.1032951 0.28967312 -0.26583743
0.07457305 0.0997738 -0.042319573 0.097198084 0.14705454 -0.30596197 0.06593962 -0.03818423
-0.003852208 0.303698 0.026801659 -0.23412085 0.1890481 -0.1710805 -0.16552089 0.18748406
0.2604152 -0.053695276 0.31352475 -0.10723442 -0.12549922 0.35127458 -0.112979695 0.086539604
0.11497762 0.22375824 0.19813389 -0.060687046 -0.20735756 -0.029024646 0.062289804 0.08799001
0.33187175 0.24417615 -0.28655815 -0.25154397 -0.0064897537 -0.33056635 -0.26381683 -0.25665802
-0.0017718844 0.3572819 -0.36162192 -0.2289159 -0.17242514 0.06755795 -0.3375 -0.2926792
-0.0952402 -0.029437268 0.17177011 0.21880011 0.034898475 0.07371813 -0.35049346 -0.069923274
0.20586015 0.30643287 0.18191998 0.2921303 -0.3188693 0.12388224 -0.35566556 -0.24810873
0.02699136 -0.27245203 -0.10180147 0.065794274 0.37929276 -0.41375235 0.20149331 -0.34274408
-0.15683228 -0.026433585 0.03188399 -0.0049685086 -0.068403415 0.1587191 -0.20778957 -0.2068668
0.28729334 -0.20997815 0.28588524 -0.25315526 -0.25212488 0.1936054 0.047091603 -0.23480853
-0.030067286 0.09656887 -0.12408912 -0.25233755 -0.27310202 -0.24694352 0.2589302 0.3531951
-0.17904212 -0.17833179 0.069760434 0.18447426 0.0740393 -0.10634175 0.28740886 0.06600845
0.19526951 0.27870914 0.30747902 0.06962984 0.20384477 -0.22086081 -0.17412443 -0.22820742
0.033467773 -0.16043258 -0.19889857 -0.027202092 0.29207885 -0.14139666 0.2932711 0.17007954
-0.1192772 -0.12307577 -0.36249855 0.40455824 0.20750804 -0.03603205 -0.0055346885 0.06984643
-0.10084773 0.021361444 -0.24565366 -0.1285706 -0.11120146 0.28541636 -0.2083114 -0.39900166
0.22388214 0.15290387 0.22259055 -0.15866649 -0.017469754 0.109381475 0.23380724 0.1472219
0.05860649 0.008208956 -0.23702127 0.33548054 0.19111563 0.24542569 0.14257592 0.18609588
00000000: 276b bf3e 940d d9bd 3a65 70be 2967 1f3e
00000010: 8be2 67be a978 9f3d 0c42 023d a4ed a2be
00000020: 009a bcbd 13e0 a2be 5a57 013e d5dc b83e
00000030: 75c5 ecbd 2fc1 72be 2007 71bd 6c57 943e
00000040: 53c4 c8bd e149 efbb 2ed4 a03e 0923 5dbe
00000050: 82bf c63e 0aed 7fbe 43b5 613e 666f 91be
00000060: 6fec 01be bbf3 bebe ed18 743e 21d6 4ebe
00000070: 9b6f 863e b539 983e f81c 95be 01ec c1bc
00000080: 831b 98be 33ed 073e 57b4 033e 4f65 7ebe
00000090: 7e41 c43d 5afa 743e f7f3 20be 592b 48be
000000a0: d0fa 36bd fb29 4c3e 7358 893e 9189 79bd
000000b0: 770d 7bbe 9746 563e 256d b2be 9b41 50bd
000000c0: 8530 5cbe 2cb9 88be ef77 563c bc1c 49bd
000000d0: 3268 d1bd a77d 003e fcf0 a5be 8013 aabe
000000e0: 44b0 eabd 088a 093d 1856 5e3c 0d2d 563e
000000f0: 506c 823e 1a3b 093d 7a24 003d 1174 06be
00000100: 09a7 5b3e 730d b03d c652 cb39 4cbd 9b3e
00000110: 7bd3 a7bd d997 a93e 13ba d63e 61e7 1dbe
00000120: 70ee 223e 672f 253b 90b6 0d3e 4d71 63be
00000130: c152 7dbe dd32 963d 95b1 d03d 2e6b 0ebe
00000140: dea0 3abe 78cf 21be 6b16 41be 76dc 15be
00000150: 60bd a53e 8286 43be 6b94 a43e 6424 f8bc
00000160: c563 91be f3b1 a3be 1097 ebbd a28c 51be
00000170: 2c08 f73d fef7 f4bc cf41 2c3e 3400 9ebe
00000180: 2310 abbe 93f2 4c3c d293 973e 8d0e 07bc
00000190: 778c df3c 628c d3bd 0950 943e d81b 88be
000001a0: c1b9 983d 3556 cc3d 4a57 2dbd ca0f c73d
000001b0: 7795 163e 0ca7 9cbe 5a0b 873d 1167 1cbd
000001c0: 5375 7cbb 4e7e 9b3e 278f db3c 60bd 6fbe
000001d0: d395 413e ba2f 2fbe 4f7e 29be d2fb 3f3e
000001e0: 2455 853e 94ef 5bbd 5186 a03e b89d dbbd
000001f0: de82 00be 43da b33e e661 e7bd ad3b b13d
00000200: 6379 eb3d e120 653e 9ce3 4a3e fb92 78bd
00000210: 8a55 54be 18c5 edbc 9823 7f3d 1b34 b43d
00000220: 18eb a93e 5009 7a3e c0b7 92be 5fca 80be
00000230: 00a8 d4bb fe3f a9be 0013 87be ae68 83be
00000240: 933e e8ba a7ed b63e 8226 b9be ee68 6abe
00000250: 3790 30be d35b 8a3d cdcc acbe 0cda 95be
00000260: 4b0d c3bd 6d26 f1bc 81e4 2f3e 230d 603e
00000270: b4f1 0e3d 88f9 963d e173 b3be ef33 8fbd
00000280: 01cd 523e c5e4 9c3e 3b49 3a3e 1a92 953e
00000290: d642 a3be f9b5 fd3d cc19 b6be 3710 7ebe
000002a0: fc1c dd3c d57e 8bbe 4a7d d0bd 26bf 863d
000002b0: a932 c23e 59d7 d3be 4354 4e3e 277c afbe
000002c0: a498 20be 3f8b d8bc c998 023d dfce a2bb
000002d0: 1717 8cbd 4287 223e cac6 54be e4d4 53be
000002e0: 1d18 933e 8304 57be 8d5f 923e 919d 81be
000002f0: 8316 81be 7e40 463e 20e3 403d a671 70be
00000300: ab4f f6bc e6c5 c53d 7022 febd 6332 81be
00000310: 07d4 8bbe c3de 7cbe 8092 843e fdd5 b43e
00000320: d156 37be 9c9c 36be 8fde 8e3d d2e6 3c3e
00000330: eba1 973d b4c9 d9bd 4127 933e 702f 873d
00000340: bbf4 473e f7b2 8e3e e46d 9d3e 179a 8e3d
00000350: afbc 503e 5629 62be ad4d 32be 35af 69be
00000360: 8115 093d 7048 24be 11ac 4bbe ecd6 debc
00000370: 5c8b 953e 49ca 10be a127 963e 5529 2e3e
00000380: 9b47 f4bd 260f fcbd 6999 b9be 4222 cf3e
00000390: fd7c 543e 5896 13bd 555c b5bb a50b 8f3d
000003a0: 4189 cebd 32fe ae3c a28c 7bbe 03a8 03be
000003b0: 97bd e3bd 1822 923e 954f 55be f249 ccbe
000003c0: 5c41 653e d592 1c3e c7ee 633e 7879 22be
000003d0: bb1c 8fbc 6503 e03d 2a6b 6f3e 56c1 163e
000003e0: 5c0d 703d db7e 063c b4b5 72be 1bc4 ab3e
000003f0: d1b3 433e df50 7b3e 6cff 113e eb8f 3e3e

mlp1.0.bias f4 [32]
-0.21206537 0.26401317 -0.23739867 0.042968526 -0.12654349 0.23765725 0.39331067 0.23367642
0.2273816 -0.2247159 -0.2052055 0.15173012 0.12374138 0.15144485 0.32505152 -0.01863563
0.021024669 0.045317557 -0.20149414 -0.13233466 -0.2319191 0.1562388 -0.12853047 0.012738486
-0.1886357 0.28128827 -0.19590926 -0.120696604 -0.17879234 -0.36271346 0.23885092 0.44397527
00000000: aa27 59be bc2c 873e a318 73be c4ff 2f3d
00000010: 9e94 01be 6c5c 733e 0460 c93e df48 6f3e
00000020: b9d6 683e ed1b 66be 6421 52be 245f 1b3e
00000030: 1f6c fd3d 5c14 1b3e 276d a63e c0a9 98bc
00000040: ed3b ac3c e79e 393d 7b54 4ebe bd82 07be
00000050: 337c 6dbe 10fd 1f3e 7e9d 03be 15b5 503c
00000060: b829 41be 0405 903e 709c 48be c82f f7bd
00000070: 5715 37be 94b5 b9be 5695 743e ba50 e33e

mlp1.2.weight f4 [32, 32]
0.07498166 0.07188704 -0.021818278 -0.0930374 -0.15100873 -0.16750614 0.06860364 -0.046448316
-0.17193201 -0.053956762 0.04921278 0.09843486 0.13236055 -0.08178375 0.0151452515 0.05249786
-0.16236913 0.11724899 0.05546736 -0.15355875 0.13737525 0.10312628 -0.1460587 0.02678052
-0.10035373 -0.016562032 0.030464211 -0.16439235 0.08006578 0.04854852 0.11203532 -0.07776704
0.078840956 0.2124409 0.13536641 -0.025142599 0.020237142 -0.15810901 0.11316042 0.20553309
-0.04609119 0.02529815 -0.017909285 -0.09329041 0.1291516 -0.079020664 0.12768169 -0.17171803
-0.089662984 0.017923817 -0.01382899 -0.02994979 -0.07067051 0.030744502 -0.08877546 -0.15940912
0.00040557035 0.11537176 -0.005689708 0.14597225 -0.08155436 -0.067993805 0.07241585 0.1312622
0.018365787 -0.06916697 -0.07022384 -0.17582807 0.12710312 0.16622925 -0.16948591 -0.04110618
0.0047594463 -0.008406186 -0.15333371 -0.08805025 -0.031901255 0.16562381 -0.24020123 0.087117136
-0.027706526 0.07248762 0.03366638 0.06476985 0.08005287 0.07743246 -0.087751664 0.12017867
0.15777913 -0.051696543 -0.088123694 -0.15389533 -0.03740473 0.13415094 0.15842365 -0.16451535
-0.16147338 -0.045363285 0.13700458 0.100384876 -0.062282313 -0.09505567 -0.114620626 0.0626539
0.027975757 0.1248315 0.15458557 -0.1339158 -0.030435784 -0.019648459 0.17456913 -0.121892564
0.110061415 -0.051494915 0.11954024 0.10487196 -0.054728378 -0.1733374 0.05788119 0.067331195
-0.06863684 -0.042615335 -0.12836407 -0.15320083 -0.15273346 0.17612931 0.105899386 -0.09074523
0.12154863 0.17118815 0.16876851 0.030134927 -0.037288766 -0.07803962 -0.15241039 -0.11073959
0.04614553 -0.1320038 -0.023140956 -0.06930675 -0.033316605 -0.018493934 0.15897122 -0.024019467
0.055321723 -0.044779535 -0.119508125 -0.030828774 -0.09127565 -0.1493848 0.10953623 0.17044279
-0.091398984 5.7097284e-05 -0.068959445 -0.081052504 -0.13620567 -0.06485472 0.042385902 0.16080293
0.04046727 0.14837293 -0.14779288 -0.11115376 -0.061731175 0.1372763 -0.12094475 0.12711047
-0.16137461 0.10216552 -0.067270845 0.17345394 -0.12087323 -0.043125838 -0.18140216 0.11844834
-0.0075054076 -0.031580243 0.13901378 -0.04986447 -0.059902474 0.16396038 0.13949051 0.16949803
0.13920416 0.07682618 -0.15423606 -0.067060046 -0.02380254 -0.15262423 0.07226225 -0.086130865
-0.07135737 0.20180911 0.19081394 0.17292926 0.08670673 -0.019496417 -0.07913019 0.04805112
0.016805366 -0.07252561 -0.12255377 0.12304596 -0.12166599 0.09754832 0.12481952 -0.09199824
-0.18603842 -0.14172162 -0.06754709 -0.0133086005 -0.11901609 0.17205782 0.051584046 -0.10411018
-0.0101917535 0.060682677 -0.017230505 -0.066034414 0.13812879 0.11449816 0.05616261 0.112026475
0.054473173 0.246225 -0.08827905 -0.06276169 -0.12144551 0.049505472 0.15270896 0.13180283
0.054034468 0.075002484 0.049559988 -0.023544515 -0.055163268 0.021962427 0.08507307 0.04437098
0.122361496 -0.05841553 0.13326019 0.12137878 -0.084954016 0.024684418 -0.11836263 -0.027682928
-0.09852131 -0.12711065 0.117431715 -0.050645296 0.044609316 -0.13202366 0.15236278 0.13960578
00000000: fc8f 993d 8339 933d 3fbc b2bc 648a bebd
00000010: 08a2 1abe bb86 2bbe 1180 8c3d 9740 3ebd
00000020: f20e 30be c401 5dbd 5793 493d 3798 c93d
00000030: 8689 073e 3d7e a7bd ca23 783c ff07 573d
00000040: 1844 26be 3d20 f03d be31 633d 813e 1dbe
00000050: 19ac 0c3e df33 d33d 6990 15be d262 db3c
00000060: 4286 cdbd 19ad 87bc 1590 f93c 7856 28be
00000070: 87f9 a33d d0da 463d c672 e53d 5344 9fbd
00000080: 5e77 a13d 1b8a 593e 7e9d 0a3e daf7 cdbc
00000090: 5dc8 a53c 54e7 21be a6c0 e73d 4477 523e
000000a0: 1eca 3cbd 113e cf3c 7eb6 92bc 0b0f bfbd
000000b0: 5140 043e 96d5 a1bd fdbe 023e dad6 2fbe
000000c0: 3aa1 b7bd f8d4 923c fd92 62bc 4359 f5bc
000000d0: b3bb 90bd e5db fb3c e9cf b5bd 253c 23be
000000e0: bba2 d439 0848 ec3d bb70 babb c079 153e
000000f0: f905 a7bd 5640 8bbd c34e 943d 9969 063e
00000100: d973 963c 6aa7 8dbd 84d1 8fbd 460c 34be
00000110: 5227 023e 0038 2a3e b78d 2dbe f45e 28bd
00000120: 21f5 9b3b 19ba 09bc 8303 1dbe b153 b4bd
00000130: e4aa 02bd 4a99 293e 50f7 75be 786a b23d
00000140: ccf8 e2bc 6474 943d c2e5 093d 0ea6 843d
00000150: c2f2 a33d e994 9e3d 25b7 b3bd 3c20 f63d
00000160: da90 213e c1bf 53bd 327a b4bd bd96 1dbe
00000170: b435 19bd dd5e 093e cf39 223e b676 28be
00000180: 4759 25be dace 39bd ee4a 0c3e 9696 cd3d
00000190: bd1b 7fbd 8cac c2bd 38be eabd b050 803d
000001a0: 6a2d e53c a8a7 ff3d ae4b 1e3e 3921 09be
000001b0: 7754 f9bc cef5 a0bc 40c2 323e cfa2 f9bd
000001c0: e167 e13d 55ec 52bd 83d1 f43d 1cc7 d63d
000001d0: dd2a 60bd 5c7f 31be d414 6d3d f0e4 893d
000001e0: 7991 8cbd 6b8d 2ebd df71 03be aee0 1cbe
000001f0: 2966 1cbe 3e5b 343e c7e1 d83d a3d8 b9bd
00000200: 7dee f83d f24b 2f3e a7d1 2c3e 86dd f63c
00000210: 1bbc 18bd 3cd3 9fbd 7811 1cbe 70cb e2bd
00000220: 1803 3d3d 012c 07be 1a92 bdbc b3f0 8dbd
00000230: fe76 08bd 9780 97bc 5ac9 223e 79c4 c4bc
00000240: 0899 623d bf6a 37bd adc0 f4bd a08c fcbc
00000250: baee babd 54f8 18be 8854 e03d 8e88 2e3e
00000260: 642f bbbd be7b 6f38 9c3a 8dbd dbfe a5bd
00000270: 8079 0bbe 8dd2 84bd d79c 2d3d 86a9 243e
00000280: 02c1 253d 13ef 173e 0457 17be 95a4 e3bd
00000290: d4d9 7cbd 2992 0c3e e2b1 f7bd 3f29 023e
000002a0: 633f 25be 283c d13d 4cc5 89bd e99d 313e
000002b0: 628c f7bd b8a4 30bd 7dc1 39be 0b95 f23d
000002c0: ecef f5bb 495a 01bd a159 0e3e b03e 4cbd
000002d0: 4c5c 75bd 3be5 273e 9ad6 0e3e e490 2d3e
000002e0: 898b 0e3e 0b57 9d3d 0ff0 1dbe c756 89bd
000002f0: 8bfd c2bc 8749 1cbe 3bfe 933d 6165 b0bd
00000300: d023 92bd 0ca7 4e3e bb64 433e 5e14 313e
00000310: 4c93 b13d f3b6 9fbc 020f a2bd 40d1 443d
00000320: 68ab 893c 4f88 94bd 79fd fabd 85ff fb3d
00000330: 052c f9bd 6ac7 c73d 60a1 ff3d 9369 bcbd
00000340: db80 3ebe 791f 11be 2156 8abd 510c 5abc
00000350: b5be f3bd ed2f 303e cb49 533d b837 d5bd
00000360: 50fb 26bc 668e 783d fd26 8dbc 0d3d 87bd
00000370: a271 0d3e 037e ea3d c40a 663d 236e e53d
00000380: 431f 5f3d 6822 7c3e a6cb b4bd 3389 80bd
00000390: 6cb8 f8bd 40c6 4a3d bd5f 1c3e 52f7 063e
000003a0: 3f53 5d3d e79a 993d 6aff 4a3d 6de0 c0bc
000003b0: e1f2 61bd 8cea b33c ca3a ae3d 58be 353d
000003c0: aa98 fa3d 1f45 6fbd 5c75 083e 7095 f83d
000003d0: 5ffc adbd fa36 ca3c 1b68 f2bd 4fc7 e2bc
000003e0: 8ac5 c9bd 4b29 02be 0a80 f03d 7171 4fbd
000003f0: 42b8 363d 3631 07be fd04 1c3e d1f4 0e3e

mlp1.2.bias f4 [32]
-0.08687905 0.049635347 -0.024270719 -0.11909528 0.056894958 0.14640638 0.008706001 0.1933037
-0.013565517 0.096552245 0.13794236 -0.09485867 -0.13801707 -0.20538744 0.26119602 0.04559282
0.14861247 0.19196714 -0.0451148 0.28767207 0.22841409 -0.086321294 -0.11711859 0.25234705
0.025064902 0.22900155 0.16432995 -0.21292216 -0.008579342 0.023504252 -0.03255901 -0.15289687
00000000: a5ed b1bd 6f4e 4b3d 63d3 c6bc 3ae8 f3bd
00000010: b00a 693d 8eeb 153e 9da3 0e3c 68f1 453e
00000020: e741 5ebc 2fbd c53d c340 0d3e 4345 c2bd
00000030: 5954 0dbe 1651 52be 7cbb 853e 89bf 3a3d
00000040: de2d 183e 0993 443e 4cca 38bd c149 933e
00000050: 62e5 693e 38c9 b0bd dfdb efbd a233 813e
00000060: e954 cd3c 627f 6a3e 1c46 283e 4408 5abe
00000070: 5e90 0cbc fd8b c03c 995c 05bd ff90 1cbe

mlp2.0.weight f4 [32, 32]
-0.05738456 0.12458133 0.14094977 0.008653981 0.12145223 -0.04408205 -0.16075596 0.09483723
0.0016434931 -0.057126313 0.09910103 0.011907958 0.010930763 0.1334263 -0.034522016 0.051529866
0.16745803 -0.066341005 -0.11508767 0.09750452 0.05993352 0.074472785 0.15379405 -0.0035708616
-0.012409545 -0.03980652 -0.12313961 0.14137776 -0.020803584 -0.003708459 0.17186353 0.13299192
-0.16209681 -0.055771932 -0.057548802 0.17102179 0.011886064 0.041078467 -0.054080855 0.16020207
-0.16840136 0.015534865 -0.102597415 0.072448745 -0.08026674 -0.17383644 -0.13415635 -0.115514375
0.02602964 -0.12589514 -0.12219632 0.13487726 0.129658 -0.14894526 0.16181682 -0.0054901536
-0.04483158 0.09481054 -0.00368865 0.040965136 0.083722144 -0.083668955 0.04728063 -0.14081009
0.1381735 0.12163298 0.06985066 0.12298253 0.1374982 -0.14635706 -0.10266421 -0.12962456
-0.018214766 0.10582557 -0.06537647 0.15439773 -0.16323368 0.10612347 0.07056078 0.041323483
-0.12806697 0.21270211 -0.16835105 -0.12058779 -0.057750523 -0.092946865 -0.0021284278 0.09455564
0.077763915 0.016300166 -0.09755387 -0.053310256 0.011068362 -0.08655768 0.22557537 0.08248032
-0.00030885483 -0.012258354 -0.1949087 0.08115046 0.1211941 -0.063883305 -0.114586055 0.12766553
-0.045503967 0.048818465 -0.18595952 0.08285921 0.032529958 -0.06239006 0.033506416 0.12768155
-0.05250039 0.061163843 -0.09920585 0.12489623 -0.03615408 -0.011689976 -0.08013207 0.073344186
0.022456355 0.01858509 -0.14700729 0.05544694 0.059861142 -0.081919946 0.12173764 0.16264562
0.054879304 -0.08523549 -0.1656631 0.061853282 0.06055908 0.12449197 0.12796165 -0.17402324
-0.029922217 -0.047689073 -0.035978023 -0.15885119 -0.12543727 0.060330935 -0.16562589 -0.026858542
0.033896435 0.025775537 -0.1757721 0.034980725 -0.011296578 0.135443 -0.10542948 -0.0991635
0.12177373 -0.034542672 -0.09970625 0.10951144 0.043980174 -0.05262801 0.14511824 -0.08681981
0.04830787 -0.027524559 0.038927533 0.13885953 0.05948955 -0.03872982 -0.08233897 0.1404959
0.13826552 0.083211 -0.019683553 -0.04910151 0.045664683 0.13930681 -0.1277447 -0.22830963
0.100179255 -0.093212925 0.01645388 -0.050835658 -0.003662413 0.08043517 -0.1064037 -0.029214403
-0.16330695 0.1130853 0.086955935 -0.12511638 0.1535883 -0.11074387 0.05547373 -0.162013
-0.14797102 -0.1578255 0.033145156 0.10850997 -0.17432101 0.11876361 -0.17006531 -0.038241588
0.10963537 -0.14388955 -0.018288873 0.033518814 0.05496752 0.046099372 -0.14114547 -0.035470426
-0.10053626 0.0839621 0.09069384 -0.12651195 -0.16438292 0.12959717 -0.06707899 0.1587284
0.17404689 0.10867105 0.059756532 -0.103277095 0.079634294 0.11305453 -0.09674541 0.09497085
-0.09736584 -0.061881095 0.058666274 -0.16121729 -0.011146997 0.03546339 0.08441795 0.09263316
0.037429288 0.008881626 0.11425456 -0.18023673 -0.14588042 -0.04488454 -0.14410026 0.05653184
0.021661906 0.21528275 0.06105811 0.17522901 0.017319962 -0.14204727 0.13881518 -0.0022465296
-0.04356064 0.10843993 -0.13317108 -0.091688104 0.059920482 -0.076610796 -0.06857257 0.086500816
00000000: 130c 6bbd 7f24 ff3d 2355 103e 6dc9 0d3c
00000010: f2bb f83d 618f 34bd 369d 24be 063a c23d
00000020: 7a6a d73a 48fd 69bd 7bf5 ca3d 9919 433c
00000030: f116 333c e7a0 083e f566 0dbd fb10 533d
00000040: 1e7a 2b3e cbdd 87bd 16b3 ebbd 73b0 c73d
00000050: da7c 753d 3085 983d 307c 1d3e 1e05 6abb
00000060: 6751 4bbc 290c 23bd 9f30 fcbd 55c5 103e
00000070: 476c aabc 9e09 73bb fefc 2f3e 092f 083e
00000080: b5fc 25be 1c71 64bd 4bb8 6bbd 5620 2f3e
00000090: c4bd 423c e541 283d e383 5dbd 030c 243e
000000a0: 6871 2cbe f285 7e3c 981e d2bd 0260 943d
000000b0: e362 a4bd 2e02 32be 4860 09be cd92 ecbd
000000c0: 1d3c d53c a8ea 00be 1042 fabd 441d 0a3e
000000d0: 11c5 043e 1b85 18be 4fb3 253e bfe6 b3bb
000000e0: 52a1 37bd 072c c23d 47bd 71bb 0fcb 273d
000000f0: 8476 ab3d a15a abbd 55a9 413d 8530 10be
00000100: 5b7d 0d3e b61a f93d dd0d 8f3d 44de fb3d
00000110: 54cc 0c3e a0de 15be 9d41 d2bd 4dbc 04be
00000120: 2237 95bc 14bb d83d 19e4 85bd 701a 1e3e
00000130: bb26 27be 4357 d93d 2c82 903d d042 293d
00000140: fd23 03be 95ce 593e 3864 2cbe bbf6 f6bd
00000150: d08b 6cbd ed5a bebd 187d 0bbb 63a6 c13d
00000160: b042 9f3d ed87 853c 53ca c7bd db5b 5abd
00000170: 1358 353c 2745 b1bd 3bfd 663e 71eb a83d
00000180: cbed a1b9 43d7 48bc 2596 47be 3632 a63d
00000190: 9d34 f83d 40d5 82bd 18ac eabd c1ba 023e
000001a0: 5e62 3abd dff5 473d 2c6c 3ebe 17b2 a93d
000001b0: 223e 053d b88c 7fbd 063e 093d f4be 023e
000001c0: a60a 57bd f086 7a3d 702c cbbd 98c9 ff3d
000001d0: 4d16 14bd 5087 3fbc 481c a4bd 7a35 963d
000001e0: 64f6 b73c c23f 983c 1489 16be 551c 633d
000001f0: f530 753d a5c5 a7bd 9551 f93d 938c 263e
00000200: 1fc9 603d f28f aebd 96a3 29be de59 7d3d
00000210: cc0c 783d a5f5 fe3d 6108 033e 2633 32be
00000220: 701f f5bc 9e55 43bd b15d 13bd e3a9 22be
00000230: a172 00be 921d 773d d599 29be 7206 dcbc
00000240: fdd6 0a3d 3827 d33c 9afd 33be f347 0f3d
00000250: 4815 39bc 92b1 0a3e 69eb d7bd 3c16 cbbd
00000260: 8164 f93d 9e7c 0dbd ca32 ccbd 8947 e03d
00000270: 8e24 343d 7890 57bd e099 143e 96ce b1bd
00000280: 79de 453d 2f7b e1bc 7a72 1f3d 3131 0e3e
00000290: 50ab 733d 29a3 1ebd 55a1 a8bd 28de 0f3e
000002a0: 7a95 0d3e 876a aa3d 673f a1bc aa1e 49bd
000002b0: e40a 3b3d 72a6 0e3e 82cf 02be 00ca 69be
000002c0: c82a cd3d 6be6 bebd 4aca 863c 0d39 50bd
000002d0: 1805 70bb 32bb a43d 2fea d9bd 0b53 efbc
000002e0: f039 27be 4499 e73d f415 b23d 821e 00be
000002f0: 4046 1d3e afcd e2bd 6c38 633d bce6 25be
00000300: b785 17be 029d 21be 37c3 073d 7a3a de3d
00000310: 3581 32be 563a f33d 9a25 2ebe 36a3 1cbd
00000320: 8288 e03d c857 13be 8cd2 95bc 064b 093d
00000330: 9f25 613d b2d2 3c3d 7088 10be 7049 11bd
00000340: f4e5 cdbd 52f4 ab3d b1bd b93d 598c 01be
00000350: ff53 28be 1fb5 043e b660 89bd b389 223e
00000360: 5939 323e ed8e de3d 44c3 743d f182 d3bd
00000370: 4e17 a33d 2289 e73d 7522 c6bd 1480 c23d
00000380: be67 c7bd 0877 7dbd 0c4c 703d 2516 25be
00000390: e5a1 36bc 0f42 113d 51e3 ac3d 74b6 bd3d
000003a0: 744f 193d 3d84 113c 4bfe e93d fa8f 38be
000003b0: ad61 15be dad8 37bd 058f 13be ee8d 673d
000003c0: 4f74 b13c 1573 5c3e 1218 7a3d 3c6f 333e
000003d0: 98e2 8d3c d774 11be 9125 0e3e 833a 13bb
000003e0: a46c 32bd c115 de3d 005e 08be f9c6 bbbd
000003f0: 2e6f 753d 1fe6 9cbd c76f 8cbd 5727 b13d

mlp2.0.bias f4 [32]
0.021108331 -0.1381035 -0.042895906 -0.050343756 -0.12648791 -0.15487258 -0.1475837 0.25135332
-0.11228265 0.17338656 -0.043055873 0.09597374 -0.1751494 -0.1157647 0.12421279 0.20297076
0.14564364 -0.14649938 -0.060686976 0.10866454 0.048695173 0.03301148 -0.108643994 0.075829685
0.16376452 -0.17593098 0.0066128667 0.12932356 0.06777194 -0.11471902 -0.086840294 0.07894227
00000000: 61eb ac3c 016b 0dbe 9eb3 2fbd 4135 4ebd
00000010: 0c86 01be eb96 1ebe 2e20 17be 62b1 803e
00000020: 72f4 e5bd 3f8c 313e 5b5b 30bd e18d c43d
00000030: 5d5a 33be 0b16 edbd 4663 fe3d 91d7 4f3e
00000040: 9b23 153e ef03 16be e892 78bd 848b de3d
00000050: 9774 473d 0c37 073d be80 debd 984c 9b3d
00000060: e3b1 273e 4027 34be bfb0 d83b 656d 043e
00000070: 04cc 8a3d cef1 eabd 53d9 b1bd 7cac a13d

mlp2.2.weight f4 [32, 32]
-0.13015416 0.06548034 -0.12508251 0.02123072 -0.09954753 -0.067492545 0.11042337 -0.13026705
0.074308455 0.08459274 -0.01743946 -0.026532805 -0.15716209 0.08258333 -0.12617224 0.014163646
-0.08948041 -0.13169195 0.13524488 0.014975488 -0.17255992 0.13043329 0.1185233 0.16745904
0.04633435 0.0591423 0.027838478 -0.0051825363 0.029987147 0.031829942 0.06618444 0.081859805
0.13007486 -0.009258377 0.14067306 -0.039132014 -0.01383249 -0.0066037737 -0.020621816 -0.058581863
-0.05191492 -0.04374777 -0.09708979 0.012599138 0.20290217 0.07218136 0.16244534 0.049218614
-0.16002044 -0.09494176 -0.014374951 0.16509347 0.0336015 -0.03117573 0.1395367 0.05395012
0.10616854 -0.14502938 0.10924404 0.10066307 0.0073026293 -0.05504923 -0.09240208 -0.02845913
0.13770242 0.0020112055 -0.018321332 -0.1829537 0.14703922 0.14792366 0.07420303 0.020875946
0.0063156793 -0.059319697 0.047278505 -0.059737455 0.052783 0.03786726 -0.15410124 -0.08669307
-0.13620257 -0.032333054 -0.11143626 -0.07347101 -0.15640332 -0.1836866 -0.10314796 0.062216334
-0.066961624 -0.07257725 -0.06459059 -0.13015634 -0.075677425 0.12519746 0.15671322 -0.0817963
-0.041642245 -0.16750342 0.17568257 0.054344125 -0.13599977 -0.1409764 -0.009887292 0.1730159
-0.106676914 0.0022172825 0.13439658 0.116159305 -0.002561559 -0.028336843 -0.091868095 -0.0833573
-0.10203381 -0.14840277 -0.08750385 -0.10325417 -0.023030829 0.08297456 -0.06703593 -0.14910085
-0.057987697 0.1413076 -0.09569062 0.07426772 0.02115424 -0.1716532 -0.15826434 -0.1366121
0.057851464 -0.13555202 0.12747437 -0.05542031 -0.17184165 0.024936136 0.058831733 -0.003346804
0.048381183 0.13369314 0.034742463 0.14381313 0.13506019 -0.0515928 0.12815312 -0.16312563
-0.017010365 0.14574 0.086051054 0.070496835 -0.11423936 -0.010816754 -0.17244217 0.15160547
0.10259255 -0.023884203 -0.15993938 0.05094166 -0.0076506822 0.14570802 -0.003344007 -0.1342916
0.113846555 -0.08114012 0.0135235125 -0.17124808 -0.035769522 0.18896176 -0.19686398 -0.05365797
-0.029201977 -0.17121103 0.0027221704 -0.0894641 -0.10926585 -0.10761172 -0.008554717 -0.1352103
0.008800376 -0.01600513 -0.1214262 0.03395629 0.15026058 0.11370465 -0.062112663 0.07487036
-0.13446873 -0.13507704 0.12996629 0.04612282 0.10436898 0.13084634 0.10508888 -0.06795751
0.00047926157 -0.13317293 -0.011010181 -0.08655431 0.10002524 0.123076074 0.0532016 -0.107748225
-0.14903167 0.097938985 -0.16131908 0.103337765 0.13548267 0.16212864 -0.11393908 -0.012575362
0.15396659 -0.10010899 0.022008726 -0.114658155 -0.023333048 -0.061952934 -0.081467845 -0.15982585
-0.14023687 0.09628786 -0.16379161 -0.07225687 -0.10202229 -0.06476605 0.032221932 -0.04224374
0.15306492 0.17453729 0.090750635 -0.098039955 -0.091124244 0.04533022 -0.1680747 -0.03116522
-0.14277518 0.025848608 -0.019485971 -0.019840159 -0.14458466 -0.15186353 0.045660675 -0.10192833
-0.1692765 0.032019466 0.08467891 -0.048078857 -0.07824016 -0.074861825 -0.15078084 -0.14964049
0.16974907 -0.07690521 -0.05540049 -0.14845565 -0.13551818 -0.046613663 0.105096795 -0.052460708
00000000: 2247 05be 8e1a 863d a115 00be 0cec ad3c
00000010: 93df cbbd 8839 8abd a625 e23d ba64 05be
00000020: 082f 983d f53e ad3d 33dd 8ebc 535b d9bc
00000030: 19ef 20be 7321 a93d 4c33 01be a30e 683c
00000040: 8141 b7bd 41da 06be a27d 0a3e c05b 753c
00000050: 8cb3 30be 4e90 053e 58bc f23d 627a 2b3e
00000060: 16c9 3d3d 323f 723d 850d e43c 44d2 a9bb
00000070: 9ba7 f53c 1d60 023d b58b 873d 1da6 a73d
00000080: 5832 053e 73b0 17bc 990c 103e e448 20bd
00000090: aba1 62bc 7864 d8bb 15ef a8bc 89f3 6fbd
000000a0: bda4 54bd dd30 33bd 03d7 c6bd 9d6c 4e3c
000000b0: 96c5 4f3e d2d3 933d 1258 263e 7599 493d
000000c0: 66dc 23be d370 c2bd ea84 6bbc 430e 293e
000000d0: baa1 093d 3f64 ffbc b5e2 0e3e cdfa 5c3d
000000e0: e46e d93d 9582 14be 57bb df3d 7128 ce3d
000000f0: e54a ef3b 4d7b 61bd 4d3d bdbd 1f23 e9bc
00000100: dd01 0d3e 6ece 033b 9e16 96bc 3758 3bbe
00000110: 7391 163e 4d79 173e c2f7 973d 0804 ab3c
00000120: c2f3 ce3b 36f9 72bd 1ba7 413d 43af 74bd
00000130: fd32 583d b31a 1b3d b7cc 1dbe 238c b1bd
00000140: b078 0bbe aa6f 04bd b238 e4bd f877 96bd
00000150: 3128 20be 5718 3cbe 3d3f d3bd 8ed6 7e3d
00000160: 2d23 89bd 62a3 94bd 1248 84bd b447 05be
00000170: c4fc 9abd c333 003e 6e79 203e d284 a7bd
00000180: 0f91 2abd 0486 2bbe 22e6 333e f297 5e3d
00000190: 8643 0bbe 1e5c 10be 4ffe 21bc 152b 313e
000001a0: 6d79 dabd d44f 113b 429f 093e eee4 ed3d
000001b0: d4df 27bb ab22 e8bc 5725 bcbd 3bb7 aabd
000001c0: 1af7 d0bd e5f6 17be 3835 b3bd ec76 d3bd
000001d0: 26ab bcbc 91ee a93d 224a 89bd e5ad 18be
000001e0: 8284 6dbd f1b2 103e 72f9 c3bd ad19 983d
000001f0: a84b ad3c dbc5 2fbe 0c10 22be 0be4 0bbe
00000200: a8f5 6c3d 26ce 0abe a488 023e 6800 63bd
00000210: 42f7 2fbe de46 cc3c 8bf9 703d 0e56 5bbb
00000220: 592b 463d dbe6 083e 1d4e 0e3d c043 133e
00000230: 384d 0a3e f952 53bd 923a 033e 680a 27be
00000240: 5259 8bbc de3c 153e 893b b03d a560 903d
00000250: 53f6 e9bd c138 31bc ae94 30be 773e 1b3e
00000260: 0b1c d23d cea8 c3bc 26c7 23be 34a8 503d
00000270: 93b2 fabb 7c34 153e 2127 5bbb bd83 09be
00000280: 6228 e93d cb2c a6bd b991 5d3c a85b 2fbe
00000290: 1083 12bd 317f 413e b696 49be 76c8 5bbd
000002a0: fc38 efbc f251 2fbe 7166 323b f438 b7bd
000002b0: c6c6 dfbd 8963 dcbd 1529 0cbc 9274 0abe
000002c0: 742f 103c 311d 83bc 4dae f8bd c015 0b3d
000002d0: e9dd 193e fcdd e83d d969 7ebd a255 993d
000002e0: 2cb2 09be a351 0abe e215 053e 48eb 3c3d
000002f0: 67bf d53d 95fc 053e d738 d73d 4f2d 8bbd
00000300: 6645 fb39 7c5e 08be 0c64 34bc 6343 b1bd
00000310: 08da cc3d 4f0f fc3d ece9 593d 1aab dcbd
00000320: c29b 18be 3c94 c83d d430 25be c0a2 d33d
00000330: f8bb 0a3e 0d05 263e e458 e9bd e408 4ebc
00000340: 6ba9 1d3e f105 cdbd a54b b43c e5d1 eabd
00000350: f324 bfbc 5cc2 7dbd 9dd8 a6bd 63a9 23be
00000360: 419a 0fbe 9232 c53d fdb8 27be 69fb 93bd
00000370: 10f1 d0bd 10a4 84bd 25fb 033d c607 2dbd
00000380: 0dbd 1c3e e7b9 323e 78db b93d 2cc9 c8bd
00000390: 599f babd 2eac 393d c61b 2cbe 344e ffbc
000003a0: a833 12be 76c0 d33c 0ba1 9fbc d487 a2bc
000003b0: 000e 14be 1d82 1bbe b006 3b3d cdbf d0bd
000003c0: d256 2dbe d826 033d 236c ad3d 56ee 44bd
000003d0: 613c a0bd 2851 99bd 4b66 1abe 5b3b 19be
000003e0: b3d2 2d3e 7b80 9dbd a0eb 62bd c204 18be
000003f0: 47c5 0abe f8ed 3ebd fd3c d73d 0ae1 56bd

mlp2.2.bias f4 [32]
-0.18498169 0.25271988 0.1139487 0.03642579 0.082699336 0.13619146 -0.10610001 -0.019417567
-0.20578155 -0.07751341 0.1356314 -0.007771827 -0.0010192052 -0.1821501 0.17999052 -0.021899085
-0.17526045 -0.023089075 -0.067618385 0.07669899 0.13789777 0.22090451 -0.1480724 0.13991915
0.11788846 0.1323824 -0.15658249 0.0862887 -0.033188343 -0.16190167 -0.106996365 -0.19569468
00000000: d76b 3dbe 8064 813e f05d e93d 3633 153d
00000010: 455e a93d c675 0b3e f64a d9bd 9711 9fbc
00000020: 66b8 52be 5abf 9ebd f5e2 0a3e cfaa febb
00000030: da96 85ba 8e85 3abe 6f4f 383e b665 b3bc
00000040: 7a77 33be 4d25 bdbc 827b 8abd 5c14 9d3d
00000050: 1335 0d3e cb34 623e 4ba0 17be f746 0f3e
00000060: 816f f13d 408f 073e 2957 20be 21b8 b03d
00000070: 80f0 07bd 8dc9 25be e920 dbbd 3064 48be

conv1.apply_func.0.weight f4 [32, 9]
0.37386438 -0.10598293 -0.23476115 0.15566696 -0.22645013 0.07786686 0.03180127 -0.3182193
-0.09209061 -0.3181158 0.12630978 0.3610598 -0.115610994 -0.23706506 -0.058844686 0.28972948
-0.09803071 -0.007302508 0.3141188 -0.21595396 0.38817984 -0.24992767 0.22041802 -0.28405303
-0.12687849 -0.37295327 0.23837633 -0.20198871 0.26257023 0.29731527 -0.29123664 -0.023672106
-0.2970849 0.13274078 0.12861763 -0.24843334 0.09582804 0.23923627 -0.15718065 -0.19547786
-0.044672787 0.1993789 0.26825294 -0.06092221 -0.24516855 0.20925365 -0.34848896 -0.050843816
-0.21502884 -0.26703775 0.013090118 -0.04909967 -0.10224952 0.12547933 -0.3241042 -0.33218002
-0.11459401 0.033578902 0.013570331 0.20915623 0.2547326 0.03350363 0.031284787 -0.13130213
0.21450438 0.08596315 0.00038780848 0.3041786 -0.081946336 0.33123663 0.41938838 -0.15420295
0.15911269 0.0025205256 0.13839173 -0.2221119 -0.247386 0.0733392 0.10190121 -0.13908073
-0.18225428 -0.158018 -0.18856208 -0.1463488 0.32371044 -0.1909428 0.32144484 -0.03029079
-0.2839643 -0.31971702 -0.11503422 -0.20463803 0.120621055 -0.029903408 0.16821979 -0.3085953
-0.3341075 0.012509006 0.29604965 -0.008243215 0.027288659 -0.1032951 0.28967312 -0.26583743
0.07457305 0.0997738 -0.042319573 0.097198084 0.14705454 -0.30596197 0.06593962 -0.03818423
-0.003852208 0.303698 0.026801659 -0.23412085 0.1890481 -0.1710805 -0.16552089 0.18748406
0.2604152 -0.053695276 0.31352475 -0.10723442 -0.12549922 0.35127458 -0.112979695 0.086539604
0.11497762 0.22375824 0.19813389 -0.060687046 -0.20735756 -0.029024646 0.062289804 0.08799001
0.33187175 0.24417615 -0.28655815 -0.25154397 -0.0064897537 -0.33056635 -0.26381683 -0.25665802
-0.0017718844 0.3572819 -0.36162192 -0.2289159 -0.17242514 0.06755795 -0.3375 -0.2926792
-0.0952402 -0.029437268 0.17177011 0.21880011 0.034898475 0.07371813 -0.35049346 -0.069923274
0.20586015 0.30643287 0.18191998 0.2921303 -0.3188693 0.12388224 -0.35566556 -0.24810873
0.02699136 -0.27245203 -0.10180147 0.065794274 0.37929276 -0.41375235 0.20149331 -0.34274408
-0.15683228 -0.026433585 0.03188399 -0.0049685086 -0.068403415 0.1587191 -0.20778957 -0.2068668
0.28729334 -0.20997815 0.28588524 -0.25315526 -0.25212488 0.1936054 0.047091603 -0.23480853
-0.030067286 0.09656887 -0.12408912 -0.25233755 -0.27310202 -0.24694352 0.2589302 0.3531951
-0.17904212 -0.17833179 0.069760434 0.18447426 0.0740393 -0.10634175 0.28740886 0.06600845
0.19526951 0.27870914 0.30747902 0.06962984 0.20384477 -0.22086081 -0.17412443 -0.22820742
0.033467773 -0.16043258 -0.19889857 -0.027202092 0.29207885 -0.14139666 0.2932711 0.17007954
-0.1192772 -0.12307577 -0.36249855 0.40455824 0.20750804 -0.03603205 -0.0055346885 0.06984643
-0.10084773 0.021361444 -0.24565366 -0.1285706 -0.11120146 0.28541636 -0.2083114 -0.39900166
0.22388214 0.15290387 0.22259055 -0.15866649 -0.017469754 0.109381475 0.23380724 0.1472219
0.05860649 0.008208956 -0.23702127 0.33548054 0.19111563 0.24542569 0.14257592 0.18609588
00000000: 276b bf3e 940d d9bd 3a65 70be 2967 1f3e
00000010: 8be2 67be a978 9f3d 0c42 023d a4ed a2be
00000020: 009a bcbd 13e0 a2be 5a57 013e d5dc b83e
00000030: 75c5 ecbd 2fc1 72be 2007 71bd 6c57 943e
00000040: 53c4 c8bd e149 efbb 2ed4 a03e 0923 5dbe
00000050: 82bf c63e 0aed 7fbe 43b5 613e 666f 91be
00000060: 6fec 01be bbf3 bebe ed18 743e 21d6 4ebe
00000070: 9b6f 863e b539 983e f81c 95be 01ec c1bc
00000080: 831b 98be 33ed 073e 57b4 033e 4f65 7ebe
00000090: 7e41 c43d 5afa 743e f7f3 20be 592b 48be
000000a0: d0fa 36bd fb29 4c3e 7358 893e 9189 79bd
000000b0: 770d 7bbe 9746 563e 256d b2be 9b41 50bd
000000c0: 8530 5cbe 2cb9 88be ef77 563c bc1c 49bd
000000d0: 3268 d1bd a77d 003e fcf0 a5be 8013 aabe
000000e0: 44b0 eabd 088a 093d 1856 5e3c 0d2d 563e
000000f0: 506c 823e 1a3b 093d 7a24 003d 1174 06be
00000100: 09a7 5b3e 730d b03d c652 cb39 4cbd 9b3e
00000110: 7bd3 a7bd d997 a93e 13ba d63e 61e7 1dbe
00000120: 70ee 223e 672f 253b 90b6 0d3e 4d71 63be
00000130: c152 7dbe dd32 963d 95b1 d03d 2e6b 0ebe
00000140: dea0 3abe 78cf 21be 6b16 41be 76dc 15be
00000150: 60bd a53e 8286 43be 6b94 a43e 6424 f8bc
00000160: c563 91be f3b1 a3be 1097 ebbd a28c 51be
00000170: 2c08 f73d fef7 f4bc cf41 2c3e 3400 9ebe
00000180: 2310 abbe 93f2 4c3c d293 973e 8d0e 07bc
00000190: 778c df3c 628c d3bd 0950 943e d81b 88be
000001a0: c1b9 983d 3556 cc3d 4a57 2dbd ca0f c73d
000001b0: 7795 163e 0ca7 9cbe 5a0b 873d 1167 1cbd
000001c0: 5375 7cbb 4e7e 9b3e 278f db3c 60bd 6fbe
000001d0: d395 413e ba2f 2fbe 4f7e 29be d2fb 3f3e
000001e0: 2455 853e 94ef 5bbd 5186 a03e b89d dbbd
000001f0: de82 00be 43da b33e e661 e7bd ad3b b13d
00000200: 6379 eb3d e120 653e 9ce3 4a3e fb92 78bd
00000210: 8a55 54be 18c5 edbc 9823 7f3d 1b34 b43d
00000220: 18eb a93e 5009 7a3e c0b7 92be 5fca 80be
00000230: 00a8 d4bb fe3f a9be 0013 87be ae68 83be
00000240: 933e e8ba a7ed b63e 8226 b9be ee68 6abe
00000250: 3790 30be d35b 8a3d cdcc acbe 0cda 95be
00000260: 4b0d c3bd 6d26 f1bc 81e4 2f3e 230d 603e
00000270: b4f1 0e3d 88f9 963d e173 b3be ef33 8fbd
00000280: 01cd 523e c5e4 9c3e 3b49 3a3e 1a92 953e
00000290: d642 a3be f9b5 fd3d cc19 b6be 3710 7ebe
000002a0: fc1c dd3c d57e 8bbe 4a7d d0bd 26bf 863d
000002b0: a932 c23e 59d7 d3be 4354 4e3e 277c afbe
000002c0: a498 20be 3f8b d8bc c998 023d dfce a2bb
000002d0: 1717 8cbd 4287 223e cac6 54be e4d4 53be
000002e0: 1d18 933e 8304 57be 8d5f 923e 919d 81be
000002f0: 8316 81be 7e40 463e 20e3 403d a671 70be
00000300: ab4f f6bc e6c5 c53d 7022 febd 6332 81be
00000310: 07d4 8bbe c3de 7cbe 8092 843e fdd5 b43e
00000320: d156 37be 9c9c 36be 8fde 8e3d d2e6 3c3e
00000330: eba1 973d b4c9 d9bd 4127 933e 702f 873d
00000340: bbf4 473e f7b2 8e3e e46d 9d3e 179a 8e3d
00000350: afbc 503e 5629 62be ad4d 32be 35af 69be
00000360: 8115 093d 7048 24be 11ac 4bbe ecd6 debc
00000370: 5c8b 953e 49ca 10be a127 963e 5529 2e3e
00000380: 9b47 f4bd 260f fcbd 6999 b9be 4222 cf3e
00000390: fd7c 543e 5896 13bd 555c b5bb a50b 8f3d
000003a0: 4189 cebd 32fe ae3c a28c 7bbe 03a8 03be
000003b0: 97bd e3bd 1822 923e 954f 55be f249 ccbe
000003c0: 5c41 653e d592 1c3e c7ee 633e 7879 22be
000003d0: bb1c 8fbc 6503 e03d 2a6b 6f3e 56c1 163e
000003e0: 5c0d 703d db7e 063c b4b5 72be 1bc4 ab3e
000003f0: d1b3 433e df50 7b3e 6cff 113e eb8f 3e3e

conv1.apply_func.0.bias f4 [32]
-0.21206537 0.26401317 -0.23739867 0.042968526 -0.12654349 0.23765725 0.39331067 0.23367642
0.2273816 -0.2247159 -0.2052055 0.15173012 0.12374138 0.15144485 0.32505152 -0.01863563
0.021024669 0.045317557 -0.20149414 -0.13233466 -0.2319191 0.1562388 -0.12853047 0.012738486
-0.1886357 0.28128827 -0.19590926 -0.120696604 -0.17879234 -0.36271346 0.23885092 0.44397527
00000000: aa27 59be bc2c 873e a318 73be c4ff 2f3d
00000010: 9e94 01be 6c5c 733e 0460 c93e df48 6f3e
00000020: b9d6 683e ed1b 66be 6421 52be 245f 1b3e
00000030: 1f6c fd3d 5c14 1b3e 276d a63e c0a9 98bc
00000040: ed3b ac3c e79e 393d 7b54 4ebe bd82 07be
00000050: 337c 6dbe 10fd 1f3e 7e9d 03be 15b5 503c
00000060: b829 41be 0405 903e 709c 48be c82f f7bd
00000070: 5715 37be 94b5 b9be 5695 743e ba50 e33e

conv1.apply_func.2.weight f4 [32, 32]
0.07498166 0.07188704 -0.021818278 -0.0930374 -0.15100873 -0.16750614 0.06860364 -0.046448316
-0.17193201 -0.053956762 0.04921278 0.09843486 0.13236055 -0.08178375 0.0151452515 0.05249786
-0.16236913 0.11724899 0.05546736 -0.15355875 0.13737525 0.10312628 -0.1460587 0.02678052
-0.10035373 -0.016562032 0.030464211 -0.16439235 0.08006578 0.04854852 0.11203532 -0.07776704
0.078840956 0.2124409 0.13536641 -0.025142599 0.020237142 -0.15810901 0.11316042 0.20553309
-0.04609119 0.02529815 -0.017909285 -0.09329041 0.1291516 -0.079020664 0.12768169 -0.17171803
-0.089662984 0.017923817 -0.01382899 -0.02994979 -0.07067051 0.030744502 -0.08877546 -0.15940912
0.00040557035 0.11537176 -0.005689708 0.14597225 -0.08155436 -0.067993805 0.07241585 0.1312622
0.018365787 -0.06916697 -0.07022384 -0.17582807 0.12710312 0.16622925 -0.16948591 -0.04110618
0.0047594463 -0.008406186 -0.15333371 -0.08805025 -0.031901255 0.16562381 -0.24020123 0.087117136
-0.027706526 0.07248762 0.03366638 0.06476985 0.08005287 0.07743246 -0.087751664 0.12017867
0.15777913 -0.051696543 -0.088123694 -0.15389533 -0.03740473 0.13415094 0.15842365 -0.16451535
-0.16147338 -0.045363285 0.13700458 0.100384876 -0.062282313 -0.09505567 -0.114620626 0.0626539
0.027975757 0.1248315 0.15458557 -0.1339158 -0.030435784 -0.019648459 0.17456913 -0.121892564
0.110061415 -0.051494915 0.11954024 0.10487196 -0.054728378 -0.1733374 0.05788119 0.067331195
-0.06863684 -0.042615335 -0.12836407 -0.15320083 -0.15273346 0.17612931 0.105899386 -0.09074523
0.12154863 0.17118815 0.16876851 0.030134927 -0.037288766 -0.07803962 -0.15241039 -0.11073959
0.04614553 -0.1320038 -0.023140956 -0.06930675 -0.033316605 -0.018493934 0.15897122 -0.024019467
0.055321723 -0.044779535 -0.119508125 -0.030828774 -0.09127565 -0.1493848 0.10953623 0.17044279
-0.091398984 5.7097284e-05 -0.068959445 -0.081052504 -0.13620567 -0.06485472 0.042385902 0.16080293
0.04046727 0.14837293 -0.14779288 -0.11115376 -0.061731175 0.1372763 -0.12094475 0.12711047
-0.16137461 0.10216552 -0.067270845 0.17345394 -0.12087323 -0.043125838 -0.18140216 0.11844834
-0.0075054076 -0.031580243 0.13901378 -0.04986447 -0.059902474 0.16396038 0.13949051 0.16949803
0.13920416 0.07682618 -0.15423606 -0.067060046 -0.02380254 -0.15262423 0.07226225 -0.086130865
-0.07135737 0.20180911 0.19081394 0.17292926 0.08670673 -0.019496417 -0.07913019 0.04805112
0.016805366 -0.07252561 -0.12255377 0.12304596 -0.12166599 0.09754832 0.12481952 -0.09199824
-0.18603842 -0.14172162 -0.06754709 -0.0133086005 -0.11901609 0.17205782 0.051584046 -0.10411018
-0.0101917535 0.060682677 -0.017230505 -0.066034414 0.13812879 0.11449816 0.05616261 0.112026475
0.054473173 0.246225 -0.08827905 -0.06276169 -0.12144551 0.049505472 0.15270896 0.13180283
0.054034468 0.075002484 0.049559988 -0.023544515 -0.055163268 0.021962427 0.08507307 0.04437098
0.122361496 -0.05841553 0.13326019 0.12137878 -0.084954016 0.024684418 -0.11836263 -0.027682928
-0.09852131 -0.12711065 0.117431715 -0.050645296 0.044609316 -0.13202366 0.15236278 0.13960578
00000000: fc8f 993d 8339 933d 3fbc b2bc 648a bebd
00000010: 08a2 1abe bb86 2bbe 1180 8c3d 9740 3ebd
00000020: f20e 30be c401 5dbd 5793 493d 3798 c93d
00000030: 8689 073e 3d7e a7bd ca23 783c ff07 573d
00000040: 1844 26be 3d20 f03d be31 633d 813e 1dbe
00000050: 19ac 0c3e df33 d33d 6990 15be d262 db3c
00000060: 4286 cdbd 19ad 87bc 1590 f93c 7856 28be
00000070: 87f9 a33d d0da 463d c672 e53d 5344 9fbd
00000080: 5e77 a13d 1b8a 593e 7e9d 0a3e daf7 cdbc
00000090: 5dc8 a53c 54e7 21be a6c0 e73d 4477 523e
000000a0: 1eca 3cbd 113e cf3c 7eb6 92bc 0b0f bfbd
000000b0: 5140 043e 96d5 a1bd fdbe 023e dad6 2fbe
000000c0: 3aa1 b7bd f8d4 923c fd92 62bc 4359 f5bc
000000d0: b3bb 90bd e5db fb3c e9cf b5bd 253c 23be
000000e0: bba2 d439 0848 ec3d bb70 babb c079 153e
000000f0: f905 a7bd 5640 8bbd c34e 943d 9969 063e
00000100: d973 963c 6aa7 8dbd 84d1 8fbd 460c 34be
00000110: 5227 023e 0038 2a3e b78d 2dbe f45e 28bd
00000120: 21f5 9b3b 19ba 09bc 8303 1dbe b153 b4bd
00000130: e4aa 02bd 4a99 293e 50f7 75be 786a b23d
00000140: ccf8 e2bc 6474 943d c2e5 093d 0ea6 843d
00000150: c2f2 a33d e994 9e3d 25b7 b3bd 3c20 f63d
00000160: da90 213e c1bf 53bd 327a b4bd bd96 1dbe
00000170: b435 19bd dd5e 093e cf39 223e b676 28be
00000180: 4759 25be dace 39bd ee4a 0c3e 9696 cd3d
00000190: bd1b 7fbd 8cac c2bd 38be eabd b050 803d
000001a0: 6a2d e53c a8a7 ff3d ae4b 1e3e 3921 09be
000001b0: 7754 f9bc cef5 a0bc 40c2 323e cfa2 f9bd
000001c0: e167 e13d 55ec 52bd 83d1 f43d 1cc7 d63d
000001d0: dd2a 60bd 5c7f 31be d414 6d3d f0e4 893d
000001e0: 7991 8cbd 6b8d 2ebd df71 03be aee0 1cbe
000001f0: 2966 1cbe 3e5b 343e c7e1 d83d a3d8 b9bd
00000200: 7dee f83d f24b 2f3e a7d1 2c3e 86dd f63c
00000210: 1bbc 18bd 3cd3 9fbd 7811 1cbe 70cb e2bd
00000220: 1803 3d3d 012c 07be 1a92 bdbc b3f0 8dbd
00000230: fe76 08bd 9780 97bc 5ac9 223e 79c4 c4bc
00000240: 0899 623d bf6a 37bd adc0 f4bd a08c fcbc
00000250: baee babd 54f8 18be 8854 e03d 8e88 2e3e
00000260: 642f bbbd be7b 6f38 9c3a 8dbd dbfe a5bd
00000270: 8079 0bbe 8dd2 84bd d79c 2d3d 86a9 243e
00000280: 02c1 253d 13ef 173e 0457 17be 95a4 e3bd
00000290: d4d9 7cbd 2992 0c3e e2b1 f7bd 3f29 023e
000002a0: 633f 25be 283c d13d 4cc5 89bd e99d 313e
000002b0: 628c f7bd b8a4 30bd 7dc1 39be 0b95 f23d
000002c0: ecef f5bb 495a 01bd a159 0e3e b03e 4cbd
000002d0: 4c5c 75bd 3be5 273e 9ad6 0e3e e490 2d3e
000002e0: 898b 0e3e 0b57 9d3d 0ff0 1dbe c756 89bd
000002f0: 8bfd c2bc 8749 1cbe 3bfe 933d 6165 b0bd
00000300: d023 92bd 0ca7 4e3e bb64 433e 5e14 313e
00000310: 4c93 b13d f3b6 9fbc 020f a2bd 40d1 443d
00000320: 68ab 893c 4f88 94bd 79fd fabd 85ff fb3d
00000330: 052c f9bd 6ac7 c73d 60a1 ff3d 9369 bcbd
00000340: db80 3ebe 791f 11be 2156 8abd 510c 5abc
00000350: b5be f3bd ed2f 303e cb49 533d b837 d5bd
00000360: 50fb 26bc 668e 783d fd26 8dbc 0d3d 87bd
00000370: a271 0d3e 037e ea3d c40a 663d 236e e53d
00000380: 431f 5f3d 6822 7c3e a6cb b4bd 3389 80bd
00000390: 6cb8 f8bd 40c6 4a3d bd5f 1c3e 52f7 063e
000003a0: 3f53 5d3d e79a 993d 6aff 4a3d 6de0 c0bc
000003b0: e1f2 61bd 8cea b33c ca3a ae3d 58be 353d
000003c0: aa98 fa3d 1f45 6fbd 5c75 083e 7095 f83d
000003d0: 5ffc adbd fa36 ca3c 1b68 f2bd 4fc7 e2bc
000003e0: 8ac5 c9bd 4b29 02be 0a80 f03d 7171 4fbd
000003f0: 42b8 363d 3631 07be fd04 1c3e d1f4 0e3e

conv1.apply_func.2.bias f4 [32]
-0.08687905 0.049635347 -0.024270719 -0.11909528 0.056894958 0.14640638 0.008706001 0.1933037
-0.013565517 0.096552245 0.13794236 -0.09485867 -0.13801707 -0.20538744 0.26119602 0.04559282
0.14861247 0.19196714 -0.0451148 0.28767207 0.22841409 -0.086321294 -0.11711859 0.25234705
0.025064902 0.22900155 0.16432995 -0.21292216 -0.008579342 0.023504252 -0.03255901 -0.15289687
00000000: a5ed b1bd 6f4e 4b3d 63d3 c6bc 3ae8 f3bd
00000010: b00a 693d 8eeb 153e 9da3 0e3c 68f1 453e
00000020: e741 5ebc 2fbd c53d c340 0d3e 4345 c2bd
00000030: 5954 0dbe 1651 52be 7cbb 853e 89bf 3a3d
00000040: de2d 183e 0993 443e 4cca 38bd c149 933e
00000050: 62e5 693e 38c9 b0bd dfdb efbd a233 813e
00000060: e954 cd3c 627f 6a3e 1c46 283e 4408 5abe
00000070: 5e90 0cbc fd8b c03c 995c 05bd ff90 1cbe

conv2.apply_func.0.weight f4 [32, 32]
-0.05738456 0.12458133 0.14094977 0.008653981 0.12145223 -0.04408205 -0.16075596 0.09483723
0.0016434931 -0.057126313 0.09910103 0.011907958 0.010930763 0.1334263 -0.034522016 0.051529866
0.16745803 -0.066341005 -0.11508767 0.09750452 0.05993352 0.074472785 0.15379405 -0.0035708616
-0.012409545 -0.03980652 -0.12313961 0.14137776 -0.020803584 -0.003708459 0.17186353 0.13299192
-0.16209681 -0.055771932 -0.057548802 0.17102179 0.011886064 0.041078467 -0.054080855 0.16020207
-0.16840136 0.015534865 -0.102597415 0.072448745 -0.08026674 -0.17383644 -0.13415635 -0.115514375
0.02602964 -0.12589514 -0.12219632 0.13487726 0.129658 -0.14894526 0.16181682 -0.0054901536
-0.04483158 0.09481054 -0.00368865 0.040965136 0.083722144 -0.083668955 0.04728063 -0.14081009
0.1381735 0.12163298 0.06985066 0.12298253 0.1374982 -0.14635706 -0.10266421 -0.12962456
-0.018214766 0.10582557 -0.06537647 0.15439773 -0.16323368 0.10612347 0.07056078 0.041323483
-0.12806697 0.21270211 -0.16835105 -0.12058779 -0.057750523 -0.092946865 -0.0021284278 0.09455564
0.077763915 0.016300166 -0.09755387 -0.053310256 0.011068362 -0.08655768 0.22557537 0.08248032
-0.00030885483 -0.012258354 -0.1949087 0.08115046 0.1211941 -0.063883305 -0.114586055 0.12766553
-0.045503967 0.048818465 -0.18595952 0.08285921 0.032529958 -0.06239006 0.033506416 0.12768155
-0.05250039 0.061163843 -0.09920585 0.12489623 -0.03615408 -0.011689976 -0.08013207 0.073344186
0.022456355 0.01858509 -0.14700729 0.05544694 0.059861142 -0.081919946 0.12173764 0.16264562
0.054879304 -0.08523549 -0.1656631 0.061853282 0.06055908 0.12449197 0.12796165 -0.17402324
-0.029922217 -0.047689073 -0.035978023 -0.15885119 -0.12543727 0.060330935 -0.16562589 -0.026858542
0.033896435 0.025775537 -0.1757721 0.034980725 -0.011296578 0.135443 -0.10542948 -0.0991635
0.12177373 -0.034542672 -0.09970625 0.10951144 0.043980174 -0.05262801 0.14511824 -0.08681981
0.04830787 -0.027524559 0.038927533 0.13885953 0.05948955 -0.03872982 -0.08233897 0.1404959
0.13826552 0.083211 -0.019683553 -0.04910151 0.045664683 0.13930681 -0.1277447 -0.22830963
0.100179255 -0.093212925 0.01645388 -0.050835658 -0.003662413 0.08043517 -0.1064037 -0.029214403
-0.16330695 0.1130853 0.086955935 -0.12511638 0.1535883 -0.11074387 0.05547373 -0.162013
-0.14797102 -0.1578255 0.033145156 0.10850997 -0.17432101 0.11876361 -0.17006531 -0.038241588
0.10963537 -0.14388955 -0.018288873 0.033518814 0.05496752 0.046099372 -0.14114547 -0.035470426
-0.10053626 0.0839621 0.09069384 -0.12651195 -0.16438292 0.12959717 -0.06707899 0.1587284
0.17404689 0.10867105 0.059756532 -0.103277095 0.079634294 0.11305453 -0.09674541 0.09497085
-0.09736584 -0.061881095 0.058666274 -0.16121729 -0.011146997 0.03546339 0.08441795 0.09263316
0.037429288 0.008881626 0.11425456 -0.18023673 -0.14588042 -0.04488454 -0.14410026 0.05653184
0.021661906 0.21528275 0.06105811 0.17522901 0.017319962 -0.14204727 0.13881518 -0.0022465296
-0.04356064 0.10843993 -0.13317108 -0.091688104 0.059920482 -0.076610796 -0.06857257 0.086500816
00000000: 130c 6bbd 7f24 ff3d 2355 103e 6dc9 0d3c
00000010: f2bb f83d 618f 34bd 369d 24be 063a c23d
00000020: 7a6a d73a 48fd 69bd 7bf5 ca3d 9919 433c
00000030: f116 333c e7a0 083e f566 0dbd fb10 533d
00000040: 1e7a 2b3e cbdd 87bd 16b3 ebbd 73b0 c73d
00000050: da7c 753d 3085 983d 307c 1d3e 1e05 6abb
00000060: 6751 4bbc 290c 23bd 9f30 fcbd 55c5 103e
00000070: 476c aabc 9e09 73bb fefc 2f3e 092f 083e
00000080: b5fc 25be 1c71 64bd 4bb8 6bbd 5620 2f3e
00000090: c4bd 423c e541 283d e383 5dbd 030c 243e
000000a0: 6871 2cbe f285 7e3c 981e d2bd 0260 943d
000000b0: e362 a4bd 2e02 32be 4860 09be cd92 ecbd
000000c0: 1d3c d53c a8ea 00be 1042 fabd 441d 0a3e
000000d0: 11c5 043e 1b85 18be 4fb3 253e bfe6 b3bb
000000e0: 52a1 37bd 072c c23d 47bd 71bb 0fcb 273d
000000f0: 8476 ab3d a15a abbd 55a9 413d 8530 10be
00000100: 5b7d 0d3e b61a f93d dd0d 8f3d 44de fb3d
00000110: 54cc 0c3e a0de 15be 9d41 d2bd 4dbc 04be
00000120: 2237 95bc 14bb d83d 19e4 85bd 701a 1e3e
00000130: bb26 27be 4357 d93d 2c82 903d d042 293d
00000140: fd23 03be 95ce 593e 3864 2cbe bbf6 f6bd
00000150: d08b 6cbd ed5a bebd 187d 0bbb 63a6 c13d
00000160: b042 9f3d ed87 853c 53ca c7bd db5b 5abd
00000170: 1358 353c 2745 b1bd 3bfd 663e 71eb a83d
00000180: cbed a1b9 43d7 48bc 2596 47be 3632 a63d
00000190: 9d34 f83d 40d5 82bd 18ac eabd c1ba 023e
000001a0: 5e62 3abd dff5 473d 2c6c 3ebe 17b2 a93d
000001b0: 223e 053d b88c 7fbd 063e 093d f4be 023e
000001c0: a60a 57bd f086 7a3d 702c cbbd 98c9 ff3d
000001d0: 4d16 14bd 5087 3fbc 481c a4bd 7a35 963d
000001e0: 64f6 b73c c23f 983c 1489 16be 551c 633d
000001f0: f530 753d a5c5 a7bd 9551 f93d 938c 263e
00000200: 1fc9 603d f28f aebd 96a3 29be de59 7d3d
00000210: cc0c 783d a5f5 fe3d 6108 033e 2633 32be
00000220: 701f f5bc 9e55 43bd b15d 13bd e3a9 22be
00000230: a172 00be 921d 773d d599 29be 7206 dcbc
00000240: fdd6 0a3d 3827 d33c 9afd 33be f347 0f3d
00000250: 4815 39bc 92b1 0a3e 69eb d7bd 3c16 cbbd
00000260: 8164 f93d 9e7c 0dbd ca32 ccbd 8947 e03d
00000270: 8e24 343d 7890 57bd e099 143e 96ce b1bd
00000280: 79de 453d 2f7b e1bc 7a72 1f3d 3131 0e3e
00000290: 50ab 733d 29a3 1ebd 55a1 a8bd 28de 0f3e
000002a0: 7a95 0d3e 876a aa3d 673f a1bc aa1e 49bd
000002b0: e40a 3b3d 72a6 0e3e 82cf 02be 00ca 69be
000002c0: c82a cd3d 6be6 bebd 4aca 863c 0d39 50bd
000002d0: 1805 70bb 32bb a43d 2fea d9bd 0b53 efbc
000002e0: f039 27be 4499 e73d f415 b23d 821e 00be
000002f0: 4046 1d3e afcd e2bd 6c38 633d bce6 25be
00000300: b785 17be 029d 21be 37c3 073d 7a3a de3d
00000310: 3581 32be 563a f33d 9a25 2ebe 36a3 1cbd
00000320: 8288 e03d c857 13be 8cd2 95bc 064b 093d
00000330: 9f25 613d b2d2 3c3d 7088 10be 7049 11bd
00000340: f4e5 cdbd 52f4 ab3d b1bd b93d 598c 01be
00000350: ff53 28be 1fb5 043e b660 89bd b389 223e
00000360: 5939 323e ed8e de3d 44c3 743d f182 d3bd
00000370: 4e17 a33d 2289 e73d 7522 c6bd 1480 c23d
00000380: be67 c7bd 0877 7dbd 0c4c 703d 2516 25be
00000390: e5a1 36bc 0f42 113d 51e3 ac3d 74b6 bd3d
000003a0: 744f 193d 3d84 113c 4bfe e93d fa8f 38be
000003b0: ad61 15be dad8 37bd 058f 13be ee8d 673d
000003c0: 4f74 b13c 1573 5c3e 1218 7a3d 3c6f 333e
000003d0: 98e2 8d3c d774 11be 9125 0e3e 833a 13bb
000003e0: a46c 32bd c115 de3d 005e 08be f9c6 bbbd
000003f0: 2e6f 753d 1fe6 9cbd c76f 8cbd 5727 b13d

conv2.apply_func.0.bias f4 [32]
0.021108331 -0.1381035 -0.042895906 -0.050343756 -0.12648791 -0.15487258 -0.1475837 0.25135332
-0.11228265 0.17338656 -0.043055873 0.09597374 -0.1751494 -0.1157647 0.12421279 0.20297076
0.14564364 -0.14649938 -0.060686976 0.10866454 0.048695173 0.03301148 -0.108643994 0.075829685
0.16376452 -0.17593098 0.0066128667 0.12932356 0.06777194 -0.11471902 -0.086840294 0.07894227
00000000: 61eb ac3c 016b 0dbe 9eb3 2fbd 4135 4ebd
00000010: 0c86 01be eb96 1ebe 2e20 17be 62b1 803e
00000020: 72f4 e5bd 3f8c 313e 5b5b 30bd e18d c43d
00000030: 5d5a 33be 0b16 edbd 4663 fe3d 91d7 4f3e
00000040: 9b23 153e ef03 16be e892 78bd 848b de3d
00000050: 9774 473d 0c37 073d be80 debd 984c 9b3d
00000060: e3b1 273e 4027 34be bfb0 d83b 656d 043e
00000070: 04cc 8a3d cef1 eabd 53d9 b1bd 7cac a13d
