macros/Timing_estimation/models/February_10/run_1/epoch_8.pth (torch, 310606 bytes, 29 tensors)

mlp1.0.weight f4 [32, 9]
00000000: c428 5a3e 75b3 053e 61f0 7bbe 44c6 273d
00000010: 8a8f 0abe c039 a7be 63cb 88be 17a7 20be
00000020: 57d0 50be cba0 2ebc d8eb dfbd 5c8f f1bd
00000030: 00ad 4d3e a624 26be aa0e 92be fbca 2ebe
00000040: fd84 91be 1617 60bd 11f9 bdbd c478 6c3e
00000050: 2215 193e 7d59 2ebe 9e9c 0f3e 6e42 bf3d
00000060: 6fd1 c13e 5710 243e 191d 22be ded7 c3be
00000070: 31d1 93bd 2ec9 283e 5be0 32be a0b8 fbbd
00000080: 36e7 fd3b 7c67 873e c73b 023e 7242 0b3e
00000090: 6c52 b33e 3094 c3be aa53 1bbe e870 45bd
000000a0: 3954 003e 8b15 79be 6ba0 dbbc 3499 f33d
000000b0: 3f7d 283d 09ed 863e 6c71 bf3d 1601 143c
000000c0: b1cb 603e 0e73 82be 39e1 7abe d440 7ebe
000000d0: 9a42 11be 45af 40bd 698a 0ebe 293d 173e
000000e0: 1a42 9abc b368 54be b307 863e f714 9e3e
000000f0: be21 a9be 6489 f6bd c419 a03b 80c6 80be
00000100: 60e0 0abe b266 803e abb7 78bc abce b83d
00000110: 5b3d 10be 36c6 81be eb08 24be 7e8e 2dbe
00000120: 98a4 523e a68e a53e 6f4d 4a3e a915 49be
00000130: 7191 1b3d deee 7b3e 79d7 183e 1f9b a83e
00000140: 8200 99be 9886 e4be 7360 203e 589e a73e
00000150: 7fdb 743b 8b0c 8e3e 0440 2ebd 3e23 983e
00000160: 21e7 523e fd6c febd 6fb4 b33e edee 4e3e
00000170: df72 d0bd 6426 f339 55b4 573e f7f8 a23e
00000180: d775 9b3e a6ff 943e 930f 813e 7d2f 6f3e
00000190: 073b 523e ff9a 0cbe e700 893e 1efd 2e3d
000001a0: 494e 62be a92c f03d 8c42 06be fbbd 223e
000001b0: fb80 79be 5a88 cfbd 04f1 203e 9afc 4a3c
000001c0: 9b9c 363e 7d18 763d 5a0f b33c d9fe 82be
000001d0: 4a5c 22be c3c6 4f3e 6d84 5c3e 1b6c d43c
000001e0: df01 a2be 7857 b73d 5ee2 503e b803 99be
000001f0: a3f4 6c3e 8c87 633e 0e27 a2be 900d 073e
00000200: a352 5ebe 5559 97be 246a 153e a688 673e
00000210: 2f84 dabd be22 e73c b6d0 48be 561c 703c
00000220: 5241 3c3e 7138 babb 58e0 88be 3bcb b5bd
00000230: eb0a 873e 3436 463e f314 d6bc c1d3 b0be
00000240: 7ee4 55bd b027 6a3e feda d5bd dd46 38be
00000250: 0d0a 7b3e 21f9 71be d652 7a3b 2f25 993e
00000260: 03f3 f0bc f81e 49bd 0b7d a1be 44be 2e3e
00000270: 52ac a1be 5ed3 a2be 3363 b2bd 43c4 fc3d
00000280: 9034 30be 0d35 2bbe 9161 31bd 3dec 87bd
00000290: 7fe6 763d 497c d8bd 4cb2 8f3e 0020 29be
000002a0: 04e8 91bd 6e46 253e 3084 45be 2357 c1bb
000002b0: 8ef3 8f3e 0d8c 09bd 7106 8d3e 45cc a93e
000002c0: b44d 5b3e bc19 61be 30d9 433e 6340 94be
000002d0: f51a b0bd d741 773e e50f 76be 1693 64be
000002e0: fb98 9abe ca40 5dbd 5e19 52bc 1da6 25be
000002f0: 525f 853e 497a 813d 3732 67be d751 fb3d
00000300: d5ef 6d3e e4b2 61be 3f42 a03e c839 683d
00000310: e576 3ebe ac98 083e 3a2b a33d 13b9 a93d
00000320: a622 62be bdc1 b53c 5a8d 863e 6663 a2be
00000330: a50d 483c 5517 14be c91e debd 4cdc 083e
00000340: 4f8f 8cbe 5573 943d b880 4ebe 9d2f 1b3e
00000350: 1cc2 8b3e 1eef 74be b452 96be 3929 43be
00000360: fb88 443d f6b6 8dbe f3c6 6bbe 95f1 8a3e
00000370: c83b 593c 3375 3e3e 465b a93e ce8d 0a3e
00000380: ef56 a63e 9885 c9be c482 4abc 621f 35be
00000390: f927 8abe 09e3 683c 031b 603e 5e22 49be
000003a0: 3b7f 1e3e ea3d 073e ef7c b7be 81d8 6fbd
000003b0: 656e 67be 277d 643c 2b77 6c3e eee0 75be
000003c0: 48d3 693e 1cb4 edbd 3740 633e 80db 05be
000003d0: 6309 9bbd 7cea 2b3e e447 8cbe aa4a b0be
000003e0: bd8d a0be 2e98 263e 06d0 643e 2d3b 24be
000003f0: c9a9 7b3e a1e3 783b 045d 673d 3cbc 723d
0.21304613 0.13056739 -0.24603416 0.040960565 -0.13531318 -0.32661247 -0.26717672 -0.1568874
-0.20391975 -0.010658453 -0.109336555 -0.11794922 0.20085526 -0.16224918 -0.28526813 -0.17069618
-0.28421775 -0.054709516 -0.09276021 0.23092943 0.14949468 -0.17026325 0.14024588 0.09338842
0.37855098 0.16021858 -0.15831412 -0.3825063 -0.072176345 0.16482994 -0.17468397 -0.12291074
0.0077485098 0.2644614 0.12718116 0.13599566 0.3502382 -0.38198996 -0.15168634 -0.04820338
0.12532128 -0.24324624 -0.026809892 0.118944556 0.04113507 0.26352718 0.093478054 0.009033462
0.21952702 -0.25478405 -0.24499978 -0.24829417 -0.14185563 -0.04704215 -0.13919987 0.14769424
-0.018830348 -0.20743065 0.2617775 0.3087537 -0.33033556 -0.12037924 0.004885884 -0.25151443
-0.13562155 0.2507835 -0.015180509 0.09023794 -0.14085905 -0.25346535 -0.16019027 -0.16948888
0.205706 0.32335395 0.19756101 -0.19637169 0.0379805 0.2460284 0.14925946 0.32930848
-0.298832 -0.44633937 0.15661792 0.32737994 0.0037362275 0.27743945 -0.04254152 0.29714388
0.20595981 -0.124231316 0.35098597 0.2020833 -0.1017816 0.00046377175 0.21064885 0.3183057
0.30363342 0.29101294 0.25207195 0.23357959 0.2053033 -0.13731001 0.267585 0.04272186
-0.22100176 0.11727268 -0.13111323 0.15892784 -0.24365608 -0.10133429 0.1571694 0.0123893265
0.17833178 0.060081948 0.021857906 -0.25585058 -0.15855518 0.20290665 0.21534891 0.025930455
-0.31642053 0.0895223 0.20398852 -0.2988565 0.23140197 0.22219676 -0.3167042 0.13188767
-0.21711211 -0.29560342 0.1459127 0.22610721 -0.10669743 0.028214809 -0.19610867 0.014655193
0.18384293 -0.005682998 -0.2673366 -0.08876654 0.26375517 0.19356614 -0.026133036 -0.34536555
-0.05221986 0.22866702 -0.1044216 -0.17995782 0.24515553 -0.23630191 0.0038196347 0.2991118
-0.029412752 -0.0491018 -0.31540713 0.17064768 -0.31576782 -0.31801885 -0.08710327 0.123421215
-0.17207551 -0.16719456 -0.043305937 -0.06636856 0.060278412 -0.105705805 0.28065717 -0.16516113
-0.071243316 0.16140148 -0.19288707 -0.00590028 0.28115505 -0.03358083 0.27543977 0.33163658
0.2141636 -0.21982473 0.19125819 -0.28955373 -0.08598892 0.2414621 -0.24029501 -0.22321734
-0.3019484 -0.054016866 -0.012823431 -0.16176648 0.26049286 0.06322152 -0.22577749 0.12271469
0.2323602 -0.22040898 0.31300542 0.05669573 -0.18600042 0.1333949 0.07967229 0.08287253
-0.2208353 0.022187108 0.26279718 -0.3171646 0.012210284 -0.14462025 -0.108457156 0.13365287
-0.27453086 0.0724856 -0.2016629 0.15154882 0.2729653 -0.23919341 -0.29359972 -0.19058694
0.047982197 -0.2767865 -0.23025112 0.27137437 0.013258882 0.18599395 0.3307745 0.13530657
0.324882 -0.39359736 -0.0123602785 -0.17687753 -0.26983622 0.014214286 0.21885304 -0.19642016
0.15478222 0.13207212 -0.35837504 -0.058556084 -0.22600706 0.013945854 0.23092334 -0.24011585
0.22834504 -0.11606619 0.22192465 -0.13072014 -0.0757015 0.16788667 -0.27398598 -0.34431964
-0.31358138 0.1626899 0.2234498 -0.16038199 0.24576487 0.0037977474 0.05648519 0.059261546

mlp1.0.bias f4 [32]
00000000: 583e a03c 7dcc f2bd 2025 d23e 0775 23be
00000010: 5262 4d3e 120e 173e 0710 ec3d 6c72 9bbe
00000020: 8d67 85be 212f 093e 0e58 cebb 8138 3f3e
00000030: 49a2 64be 9e26 f2bc 3a48 f53d 2f4a 1bbe
00000040: 6cf0 fe3d 672c 793e 2259 f93d bb5d 95bd
00000050: b85d cebd 76c9 c6bd eebe e13d 0982 6dbe
00000060: 9b2d 883e 1d40 c03e 5aaf 41be 93bb 15be
00000070: f2c4 2dbe 18a1 2e3c ff44 e73c f4a4 16be
0.019560978 -0.11855409 0.4104395 -0.15962611 0.20057037 0.14751461 0.115264945 -0.30360734
-0.26055565 0.13396885 -0.006297118 0.18673898 -0.22327532 -0.02955943 0.11976667 -0.15165018
0.124482006 0.24333344 0.12175204 -0.07293268 -0.10076469 -0.097063944 0.11022745 -0.23194136
0.26597294 0.37548915 -0.18914548 -0.14622335 -0.1696966 0.010658525 0.028231142 -0.14711362

mlp1.2.weight f4 [32, 32]
00000000: 78fa d03d 8a0b 1abe 2577 133e ae11 4bbd
00000010: fab7 ad3d f2a8 ee3d db20 7c3d e49d 003e
00000020: 1062 0b3e bb86 0ebe 8962 8abd 9045 e83d
00000030: e639 13be a281 acbc aa1e 903d e700 2bbd
00000040: 4365 0a3e 2b8e 6dbd ec9b babd d794 833d
00000050: 099d e8bc e04b c03c b5b2 f13d ecbe c1bd
00000060: 64ab 933d ead6 7a3d e4a7 873c 5783 1ebe
00000070: 8db1 bb3c 0903 bd3d 63a1 35bd 9c57 d03d
00000080: 801e babd 138e 803c a1b2 1f3d 414e 17be
00000090: f5b6 17be f356 f0bd cbf9 be3d c188 96bd
000000a0: edc6 ff3d 3ac4 3bbd 8b6e b8bd 027c 983c
000000b0: c6fe e4bc 5125 93bd 0796 6abc f231 1fbe
000000c0: 9fe9 903d 5c71 393d 1282 2c3e a78b 1dbe
000000d0: 02ce f7bd ca69 21be a902 31be 4025 92bd
000000e0: 884b fe3d 620b 013e 6a66 44bd 8e48 d8bc
000000f0: 30d3 033e 5687 03be e86d 713c 6ffc 9a3d
00000100: f3f9 96bd b1b1 32be 0893 f63d 928e 0e3d
00000110: 1035 f73d 6666 173e 1413 1c3e 2655 01bd
00000120: 5eac 9d3d ce0e ba3d 2d19 173e 948d 1ebc
00000130: 1281 b8bc 5adc 233e 9883 523d f02a c1bd
00000140: adf6 04be d2cf 873c eaed 19be 7dfe ba3d
00000150: 4272 fb3d e489 47bd cda6 1ebd 2c75 8cbb
00000160: 67ab 1fbe cf3a 94bd af6e 9dbd bc41 0ebe
00000170: 4819 dc3d 806e 28bd 6282 e7bd 441c 253d
00000180: f9cf 12bd fc9c ffbd 89cf 3a3e 3ed5 1c3d
00000190: 6755 d0bd 93a6 10be 1e9d 32bd 7d6e febd
000001a0: 63bc 313e 5691 9b3c 1f2a c1bd 9b8c ec3d
000001b0: 1fb8 f6bc 8b7c 4d3d 7687 ddbd 68e8 e0bd
000001c0: 0adf fe3d b540 0ebe e205 d2bc 3bfa 663d
000001d0: c2f7 c6bd f357 f13d 05b0 933d ce27 bcbd
000001e0: a1b7 1d3e 4916 083e 3421 fb3d 8d36 75bb
000001f0: 55dd 82bd 9b63 13be bb13 0cbd 10f6 23be
00000200: c330 09be 5ad5 233d 4104 34be d5f7 db3d
00000210: 4ab6 34be 90c3 2fbe 0e28 833d 20d8 aebc
00000220: 7a43 eabd 916d bb3c bdb2 a93d 84ee 123d
00000230: aa3a 02be d520 3a3d fed2 7f3d d51b 99bd
00000240: e970 1fbe eb8b 4e3d 149b 1a3e cf42 38be
00000250: 6b31 27be f801 39be 5683 76bc c2b9 ddbc
00000260: eb32 2ebe 34f0 c03d 7e75 81bd e6a9 34bd
00000270: 982d e73c 533d 333d de4c ca3d 81d8 33be
00000280: a59c ef3b 2bb1 233e a292 1f3d 74f8 183e
00000290: bc2d 0e3e 2d3e d8bc d3e1 afbd ea5b 2abd
000002a0: 94e9 903c 2027 f63d 229b 293e 9eda 04be
000002b0: da14 283e b3e9 fa3d bfb7 0e3e 5933 11be
000002c0: 44d4 ec3b a5d0 3c3e c254 15bd 6b25 013d
000002d0: 0eb6 c4bd 1e77 93bd 4d4d fa3d 326c b93d
000002e0: 1586 193d 2982 4dbd cf39 d53c 3af6 48bd
000002f0: 646e 02bb 41d4 2c3e e768 3e3e d08f bebd
00000300: 9723 a8bc 7f77 a03c 2cfa 75bd 49fd 84bd
00000310: 8ea3 66bd 4c92 233e 4c74 1bbe 656b da3c
00000320: 35d8 3c3e 5941 ec3b 6d16 9b3d 53a0 c23a
00000330: f7aa 853d 3647 c8bd c05c 723c b145 c7bd
00000340: a0f1 d8bc 2791 913d b1c4 64bc e3aa a3bc
00000350: d8d7 1a3e 9810 013d 4281 163e a09d 283e
00000360: 2792 963c 25c2 dabd 2a6e c63d d85d 783d
00000370: 3c6a 913d e8bb 0f3d f7c4 13be 539b 32be
00000380: a35d e33d 5037 34be 878a 023e e573 bcbc
00000390: 2f8b 26be d82b ba3d d063 843b e0b7 08be
000003a0: ce55 1e3e 96ce a6bc 6f6b 6e3d 2eca 1a3e
000003b0: 8fd0 fabb 19f7 d5bd 2134 823d c8cf 253e
000003c0: f7ef fb3c 87a0 d5bd 2aa3 e8bd 4b89 dd3d
000003d0: d1ca a6bc a424 92bd 1ba0 e63d db3e 78bc
000003e0: a1ae b43d e6e7 013e f73a b83d b4f5 ec3c
000003f0: e428 41bd 9389 9b3d 4c1d e2bd d202 9abc
0.10204023 -0.15043464 0.14400919 -0.049577408 0.08482356 0.116533175 0.06155477 0.1256023
0.13611627 -0.13918583 -0.06757075 0.11341393 -0.14377555 -0.021057907 0.07037099 -0.041748907
0.13515191 -0.05799691 -0.09111771 0.06424873 -0.028395193 0.02347368 0.11801664 -0.094602436
0.072104245 0.061240114 0.016559549 -0.1547979 0.022911811 0.092290945 -0.044343363 0.1017296
-0.09087849 0.015692746 0.038988713 -0.14775945 -0.14815886 -0.11735334 0.09324988 -0.073503025
0.12489114 -0.045841433 -0.090054594 0.018613819 -0.027953517 -0.07184852 -0.014317996 -0.15546396
0.0707581 0.045274124 0.16846493 -0.15385304 -0.1209984 -0.15763012 -0.17286171 -0.07136011
0.1241675 0.12601998 -0.047949232 -0.026401784 0.1287353 -0.12844595 0.014735676 0.07567679
-0.07371893 -0.17450596 0.12039763 0.034803934 0.12070668 0.14785156 0.15241653 -0.031575345
0.07698892 0.09084855 0.14755698 -0.00967731 -0.022522483 0.16002026 0.05139503 -0.09432018
-0.12984724 0.016578589 -0.15032163 0.09130571 0.12277652 -0.048715487 -0.038733292 -0.004286429
-0.15592729 -0.07237779 -0.07687127 -0.13892263 0.107470095 -0.041121006 -0.113041654 0.04031016
-0.03584287 -0.12481114 0.18243231 0.0382893 -0.10172539 -0.14126043 -0.04360687 -0.12423418
0.1735702 0.0189902 -0.09431862 0.11550256 -0.030117093 0.0501676 -0.10816853 -0.10981828
0.12444885 -0.13891871 -0.02563757 0.056390982 -0.09715225 0.11784353 0.072113074 -0.0918728
0.1540208 0.13289751 0.12262192 -0.0037416548 -0.06389872 -0.14393465 -0.034198504 -0.16011834
-0.13397507 0.03999839 -0.17579748 0.107406296 -0.17647663 -0.17164445 0.06404124 -0.02134329
-0.114386514 0.022879394 0.08286045 0.035871997 -0.12717691 0.045441467 0.062457077 -0.07476012
-0.15570416 0.050426405 0.1509822 -0.17994235 -0.16327445 -0.18067157 -0.015045961 -0.027066115
-0.17011611 0.09420815 -0.06321238 -0.04410734 0.028219983 0.043759655 0.098779425 -0.17563058
0.0073123747 0.15985553 0.0389582 0.14938527 0.13884634 -0.026396835 -0.085879944 -0.041591562
0.017689504 0.12019181 0.16563085 -0.12974021 0.16414204 0.12251606 0.13937281 -0.14179744
0.0072274525 0.18438967 -0.036457784 0.031529825 -0.09605037 -0.07200454 0.12221775 0.0905384
0.037481386 -0.05017296 0.026028542 -0.049062945 -0.0019902224 0.16877843 0.18594705 -0.09304774
-0.020524783 0.01958823 -0.060053036 -0.06493623 -0.05630832 0.15973777 -0.15181082 0.026662538
0.18441851 0.0072099385 0.07572637 0.0014848806 0.065267496 -0.097792074 0.014792621 -0.097300895
-0.026482403 0.07107764 -0.0139629105 -0.019978946 0.151214 0.031509966 0.14697745 0.16466379
0.018380238 -0.106815614 0.09688981 0.06063637 0.07100341 0.03509131 -0.14430605 -0.17442064
0.11101844 -0.17599225 0.12748156 -0.023004482 -0.16264032 0.09090394 0.004040219 -0.13351393
0.1546242 -0.02036218 0.058207925 0.15116188 -0.0076542567 -0.10447521 0.06357599 0.16192544
0.030754073 -0.10431009 -0.11359246 0.10817202 -0.020360382 -0.07135895 0.112610064 -0.015151705
0.0882237 0.12686118 0.08995622 0.028925754 -0.047158137 0.075945996 -0.11040744 -0.018800173

mlp1.2.bias f4 [32]
00000000: 4348 febb 5892 6bbd f973 e6bb 4936 153d
00000010: 9994 ba3d e3f0 f03d 2ab5 c4bc cf7e 0e3d
00000020: 9b5f 6abe fe3d 6fbe 0120 8e3a 217d 76be
00000030: 02ef 6fbe 8c86 1f3e 8028 59bd 3246 41be
00000040: 1873 123e 42a8 f2bc d8de 19be 3848 623d
00000050: b47e 47be 0525 d73d 4d84 c0bb 6da7 7b3d
00000060: adea 7cbd a40f 143e e5a7 0abe 6e19 003e
00000070: 2226 383e 5f0f ad3d 700a a2bc cbf8 0bbe
-0.007760079 -0.05751261 -0.007032868 0.036428723 0.09110374 0.117646955 -0.024012167 0.034788903
-0.22888033 -0.23363492 0.0010843278 -0.2407117 -0.23431018 0.1557867 -0.05301714 -0.18874434
0.14301717 -0.029621247 -0.15026414 0.055244654 -0.19481927 0.10505108 -0.0058751465 0.061438967
-0.06174724 0.14459091 -0.13540609 0.125097 0.17983297 0.084501974 -0.019780368 -0.13669126

mlp2.0.weight f4 [32, 32]
00000000: e6a9 1d3e e758 6abd 25af 06be 5951 c83d
00000010: a012 463d 5626 113e be08 9b3d 535d 07be
00000020: a4fa 003e da60 18be c42a 2abe 2778 d2bd
00000030: a8c4 023e c00b 7c3d ccac 6abd ebcd 4a3d
00000040: d3b0 2fbe c507 fc3d ab3f 15be 7cfe a3bd
00000050: 736c 803d 5844 05be 27a8 46bd 6c23 bd3c
00000060: 5a87 1dbd 30f3 b03c bab1 713b cf3f fe3c
00000070: cfd8 3a3e d4c9 b33c ed5c 28be 5f8a f43d
00000080: 03a2 263e 9dd5 37be 00f3 f43d 8253 47bd
00000090: 248a 13be 4321 9dbd dce7 c4bd 66ec 2e3e
000000a0: 7572 1cbd cf81 c53c 7ea4 d1bd 4884 0d3e
000000b0: 3ab4 b4bd 3f29 b43d 5dfc 953d f450 f63d
000000c0: 12ee 1bbe c6e6 68bd 4e90 93bd c026 1a3c
000000d0: 4f4b ee3c 952f 9fbd 2173 333e e64c 27be
000000e0: 4fb8 a43d ee00 0fbd 1efd 34be 63ab 073e
000000f0: b1f7 f6bd 4919 d23d 26ec ba3d 9954 9f3d
00000100: faf6 813d d0d1 0b3d d00f 24be f8f9 c93d
00000110: 675f ee3c 51d7 2fbe b889 053d f9cf d3bd
00000120: 26b9 64bd 2e01 f93d 611c e23d 9dbd a03d
00000130: 6534 2cbc 5935 f9bd f3ad d2bc 5367 2e3e
00000140: f0be a7bd e7eb 1f3e af6a f0bd 80fa 00be
00000150: f65b 84bd 84dc 55bd 46c4 40bc 4c3a 20be
00000160: 67ea 423d a07e 34be 8bd0 f6bd bd5e db3d
00000170: c51a 0dbd 9a0d cabd 1154 1fbe 0344 573d
00000180: 588d 0cbe e840 f8bd 1445 f1bd beea 193c
00000190: d7ed ebbd 8dc9 af3d bac5 af3c d32a f13d
000001a0: 66f2 e33d 9f37 6f3c 10a3 003e 41d5 39bd
000001b0: 3ba7 cbbd 311a 30be dce2 a4bd 032d 523d
000001c0: 80e3 b93d 5608 dc3d 1684 d9bd a51d 213e
000001d0: b827 1fbe 44a0 a93d 6806 fa3d 9f46 abbc
000001e0: 160a 24bd 0562 b0bd 82b1 0a3e 9f2a cdbd
000001f0: bf1c bcbd 8b8c 0f3e f991 0abe 67be 183e
00000200: 7d89 143e 6e9a 31be 9d97 163e 5f97 163e
00000210: 7aa1 2d3e 736b 583d d5d5 f53c 4cc3 0abe
00000220: b23c 49be dfd1 d2bd 6da3 1a3e fb21 edbd
00000230: b239 223e 1142 673d 0ad5 14be 4a4b c63d
00000240: d96d 1cbe 1f45 50bd 00c6 bbbd 911b 31be
00000250: f871 b9bd b1c2 0a3e ff1d c4bd c7d0 2abe
00000260: 0b81 ea3b fb31 12be b69a d7bc f6de a23d
00000270: f345 c33d af7a c1bd 49f3 823d 8ad7 50bd
00000280: cb63 313e 8f5d 18be 782f ac3c 0d0e 8d3d
00000290: 1a2e d8bd 6c25 1b3e f558 01be 0101 f33d
000002a0: ac52 bfbc 7164 02be 4059 383e e449 d53d
000002b0: 7574 153e a649 0fbe 1107 a7bd ecee 253c
000002c0: f793 3abe e6e7 1f3e a34b 2e3e 5e13 8bbd
000002d0: 6b60 99bd 5aa9 eb3b a9ba 20be 0fba 29be
000002e0: f245 21bd dcf6 5b3d ed59 3abc b78c 13bd
000002f0: fccc 2bbe 3b09 20be be74 343e 3888 723d
00000300: 83fc cc3d 7662 ac3d c016 77bd cc89 b73d
00000310: 81a7 503d 8f4a ed3d d9cd ca3d 15d6 093e
00000320: a612 7a3d 94c7 01be 13b2 fb3d 3819 01be
00000330: b8fa 043e 0c59 9c3d eed6 f1bd 32e9 383d
00000340: eab1 873d ef3a 98bd b088 153e 6ed4 96bc
00000350: 0391 31be deb6 b3bd d554 acbd 1422 833a
00000360: 9124 9bbd a216 25bb 029a b83d 207e b2bc
00000370: 3dc1 cb3d 1091 243e 2f3e 2b3e 48a3 303e
00000380: 2036 483d 90e1 f7bd 5947 0ebe c805 9d3b
00000390: 5b49 32be d45f 30be 7a52 2fbe c6cf 1c3e
000003a0: 90f3 7f3d b11b 45bd 4b9b a5bc 501a b6bc
000003b0: 0f75 873d 936f 233e 25ac d7bd ffcc 023d
000003c0: 6650 083e c138 c6bd d616 37bd 4a8d f4bb
000003d0: f064 b53c aa5a 1cbd 56a1 0bbe 14cc e1bd
000003e0: 7eb1 9e3c 4666 083e 08eb 123d cd3a 4ebd
000003f0: 3a1b c53c 6ab6 32be 74b1 d0bb b123 1f3c
0.15396842 -0.05721369 -0.1315275 0.09781141 0.048357606 0.1417478 0.07570027 -0.13219194
0.12595612 -0.14880696 -0.16617876 -0.102768235 0.12770331 0.061534643 -0.0572937 0.049512785
-0.17157297 0.123061694 -0.14575069 -0.080075234 0.06270685 -0.13014352 -0.048500206 0.02308818
-0.03845916 0.021600336 0.0036879615 0.031036286 0.18246768 0.021946825 -0.16441698 0.11940455
0.1627274 -0.17952581 0.11960411 -0.048663624 -0.14408165 -0.0767236 -0.09614536 0.17082366
-0.038195092 0.02410975 -0.102364525 0.13819993 -0.08823438 0.087969296 0.07323525 0.12027159
-0.15227535 -0.056860708 -0.07205258 0.009408653 0.029088644 -0.077727474 0.17524387 -0.16337928
0.080429666 -0.034912996 -0.17674682 0.13248973 -0.12058962 0.10258729 0.09127073 0.077798076
0.06345935 0.03413564 -0.16021657 0.09862131 0.029098226 -0.1717198 0.032602042 -0.10342402
-0.055840634 0.12158428 0.11040569 0.07848666 -0.010510539 -0.121683784 -0.025717711 0.17031603
-0.08190715 0.15617333 -0.11739098 -0.12595558 -0.06462853 -0.052212253 -0.011765545 -0.15647238
0.047586825 -0.17626429 -0.12051495 0.10711429 -0.034449358 -0.098658755 -0.15559413 0.052555095
-0.13725793 -0.12121755 -0.11780754 0.009394346 -0.11519974 0.08583365 0.021456588 0.11775746
0.11130218 0.014600663 0.12562203 -0.04536939 -0.09944006 -0.17197491 -0.080510825 0.051312458
0.09076595 0.107437775 -0.106208965 0.15733965 -0.15542495 0.08282521 0.12208253 -0.020907698
-0.04004868 -0.08612446 0.13544276 -0.10017895 -0.091851704 0.14018457 -0.13532247 0.14916383
0.14505573 -0.17344067 0.14706273 0.14706181 0.1695613 0.052836847 0.03000919 -0.13551062
-0.1965206 -0.10293936 0.15101404 -0.11578747 0.15842322 0.05645949 -0.14534393 0.09682329
-0.15276279 -0.05084717 -0.09168625 -0.17295672 -0.09054941 0.13550831 -0.09576034 -0.16681205
0.0071564964 -0.14276879 -0.02631889 0.07952683 0.09534826 -0.09447228 0.06394059 -0.050986804
0.17323224 -0.1487944 0.021018729 0.068874456 -0.10555668 0.15150994 -0.1263159 0.11865426
-0.02335485 -0.12733628 0.18002796 0.10414484 0.14595206 -0.13992938 -0.08155645 0.010127764
-0.18220507 0.15615806 0.1702104 -0.067908034 -0.074890934 0.007191819 -0.15696205 -0.16574882
-0.039373346 0.05370222 -0.011373979 -0.036022868 -0.16777414 -0.15628521 0.17622659 0.05921194
0.100091 0.084172174 -0.06032443 0.089618295 0.050940994 0.115864865 0.099025436 0.13460572
0.06105294 -0.1267379 0.12289824 -0.12607276 0.12986267 0.07634172 -0.11808573 0.045144267
0.06625731 -0.07433116 0.14602923 -0.018411841 -0.17340474 -0.087751135 -0.08414618 0.0010004663
-0.07575334 -0.0025190492 0.0901375 -0.021788657 0.09948967 0.16070962 0.1672294 0.17249787
0.048879743 -0.121035695 -0.13894404 0.004791949 -0.17410795 -0.17224056 -0.17121306 0.15313634
0.06248814 -0.04812211 -0.020215651 -0.022229344 0.06614124 0.15960531 -0.10530881 0.03193378
0.1331192 -0.09678794 -0.044699512 -0.007463132 0.022142857 -0.0381724 -0.13635764 -0.11025253
0.019371744 0.13320264 0.035868675 -0.050349046 0.024060834 -0.17452398 -0.0063688103 0.009713099

mlp2.0.bias f4 [32]
00000000: 0061 053d 2f41 c33d fcfb bf3b c3dd 773d
00000010: cc4e 003e 421e 05be 1461 3ebd deef dabd
00000020: 8da0 ca3d e19a 43bd eeea f8bd 3f9d 083e
00000030: b07b 183e b4e0 24bd 9005 c33c 8b91 acbc
00000040: 1a8c c73d 23f3 bfbd 736d bd3d eb4f 603c
00000050: e1e6 febd e730 dc3d fc15 3ebe e753 26be
00000060: 68cc fa3d 603f 5d3e e12b 7b3d bf04 793e
00000070: ebf6 263e 8386 d03c c789 183e 2f9e 1a3e
0.03256321 0.09533917 0.0058588963 0.060514223 0.12530059 -0.12999824 -0.0464793 -0.10690282
0.09893904 -0.047755126 -0.12154184 0.13341235 0.14890933 -0.040253356 0.023806363 -0.021065494
0.09743519 -0.093725465 0.092493914 0.013690929 -0.124463804 0.10751515 -0.18563074 -0.16242944
0.12246019 0.21606207 0.061321143 0.24318217 0.16305129 0.025454765 0.14896308 0.15099405

mlp2.2.weight f4 [32, 32]
00000000: cf55 223e 8e8c ca3d 6cff b73d 0e3f dbbd
00000010: 75c8 0e3e 8041 49bd 1914 ec3d 022d d53d
00000020: 1f39 30be 1c41 02be db7a cd3d a017 d3bd
00000030: acaf 803d d1ed 513b 798d 5b3d b40a 2bbe
00000040: 0324 b73b 88bf fbbd 652b e2bd 508c 9fbd
00000050: 7430 703d 75a6 fabd 8845 2bbe 4e9c 91bd
00000060: f7d8 2b3d 1577 aa3d 20f6 c23a 87d5 52bc
00000070: 5284 823d f601 833d 8801 a83d 069d d63d
00000080: 07d0 c5bd f087 273e f470 433d 3bb8 0abe
00000090: 6c3d 47bd 903f 61bd 982f 0bbe a5a8 0f3e
000000a0: c767 02be 9e7a 973d d988 e33c bc02 c53d
000000b0: 02ea 2f3e fff7 393d f1ac 5d3c eb81 6a3d
000000c0: 35ed 0a3e 54bd 913d 1461 07be 4e80 36bb
000000d0: 2194 043e a020 15bd e341 1f3e 4fd2 cc3d
000000e0: d1bd 553d dbc1 7ebd 213e 2abe 61db 39bd
000000f0: 6f5b 13be 2772 2c3e 457b 91bc 8f97 97bd
00000100: 1295 84bd 1ddd 26bc 0d68 123e f8f3 b8bd
00000110: 833f 453d f356 80bd 282d 9d3d df0a 303e
00000120: bcee ea3d d461 b6bd 2631 a5ba f4db 0abe
00000130: 195e fdbd b717 ee3d a3d1 8cbd 5cbb 893d
00000140: 4c0c d7bd f089 ff3d 1686 25bd 74e2 20be
00000150: 3f57 29be 63d8 febd 5e9e 4bbd d7b8 ea3d
00000160: 880c 2e3e 3cc8 f8bd 6828 e3bd 0559 f9bd
00000170: aca8 e2bd f646 d13c e3d2 2bbe c570 04be
00000180: b470 e23d 3080 ef3d 0281 12bd 415c ecbd
00000190: 29f4 eebc 6a42 803c cad3 b3bc 31a3 4d3d
000001a0: fbb6 f53b 2fbe 43bc 7c40 f7bc 7f1f 01be
000001b0: d39e e7bd 29c8 77bc da46 ffbd 5f87 1bbe
000001c0: 53cd 2a3e b310 c53d f916 e73d c39b 423d
000001d0: 2bea 09be b95b c6bc 9ed1 0d3e cdc8 1fbe
000001e0: d50e a33d e99f 0dbe 9ebc d7bc 4000 ffbd
000001f0: 8ced 82bd 69f9 2bbe a540 4c3d e071 d9bc
00000200: 918c f73d a047 33be 7697 0f3e 1ece c23d
00000210: 4f9c f23d a1f2 88bd dd85 1f3e 249e 32be
00000220: 57ed 173e f238 003e 3665 c23c 22a6 36bc
00000230: e594 b5ba d5cd babd 8c65 ed3d c5cb 59bc
00000240: 0f1f 643d 3dcc 803d 4ee3 ad3d 37ec d0bd
00000250: 3972 00be aab3 103e 5a04 f3bd a5c7 5cbd
00000260: 8880 5f3c 9a52 183e 263a 2bbd db32 5ebd
00000270: cd41 363d 3183 aebd befc 0abe 6ec9 1e3d
00000280: 9458 8bbd 5f2f 10be a3f6 9c3d d54a d23c
00000290: 99bc a73c c427 113c aaa5 2b3e 45a0 1a3e
000002a0: ed29 6d3d 996c 77bd 649c 2abe 1d94 69bd
000002b0: 80de abbc 267d 1c3e 7a0a 693d 83d7 8f3d
000002c0: 9c26 fd3d 5f9b 9abd c75c 2dbc 968c ce3d
000002d0: cf56 bebd 09df dd3d 7ad0 a83a 8343 743c
000002e0: 992a 613d 15e3 003e c837 353e dab4 1fbd
000002f0: 48c3 37bd f0bb 0b3e 1489 3ebd 88b6 653c
00000300: 15f7 803d d42f f0bd 9a1f 30bc 5ff0 bf3d
00000310: 6318 a5bc f33b 35be e7af 803d d69c 26bd
00000320: 5c5b 983d 9221 1b3e b192 0c3e 6606 893d
00000330: 58c6 e0bd b927 1b3e 8a10 21be 3ba2 02be
00000340: 3387 0e3d c603 0ebe 5841 103d 7184 b7bd
00000350: 25e6 90bd f18d ce3d a722 8abd 44d4 733d
00000360: 6908 0d3e fc3b 1fbb 8128 a73c 9b70 213e
00000370: cd1d b03d 2f95 2a3e e660 9b3c a2de 223e
00000380: efc0 30be d2d5 8cbd acd9 8c3c a4bc b8bd
00000390: 8e2b 24be 37c6 123e 9df8 183e 76a9 2abe
000003a0: a1a7 80bd 38f9 d93d 2d07 0cbc a54d 063e
000003b0: dee7 1cbd 7e6a ec3c e46f 0d3c d746 f43d
000003c0: 4644 e53d 134a b63d 81c2 95bc be51 06bd
000003d0: ff5c 203e b2cb 30be b761 343d b8ad b5bd
000003e0: 3e17 1b3e ee19 ccbc e735 64ba 6c89 c6bd
000003f0: 2d4e 173e ef4c 0a3d 6572 bdbd c824 81bb
0.15853046 0.0989009 0.08984265 -0.10705386 0.13943656 -0.04913473 0.11527271 0.10408975
-0.1720929 -0.1272015 0.100331984 -0.103072405 0.06283507 0.0032032619 0.053601716 -0.16703302
0.0055890097 -0.12292391 -0.11043433 -0.07790434 0.05863996 -0.122387804 -0.16725743 -0.07109891
0.04195496 0.08323494 0.0014874376 -0.012868292 0.06372894 0.063968584 0.08203417 0.104791686
-0.09658819 0.1636045 0.047715142 -0.13546841 -0.04864256 -0.05499226 -0.13592374 0.14029177
-0.127349 0.07396434 0.027775215 0.09619662 0.1717911 0.045402523 0.013530002 0.057252806
0.1356705 0.071161896 -0.13220626 -0.0027847472 0.12947132 -0.036408067 0.15552478 0.10001051
0.052182976 -0.062196594 -0.16625263 -0.04537523 -0.14390348 0.1684042 -0.017758975 -0.074019544
-0.064737454 -0.010184553 0.14297505 -0.09030908 0.048156273 -0.06266584 0.076746285 0.17191647
0.11471316 -0.08905378 -0.0012603148 -0.13560468 -0.12371463 0.11625617 -0.068759225 0.06725189
-0.10500392 0.12477481 -0.040411077 -0.15711385 -0.16537188 -0.12443616 -0.049711578 0.11461037
0.16996968 -0.12147567 -0.11091691 -0.12175182 -0.11067328 0.025546532 -0.16779666 -0.12933643
0.11056653 0.11694372 -0.035767563 -0.115410335 -0.029169159 0.015656669 -0.021951575 0.05020446
0.0074986196 -0.011947199 -0.030182116 -0.12609671 -0.1130959 -0.0151234055 -0.12464686 -0.15188359
0.16679887 0.09622326 0.112836786 0.047511827 -0.13468234 -0.024213659 0.13849494 -0.15603943
0.07961813 -0.13830532 -0.026335057 -0.124512196 -0.06392965 -0.16794361 0.049866337 -0.026543558
0.12087358 -0.17507792 0.14022622 0.0951197 0.1184622 -0.06686903 0.15578409 -0.17443138
0.14836632 0.12521723 0.023729902 -0.011148008 -0.0013853578 -0.091212906 0.11591634 -0.013293211
0.055693682 0.06288955 0.084906206 -0.102013044 -0.12543572 0.14131036 -0.11866064 -0.053901333
0.013641484 0.1487526 -0.0418035 -0.05424772 0.044496346 -0.085211165 -0.13572976 0.038766317
-0.06804004 -0.1408057 0.0766423 0.025670448 0.020475673 0.0088595785 0.16762415 0.151002
0.05790131 -0.0604063 -0.16661221 -0.057026017 -0.02098012 0.15282115 0.056894757 0.070235275
0.1236088 -0.07549166 -0.010581202 0.100854084 -0.09293901 0.10833556 0.0012879514 0.014908674
0.054972265 0.12586625 0.1769706 -0.038990833 -0.04486397 0.13645911 -0.046517447 0.01402057
0.06297127 -0.117278725 -0.010749722 0.09372019 -0.02015323 -0.1769865 0.06283551 -0.040676914
0.074393004 0.15149525 0.13727833 0.066906735 -0.10975331 0.15151872 -0.15728965 -0.12757199
0.034796905 -0.13868627 0.035218567 -0.08960808 -0.070751466 0.10085667 -0.06744891 0.059528604
0.1377274 -0.0024297228 0.020405056 0.15765612 0.08599434 0.16658472 0.018967103 0.1590524
-0.17261098 -0.068767205 0.017193638 -0.09020355 -0.1603224 0.14333425 0.14938588 -0.16666207
-0.06281973 0.10643238 -0.008546633 0.13115557 -0.038307063 0.028859373 0.008632634 0.11927574
0.11194663 0.08900847 -0.018281223 -0.0327928 0.15660475 -0.17265204 0.0440385 -0.08871025
0.15145585 -0.024914708 -0.0008705542 -0.0969418 0.14775915 0.033764776 -0.09250335 -0.0039411522

mlp2.2.bias f4 [32]
00000000: 12a2 4e3e 6224 603c 5748 803d 3641 153e
00000010: fcb2 22be dde3 4bbc b10e 903d df0d 7c3d
00000020: 9029 e83d bc9a 98bc 99c3 23be 0d4e c7bd
00000030: a07c 79bd 7ccb 99bd f449 43bc 7c2b 45be
00000040: 3657 bb3c ff3d 28be 3e2d dabb 5f83 993c
00000050: c6ff 44be a27c da3d ed53 a8bd 8528 c13d
00000060: 88d4 8abe 8eb3 cd3d 1d02 8e3c 78a2 883d
00000070: ac10 06be 2e4f 213e 2736 833c fc7a 19be
0.20179012 0.013680549 0.06263798 0.14575657 -0.1588859 -0.012444464 0.07034052 0.061536666
0.113360524 -0.01862847 -0.15992583 -0.09731684 -0.060909867 -0.07509515 -0.011919487 -0.19254869
0.022868734 -0.164299 -0.0066582253 0.0187394 -0.19238195 0.10668303 -0.082191326 0.094315566
-0.27115273 0.10044013 0.017334992 0.066716135 -0.13092297 0.15752861 0.016017033 -0.14988321

conv1.apply_func.0.weight f4 [32, 9]
00000000: c428 5a3e 75b3 053e 61f0 7bbe 44c6 273d
00000010: 8a8f 0abe c039 a7be 63cb 88be 17a7 20be
00000020: 57d0 50be cba0 2ebc d8eb dfbd 5c8f f1bd
00000030: 00ad 4d3e a624 26be aa0e 92be fbca 2ebe
00000040: fd84 91be 1617 60bd 11f9 bdbd c478 6c3e
00000050: 2215 193e 7d59 2ebe 9e9c 0f3e 6e42 bf3d
00000060: 6fd1 c13e 5710 243e 191d 22be ded7 c3be
00000070: 31d1 93bd 2ec9 283e 5be0 32be a0b8 fbbd
00000080: 36e7 fd3b 7c67 873e c73b 023e 7242 0b3e
00000090: 6c52 b33e 3094 c3be aa53 1bbe e870 45bd
000000a0: 3954 003e 8b15 79be 6ba0 dbbc 3499 f33d
000000b0: 3f7d 283d 09ed 863e 6c71 bf3d 1601 143c
000000c0: b1cb 603e 0e73 82be 39e1 7abe d440 7ebe
000000d0: 9a42 11be 45af 40bd 698a 0ebe 293d 173e
000000e0: 1a42 9abc b368 54be b307 863e f714 9e3e
000000f0: be21 a9be 6489 f6bd c419 a03b 80c6 80be
00000100: 60e0 0abe b266 803e abb7 78bc abce b83d
00000110: 5b3d 10be 36c6 81be eb08 24be 7e8e 2dbe
00000120: 98a4 523e a68e a53e 6f4d 4a3e a915 49be
00000130: 7191 1b3d deee 7b3e 79d7 183e 1f9b a83e
00000140: 8200 99be 9886 e4be 7360 203e 589e a73e
00000150: 7fdb 743b 8b0c 8e3e 0440 2ebd 3e23 983e
00000160: 21e7 523e fd6c febd 6fb4 b33e edee 4e3e
00000170: df72 d0bd 6426 f339 55b4 573e f7f8 a23e
00000180: d775 9b3e a6ff 943e 930f 813e 7d2f 6f3e
00000190: 073b 523e ff9a 0cbe e700 893e 1efd 2e3d
000001a0: 494e 62be a92c f03d 8c42 06be fbbd 223e
000001b0: fb80 79be 5a88 cfbd 04f1 203e 9afc 4a3c
000001c0: 9b9c 363e 7d18 763d 5a0f b33c d9fe 82be
000001d0: 4a5c 22be c3c6 4f3e 6d84 5c3e 1b6c d43c
000001e0: df01 a2be 7857 b73d 5ee2 503e b803 99be
000001f0: a3f4 6c3e 8c87 633e 0e27 a2be 900d 073e
00000200: a352 5ebe 5559 97be 246a 153e a688 673e
00000210: 2f84 dabd be22 e73c b6d0 48be 561c 703c
00000220: 5241 3c3e 7138 babb 58e0 88be 3bcb b5bd
00000230: eb0a 873e 3436 463e f314 d6bc c1d3 b0be
00000240: 7ee4 55bd b027 6a3e feda d5bd dd46 38be
00000250: 0d0a 7b3e 21f9 71be d652 7a3b 2f25 993e
00000260: 03f3 f0bc f81e 49bd 0b7d a1be 44be 2e3e
00000270: 52ac a1be 5ed3 a2be 3363 b2bd 43c4 fc3d
00000280: 9034 30be 0d35 2bbe 9161 31bd 3dec 87bd
00000290: 7fe6 763d 497c d8bd 4cb2 8f3e 0020 29be
000002a0: 04e8 91bd 6e46 253e 3084 45be 2357 c1bb
000002b0: 8ef3 8f3e 0d8c 09bd 7106 8d3e 45cc a93e
000002c0: b44d 5b3e bc19 61be 30d9 433e 6340 94be
000002d0: f51a b0bd d741 773e e50f 76be 1693 64be
000002e0: fb98 9abe ca40 5dbd 5e19 52bc 1da6 25be
000002f0: 525f 853e 497a 813d 3732 67be d751 fb3d
00000300: d5ef 6d3e e4b2 61be 3f42 a03e c839 683d
00000310: e576 3ebe ac98 083e 3a2b a33d 13b9 a93d
00000320: a622 62be bdc1 b53c 5a8d 863e 6663 a2be
00000330: a50d 483c 5517 14be c91e debd 4cdc 083e
00000340: 4f8f 8cbe 5573 943d b880 4ebe 9d2f 1b3e
00000350: 1cc2 8b3e 1eef 74be b452 96be 3929 43be
00000360: fb88 443d f6b6 8dbe f3c6 6bbe 95f1 8a3e
00000370: c83b 593c 3375 3e3e 465b a93e ce8d 0a3e
00000380: ef56 a63e 9885 c9be c482 4abc 621f 35be
00000390: f927 8abe 09e3 683c 031b 603e 5e22 49be
000003a0: 3b7f 1e3e ea3d 073e ef7c b7be 81d8 6fbd
000003b0: 656e 67be 277d 643c 2b77 6c3e eee0 75be
000003c0: 48d3 693e 1cb4 edbd 3740 633e 80db 05be
000003d0: 6309 9bbd 7cea 2b3e e447 8cbe aa4a b0be
000003e0: bd8d a0be 2e98 263e 06d0 643e 2d3b 24be
000003f0: c9a9 7b3e a1e3 783b 045d 673d 3cbc 723d
0.21304613 0.13056739 -0.24603416 0.040960565 -0.13531318 -0.32661247 -0.26717672 -0.1568874
-0.20391975 -0.010658453 -0.109336555 -0.11794922 0.20085526 -0.16224918 -0.28526813 -0.17069618
-0.28421775 -0.054709516 -0.09276021 0.23092943 0.14949468 -0.17026325 0.14024588 0.09338842
0.37855098 0.16021858 -0.15831412 -0.3825063 -0.072176345 0.16482994 -0.17468397 -0.12291074
0.0077485098 0.2644614 0.12718116 0.13599566 0.3502382 -0.38198996 -0.15168634 -0.04820338
0.12532128 -0.24324624 -0.026809892 0.118944556 0.04113507 0.26352718 0.093478054 0.009033462
0.21952702 -0.25478405 -0.24499978 -0.24829417 -0.14185563 -0.04704215 -0.13919987 0.14769424
-0.018830348 -0.20743065 0.2617775 0.3087537 -0.33033556 -0.12037924 0.004885884 -0.25151443
-0.13562155 0.2507835 -0.015180509 0.09023794 -0.14085905 -0.25346535 -0.16019027 -0.16948888
0.205706 0.32335395 0.19756101 -0.19637169 0.0379805 0.2460284 0.14925946 0.32930848
-0.298832 -0.44633937 0.15661792 0.32737994 0.0037362275 0.27743945 -0.04254152 0.29714388
0.20595981 -0.124231316 0.35098597 0.2020833 -0.1017816 0.00046377175 0.21064885 0.3183057
0.30363342 0.29101294 0.25207195 0.23357959 0.2053033 -0.13731001 0.267585 0.04272186
-0.22100176 0.11727268 -0.13111323 0.15892784 -0.24365608 -0.10133429 0.1571694 0.0123893265
0.17833178 0.060081948 0.021857906 -0.25585058 -0.15855518 0.20290665 0.21534891 0.025930455
-0.31642053 0.0895223 0.20398852 -0.2988565 0.23140197 0.22219676 -0.3167042 0.13188767
-0.21711211 -0.29560342 0.1459127 0.22610721 -0.10669743 0.028214809 -0.19610867 0.014655193
0.18384293 -0.005682998 -0.2673366 -0.08876654 0.26375517 0.19356614 -0.026133036 -0.34536555
-0.05221986 0.22866702 -0.1044216 -0.17995782 0.24515553 -0.23630191 0.0038196347 0.2991118
-0.029412752 -0.0491018 -0.31540713 0.17064768 -0.31576782 -0.31801885 -0.08710327 0.123421215
-0.17207551 -0.16719456 -0.043305937 -0.06636856 0.060278412 -0.105705805 0.28065717 -0.16516113
-0.071243316 0.16140148 -0.19288707 -0.00590028 0.28115505 -0.03358083 0.27543977 0.33163658
0.2141636 -0.21982473 0.19125819 -0.28955373 -0.08598892 0.2414621 -0.24029501 -0.22321734
-0.3019484 -0.054016866 -0.012823431 -0.16176648 0.26049286 0.06322152 -0.22577749 0.12271469
0.2323602 -0.22040898 0.31300542 0.05669573 -0.18600042 0.1333949 0.07967229 0.08287253
-0.2208353 0.022187108 0.26279718 -0.3171646 0.012210284 -0.14462025 -0.108457156 0.13365287
-0.27453086 0.0724856 -0.2016629 0.15154882 0.2729653 -0.23919341 -0.29359972 -0.19058694
0.047982197 -0.2767865 -0.23025112 0.27137437 0.013258882 0.18599395 0.3307745 0.13530657
0.324882 -0.39359736 -0.0123602785 -0.17687753 -0.26983622 0.014214286 0.21885304 -0.19642016
0.15478222 0.13207212 -0.35837504 -0.058556084 -0.22600706 0.013945854 0.23092334 -0.24011585
0.22834504 -0.11606619 0.22192465 -0.13072014 -0.0757015 0.16788667 -0.27398598 -0.34431964
-0.31358138 0.1626899 0.2234498 -0.16038199 0.24576487 0.0037977474 0.05648519 0.059261546

conv1.apply_func.0.bias f4 [32]
00000000: 583e a03c 7dcc f2bd 2025 d23e 0775 23be
00000010: 5262 4d3e 120e 173e 0710 ec3d 6c72 9bbe
00000020: 8d67 85be 212f 093e 0e58 cebb 8138 3f3e
00000030: 49a2 64be 9e26 f2bc 3a48 f53d 2f4a 1bbe
00000040: 6cf0 fe3d 672c 793e 2259 f93d bb5d 95bd
00000050: b85d cebd 76c9 c6bd eebe e13d 0982 6dbe
00000060: 9b2d 883e 1d40 c03e 5aaf 41be 93bb 15be
00000070: f2c4 2dbe 18a1 2e3c ff44 e73c f4a4 16be
0.019560978 -0.11855409 0.4104395 -0.15962611 0.20057037 0.14751461 0.115264945 -0.30360734
-0.26055565 0.13396885 -0.006297118 0.18673898 -0.22327532 -0.02955943 0.11976667 -0.15165018
0.124482006 0.24333344 0.12175204 -0.07293268 -0.10076469 -0.097063944 0.11022745 -0.23194136
0.26597294 0.37548915 -0.18914548 -0.14622335 -0.1696966 0.010658525 0.028231142 -0.14711362

conv1.apply_func.2.weight f4 [32, 32]
00000000: 78fa d03d 8a0b 1abe 2577 133e ae11 4bbd
00000010: fab7 ad3d f2a8 ee3d db20 7c3d e49d 003e
00000020: 1062 0b3e bb86 0ebe 8962 8abd 9045 e83d
00000030: e639 13be a281 acbc aa1e 903d e700 2bbd
00000040: 4365 0a3e 2b8e 6dbd ec9b babd d794 833d
00000050: 099d e8bc e04b c03c b5b2 f13d ecbe c1bd
00000060: 64ab 933d ead6 7a3d e4a7 873c 5783 1ebe
00000070: 8db1 bb3c 0903 bd3d 63a1 35bd 9c57 d03d
00000080: 801e babd 138e 803c a1b2 1f3d 414e 17be
00000090: f5b6 17be f356 f0bd cbf9 be3d c188 96bd
000000a0: edc6 ff3d 3ac4 3bbd 8b6e b8bd 027c 983c
000000b0: c6fe e4bc 5125 93bd 0796 6abc f231 1fbe
000000c0: 9fe9 903d 5c71 393d 1282 2c3e a78b 1dbe
000000d0: 02ce f7bd ca69 21be a902 31be 4025 92bd
000000e0: 884b fe3d 620b 013e 6a66 44bd 8e48 d8bc
000000f0: 30d3 033e 5687 03be e86d 713c 6ffc 9a3d
00000100: f3f9 96bd b1b1 32be 0893 f63d 928e 0e3d
00000110: 1035 f73d 6666 173e 1413 1c3e 2655 01bd
00000120: 5eac 9d3d ce0e ba3d 2d19 173e 948d 1ebc
00000130: 1281 b8bc 5adc 233e 9883 523d f02a c1bd
00000140: adf6 04be d2cf 873c eaed 19be 7dfe ba3d
00000150: 4272 fb3d e489 47bd cda6 1ebd 2c75 8cbb
00000160: 67ab 1fbe cf3a 94bd af6e 9dbd bc41 0ebe
00000170: 4819 dc3d 806e 28bd 6282 e7bd 441c 253d
00000180: f9cf 12bd fc9c ffbd 89cf 3a3e 3ed5 1c3d
00000190: 6755 d0bd 93a6 10be 1e9d 32bd 7d6e febd
000001a0: 63bc 313e 5691 9b3c 1f2a c1bd 9b8c ec3d
000001b0: 1fb8 f6bc 8b7c 4d3d 7687 ddbd 68e8 e0bd
000001c0: 0adf fe3d b540 0ebe e205 d2bc 3bfa 663d
000001d0: c2f7 c6bd f357 f13d 05b0 933d ce27 bcbd
000001e0: a1b7 1d3e 4916 083e 3421 fb3d 8d36 75bb
000001f0: 55dd 82bd 9b63 13be bb13 0cbd 10f6 23be
00000200: c330 09be 5ad5 233d 4104 34be d5f7 db3d
00000210: 4ab6 34be 90c3 2fbe 0e28 833d 20d8 aebc
00000220: 7a43 eabd 916d bb3c bdb2 a93d 84ee 123d
00000230: aa3a 02be d520 3a3d fed2 7f3d d51b 99bd
00000240: e970 1fbe eb8b 4e3d 149b 1a3e cf42 38be
00000250: 6b31 27be f801 39be 5683 76bc c2b9 ddbc
00000260: eb32 2ebe 34f0 c03d 7e75 81bd e6a9 34bd
00000270: 982d e73c 533d 333d de4c ca3d 81d8 33be
00000280: a59c ef3b 2bb1 233e a292 1f3d 74f8 183e
00000290: bc2d 0e3e 2d3e d8bc d3e1 afbd ea5b 2abd
000002a0: 94e9 903c 2027 f63d 229b 293e 9eda 04be
000002b0: da14 283e b3e9 fa3d bfb7 0e3e 5933 11be
000002c0: 44d4 ec3b a5d0 3c3e c254 15bd 6b25 013d
000002d0: 0eb6 c4bd 1e77 93bd 4d4d fa3d 326c b93d
000002e0: 1586 193d 2982 4dbd cf39 d53c 3af6 48bd
000002f0: 646e 02bb 41d4 2c3e e768 3e3e d08f bebd
00000300: 9723 a8bc 7f77 a03c 2cfa 75bd 49fd 84bd
00000310: 8ea3 66bd 4c92 233e 4c74 1bbe 656b da3c
00000320: 35d8 3c3e 5941 ec3b 6d16 9b3d 53a0 c23a
00000330: f7aa 853d 3647 c8bd c05c 723c b145 c7bd
00000340: a0f1 d8bc 2791 913d b1c4 64bc e3aa a3bc
00000350: d8d7 1a3e 9810 013d 4281 163e a09d 283e
00000360: 2792 963c 25c2 dabd 2a6e c63d d85d 783d
00000370: 3c6a 913d e8bb 0f3d f7c4 13be 539b 32be
00000380: a35d e33d 5037 34be 878a 023e e573 bcbc
00000390: 2f8b 26be d82b ba3d d063 843b e0b7 08be
000003a0: ce55 1e3e 96ce a6bc 6f6b 6e3d 2eca 1a3e
000003b0: 8fd0 fabb 19f7 d5bd 2134 823d c8cf 253e
000003c0: f7ef fb3c 87a0 d5bd 2aa3 e8bd 4b89 dd3d
000003d0: d1ca a6bc a424 92bd 1ba0 e63d db3e 78bc
000003e0: a1ae b43d e6e7 013e f73a b83d b4f5 ec3c
000003f0: e428 41bd 9389 9b3d 4c1d e2bd d202 9abc
0.10204023 -0.15043464 0.14400919 -0.049577408 0.08482356 0.116533175 0.06155477 0.1256023
0.13611627 -0.13918583 -0.06757075 0.11341393 -0.14377555 -0.021057907 0.07037099 -0.041748907
0.13515191 -0.05799691 -0.09111771 0.06424873 -0.028395193 0.02347368 0.11801664 -0.094602436
0.072104245 0.061240114 0.016559549 -0.1547979 0.022911811 0.092290945 -0.044343363 0.1017296
-0.09087849 0.015692746 0.038988713 -0.14775945 -0.14815886 -0.11735334 0.09324988 -0.073503025
0.12489114 -0.045841433 -0.090054594 0.018613819 -0.027953517 -0.07184852 -0.014317996 -0.15546396
0.0707581 0.045274124 0.16846493 -0.15385304 -0.1209984 -0.15763012 -0.17286171 -0.07136011
0.1241675 0.12601998 -0.047949232 -0.026401784 0.1287353 -0.12844595 0.014735676 0.07567679
-0.07371893 -0.17450596 0.12039763 0.034803934 0.12070668 0.14785156 0.15241653 -0.031575345
0.07698892 0.09084855 0.14755698 -0.00967731 -0.022522483 0.16002026 0.05139503 -0.09432018
-0.12984724 0.016578589 -0.15032163 0.09130571 0.12277652 -0.048715487 -0.038733292 -0.004286429
-0.15592729 -0.07237779 -0.07687127 -0.13892263 0.107470095 -0.041121006 -0.113041654 0.04031016
-0.03584287 -0.12481114 0.18243231 0.0382893 -0.10172539 -0.14126043 -0.04360687 -0.12423418
0.1735702 0.0189902 -0.09431862 0.11550256 -0.030117093 0.0501676 -0.10816853 -0.10981828
0.12444885 -0.13891871 -0.02563757 0.056390982 -0.09715225 0.11784353 0.072113074 -0.0918728
0.1540208 0.13289751 0.12262192 -0.0037416548 -0.06389872 -0.14393465 -0.034198504 -0.16011834
-0.13397507 0.03999839 -0.17579748 0.107406296 -0.17647663 -0.17164445 0.06404124 -0.02134329
-0.114386514 0.022879394 0.08286045 0.035871997 -0.12717691 0.045441467 0.062457077 -0.07476012
-0.15570416 0.050426405 0.1509822 -0.17994235 -0.16327445 -0.18067157 -0.015045961 -0.027066115
-0.17011611 0.09420815 -0.06321238 -0.04410734 0.028219983 0.043759655 0.098779425 -0.17563058
0.0073123747 0.15985553 0.0389582 0.14938527 0.13884634 -0.026396835 -0.085879944 -0.041591562
0.017689504 0.12019181 0.16563085 -0.12974021 0.16414204 0.12251606 0.13937281 -0.14179744
0.0072274525 0.18438967 -0.036457784 0.031529825 -0.09605037 -0.07200454 0.12221775 0.0905384
0.037481386 -0.05017296 0.026028542 -0.049062945 -0.0019902224 0.16877843 0.18594705 -0.09304774
-0.020524783 0.01958823 -0.060053036 -0.06493623 -0.05630832 0.15973777 -0.15181082 0.026662538
0.18441851 0.0072099385 0.07572637 0.0014848806 0.065267496 -0.097792074 0.014792621 -0.097300895
-0.026482403 0.07107764 -0.0139629105 -0.019978946 0.151214 0.031509966 0.14697745 0.16466379
0.018380238 -0.106815614 0.09688981 0.06063637 0.07100341 0.03509131 -0.14430605 -0.17442064
0.11101844 -0.17599225 0.12748156 -0.023004482 -0.16264032 0.09090394 0.004040219 -0.13351393
0.1546242 -0.02036218 0.058207925 0.15116188 -0.0076542567 -0.10447521 0.06357599 0.16192544
0.030754073 -0.10431009 -0.11359246 0.10817202 -0.020360382 -0.07135895 0.112610064 -0.015151705
0.0882237 0.12686118 0.08995622 0.028925754 -0.047158137 0.075945996 -0.11040744 -0.018800173

conv1.apply_func.2.bias f4 [32]
00000000: 4348 febb 5892 6bbd f973 e6bb 4936 153d
00000010: 9994 ba3d e3f0 f03d 2ab5 c4bc cf7e 0e3d
00000020: 9b5f 6abe fe3d 6fbe 0120 8e3a 217d 76be
00000030: 02ef 6fbe 8c86 1f3e 8028 59bd 3246 41be
00000040: 1873 123e 42a8 f2bc d8de 19be 3848 623d
00000050: b47e 47be 0525 d73d 4d84 c0bb 6da7 7b3d
00000060: adea 7cbd a40f 143e e5a7 0abe 6e19 003e
00000070: 2226 383e 5f0f ad3d 700a a2bc cbf8 0bbe
-0.007760079 -0.05751261 -0.007032868 0.036428723 0.09110374 0.117646955 -0.024012167 0.034788903
-0.22888033 -0.23363492 0.0010843278 -0.2407117 -0.23431018 0.1557867 -0.05301714 -0.18874434
0.14301717 -0.029621247 -0.15026414 0.055244654 -0.19481927 0.10505108 -0.0058751465 0.061438967
-0.06174724 0.14459091 -0.13540609 0.125097 0.17983297 0.084501974 -0.019780368 -0.13669126

conv2.apply_func.0.weight f4 [32, 32]
00000000: e6a9 1d3e e758 6abd 25af 06be 5951 c83d
00000010: a012 463d 5626 113e be08 9b3d 535d 07be
00000020: a4fa 003e da60 18be c42a 2abe 2778 d2bd
00000030: a8c4 023e c00b 7c3d ccac 6abd ebcd 4a3d
00000040: d3b0 2fbe c507 fc3d ab3f 15be 7cfe a3bd
00000050: 736c 803d 5844 05be 27a8 46bd 6c23 bd3c
00000060: 5a87 1dbd 30f3 b03c bab1 713b cf3f fe3c
00000070: cfd8 3a3e d4c9 b33c ed5c 28be 5f8a f43d
00000080: 03a2 263e 9dd5 37be 00f3 f43d 8253 47bd
00000090: 248a 13be 4321 9dbd dce7 c4bd 66ec 2e3e
000000a0: 7572 1cbd cf81 c53c 7ea4 d1bd 4884 0d3e
000000b0: 3ab4 b4bd 3f29 b43d 5dfc 953d f450 f63d
000000c0: 12ee 1bbe c6e6 68bd 4e90 93bd c026 1a3c
000000d0: 4f4b ee3c 952f 9fbd 2173 333e e64c 27be
000000e0: 4fb8 a43d ee00 0fbd 1efd 34be 63ab 073e
000000f0: b1f7 f6bd 4919 d23d 26ec ba3d 9954 9f3d
00000100: faf6 813d d0d1 0b3d d00f 24be f8f9 c93d
00000110: 675f ee3c 51d7 2fbe b889 053d f9cf d3bd
00000120: 26b9 64bd 2e01 f93d 611c e23d 9dbd a03d
00000130: 6534 2cbc 5935 f9bd f3ad d2bc 5367 2e3e
00000140: f0be a7bd e7eb 1f3e af6a f0bd 80fa 00be
00000150: f65b 84bd 84dc 55bd 46c4 40bc 4c3a 20be
00000160: 67ea 423d a07e 34be 8bd0 f6bd bd5e db3d
00000170: c51a 0dbd 9a0d cabd 1154 1fbe 0344 573d
00000180: 588d 0cbe e840 f8bd 1445 f1bd beea 193c
00000190: d7ed ebbd 8dc9 af3d bac5 af3c d32a f13d
000001a0: 66f2 e33d 9f37 6f3c 10a3 003e 41d5 39bd
000001b0: 3ba7 cbbd 311a 30be dce2 a4bd 032d 523d
000001c0: 80e3 b93d 5608 dc3d 1684 d9bd a51d 213e
000001d0: b827 1fbe 44a0 a93d 6806 fa3d 9f46 abbc
000001e0: 160a 24bd 0562 b0bd 82b1 0a3e 9f2a cdbd
000001f0: bf1c bcbd 8b8c 0f3e f991 0abe 67be 183e
00000200: 7d89 143e 6e9a 31be 9d97 163e 5f97 163e
00000210: 7aa1 2d3e 736b 583d d5d5 f53c 4cc3 0abe
00000220: b23c 49be dfd1 d2bd 6da3 1a3e fb21 edbd
00000230: b239 223e 1142 673d 0ad5 14be 4a4b c63d
00000240: d96d 1cbe 1f45 50bd 00c6 bbbd 911b 31be
00000250: f871 b9bd b1c2 0a3e ff1d c4bd c7d0 2abe
00000260: 0b81 ea3b fb31 12be b69a d7bc f6de a23d
00000270: f345 c33d af7a c1bd 49f3 823d 8ad7 50bd
00000280: cb63 313e 8f5d 18be 782f ac3c 0d0e 8d3d
00000290: 1a2e d8bd 6c25 1b3e f558 01be 0101 f33d
000002a0: ac52 bfbc 7164 02be 4059 383e e449 d53d
000002b0: 7574 153e a649 0fbe 1107 a7bd ecee 253c
000002c0: f793 3abe e6e7 1f3e a34b 2e3e 5e13 8bbd
000002d0: 6b60 99bd 5aa9 eb3b a9ba 20be 0fba 29be
000002e0: f245 21bd dcf6 5b3d ed59 3abc b78c 13bd
000002f0: fccc 2bbe 3b09 20be be74 343e 3888 723d
00000300: 83fc cc3d 7662 ac3d c016 77bd cc89 b73d
00000310: 81a7 503d 8f4a ed3d d9cd ca3d 15d6 093e
00000320: a612 7a3d 94c7 01be 13b2 fb3d 3819 01be
00000330: b8fa 043e 0c59 9c3d eed6 f1bd 32e9 383d
00000340: eab1 873d ef3a 98bd b088 153e 6ed4 96bc
00000350: 0391 31be deb6 b3bd d554 acbd 1422 833a
00000360: 9124 9bbd a216 25bb 029a b83d 207e b2bc
00000370: 3dc1 cb3d 1091 243e 2f3e 2b3e 48a3 303e
00000380: 2036 483d 90e1 f7bd 5947 0ebe c805 9d3b
00000390: 5b49 32be d45f 30be 7a52 2fbe c6cf 1c3e
000003a0: 90f3 7f3d b11b 45bd 4b9b a5bc 501a b6bc
000003b0: 0f75 873d 936f 233e 25ac d7bd ffcc 023d
000003c0: 6650 083e c138 c6bd d616 37bd 4a8d f4bb
000003d0: f064 b53c aa5a 1cbd 56a1 0bbe 14cc e1bd
000003e0: 7eb1 9e3c 4666 083e 08eb 123d cd3a 4ebd
000003f0: 3a1b c53c 6ab6 32be 74b1 d0bb b123 1f3c
0.15396842 -0.05721369 -0.1315275 0.09781141 0.048357606 0.1417478 0.07570027 -0.13219194
0.12595612 -0.14880696 -0.16617876 -0.102768235 0.12770331 0.061534643 -0.0572937 0.049512785
-0.17157297 0.123061694 -0.14575069 -0.080075234 0.06270685 -0.13014352 -0.048500206 0.02308818
-0.03845916 0.021600336 0.0036879615 0.031036286 0.18246768 0.021946825 -0.16441698 0.11940455
0.1627274 -0.17952581 0.11960411 -0.048663624 -0.14408165 -0.0767236 -0.09614536 0.17082366
-0.038195092 0.02410975 -0.102364525 0.13819993 -0.08823438 0.087969296 0.07323525 0.12027159
-0.15227535 -0.056860708 -0.07205258 0.009408653 0.029088644 -0.077727474 0.17524387 -0.16337928
0.080429666 -0.034912996 -0.17674682 0.13248973 -0.12058962 0.10258729 0.09127073 0.077798076
0.06345935 0.03413564 -0.16021657 0.09862131 0.029098226 -0.1717198 0.032602042 -0.10342402
-0.055840634 0.12158428 0.11040569 0.07848666 -0.010510539 -0.121683784 -0.025717711 0.17031603
-0.08190715 0.15617333 -0.11739098 -0.12595558 -0.06462853 -0.052212253 -0.011765545 -0.15647238
0.047586825 -0.17626429 -0.12051495 0.10711429 -0.034449358 -0.098658755 -0.15559413 0.052555095
-0.13725793 -0.12121755 -0.11780754 0.009394346 -0.11519974 0.08583365 0.021456588 0.11775746
0.11130218 0.014600663 0.12562203 -0.04536939 -0.09944006 -0.17197491 -0.080510825 0.051312458
0.09076595 0.107437775 -0.106208965 0.15733965 -0.15542495 0.08282521 0.12208253 -0.020907698
-0.04004868 -0.08612446 0.13544276 -0.10017895 -0.091851704 0.14018457 -0.13532247 0.14916383
0.14505573 -0.17344067 0.14706273 0.14706181 0.1695613 0.052836847 0.03000919 -0.13551062
-0.1965206 -0.10293936 0.15101404 -0.11578747 0.15842322 0.05645949 -0.14534393 0.09682329
-0.15276279 -0.05084717 -0.09168625 -0.17295672 -0.09054941 0.13550831 -0.09576034 -0.16681205
0.0071564964 -0.14276879 -0.02631889 0.07952683 0.09534826 -0.09447228 0.06394059 -0.050986804
0.17323224 -0.1487944 0.021018729 0.068874456 -0.10555668 0.15150994 -0.1263159 0.11865426
-0.02335485 -0.12733628 0.18002796 0.10414484 0.14595206 -0.13992938 -0.08155645 0.010127764
-0.18220507 0.15615806 0.1702104 -0.067908034 -0.074890934 0.007191819 -0.15696205 -0.16574882
-0.039373346 0.05370222 -0.011373979 -0.036022868 -0.16777414 -0.15628521 0.17622659 0.05921194
0.100091 0.084172174 -0.06032443 0.089618295 0.050940994 0.115864865 0.099025436 0.13460572
0.06105294 -0.1267379 0.12289824 -0.12607276 0.12986267 0.07634172 -0.11808573 0.045144267
0.06625731 -0.07433116 0.14602923 -0.018411841 -0.17340474 -0.087751135 -0.08414618 0.0010004663
-0.07575334 -0.0025190492 0.0901375 -0.021788657 0.09948967 0.16070962 0.1672294 0.17249787
0.048879743 -0.121035695 -0.13894404 0.004791949 -0.17410795 -0.17224056 -0.17121306 0.15313634
0.06248814 -0.04812211 -0.020215651 -0.022229344 0.06614124 0.15960531 -0.10530881 0.03193378
0.1331192 -0.09678794 -0.044699512 -0.007463132 0.022142857 -0.0381724 -0.13635764 -0.11025253
0.019371744 0.13320264 0.035868675 -0.050349046 0.024060834 -0.17452398 -0.0063688103 0.009713099

conv2.apply_func.0.bias f4 [32]
00000000: 0061 053d 2f41 c33d fcfb bf3b c3dd 773d
00000010: cc4e 003e 421e 05be 1461 3ebd deef dabd
00000020: 8da0 ca3d e19a 43bd eeea f8bd 3f9d 083e
00000030: b07b 183e b4e0 24bd 9005 c33c 8b91 acbc
00000040: 1a8c c73d 23f3 bfbd 736d bd3d eb4f 603c
00000050: e1e6 febd e730 dc3d fc15 3ebe e753 26be
00000060: 68cc fa3d 603f 5d3e e12b 7b3d bf04 793e
00000070: ebf6 263e 8386 d03c c789 183e 2f9e 1a3e
0.03256321 0.09533917 0.0058588963 0.060514223 0.12530059 -0.12999824 -0.0464793 -0.10690282
0.09893904 -0.047755126 -0.12154184 0.13341235 0.14890933 -0.040253356 0.023806363 -0.021065494
0.09743519 -0.093725465 0.092493914 0.013690929 -0.124463804 0.10751515 -0.18563074 -0.16242944
0.12246019 0.21606207 0.061321143 0.24318217 0.16305129 0.025454765 0.14896308 0.15099405
