macros/Timing_estimation/models/February_10/run_1/epoch_21.pth (torch, 311082 bytes, 29 tensors)

mlp1.0.weight f4 [32, 9]
0	0x3ea8ed45	0.32993522
1	0xbe396a89	-0.18107046
2	0xbe548b1e	-0.20756194
3	0xbce5d3c9	-0.028055089
4	0x3ed0bdf2	0.40769917
5	0x3d4579d3	0.048211884
6	0xbea6d1c9	-0.32581928
7	0x3eaf2a83	0.3421212
8	0xbea1d794	-0.31609786
9	0x3ec2d1d7	0.3805072
10	0xbdd42342	-0.103582874
11	0xbd0d5593	-0.034505438
12	0x3d904e17	0.070461445
13	0xbecde780	-0.40215683
14	0x3dbd91b9	0.0925631
15	0x3de928cd	0.11384735
16	0xbe908cd5	-0.28232446
17	0x3b65959a	0.0035031796
18	0x3e954182	0.2915154
19	0x3ea82721	0.32842353
20	0xbd8100a3	-0.062989496
21	0x3d18d032	0.037307926
22	0xbe8c9c22	-0.2746287
23	0xbe41066e	-0.18850109
24	0xbd07b27e	-0.033129208
25	0x3ebd49f2	0.36970478
26	0x3e688fa9	0.22711052
27	0xbe079ff8	-0.13244617
28	0xbe5e3c18	-0.21702611
29	0x3e20d159	0.1570486
30	0xbdbe7231	-0.09299124
31	0xbe0daa49	-0.1383449
32	0xbe1239e0	-0.1427989
33	0x3d21236e	0.03934043
34	0xbe98b6af	-0.29826877
35	0xbcb8eb3f	-0.022573112
36	0x3e2d43db	0.16920416
37	0x3dd3c01a	0.10339375
38	0xbd119c00	-0.035549164
39	0xbddecbae	-0.108786926
40	0x3dfab827	0.122421555
41	0xbe64ce1f	-0.22344254
42	0x3d476244	0.048677698
43	0x3d8af412	0.06784834
44	0xbe93aee8	-0.2884438
45	0xbe753f03	-0.23949818
46	0xbd81c37f	-0.06336116
47	0x3e3797d8	0.17929018
48	0x3c7cac50	0.015421942
49	0x3e91c841	0.28473094
50	0x3e98b93e	0.2982883
51	0xbe0f338e	-0.1398451
52	0x3db389de	0.087665305
53	0xbe5b3705	-0.21407707
54	0x3ea01a75	0.31270185
55	0x3dd7d136	0.10537951
56	0x3dd10b9a	0.10207291
57	0x3df01614	0.11722961
58	0x3db5f5c2	0.08884765
59	0x3e0d0a84	0.13773543
60	0xbe66635e	-0.22498843
61	0x3e08cd82	0.13359645
62	0x3e9b00ca	0.3027404
63	0x3e5a7c07	0.21336375
64	0xbdcb0d43	-0.09914639
65	0x3e6689e5	0.2251354
66	0xbe879184	-0.26478207
67	0x3ed0d821	0.40789893
68	0xbe807d90	-0.25095797
69	0xbeb0b8db	-0.34516034
70	0x3e542cdb	0.20720236
71	0x3d6f7518	0.05846128
72	0x3b8ea6a4	0.004353361
73	0xbf0132bb	-0.50468034
74	0xb9322133	-0.0001698777
75	0x3e6270dd	0.22113366
76	0xbe3bd7c9	-0.18344034
77	0x3e2771ae	0.16351959
78	0x3da9bf0d	0.08288393
79	0x3d30453b	0.043034773
80	0x3e9983db	0.2998341
81	0x3e3b709c	0.18304676
82	0xbdac7068	-0.08419877
83	0x3e492528	0.1964308
84	0xbe338e72	-0.17534807
85	0xbe4169cf	-0.18888019
86	0xbd6de993	-0.05808408
87	0xbe8ca899	-0.2747238
88	0x3dfedfcb	0.12445029
89	0x3d25eb20	0.040507436
90	0x3de5fcdc	0.1122987
91	0x3e3f9b62	0.18711618
92	0xbd8bd145	-0.06827024
93	0x3e1c2a67	0.1525055
94	0x3d641a0c	0.055688903
95	0xbdcc7ee8	-0.09985143
96	0xbe96b05b	-0.29431424
97	0x3e9042cf	0.2817597
98	0x3d618aee	0.055064134
99	0x3e460019	0.19335975
100	0x3dee42cf	0.116338365
101	0xbe2aea04	-0.16690832
102	0x3ea0017c	0.31251132
103	0x3eaf4377	0.3423116
104	0x3df00b08	0.11720854
105	0x3e66d6d9	0.22542895
106	0x3e514d5f	0.20439671
107	0x3e03955e	0.12849948
108	0xbe85ccdc	-0.26132858
109	0xbead0955	-0.33796182
110	0xbdedec7b	-0.11617371
111	0xbd142fe4	-0.036178485
112	0x3ecc8600	0.39945984
113	0xbea6ff74	-0.3261677
114	0x3e8576cc	0.26067197
115	0x3e4afa42	0.19822028
116	0x3e2707b8	0.16311538
117	0xbd66337c	-0.056201443
118	0xbec9de82	-0.39427572
119	0x3d5190f9	0.051163647
120	0xbdf2e014	-0.11859146
121	0x3ee804bc	0.45316112
122	0x3aac5477	0.0013147731
123	0xbd02cee9	-0.031935606
124	0xbe28db0e	-0.16489813
125	0x3d0fa413	0.035068583
126	0xbe4486de	-0.19192073
127	0xbcca8d8c	-0.024725698
128	0x3e137986	0.14401826
129	0xbe1a568d	-0.15072079
130	0x3d9f73e7	0.077857785
131	0x3e7a5ad7	0.24448715
132	0xbe005b17	-0.12534748
133	0xbe5c89f0	-0.21536994
134	0xbdc60b44	-0.096701175
135	0xbe9726cc	-0.29521787
136	0x3e250210	0.16114068
137	0x3d2274e6	0.039662264
138	0xbe6deb3f	-0.2323427
139	0xbde7fc19	-0.11327381
140	0x3e35cf19	0.17754783
141	0xbdaa49c8	-0.08314854
142	0x3e440041	0.19140722
143	0x3e5e28ba	0.21695223
144	0x3d15cef8	0.036574334
145	0xbe26f98e	-0.16306135
146	0x3d2ed026	0.042678975
147	0x3e48a431	0.19593884
148	0xbeacbd81	-0.3373833
149	0xbea65287	-0.32484838
150	0xbe71a737	-0.23598944
151	0xbe901315	-0.28139558
152	0xbe648549	-0.22316469
153	0x3dec230d	0.11530123
154	0x3e439f0e	0.19103643
155	0xbec39a57	-0.3820369
156	0x3cc7c092	0.024383817
157	0xbe16f981	-0.14743616
158	0xbea63a27	-0.32466242
159	0xbe485bc2	-0.19566253
160	0x3e8f05a9	0.27934006
161	0xbbd4ca0d	-0.006493813
162	0xbc904052	-0.017608795
163	0x3db2ef09	0.087369986
164	0xbc83653e	-0.016039487
165	0x3e787421	0.2426305
166	0xbe4f047d	-0.20216556
167	0xbd3a36a2	-0.04546226
168	0xbe8e9fcd	-0.27856293
169	0xbe28a4e5	-0.16469152
170	0x3d98ed54	0.07467142
171	0x3d25c80b	0.04047398
172	0xbe997076	-0.29968613
173	0xbdea831b	-0.11450788
174	0xbb9c6700	-0.0047730207
175	0x3d43bf96	0.047790132
176	0x3a4f6aab	0.0007912318
177	0xbd38806b	-0.045044344
178	0xbe84b4ec	-0.25919282
179	0xbe965414	-0.29361022
180	0xbe61f420	-0.22065783
181	0x3dde323c	0.10849425
182	0x3c35dc95	0.011099954
183	0x3dbcbb35	0.092153944
184	0xbcd92c1a	-0.026510287
185	0xbe5807f8	-0.2109679
186	0x3e96cfb9	0.29455355
187	0x3e848697	0.25883934
188	0xbdf5e374	-0.12006274
189	0x3e5c9bb5	0.21543773
190	0x3b2af794	0.002608751
191	0x3d976986	0.07393174
192	0xbdcf3377	-0.10117238
193	0xbdf723d8	-0.120673835
194	0xbea2243c	-0.3166827
195	0x3d09e48f	0.033665236
196	0xbe95a2bf	-0.29225728
197	0xbe2e6450	-0.17030454
198	0xbe6937b6	-0.22775158
199	0xbd402a9b	-0.04691563
200	0x3e200639	0.15627374
201	0x3e137727	0.14400922
202	0x3f0ba40c	0.5454719
203	0x3c6a7d0a	0.014312038
204	0x3ec227c0	0.37920952
205	0x3ebf2ed2	0.3734041
206	0xbe93462d	-0.28764477
207	0xbde74d0f	-0.11293995
208	0xbe8700f9	-0.2636793
209	0x3e92a551	0.2864175
210	0x3e9bb96c	0.30414903
211	0x3eb064c5	0.3445188
212	0x3e942b30	0.289392
213	0x3d2842fc	0.041079506
214	0x3d9946d8	0.074842155
215	0x3e352574	0.17690068
216	0x3cf8d736	0.030376058
217	0xbe54122b	-0.20710056
218	0xbc42096a	-0.011843065
219	0xbe0dd1a8	-0.13849509
220	0xbd322dd3	-0.043500733
221	0x3dc68915	0.09694115
222	0x3e0376fa	0.12838355
223	0x3dc83f66	0.09777717
224	0x3e6fc051	0.23413207
225	0x3da702a3	0.081548
226	0xbdd52209	-0.10406882
227	0x3e1d8a9a	0.15384904
228	0x3d7df84b	0.06200437
229	0x3e0c1ca8	0.13682806
230	0x3ea88364	0.32912743
231	0xbd9cc289	-0.07654292
232	0xbe691bd1	-0.22764517
233	0x3e88c338	0.2671144
234	0x3e1486bf	0.14504527
235	0x3d8df555	0.06931559
236	0x3d91f532	0.071268454
237	0x3e6c4f35	0.2307709
238	0xbe8f9aa5	-0.28047672
239	0xbe9390ce	-0.28821415
240	0x3e926d35	0.28598943
241	0xbe9d3b14	-0.30709136
242	0xbd011b77	-0.031520333
243	0x3da5b95f	0.08091997
244	0x3da8f18a	0.08249195
245	0xbec49d15	-0.38401094
246	0x3e8327b9	0.25616243
247	0xbe8eb34f	-0.27871177
248	0xbe93d931	-0.2887664
249	0xbd72b08a	-0.059250392
250	0x3e158feb	0.14605682
251	0x3e06b2d3	0.13154154
252	0x3ca113d5	0.019662777
253	0x3e900bda	0.28134042
254	0xbec6fd1e	-0.38864988
255	0x3d41aca3	0.04728378

mlp1.0.bias f4 [32]
0	0x3e3f0f82	0.1865826
1	0xbede1629	-0.43376282
2	0x3ea30404	0.31839
3	0x3e848769	0.2588456
4	0xbe9c7f67	-0.3056595
5	0x3cd8a4e3	0.026445812
6	0xbeb59a70	-0.3546939
7	0xbe2c269c	-0.16811603
8	0xbe0355c7	-0.1282569
9	0xbc005993	-0.007833856
10	0x3e86836b	0.2627214
11	0x3ef5e20c	0.48024023
12	0xbbaf01b5	-0.0053407797
13	0xbde621ef	-0.11236941
14	0xbea81fcd	-0.32836762
15	0xbe96014e	-0.2929787
16	0xbe334a7d	-0.17508884
17	0x3d983ad3	0.07433095
18	0xbe50fb1d	-0.20408292
19	0x3cb6e22b	0.022324642
20	0xbd3acf85	-0.045608062
21	0xbe827571	-0.25480226
22	0x3e6803a5	0.2265764
23	0x3e23bd15	0.15990098
24	0xbe97177c	-0.29510105
25	0x3e17e62c	0.14833897
26	0xbe301f38	-0.17199409
27	0xbdc9dcdf	-0.09856581
28	0x3e025c2c	0.12730473
29	0x3b4d2eff	0.003130853
30	0x3eb73943	0.35785875
31	0xbdc746c9	-0.09730298

mlp1.2.weight f4 [32, 32]
0	0x3ddb7885	0.10716347
1	0x3da021f3	0.07818975
2	0xbdedc1ca	-0.11609228
3	0x3d894d19	0.06704158
4	0x3e0a290f	0.13492225
5	0xbddbe225	-0.10736493
6	0x3afcca0d	0.001928629
7	0x3dcebd97	0.10094755
8	0xbdd6c368	-0.104864895
9	0xbd38f81e	-0.045158498
10	0xbdc35160	-0.095370054
11	0xb9b28314	-0.00034048466
12	0x3e1d7378	0.15376079
13	0x3de508bd	0.11183307
14	0xbd532c1a	-0.05155573
15	0xbe194195	-0.14966424
16	0x3d2a9f22	0.041655667
17	0x3e19f5e9	0.15035214
18	0x3d4c72eb	0.04991428
19	0xbe2a8957	-0.16653953
20	0xbbe3beef	-0.0069502513
21	0x3e1e3cba	0.15452853
22	0x3d7dc6d5	0.0619572
23	0xbe216a3f	-0.15763186
24	0xbd57fa35	-0.05272885
25	0xbdeb8f62	-0.115019575
26	0x3cfa56c3	0.03055895
27	0xbc3f5963	-0.011679026
28	0xbd9b6c31	-0.07588995
29	0xbe4216d3	-0.18954019
30	0x3d9f446d	0.07776723
31	0x3dab9067	0.08377152
32	0xbd0f3777	-0.034965005
33	0x3de3c853	0.11122193
34	0x3cac6374	0.021043517
35	0x3e041aca	0.12900844
36	0x3e41ee7a	0.18938628
37	0x3decf982	0.11571027
38	0x3d60cd0b	0.054883044
39	0x3d100d98	0.035169214
40	0xbc56b545	-0.013104741
41	0x3dc8c055	0.098023094
42	0xbe0600a2	-0.13086179
43	0xbd9a680d	-0.07539377
44	0x3e076969	0.13223805
45	0xbe355a94	-0.17710334
46	0x3e1df22e	0.15424415
47	0x3e3fc158	0.18726099
48	0x3e3b5483	0.18293957
49	0xbda36c66	-0.0797966
50	0x3e3a4d03	0.1819344
51	0xbc1ce5f6	-0.009576311
52	0x3dd47929	0.10374672
53	0x3e31f239	0.17377557
54	0xbdd4c0be	-0.10388325
55	0xbd844ad2	-0.06459583
56	0x3df879d2	0.121326104
57	0xbe2cab24	-0.1686216
58	0x3e38190e	0.17978308
59	0xbe12ae1e	-0.14324233
60	0x3e3ea0b8	0.18615997
61	0x3df6ca36	0.120502874
62	0x3d80f268	0.06296235
63	0xbda5fc30	-0.081047416
64	0x3dee5836	0.11637919
65	0xbde2f7e4	-0.11082438
66	0x3c7344e1	0.014847965
67	0x3df88853	0.12135377
68	0xbdef5274	-0.116856486
69	0x3e1082eb	0.14112441
70	0xbe06f52d	-0.13179465
71	0x3e6b7004	0.2299195
72	0x3e1e72d4	0.15473491
73	0x3e35d315	0.17756303
74	0xbe36c021	-0.17846729
75	0x3d93e7dd	0.07221959
76	0xbe0b01cb	-0.13574903
77	0x3d8c8ad7	0.06862419
78	0x3d88581d	0.06657431
79	0xbdab1931	-0.08354414
80	0xbd82db63	-0.06389501
81	0x3cf36504	0.029711254
82	0x3e25561b	0.16146128
83	0xbd299ded	-0.041410375
84	0x3d1dc1ca	0.03851489
85	0x3d7f0b72	0.062266774
86	0x3e179b0c	0.1480524
87	0x3db69cd8	0.08916634
88	0xbe35d4d0	-0.17756963
89	0x3df36ff6	0.11886589
90	0xbc057293	-0.008144992
91	0x3e071701	0.13192369
92	0xbd519553	-0.051167797
93	0xbdd530c5	-0.10409693
94	0x3d771ffb	0.060333233
95	0x3e869675	0.26286665
96	0xbe3674a7	-0.17817937
97	0xbdd661a8	-0.10467845
98	0x3e04f070	0.12982345
99	0xbe075277	-0.13215052
100	0x3e0c0e45	0.13677318
101	0xbd12e04f	-0.03585845
102	0xbcb473e1	-0.022027912
103	0x3dd2f9ae	0.10301529
104	0x3dcccfc6	0.10000567
105	0xbdb93f38	-0.09045261
106	0x3ce3d929	0.027813511
107	0xbdac297b	-0.08406349
108	0xbe18f734	-0.1493805
109	0xbda602c8	-0.08105999
110	0xbe3edaa7	-0.18638097
111	0x3cb53ffb	0.022125235
112	0x3e2fbd1e	0.17161986
113	0x3e1dbf0f	0.15404914
114	0x3e1ca717	0.15298115
115	0xbd8f6b31	-0.07002867
116	0xbc1c822d	-0.009552521
117	0x3e1009a5	0.14066179
118	0x3dce7b8a	0.10082157
119	0x3da62322	0.0811217
120	0xbc351a7d	-0.011053679
121	0x3bb94e02	0.005655051
122	0xbdeaeee6	-0.114713475
123	0x3e13d9e7	0.14438592
124	0x3dc91307	0.09818082
125	0x3d311aa7	0.04323831
126	0xbe1e2b2e	-0.15446159
127	0xbdfe2736	-0.12409823
128	0x3d0755c6	0.033040784
129	0x3d8ddaec	0.06926522
130	0x3dc25197	0.09488218
131	0x3d8f4ae0	0.06996703
132	0xbd7784e5	-0.060429472
133	0xbe0f5588	-0.13997471
134	0x3e304d90	0.17217088
135	0x3dd2b23c	0.10287902
136	0x3d953e9a	0.07287331
137	0xbe2a789e	-0.16647574
138	0xbddeea51	-0.10884536
139	0x3d8ee68e	0.069775686
140	0xbd9e0ee5	-0.07717685
141	0xbd7fc137	-0.062440123
142	0x3d41be17	0.047300424
143	0x3d3d1899	0.046166036
144	0x3d535ef5	0.05160423
145	0xbc349ee3	-0.01102421
146	0xbe0c862d	-0.13723059
147	0x3e2881a8	0.1645571
148	0xbe392d61	-0.18083717
149	0x3d1b8f56	0.037978493
150	0x3dd18116	0.10229699
151	0x3d26e609	0.040746722
152	0xbddc9559	-0.10770673
153	0x3e0d3bbf	0.13792323
154	0x3db0ef95	0.08639447
155	0xbd0f2312	-0.034945555
156	0x3e285d65	0.16441877
157	0x3d7b811b	0.06140242
158	0x3afc0d07	0.0019229957
159	0xbb6b94da	-0.0035946877
160	0xbd878374	-0.066168696
161	0xbdf94756	-0.121718094
162	0x3c5d1484	0.013493661
163	0xbe38cacc	-0.18046111
164	0x3e2c04eb	0.16798751
165	0xbcd089f2	-0.025456402
166	0xbdfd924d	-0.1238142
167	0x3df2d8e2	0.11857773
168	0x3e35f238	0.1776818
169	0x3dafc5bc	0.08582637
170	0xbe08b958	-0.13351953
171	0x3d616442	0.055027254
172	0x3c9bfff8	0.019042954
173	0x3d628a38	0.055307597
174	0x3d3d9b2d	0.046290565
175	0xbd91511d	-0.07095549
176	0xbd2e2b76	-0.042521916
177	0xbc08d8ec	-0.008352499
178	0xbe0a631e	-0.13514373
179	0x3d92f10d	0.07174883
180	0xbd70d698	-0.058798403
181	0x3d7fecb4	0.062481597
182	0x3dc9ec37	0.098595075
183	0xbe1bfbb9	-0.15232743
184	0x3e2c5e6d	0.16832896
185	0x3e2e04ba	0.1699399
186	0x3cd912ff	0.026498316
187	0x3d765b3c	0.0601456
188	0xbd7815d4	-0.060567692
189	0x3d8daaa6	0.06917314
190	0x3e2a81eb	0.16651122
191	0x3d7cf8a1	0.06176055
192	0x3d7339b6	0.05938121
193	0xbdf20899	-0.11818046
194	0x3db4a0e2	0.088197485
195	0xbe1acba4	-0.15116745
196	0xbc2c458b	-0.010514627
197	0x3c8a4088	0.016876474
198	0xbd2e0f9d	-0.04249536
199	0x3e07d1f9	0.13263692
200	0xbd328ed0	-0.043593228
201	0xbc0a5b26	-0.008444583
202	0xbd1f3781	-0.038871292
203	0x3d6d13ff	0.057880398
204	0x3c03aafc	0.008036371
205	0x3e4f107d	0.20221134
206	0x3c3af091	0.011409895
207	0x3dcf408d	0.10119734
208	0x3c99ef60	0.0187909
209	0x3dbc5071	0.091950305
210	0xbc0afafa	-0.008482689
211	0xbe1965c1	-0.14980222
212	0x3cccc38c	0.024995588
213	0xbd80583b	-0.062668286
214	0x3b9c494e	0.004769481
215	0x3e0912c7	0.13386069
216	0x3d881ca9	0.066460915
217	0xbb3ef9ed	-0.0029140667
218	0xbe278ed4	-0.16363078
219	0x3d3de9e1	0.046365622
220	0xbd96b986	-0.073596045
221	0xbd98ddef	-0.074642055
222	0x3d1cd12b	0.038285416
223	0x3dd493cd	0.10379753
224	0xbde1ad34	-0.11019364
225	0xbe2eec1a	-0.17082253
226	0x3d4f6559	0.050633762
227	0x3b6f982b	0.0036559205
228	0xbc84f340	-0.016229272
229	0xbda9feff	-0.0830059
230	0xbe2dc378	-0.16969097
231	0xbe0d830e	-0.13819525
232	0x3e1a3589	0.15059485
233	0xbe559b62	-0.20860055
234	0xbbd7fa54	-0.0065911207
235	0x3de8c083	0.11364844
236	0xbd2dcef1	-0.042433683
237	0xbca9c929	-0.020725803
238	0xbe15f253	-0.1464322
239	0xbd7044d7	-0.0586594
240	0xbb0672c5	-0.0020515185
241	0xbd982003	-0.07427981
242	0x3e0d5e05	0.13805397
243	0xbdf88578	-0.12134832
244	0xbdce88dd	-0.10084698
245	0xbe2bd532	-0.16780546
246	0x3d846514	0.064645916
247	0x3d130241	0.03589082
248	0x3c126c4b	0.008936952
249	0xbe356c3e	-0.17717072
250	0x3d80f8bf	0.062974446
251	0x3d3878fa	0.045037247
252	0x3e2f05eb	0.17092101
253	0x3d4d8d48	0.050183564
254	0xbe185c13	-0.14878874
255	0xbe66d94a	-0.22543827

mlp1.2.bias f4 [32]
0	0xbe04ea00	-0.12979889
1	0xbe85535d	-0.26040164
2	0x3e1bf210	0.15229058
3	0x3cb7f9d5	0.022457996
4	0x3e848866	0.25885314
5	0x3c1e9dc3	0.009681168
6	0x3e3ad571	0.18245484
7	0xbe4b74fa	-0.19868842
8	0x3dea3dfd	0.114376046
9	0xbc692aaf	-0.014231368
10	0x3cc4688d	0.023975635
11	0x3db94989	0.09047229
12	0x3e5de364	0.21668774
13	0x3dc3e05c	0.095642775
14	0x3ea0f8da	0.3143986
15	0xbbe47744	-0.0069722254
16	0x3e737a44	0.2377711
17	0xbe65ad0a	-0.2242929
18	0x3e34c0ae	0.17651626
19	0x3ddf35da	0.10898943
20	0x3e887ca7	0.26657602
21	0xbe0e1fc4	-0.13879305
22	0xbd0960b6	-0.033539496
23	0x3ccc1ee5	0.024917075
24	0x3da88c28	0.08229858
25	0x3d50a782	0.050940998
26	0xbe2aa55b	-0.1666464
27	0xbe57ee16	-0.21086916
28	0xbe5d8d6c	-0.2163598
29	0xbe2ab645	-0.16671093
30	0x3e18ca3c	0.14920896
31	0x3e15afa4	0.14617783

mlp2.0.weight f4 [32, 32]
0	0x3d6bb76f	0.057547983
1	0xbdea9763	-0.11454656
2	0x3dfe345a	0.12412329
3	0xbd9d69c2	-0.07686187
4	0xbe23a292	-0.15979984
5	0xbd680180	-0.056642056
6	0x3dbc36d7	0.09190147
7	0x3e184d88	0.14873326
8	0x3d137abd	0.036005724
9	0xbd77e7bd	-0.060523737
10	0xbd8dcec6	-0.069242045
11	0x3e1f7a15	0.15573914
12	0xbe009637	-0.12557302
13	0xbcaff958	-0.021481201
14	0xbdaf60ae	-0.08563362
15	0xbd8be820	-0.06831384
16	0x3e379dc9	0.17931284
17	0x3dc9d9c6	0.0985599
18	0x3d12cfe7	0.035842802
19	0xbdb8da53	-0.09026017
20	0x3def2b07	0.11678129
21	0xbbd01fb4	-0.0063514356
22	0xbe1959b7	-0.1497563
23	0x3e0b6149	0.1361133
24	0xbd5e8a98	-0.054331392
25	0x3da0c105	0.078493156
26	0x3e13d14f	0.14435314
27	0x3a10e8de	0.0005527864
28	0x3dde9842	0.108688846
29	0xbd3e7f2e	-0.046508007
30	0xbe079552	-0.13240555
31	0x3bd69ae0	0.0065492243
32	0x3e0c1288	0.13678944
33	0xbe26be1d	-0.1628346
34	0xbd929504	-0.07157329
35	0xbd5f350a	-0.05449394
36	0xbdd1d344	-0.10245374
37	0xbdd3c14f	-0.10339605
38	0x3df54b34	0.119772345
39	0x3d154257	0.03644022
40	0xbe12aa55	-0.14322789
41	0xbbfff81d	-0.00781156
42	0x3de82f02	0.11337091
43	0x3dc09f6f	0.094054095
44	0xbe0ab10a	-0.13544098
45	0x3d482c06	0.04887011
46	0xbda2a7a0	-0.07942128
47	0x3d3d745f	0.04625356
48	0x3d2b5866	0.04183235
49	0xbd3abf3d	-0.045592535
50	0xbe09ddfc	-0.13463587
51	0x3c4c495a	0.01246866
52	0xbe29c070	-0.16577315
53	0x3e215c54	0.15757877
54	0xbe10160d	-0.14070912
55	0xbd92d325	-0.07169179
56	0xbe24735c	-0.16059631
57	0x3e0795a1	0.13240673
58	0xbcb8411b	-0.022491982
59	0xbd19c995	-0.03754576
60	0x3d816c8c	0.06319532
61	0xbdbbdcf3	-0.09173002
62	0x3dc61bb1	0.096732505
63	0x3d38805d	0.04504429
64	0xbe211d3b	-0.15733807
65	0x3dbaaab7	0.091145925
66	0x3d7675f4	0.060171083
67	0xbdf4a10b	-0.11944779
68	0xbe31ee29	-0.17376007
69	0x3d7016a8	0.058615357
70	0x3dde6d47	0.10860687
71	0xbdb01776	-0.08598225
72	0x3e2e51e2	0.17023423
73	0xbe101905	-0.14072044
74	0x3dd721e2	0.105045095
75	0x3d0c85a4	0.034307137
76	0xbe25c945	-0.1619006
77	0xbe33a47f	-0.17543219
78	0x3d8dccf0	0.06923854
79	0xbd0c2962	-0.034219153
80	0x3cf99843	0.030468112
81	0xbd435d0a	-0.04769615
82	0x3de68d0d	0.11257372
83	0x3e1ea5ce	0.15492937
84	0x3ddbdaad	0.107350685
85	0xbdd23bd1	-0.10265315
86	0xbc360684	-0.011109952
87	0x3e3edc42	0.18638709
88	0x3db0c4f3	0.08631315
89	0xbd6df219	-0.05809221
90	0x3dfe432b	0.12415155
91	0x3c293c67	0.010329342
92	0x3c34d8f9	0.011038058
93	0xbd9fd79b	-0.07804795
94	0x3d82f1cc	0.06393775
95	0xbe3c03b3	-0.18360786
96	0xbe2b585d	-0.16732927
97	0xbdc4572d	-0.0958694
98	0x3e255580	0.16145897
99	0x3c96d8aa	0.01841386
100	0xbd804d9d	-0.062648036
101	0x3dc77571	0.09739197
102	0x3d8fec56	0.070274994
103	0xbe07ad35	-0.13249667
104	0x3d5ce952	0.05393345
105	0x3bf347ab	0.007424315
106	0xbdc6dd4d	-0.097101785
107	0xbe146014	-0.14489776
108	0x3e2b38b5	0.16720851
109	0xbd8b848b	-0.0681239
110	0x3e191c5f	0.14952229
111	0x3cad227c	0.021134607
112	0x3e0b4396	0.136
113	0xbdf36b9b	-0.118857585
114	0xbd6a0c60	-0.057140708
115	0xbdc16fc8	-0.09445149
116	0x3e0f296c	0.13980645
117	0xbd183e34	-0.037168697
118	0x3e171808	0.14755261
119	0x3db53860	0.08848643
120	0xbc82696a	-0.015919406
121	0xbd80c63d	-0.06287811
122	0xbcaeaaa6	-0.021321606
123	0xbdce02c7	-0.100591235
124	0xbe24c6e1	-0.16091491
125	0xbdc06a0a	-0.09395225
126	0x3dd08dcb	0.10183295
127	0xbdff6aa7	-0.12471514
128	0xbd93a93a	-0.07210012
129	0x3df3c715	0.11903206
130	0xbd833c37	-0.064079694
131	0x3e3f909d	0.1870751
132	0xbd82cd75	-0.06386844
133	0x3e2edc00	0.17076111
134	0x3e222bd0	0.15837026
135	0xbcd8c1c5	-0.026459584
136	0x3c02f700	0.00799346
137	0x3d5941fe	0.05304145
138	0x3bbd6431	0.005779766
139	0x3e0e24dd	0.1388125
140	0xbe0a6219	-0.13513984
141	0x3d73cc53	0.05952103
142	0xbdbf75f7	-0.09348672
143	0xbdeead27	-0.1165412
144	0xbe4a992a	-0.1978499
145	0x3d81da2f	0.06340443
146	0xbdd15158	-0.10220593
147	0x3b0d79a8	0.0021587405
148	0xbd076d1a	-0.03306303
149	0xbe0d640a	-0.13807693
150	0x3dfa138d	0.1221076
151	0xbd0449a6	-0.0322968
152	0xbd9ea14f	-0.07745611
153	0xbdb22b4c	-0.086996645
154	0xbd290ca3	-0.041271817
155	0xbcfd8771	-0.030948373
156	0xbd3c57bd	-0.04598211
157	0x3d83196a	0.06401332
158	0x3e16128f	0.14655517
159	0xbe095446	-0.13411054
160	0xbd9eeaa6	-0.077595994
161	0xbda6621a	-0.0812418
162	0x3dc81dee	0.09771334
163	0xbdb3f65e	-0.08787225
164	0x3ccd78c9	0.025082009
165	0x3d744f85	0.05964615
166	0x3dcd5283	0.100255035
167	0xbe1f9ee5	-0.15587957
168	0x3d2d8c7c	0.042370304
169	0xbccc2971	-0.024922105
170	0x3daa45e5	0.083141126
171	0xbcb88088	-0.022522226
172	0xbdca128e	-0.0986682
173	0x3ce12889	0.027485149
174	0xbe0750c4	-0.13214403
175	0x3d4f308b	0.050583404
176	0x3cbc8c59	0.023016142
177	0xbd2cc184	-0.04217674
178	0xbdc24e96	-0.09487645
179	0xbdee4201	-0.11633683
180	0x3bc1f901	0.005919576
181	0xbe04050d	-0.12892552
182	0x3e2c0d1b	0.16801874
183	0x3db9e479	0.09076781
184	0x3dc8e3bc	0.09809062
185	0x3e298e18	0.1655811
186	0xbe2b30f1	-0.16717888
187	0xbdade3f5	-0.08490745
188	0x3e2cb394	0.16865379
189	0x3c97401d	0.018463189
190	0x3c88ecd8	0.016714498
191	0xbe00d59f	-0.1258149
192	0xbd1851ef	-0.037187513
193	0x3dc102fd	0.09424398
194	0xbe23b660	-0.1598754
195	0x3e1ae85e	0.15127704
196	0xbdf5bc93	-0.11998858
197	0xbc910903	-0.017704492
198	0xbe178a5c	-0.14798874
199	0xbdab7487	-0.08371835
200	0xbe383d02	-0.17992023
201	0xbc2f80c5	-0.010711853
202	0xbd988a83	-0.07448294
203	0xbe0819b5	-0.13291056
204	0xbdd5a0fa	-0.104310945
205	0x3c9784aa	0.018495876
206	0x3d00167b	0.03127144
207	0xbd9942a1	-0.074834116
208	0x3e00a722	0.12563756
209	0xbd6f17cc	-0.058372304
210	0xbe00590d	-0.1253397
211	0xbdc0c3ad	-0.09412322
212	0x3dc79540	0.09745264
213	0xbe212e0f	-0.15740226
214	0xbd81e6ee	-0.063428745
215	0xbe0c7ac1	-0.13718702
216	0x3dcedce1	0.10100723
217	0x3d26d2f2	0.040728517
218	0xbdf6b390	-0.120459676
219	0xbcd402a7	-0.025880171
220	0x3de31727	0.110884
221	0x3d1a4b51	0.037669484
222	0xbc5957fe	-0.013265608
223	0xbd80ae8b	-0.062832914
224	0xbde91e4a	-0.1138273
225	0x3e15fc19	0.14646949
226	0xbe35c801	-0.17752077
227	0x3bf67185	0.007520857
228	0xbcc8afdd	-0.02449792
229	0xbd73f3ad	-0.05955856
230	0x3d1a34c0	0.037647963
231	0xbe22feed	-0.15917559
232	0xbd4f8ab4	-0.050669387
233	0xbc721f7a	-0.014778012
234	0x3ddf05ae	0.10889755
235	0xbd4dde21	-0.050260667
236	0xbdcb92fe	-0.09940146
237	0xbe1d043e	-0.1533365
238	0xbe387910	-0.18014932
239	0x3dd4c651	0.10389388
240	0x3df569f6	0.11983101
241	0xbd915c9f	-0.07097744
242	0x3e23baba	0.159892
243	0xbdbb4f84	-0.09146026
244	0x3e2e728e	0.17035887
245	0xbe1849c3	-0.14871888
246	0x3e00573b	0.12533276
247	0x3d112447	0.035434987
248	0x3c71eb12	0.014765518
249	0xbd7eb4d2	-0.062184162
250	0x3bb6f3bf	0.005583256
251	0xbddfcbe2	-0.109275594
252	0xbd612f0d	-0.05497651
253	0x3df13770	0.11778152
254	0xbde6c464	-0.11267927
255	0x3ccb5a4a	0.024823327

mlp2.0.bias f4 [32]
0	0xbc6415b7	-0.013921193
1	0xbe47ed32	-0.19524077
2	0x3db42a30	0.08797109
3	0x3d9fa3e4	0.077949315
4	0x3d36ee06	0.04466059
5	0x3e59e05c	0.21276993
6	0xbe23f297	-0.1601051
7	0xbc3db8f0	-0.011579737
8	0xbe40aa08	-0.18814862
9	0x3e1d100a	0.1533815
10	0xbe37eab8	-0.17960632
11	0x3e639ca4	0.22227722
12	0xbd1f08b5	-0.038826663
13	0xbd55e630	-0.052221477
14	0x3ea95b62	0.33077532
15	0x3d48ef42	0.0490563
16	0x3dff33eb	0.124610744
17	0x3db515ce	0.088420495
18	0xbc78c0f6	-0.015182724
19	0x3c9ebe42	0.019377831
20	0xbd310c56	-0.043224655
21	0x3e4daff9	0.2008666
22	0x3e0ef4d0	0.13960576
23	0xbc7aefbb	-0.015315945
24	0x3b95ab9e	0.0045675775
25	0x3e35b546	0.17744932
26	0x3cbc77f4	0.023006417
27	0x3da40467	0.08008652
28	0x3e8075be	0.2508983
29	0x3d5bc48f	0.05365425
30	0x3df45e99	0.119321056
31	0xbe3be84a	-0.1835033

mlp2.2.weight f4 [32, 32]
0	0xbe30f9b6	-0.17282757
1	0xbdaa80b8	-0.083253324
2	0x3d88bca3	0.066766046
3	0xbd5f328c	-0.054491565
4	0xbdbf301e	-0.093353495
5	0xbdd0e565	-0.102000035
6	0x3d24fe98	0.040281862
7	0x3df5f9c1	0.120105274
8	0xbe30f8fe	-0.17282483
9	0x3e0b0918	0.13577688
10	0x3d650996	0.055917345
11	0x3dce2439	0.10065503
12	0xbab2b450	-0.001363406
13	0x3ddbe51f	0.10737061
14	0x3cec5386	0.02884842
15	0xbd9041d9	-0.070438094
16	0x3e204f3f	0.1565523
17	0xbdff09fd	-0.12453077
18	0xbdf7ce8f	-0.12099945
19	0xbe2d1899	-0.16903915
20	0x3d98e47f	0.07465457
21	0x3e0403cb	0.12892072
22	0x3db81211	0.08987821
23	0xbc8a9c86	-0.01692034
24	0x3d745e93	0.059660506
25	0x3de46042	0.11151172
26	0x3e2a62dd	0.16639276
27	0x3dfc8e64	0.12331846
28	0xbd832c6e	-0.06404959
29	0x3e281741	0.1641512
30	0x3d08de70	0.033415258
31	0xbde2d164	-0.11075094
32	0x3cf8c056	0.03036515
33	0xbe11e78c	-0.14248484
34	0x3dc83197	0.097750835
35	0xbe3bc540	-0.18336964
36	0xbd619467	-0.055073168
37	0xbd70003b	-0.05859397
38	0xbda44199	-0.08020324
39	0x3dbb9424	0.09159115
40	0x3d9a8b7a	0.07546134
41	0x3db31f8b	0.08746251
42	0x3e27e597	0.16396175
43	0x3debf6b9	0.11521668
44	0xbd06041a	-0.032718755
45	0x3e06f27f	0.13178442
46	0x3d29e726	0.041480206
47	0xbdb8e83a	-0.09028669
48	0x3e390939	0.18069924
49	0xbd5c12f8	-0.053729028
50	0x3ccf117e	0.025276896
51	0xbda322aa	-0.07965596
52	0x3dcb5ac7	0.09929424
53	0x3e0d61c5	0.13806827
54	0xbe19a942	-0.15005973
55	0xbe1dd984	-0.15415007
56	0xbdeea3ac	-0.11652312
57	0x3d301e72	0.042997785
58	0xbdab0e37	-0.08352321
59	0xbddb1fc7	-0.106994204
60	0xbe016438	-0.12635887
61	0xbb4d9a20	-0.0031372383
62	0xbe14ce80	-0.14531898
63	0x3e0313dd	0.12800546
64	0xbe2423da	-0.16029301
65	0xbe15629c	-0.14588398
66	0xbe394a61	-0.1809478
67	0x3dffa746	0.12483077
68	0xbe3d9985	-0.18515594
69	0xbe1a4558	-0.15065515
70	0xb99f3e06	-0.00030373054
71	0xbd40952b	-0.047017258
72	0x3d0291b5	0.03187724
73	0xbd8d518d	-0.0690032
74	0xbda2a19e	-0.07940982
75	0xbd9c8851	-0.07643188
76	0x3e148ad9	0.14506091
77	0xbcf85981	-0.030316116
78	0x3e121f43	0.14269738
79	0x3d6cd299	0.05781803
80	0xbe64a553	-0.22328691
81	0xbdd1a552	-0.102366105
82	0xbdda2b90	-0.1065284
83	0x3d960bf6	0.073265
84	0xbda3e203	-0.08002093
85	0xbd841fbf	-0.064513676
86	0xbdd1a1ef	-0.102359645
87	0x3dabb25f	0.08383631
88	0x3e2ca77c	0.16860765
89	0xbdd61d16	-0.104547665
90	0xbe56d4ac	-0.20979565
91	0x3d34790c	0.04406075
92	0x3e2ae61b	0.16689341
93	0x3c3487ef	0.011018737
94	0xbe164c75	-0.14677604
95	0x3d94d4c5	0.07267145
96	0x3d670380	0.056399822
97	0xbe15a7cd	-0.14614792
98	0x3da45580	0.0802412
99	0x3e3c80fb	0.18408577
100	0xbda1c9cd	-0.078998186
101	0x3c94ce4d	0.018164778
102	0xbde320e2	-0.11090256
103	0xbe107f3a	-0.14111033
104	0xbe1be0d9	-0.15222491
105	0x3d81ffdf	0.06347632
106	0xbe106fe8	-0.14105189
107	0x3e099946	0.13437375
108	0xbe369a6a	-0.17832342
109	0x3b8b146a	0.004244377
110	0xbe2d11ef	-0.16901372
111	0xbd9c3ae9	-0.07628424
112	0x3da451c0	0.08023405
113	0x3dc0f705	0.09422115
114	0x3a8a7a57	0.0010565025
115	0x3e1bff69	0.1523415
116	0x3e29a0ca	0.16565242
117	0xbc94797d	-0.018124336
118	0x3e173073	0.14764576
119	0x3b169250	0.0022975393
120	0x3d00b786	0.03142502
121	0x3d1ab350	0.037768662
122	0xbd1da86b	-0.038490694
123	0x3d15eac9	0.03660086
124	0x3dc50ad0	0.09621203
125	0x3c18465f	0.0092941215
126	0x3e27ca6d	0.16385813
127	0xbcf721b4	-0.030167438
128	0xbdb7ca5a	-0.089741424
129	0x3e344779	0.1760539
130	0xbdf557ae	-0.11979614
131	0x3d8081ff	0.06274795
132	0xbe12c8a9	-0.14334358
133	0xbc808c9f	-0.015692053
134	0xbdd01827	-0.10160857
135	0x3d23fb78	0.04003474
136	0x3db13eeb	0.08654579
137	0x3d888a17	0.066669635
138	0xbdaa09b1	-0.0830263
139	0x3bff9744	0.0078000147
140	0x3d82ac8f	0.06380569
141	0x3dff2585	0.12458328
142	0xbddae644	-0.10688451
143	0x3de67f00	0.11254692
144	0x3e58607a	0.21130553
145	0x3d365071	0.04451031
146	0xbe2cf991	-0.16892077
147	0x3cc2daab	0.02378591
148	0xbd9fe8ad	-0.07808051
149	0x3e116edf	0.1420245
150	0xbd914ab3	-0.07094326
151	0x3e34092a	0.17581621
152	0xbe1250ca	-0.14288631
153	0x3d9ab4da	0.07554026
154	0x3d939e86	0.0720797
155	0xbc88c4a8	-0.016695336
156	0xbdbbf50b	-0.091775976
157	0x3d4c0db6	0.049817763
158	0x3e02dcd7	0.12779556
159	0xbe0ab2bc	-0.13544744
160	0x3b4d9854	0.0031371312
161	0xbcb8e212	-0.022568736
162	0x3e1d57b6	0.1536549
163	0x3d6b0594	0.057378367
164	0xbbbb503a	-0.005716351
165	0xbd451a34	-0.048120692
166	0xbdba288b	-0.09089764
167	0x3dece616	0.11567323
168	0xbdae6e72	-0.085171595
169	0xbe190154	-0.14941913
170	0x3d607d46	0.05480697
171	0x3e1f88a9	0.15579475
172	0x3d67cb71	0.0565905
173	0x3dfb0fb5	0.12258855
174	0xbe02f2d7	-0.12787949
175	0xbe2860c2	-0.1644316
176	0xbb2dcbc6	-0.0026519164
177	0x3e1e37f2	0.15451029
178	0x3d3afb17	0.045649614
179	0xbdc97d66	-0.09838371
180	0x3dc62f59	0.096769996
181	0xbcf65ffb	-0.030075064
182	0x3d140c48	0.036144525
183	0xbe17da90	-0.14829469
184	0x3d4b53ed	0.049640585
185	0xbd346e78	-0.044050664
186	0x3da6d853	0.08146729
187	0xbdb6b145	-0.0892053
188	0xbe2171a8	-0.15766013
189	0xbdd87359	-0.10568876
190	0xbcecaef2	-0.028892014
191	0x3e08161b	0.13289683
192	0xbe3f45cd	-0.1867897
193	0xbdbd098f	-0.09230339
194	0xbe1e99ca	-0.15488353
195	0x3e0641bd	0.13111015
196	0x3dd55d27	0.10418158
197	0x3d89dce3	0.06731584
198	0xbe01dfa4	-0.12682968
199	0xbe00faff	-0.12595747
200	0x3c77f658	0.0151344165
201	0xbe257868	-0.16159213
202	0x3d0c90b8	0.034317702
203	0x3e2aa2cc	0.16663665
204	0xbc3c8fe1	-0.011508913
205	0x3dc6de5c	0.097103804
206	0x3e3b3372	0.18281344
207	0x3d4b047e	0.04956483
208	0x3e32618c	0.17420024
209	0x3e095df0	0.1341474
210	0xbe077610	-0.13228631
211	0x3d054200	0.032533646
212	0x3e1d2129	0.15344681
213	0x3e1bebb1	0.15226628
214	0x3dd7330f	0.105077855
215	0xbda033c0	-0.078223705
216	0xbd3b60c3	-0.045746576
217	0x3e131c1c	0.14366192
218	0x3dbb8b54	0.09157434
219	0x3d02b85d	0.031914104
220	0x3e30a82a	0.1725165
221	0xbcf0b46c	-0.029382907
222	0xbdb06cbe	-0.08614491
223	0xbdea8992	-0.11452021
224	0x3d4f5cba	0.05062554
225	0x3e011cb7	0.1260861
226	0x3e0cdb18	0.13755453
227	0x3d03ec05	0.032207508
228	0x3d5760bc	0.052582487
229	0x3e15b373	0.14619236
230	0x3d5b47a4	0.05353512
231	0xbd6d66c3	-0.05795933
232	0x3d8a5309	0.06754119
233	0xbd00f797	-0.03148612
234	0x3d2d9ac1	0.042383913
235	0x3dab77bd	0.08372448
236	0x3c0fb520	0.008771211
237	0x3df642c5	0.12024454
238	0x3d07396e	0.033013754
239	0xbd987539	-0.074442334
240	0x3e2a3fd9	0.16625918
241	0x3c5ef8c8	0.013609119
242	0x3da57730	0.08079374
243	0xbde81f85	-0.11334137
244	0x3d3d1fa5	0.046172757
245	0x3d7fbf85	0.062438507
246	0x3d0ff4f7	0.035145726
247	0x3e098674	0.13430196
248	0xbdc5d3a5	-0.096595086
249	0xbd4c9cd0	-0.049954236
250	0x3d9cb653	0.07651963
251	0xbd9659e0	-0.07341361
252	0x3b429a99	0.0029694198
253	0xbdf64eba	-0.12026735
254	0xbdb46cee	-0.08809839
255	0xbe19cc62	-0.15019372

mlp2.2.bias f4 [32]
0	0x3e351ef0	0.17687583
1	0xbdb85584	-0.09000686
2	0xbe6b9693	-0.23006658
3	0x3db7b918	0.08970851
4	0x3e1051e0	0.14093733
5	0xbe0a96b6	-0.13534054
6	0x3e841bd7	0.2580249
7	0xbd84ef32	-0.064909354
8	0x3e43cc7e	0.19120976
9	0x3d1062ec	0.03525059
10	0xbdf8254c	-0.12116489
11	0x3e06df00	0.13171005
12	0x3e832656	0.25615185
13	0x3e318b18	0.17338216
14	0x3cb071b7	0.021538598
15	0xbe6c65f7	-0.23085772
16	0x3e23576b	0.15951316
17	0x3d4f7db6	0.050656997
18	0x3e012bbf	0.12614344
19	0xbcbdab8d	-0.02315309
20	0x3da32483	0.079659484
21	0x3cc84eae	0.02445158
22	0xbdb27f9c	-0.08715746
23	0xbe68fdd1	-0.22753073
24	0xbe2e6252	-0.17029694
25	0xbd97cbde	-0.074119315
26	0xbd8bec9b	-0.06832238
27	0x3d26e38a	0.040744342
28	0x3e098e8d	0.13433285
29	0xbe838591	-0.2568784
30	0x3c84d315	0.016213933
31	0xbd7ff9cb	-0.06249408

conv1.apply_func.0.weight f4 [32, 9]
0	0x3ea8ed45	0.32993522
1	0xbe396a89	-0.18107046
2	0xbe548b1e	-0.20756194
3	0xbce5d3c9	-0.028055089
4	0x3ed0bdf2	0.40769917
5	0x3d4579d3	0.048211884
6	0xbea6d1c9	-0.32581928
7	0x3eaf2a83	0.3421212
8	0xbea1d794	-0.31609786
9	0x3ec2d1d7	0.3805072
10	0xbdd42342	-0.103582874
11	0xbd0d5593	-0.034505438
12	0x3d904e17	0.070461445
13	0xbecde780	-0.40215683
14	0x3dbd91b9	0.0925631
15	0x3de928cd	0.11384735
16	0xbe908cd5	-0.28232446
17	0x3b65959a	0.0035031796
18	0x3e954182	0.2915154
19	0x3ea82721	0.32842353
20	0xbd8100a3	-0.062989496
21	0x3d18d032	0.037307926
22	0xbe8c9c22	-0.2746287
23	0xbe41066e	-0.18850109
24	0xbd07b27e	-0.033129208
25	0x3ebd49f2	0.36970478
26	0x3e688fa9	0.22711052
27	0xbe079ff8	-0.13244617
28	0xbe5e3c18	-0.21702611
29	0x3e20d159	0.1570486
30	0xbdbe7231	-0.09299124
31	0xbe0daa49	-0.1383449
32	0xbe1239e0	-0.1427989
33	0x3d21236e	0.03934043
34	0xbe98b6af	-0.29826877
35	0xbcb8eb3f	-0.022573112
36	0x3e2d43db	0.16920416
37	0x3dd3c01a	0.10339375
38	0xbd119c00	-0.035549164
39	0xbddecbae	-0.108786926
40	0x3dfab827	0.122421555
41	0xbe64ce1f	-0.22344254
42	0x3d476244	0.048677698
43	0x3d8af412	0.06784834
44	0xbe93aee8	-0.2884438
45	0xbe753f03	-0.23949818
46	0xbd81c37f	-0.06336116
47	0x3e3797d8	0.17929018
48	0x3c7cac50	0.015421942
49	0x3e91c841	0.28473094
50	0x3e98b93e	0.2982883
51	0xbe0f338e	-0.1398451
52	0x3db389de	0.087665305
53	0xbe5b3705	-0.21407707
54	0x3ea01a75	0.31270185
55	0x3dd7d136	0.10537951
56	0x3dd10b9a	0.10207291
57	0x3df01614	0.11722961
58	0x3db5f5c2	0.08884765
59	0x3e0d0a84	0.13773543
60	0xbe66635e	-0.22498843
61	0x3e08cd82	0.13359645
62	0x3e9b00ca	0.3027404
63	0x3e5a7c07	0.21336375
64	0xbdcb0d43	-0.09914639
65	0x3e6689e5	0.2251354
66	0xbe879184	-0.26478207
67	0x3ed0d821	0.40789893
68	0xbe807d90	-0.25095797
69	0xbeb0b8db	-0.34516034
70	0x3e542cdb	0.20720236
71	0x3d6f7518	0.05846128
72	0x3b8ea6a4	0.004353361
73	0xbf0132bb	-0.50468034
74	0xb9322133	-0.0001698777
75	0x3e6270dd	0.22113366
76	0xbe3bd7c9	-0.18344034
77	0x3e2771ae	0.16351959
78	0x3da9bf0d	0.08288393
79	0x3d30453b	0.043034773
80	0x3e9983db	0.2998341
81	0x3e3b709c	0.18304676
82	0xbdac7068	-0.08419877
83	0x3e492528	0.1964308
84	0xbe338e72	-0.17534807
85	0xbe4169cf	-0.18888019
86	0xbd6de993	-0.05808408
87	0xbe8ca899	-0.2747238
88	0x3dfedfcb	0.12445029
89	0x3d25eb20	0.040507436
90	0x3de5fcdc	0.1122987
91	0x3e3f9b62	0.18711618
92	0xbd8bd145	-0.06827024
93	0x3e1c2a67	0.1525055
94	0x3d641a0c	0.055688903
95	0xbdcc7ee8	-0.09985143
96	0xbe96b05b	-0.29431424
97	0x3e9042cf	0.2817597
98	0x3d618aee	0.055064134
99	0x3e460019	0.19335975
100	0x3dee42cf	0.116338365
101	0xbe2aea04	-0.16690832
102	0x3ea0017c	0.31251132
103	0x3eaf4377	0.3423116
104	0x3df00b08	0.11720854
105	0x3e66d6d9	0.22542895
106	0x3e514d5f	0.20439671
107	0x3e03955e	0.12849948
108	0xbe85ccdc	-0.26132858
109	0xbead0955	-0.33796182
110	0xbdedec7b	-0.11617371
111	0xbd142fe4	-0.036178485
112	0x3ecc8600	0.39945984
113	0xbea6ff74	-0.3261677
114	0x3e8576cc	0.26067197
115	0x3e4afa42	0.19822028
116	0x3e2707b8	0.16311538
117	0xbd66337c	-0.056201443
118	0xbec9de82	-0.39427572
119	0x3d5190f9	0.051163647
120	0xbdf2e014	-0.11859146
121	0x3ee804bc	0.45316112
122	0x3aac5477	0.0013147731
123	0xbd02cee9	-0.031935606
124	0xbe28db0e	-0.16489813
125	0x3d0fa413	0.035068583
126	0xbe4486de	-0.19192073
127	0xbcca8d8c	-0.024725698
128	0x3e137986	0.14401826
129	0xbe1a568d	-0.15072079
130	0x3d9f73e7	0.077857785
131	0x3e7a5ad7	0.24448715
132	0xbe005b17	-0.12534748
133	0xbe5c89f0	-0.21536994
134	0xbdc60b44	-0.096701175
135	0xbe9726cc	-0.29521787
136	0x3e250210	0.16114068
137	0x3d2274e6	0.039662264
138	0xbe6deb3f	-0.2323427
139	0xbde7fc19	-0.11327381
140	0x3e35cf19	0.17754783
141	0xbdaa49c8	-0.08314854
142	0x3e440041	0.19140722
143	0x3e5e28ba	0.21695223
144	0x3d15cef8	0.036574334
145	0xbe26f98e	-0.16306135
146	0x3d2ed026	0.042678975
147	0x3e48a431	0.19593884
148	0xbeacbd81	-0.3373833
149	0xbea65287	-0.32484838
150	0xbe71a737	-0.23598944
151	0xbe901315	-0.28139558
152	0xbe648549	-0.22316469
153	0x3dec230d	0.11530123
154	0x3e439f0e	0.19103643
155	0xbec39a57	-0.3820369
156	0x3cc7c092	0.024383817
157	0xbe16f981	-0.14743616
158	0xbea63a27	-0.32466242
159	0xbe485bc2	-0.19566253
160	0x3e8f05a9	0.27934006
161	0xbbd4ca0d	-0.006493813
162	0xbc904052	-0.017608795
163	0x3db2ef09	0.087369986
164	0xbc83653e	-0.016039487
165	0x3e787421	0.2426305
166	0xbe4f047d	-0.20216556
167	0xbd3a36a2	-0.04546226
168	0xbe8e9fcd	-0.27856293
169	0xbe28a4e5	-0.16469152
170	0x3d98ed54	0.07467142
171	0x3d25c80b	0.04047398
172	0xbe997076	-0.29968613
173	0xbdea831b	-0.11450788
174	0xbb9c6700	-0.0047730207
175	0x3d43bf96	0.047790132
176	0x3a4f6aab	0.0007912318
177	0xbd38806b	-0.045044344
178	0xbe84b4ec	-0.25919282
179	0xbe965414	-0.29361022
180	0xbe61f420	-0.22065783
181	0x3dde323c	0.10849425
182	0x3c35dc95	0.011099954
183	0x3dbcbb35	0.092153944
184	0xbcd92c1a	-0.026510287
185	0xbe5807f8	-0.2109679
186	0x3e96cfb9	0.29455355
187	0x3e848697	0.25883934
188	0xbdf5e374	-0.12006274
189	0x3e5c9bb5	0.21543773
190	0x3b2af794	0.002608751
191	0x3d976986	0.07393174
192	0xbdcf3377	-0.10117238
193	0xbdf723d8	-0.120673835
194	0xbea2243c	-0.3166827
195	0x3d09e48f	0.033665236
196	0xbe95a2bf	-0.29225728
197	0xbe2e6450	-0.17030454
198	0xbe6937b6	-0.22775158
199	0xbd402a9b	-0.04691563
200	0x3e200639	0.15627374
201	0x3e137727	0.14400922
202	0x3f0ba40c	0.5454719
203	0x3c6a7d0a	0.014312038
204	0x3ec227c0	0.37920952
205	0x3ebf2ed2	0.3734041
206	0xbe93462d	-0.28764477
207	0xbde74d0f	-0.11293995
208	0xbe8700f9	-0.2636793
209	0x3e92a551	0.2864175
210	0x3e9bb96c	0.30414903
211	0x3eb064c5	0.3445188
212	0x3e942b30	0.289392
213	0x3d2842fc	0.041079506
214	0x3d9946d8	0.074842155
215	0x3e352574	0.17690068
216	0x3cf8d736	0.030376058
217	0xbe54122b	-0.20710056
218	0xbc42096a	-0.011843065
219	0xbe0dd1a8	-0.13849509
220	0xbd322dd3	-0.043500733
221	0x3dc68915	0.09694115
222	0x3e0376fa	0.12838355
223	0x3dc83f66	0.09777717
224	0x3e6fc051	0.23413207
225	0x3da702a3	0.081548
226	0xbdd52209	-0.10406882
227	0x3e1d8a9a	0.15384904
228	0x3d7df84b	0.06200437
229	0x3e0c1ca8	0.13682806
230	0x3ea88364	0.32912743
231	0xbd9cc289	-0.07654292
232	0xbe691bd1	-0.22764517
233	0x3e88c338	0.2671144
234	0x3e1486bf	0.14504527
235	0x3d8df555	0.06931559
236	0x3d91f532	0.071268454
237	0x3e6c4f35	0.2307709
238	0xbe8f9aa5	-0.28047672
239	0xbe9390ce	-0.28821415
240	0x3e926d35	0.28598943
241	0xbe9d3b14	-0.30709136
242	0xbd011b77	-0.031520333
243	0x3da5b95f	0.08091997
244	0x3da8f18a	0.08249195
245	0xbec49d15	-0.38401094
246	0x3e8327b9	0.25616243
247	0xbe8eb34f	-0.27871177
248	0xbe93d931	-0.2887664
249	0xbd72b08a	-0.059250392
250	0x3e158feb	0.14605682
251	0x3e06b2d3	0.13154154
252	0x3ca113d5	0.019662777
253	0x3e900bda	0.28134042
254	0xbec6fd1e	-0.38864988
255	0x3d41aca3	0.04728378

conv1.apply_func.0.bias f4 [32]
0	0x3e3f0f82	0.1865826
1	0xbede1629	-0.43376282
2	0x3ea30404	0.31839
3	0x3e848769	0.2588456
4	0xbe9c7f67	-0.3056595
5	0x3cd8a4e3	0.026445812
6	0xbeb59a70	-0.3546939
7	0xbe2c269c	-0.16811603
8	0xbe0355c7	-0.1282569
9	0xbc005993	-0.007833856
10	0x3e86836b	0.2627214
11	0x3ef5e20c	0.48024023
12	0xbbaf01b5	-0.0053407797
13	0xbde621ef	-0.11236941
14	0xbea81fcd	-0.32836762
15	0xbe96014e	-0.2929787
16	0xbe334a7d	-0.17508884
17	0x3d983ad3	0.07433095
18	0xbe50fb1d	-0.20408292
19	0x3cb6e22b	0.022324642
20	0xbd3acf85	-0.045608062
21	0xbe827571	-0.25480226
22	0x3e6803a5	0.2265764
23	0x3e23bd15	0.15990098
24	0xbe97177c	-0.29510105
25	0x3e17e62c	0.14833897
26	0xbe301f38	-0.17199409
27	0xbdc9dcdf	-0.09856581
28	0x3e025c2c	0.12730473
29	0x3b4d2eff	0.003130853
30	0x3eb73943	0.35785875
31	0xbdc746c9	-0.09730298

conv1.apply_func.2.weight f4 [32, 32]
0	0x3ddb7885	0.10716347
1	0x3da021f3	0.07818975
2	0xbdedc1ca	-0.11609228
3	0x3d894d19	0.06704158
4	0x3e0a290f	0.13492225
5	0xbddbe225	-0.10736493
6	0x3afcca0d	0.001928629
7	0x3dcebd97	0.10094755
8	0xbdd6c368	-0.104864895
9	0xbd38f81e	-0.045158498
10	0xbdc35160	-0.095370054
11	0xb9b28314	-0.00034048466
12	0x3e1d7378	0.15376079
13	0x3de508bd	0.11183307
14	0xbd532c1a	-0.05155573
15	0xbe194195	-0.14966424
16	0x3d2a9f22	0.041655667
17	0x3e19f5e9	0.15035214
18	0x3d4c72eb	0.04991428
19	0xbe2a8957	-0.16653953
20	0xbbe3beef	-0.0069502513
21	0x3e1e3cba	0.15452853
22	0x3d7dc6d5	0.0619572
23	0xbe216a3f	-0.15763186
24	0xbd57fa35	-0.05272885
25	0xbdeb8f62	-0.115019575
26	0x3cfa56c3	0.03055895
27	0xbc3f5963	-0.011679026
28	0xbd9b6c31	-0.07588995
29	0xbe4216d3	-0.18954019
30	0x3d9f446d	0.07776723
31	0x3dab9067	0.08377152
32	0xbd0f3777	-0.034965005
33	0x3de3c853	0.11122193
34	0x3cac6374	0.021043517
35	0x3e041aca	0.12900844
36	0x3e41ee7a	0.18938628
37	0x3decf982	0.11571027
38	0x3d60cd0b	0.054883044
39	0x3d100d98	0.035169214
40	0xbc56b545	-0.013104741
41	0x3dc8c055	0.098023094
42	0xbe0600a2	-0.13086179
43	0xbd9a680d	-0.07539377
44	0x3e076969	0.13223805
45	0xbe355a94	-0.17710334
46	0x3e1df22e	0.15424415
47	0x3e3fc158	0.18726099
48	0x3e3b5483	0.18293957
49	0xbda36c66	-0.0797966
50	0x3e3a4d03	0.1819344
51	0xbc1ce5f6	-0.009576311
52	0x3dd47929	0.10374672
53	0x3e31f239	0.17377557
54	0xbdd4c0be	-0.10388325
55	0xbd844ad2	-0.06459583
56	0x3df879d2	0.121326104
57	0xbe2cab24	-0.1686216
58	0x3e38190e	0.17978308
59	0xbe12ae1e	-0.14324233
60	0x3e3ea0b8	0.18615997
61	0x3df6ca36	0.120502874
62	0x3d80f268	0.06296235
63	0xbda5fc30	-0.081047416
64	0x3dee5836	0.11637919
65	0xbde2f7e4	-0.11082438
66	0x3c7344e1	0.014847965
67	0x3df88853	0.12135377
68	0xbdef5274	-0.116856486
69	0x3e1082eb	0.14112441
70	0xbe06f52d	-0.13179465
71	0x3e6b7004	0.2299195
72	0x3e1e72d4	0.15473491
73	0x3e35d315	0.17756303
74	0xbe36c021	-0.17846729
75	0x3d93e7dd	0.07221959
76	0xbe0b01cb	-0.13574903
77	0x3d8c8ad7	0.06862419
78	0x3d88581d	0.06657431
79	0xbdab1931	-0.08354414
80	0xbd82db63	-0.06389501
81	0x3cf36504	0.029711254
82	0x3e25561b	0.16146128
83	0xbd299ded	-0.041410375
84	0x3d1dc1ca	0.03851489
85	0x3d7f0b72	0.062266774
86	0x3e179b0c	0.1480524
87	0x3db69cd8	0.08916634
88	0xbe35d4d0	-0.17756963
89	0x3df36ff6	0.11886589
90	0xbc057293	-0.008144992
91	0x3e071701	0.13192369
92	0xbd519553	-0.051167797
93	0xbdd530c5	-0.10409693
94	0x3d771ffb	0.060333233
95	0x3e869675	0.26286665
96	0xbe3674a7	-0.17817937
97	0xbdd661a8	-0.10467845
98	0x3e04f070	0.12982345
99	0xbe075277	-0.13215052
100	0x3e0c0e45	0.13677318
101	0xbd12e04f	-0.03585845
102	0xbcb473e1	-0.022027912
103	0x3dd2f9ae	0.10301529
104	0x3dcccfc6	0.10000567
105	0xbdb93f38	-0.09045261
106	0x3ce3d929	0.027813511
107	0xbdac297b	-0.08406349
108	0xbe18f734	-0.1493805
109	0xbda602c8	-0.08105999
110	0xbe3edaa7	-0.18638097
111	0x3cb53ffb	0.022125235
112	0x3e2fbd1e	0.17161986
113	0x3e1dbf0f	0.15404914
114	0x3e1ca717	0.15298115
115	0xbd8f6b31	-0.07002867
116	0xbc1c822d	-0.009552521
117	0x3e1009a5	0.14066179
118	0x3dce7b8a	0.10082157
119	0x3da62322	0.0811217
120	0xbc351a7d	-0.011053679
121	0x3bb94e02	0.005655051
122	0xbdeaeee6	-0.114713475
123	0x3e13d9e7	0.14438592
124	0x3dc91307	0.09818082
125	0x3d311aa7	0.04323831
126	0xbe1e2b2e	-0.15446159
127	0xbdfe2736	-0.12409823
128	0x3d0755c6	0.033040784
129	0x3d8ddaec	0.06926522
130	0x3dc25197	0.09488218
131	0x3d8f4ae0	0.06996703
132	0xbd7784e5	-0.060429472
133	0xbe0f5588	-0.13997471
134	0x3e304d90	0.17217088
135	0x3dd2b23c	0.10287902
136	0x3d953e9a	0.07287331
137	0xbe2a789e	-0.16647574
138	0xbddeea51	-0.10884536
139	0x3d8ee68e	0.069775686
140	0xbd9e0ee5	-0.07717685
141	0xbd7fc137	-0.062440123
142	0x3d41be17	0.047300424
143	0x3d3d1899	0.046166036
144	0x3d535ef5	0.05160423
145	0xbc349ee3	-0.01102421
146	0xbe0c862d	-0.13723059
147	0x3e2881a8	0.1645571
148	0xbe392d61	-0.18083717
149	0x3d1b8f56	0.037978493
150	0x3dd18116	0.10229699
151	0x3d26e609	0.040746722
152	0xbddc9559	-0.10770673
153	0x3e0d3bbf	0.13792323
154	0x3db0ef95	0.08639447
155	0xbd0f2312	-0.034945555
156	0x3e285d65	0.16441877
157	0x3d7b811b	0.06140242
158	0x3afc0d07	0.0019229957
159	0xbb6b94da	-0.0035946877
160	0xbd878374	-0.066168696
161	0xbdf94756	-0.121718094
162	0x3c5d1484	0.013493661
163	0xbe38cacc	-0.18046111
164	0x3e2c04eb	0.16798751
165	0xbcd089f2	-0.025456402
166	0xbdfd924d	-0.1238142
167	0x3df2d8e2	0.11857773
168	0x3e35f238	0.1776818
169	0x3dafc5bc	0.08582637
170	0xbe08b958	-0.13351953
171	0x3d616442	0.055027254
172	0x3c9bfff8	0.019042954
173	0x3d628a38	0.055307597
174	0x3d3d9b2d	0.046290565
175	0xbd91511d	-0.07095549
176	0xbd2e2b76	-0.042521916
177	0xbc08d8ec	-0.008352499
178	0xbe0a631e	-0.13514373
179	0x3d92f10d	0.07174883
180	0xbd70d698	-0.058798403
181	0x3d7fecb4	0.062481597
182	0x3dc9ec37	0.098595075
183	0xbe1bfbb9	-0.15232743
184	0x3e2c5e6d	0.16832896
185	0x3e2e04ba	0.1699399
186	0x3cd912ff	0.026498316
187	0x3d765b3c	0.0601456
188	0xbd7815d4	-0.060567692
189	0x3d8daaa6	0.06917314
190	0x3e2a81eb	0.16651122
191	0x3d7cf8a1	0.06176055
192	0x3d7339b6	0.05938121
193	0xbdf20899	-0.11818046
194	0x3db4a0e2	0.088197485
195	0xbe1acba4	-0.15116745
196	0xbc2c458b	-0.010514627
197	0x3c8a4088	0.016876474
198	0xbd2e0f9d	-0.04249536
199	0x3e07d1f9	0.13263692
200	0xbd328ed0	-0.043593228
201	0xbc0a5b26	-0.008444583
202	0xbd1f3781	-0.038871292
203	0x3d6d13ff	0.057880398
204	0x3c03aafc	0.008036371
205	0x3e4f107d	0.20221134
206	0x3c3af091	0.011409895
207	0x3dcf408d	0.10119734
208	0x3c99ef60	0.0187909
209	0x3dbc5071	0.091950305
210	0xbc0afafa	-0.008482689
211	0xbe1965c1	-0.14980222
212	0x3cccc38c	0.024995588
213	0xbd80583b	-0.062668286
214	0x3b9c494e	0.004769481
215	0x3e0912c7	0.13386069
216	0x3d881ca9	0.066460915
217	0xbb3ef9ed	-0.0029140667
218	0xbe278ed4	-0.16363078
219	0x3d3de9e1	0.046365622
220	0xbd96b986	-0.073596045
221	0xbd98ddef	-0.074642055
222	0x3d1cd12b	0.038285416
223	0x3dd493cd	0.10379753
224	0xbde1ad34	-0.11019364
225	0xbe2eec1a	-0.17082253
226	0x3d4f6559	0.050633762
227	0x3b6f982b	0.0036559205
228	0xbc84f340	-0.016229272
229	0xbda9feff	-0.0830059
230	0xbe2dc378	-0.16969097
231	0xbe0d830e	-0.13819525
232	0x3e1a3589	0.15059485
233	0xbe559b62	-0.20860055
234	0xbbd7fa54	-0.0065911207
235	0x3de8c083	0.11364844
236	0xbd2dcef1	-0.042433683
237	0xbca9c929	-0.020725803
238	0xbe15f253	-0.1464322
239	0xbd7044d7	-0.0586594
240	0xbb0672c5	-0.0020515185
241	0xbd982003	-0.07427981
242	0x3e0d5e05	0.13805397
243	0xbdf88578	-0.12134832
244	0xbdce88dd	-0.10084698
245	0xbe2bd532	-0.16780546
246	0x3d846514	0.064645916
247	0x3d130241	0.03589082
248	0x3c126c4b	0.008936952
249	0xbe356c3e	-0.17717072
250	0x3d80f8bf	0.062974446
251	0x3d3878fa	0.045037247
252	0x3e2f05eb	0.17092101
253	0x3d4d8d48	0.050183564
254	0xbe185c13	-0.14878874
255	0xbe66d94a	-0.22543827

conv1.apply_func.2.bias f4 [32]
0	0xbe04ea00	-0.12979889
1	0xbe85535d	-0.26040164
2	0x3e1bf210	0.15229058
3	0x3cb7f9d5	0.022457996
4	0x3e848866	0.25885314
5	0x3c1e9dc3	0.009681168
6	0x3e3ad571	0.18245484
7	0xbe4b74fa	-0.19868842
8	0x3dea3dfd	0.114376046
9	0xbc692aaf	-0.014231368
10	0x3cc4688d	0.023975635
11	0x3db94989	0.09047229
12	0x3e5de364	0.21668774
13	0x3dc3e05c	0.095642775
14	0x3ea0f8da	0.3143986
15	0xbbe47744	-0.0069722254
16	0x3e737a44	0.2377711
17	0xbe65ad0a	-0.2242929
18	0x3e34c0ae	0.17651626
19	0x3ddf35da	0.10898943
20	0x3e887ca7	0.26657602
21	0xbe0e1fc4	-0.13879305
22	0xbd0960b6	-0.033539496
23	0x3ccc1ee5	0.024917075
24	0x3da88c28	0.08229858
25	0x3d50a782	0.050940998
26	0xbe2aa55b	-0.1666464
27	0xbe57ee16	-0.21086916
28	0xbe5d8d6c	-0.2163598
29	0xbe2ab645	-0.16671093
30	0x3e18ca3c	0.14920896
31	0x3e15afa4	0.14617783
