macros/GregFlow/models/November_04/run_1_2flows_4hl_64hu_2000bs_checkpoint_e93.pth (torch, 82688 bytes, 26 tensors)

q0.loc f4 [1, 2]
0	0x3cc813d4	0.024423517
1	0xbd86a177	-0.06573766

q0.log_scale f4 [1, 2]
0	0x3be1b729	0.0068882895
1	0x3cd65d9b	0.026167681

flows.0.flows.1.param_map.net.0.weight f4 [64, 1]
0	0x3e431fd9	0.19055118
1	0x3e65835d	0.22413392
2	0x3e9c6b02	0.3055039
3	0x3ec4ec6b	0.38461623
4	0xbee00495	-0.43753496
5	0xbf5f30ab	-0.87183636
6	0xbf3f8330	-0.7480955
7	0xbda925dc	-0.08259174
8	0xbf80476d	-1.0021797
9	0xbf15f844	-0.5858195
10	0xbf2f9c4d	-0.6859787
11	0xbf84e250	-1.0381565
12	0x3eafb844	0.3432027
13	0xbeb4255d	-0.35184756
14	0xbe602a4f	-0.2189114
15	0xbf5daee5	-0.8659499
16	0x3f225471	0.634101
17	0xbee8de98	-0.45482326
18	0x3f492e9f	0.78586763
19	0xbf62e943	-0.8863718
20	0xbede6755	-0.4343821
21	0x3f78432f	0.96977514
22	0x3f5bbf20	0.8583851
23	0x3f659876	0.8968576
24	0xbd2e3e6f	-0.04254001
25	0xbf0e8d6e	-0.55684555
26	0xbf4941d2	-0.7861606
27	0xbf2b041b	-0.6680314
28	0x3e528b53	0.2056096
29	0xbebf01b9	-0.37306002
30	0xbf3c7e3c	-0.7363012
31	0x3da59c4f	0.08086454
32	0xbe853130	-0.2601409
33	0xbe951713	-0.29119167
34	0xbf7659b8	-0.9623065
35	0x3e8c0f54	0.27355444
36	0x3f2647cb	0.649533
37	0x3ef28f7d	0.47375098
38	0xbdbe5b21	-0.09294725
39	0x3e91c605	0.2847139
40	0xbf72749a	-0.9470917
41	0x3d3c9639	0.0460417
42	0x3f2129d5	0.62954456
43	0xbe4a0e3d	-0.19731994
44	0xbf8017d5	-1.0007273
45	0x3df0f392	0.11765207
46	0x3e85c694	0.26128066
47	0xbeb7d99f	-0.3590822
48	0x3f4a14a3	0.7893774
49	0x3f44b0d0	0.76832294
50	0x3efb93da	0.4913624
51	0x3e40a948	0.18814576
52	0x3e830511	0.25589803
53	0x3ee1c746	0.44097346
54	0x3e923092	0.2855268
55	0xbec54042	-0.38525587
56	0xbf18e07c	-0.59717536
57	0xbf51cc4f	-0.81952375
58	0xbf4d0946	-0.80092275
59	0xbf201cb3	-0.6254379
60	0xbf4a938c	-0.7913139
61	0xbef6b1fe	-0.48182672
62	0x3dc46540	0.095896244
63	0x3f33f061	0.70288664

flows.0.flows.1.param_map.net.0.bias f4 [64]
0	0x3f4582da	0.7715279
1	0xbea6af69	-0.32555702
2	0x3e630942	0.221715
3	0xbf838e33	-1.0277771
4	0x3eba5613	0.36393794
5	0x3edce2c0	0.43141747
6	0x3f1a9ad1	0.6039248
7	0x3f7aa350	0.97905445
8	0x3e9dd7d0	0.30828714
9	0x3f413b8f	0.75481504
10	0x3d637670	0.055532873
11	0x3d49fb61	0.049312
12	0x3ba050d4	0.004892448
13	0x3f0d0b9e	0.5509585
14	0x3f500e59	0.8127189
15	0x3edc3404	0.43008435
16	0xbf690c3b	-0.9103429
17	0x3f53c5ae	0.8272351
18	0xbeb81ef6	-0.3596112
19	0xbf54d52d	-0.8313778
20	0xbebe8b46	-0.37215632
21	0xbf28e7b5	-0.65978557
22	0xbf07c709	-0.5303808
23	0x3e54a5f4	0.20766431
24	0x3ed31753	0.41228732
25	0xbe8a5a3a	-0.27021962
26	0x3f39bd06	0.7255405
27	0xbece7d8f	-0.4033017
28	0x3f363142	0.7116891
29	0x3eb23e6d	0.34813252
30	0x3f1fcbb2	0.6242019
31	0x3e62da99	0.22153701
32	0x3f61008c	0.8789146
33	0xbf459cc7	-0.7719235
34	0x3dfe5ef4	0.124204546
35	0xbf22ba0e	-0.63565147
36	0x3f00a771	0.50255495
37	0x3f53e74d	0.8277481
38	0xbeb4783a	-0.35247976
39	0xbf133cf5	-0.5751489
40	0x3f37c6f0	0.7178793
41	0x3f431157	0.76198334
42	0xbed0c638	-0.4077623
43	0x3f1625ba	0.58651316
44	0x3c6a6db8	0.014308386
45	0x3f58512e	0.8449887
46	0x3ed2920c	0.4112705
47	0x3f5edbf8	0.87054396
48	0xbeeb7bf4	-0.45993006
49	0xbedff8ad	-0.43744412
50	0x3f3a3d06	0.72749364
51	0xbd923211	-0.07138456
52	0xbf80b107	-1.0054024
53	0xbe8e1623	-0.27751264
54	0xbf6c5bbb	-0.9232747
55	0x3f439f95	0.7641538
56	0xbe16cbc3	-0.14726166
57	0x3d53f6e9	0.051749144
58	0xbe5ed8fd	-0.21762462
59	0x3f3fb868	0.74890757
60	0xbf6c9fef	-0.9243154
61	0xbeb9b477	-0.36270496
62	0x3eac1037	0.3360612
63	0x3e868207	0.26271078

flows.0.flows.1.param_map.net.2.weight f4 [64, 64]
0	0xbd115011	-0.035476748
1	0x3d9ea645	0.07746557
2	0xbd334d84	-0.043775097
3	0xbdc45765	-0.09586982
4	0x3d057b00	0.032588005
5	0x3ca89bbe	0.020582076
6	0x3de37d70	0.1110791
7	0xbd85e2a9	-0.065373726
8	0xbd103967	-0.035210993
9	0x3ca592bf	0.020211576
10	0xbb60afea	-0.003428454
11	0xbcf317fa	-0.029674519
12	0x3d1c8b3b	0.038218718
13	0x3e186fa4	0.14886338
14	0xbc3a4dd2	-0.011371093
15	0x39bf474b	0.00036483476
16	0x3b1bef41	0.002379373
17	0x3d1cb363	0.038257014
18	0x3cef3848	0.029201642
19	0xba29eef3	-0.00064824446
20	0x3c9ba013	0.018997228
21	0x3d2ba538	0.04190561
22	0x3cf633ae	0.03005394
23	0xbde19eca	-0.11016615
24	0x3e071e3d	0.13195129
25	0x3d0fb031	0.03508014
26	0x3d988a65	0.07448272
27	0xbd4db33f	-0.05021977
28	0xbde28c74	-0.110619456
29	0x3d95b1a1	0.07309271
30	0x3d0606e6	0.032721423
31	0xbdd8f2ef	-0.10593211
32	0xbcdc4672	-0.02688906
33	0x2e7341b1	5.531015e-11
34	0x3d6484dc	0.055790767
35	0xbd7b4952	-0.06134922
36	0xbc069c3f	-0.008215963
37	0x3db024a3	0.08600738
38	0x3ac1283f	0.0014736726
39	0x3d0bfa97	0.034174528
40	0xbd307f4a	-0.043090142
41	0xbd31b126	-0.043381833
42	0x3dca7399	0.0988533
43	0x3da17176	0.07882969
44	0x3cf6a39b	0.03010731
45	0x3da1befb	0.07897755
46	0xbd37a4a8	-0.044834763
47	0x3ca8a081	0.020584347
48	0x3d9ac6b2	0.075574294
49	0x3d89eccd	0.06734619
50	0x3c87ade0	0.016562402
51	0x3d9ea25f	0.077458136
52	0x3dc0bdcd	0.094112016
53	0xbd957ced	-0.07299218
54	0xbd31f053	-0.04344208
55	0xbd324105	-0.04351904
56	0xbcdbe109	-0.026840704
57	0xbd05896d	-0.032601763
58	0xbcc7c8ac	-0.02438768
59	0x3d93dbcc	0.07219657
60	0xbcdfc16c	-0.02731391
61	0x3c239fcf	0.009986832
62	0x3daba54e	0.08381139
63	0xbc70e338	-0.014702611
64	0x3d433a58	0.047663063
65	0x3da1904c	0.078888506
66	0x3ded6054	0.11590639
67	0x3d983e07	0.07433706
68	0x3b290269	0.002578879
69	0xbc6af226	-0.014339959
70	0x3d360bf0	0.04444498
71	0x3d504d2d	0.05085485
72	0x3dea863b	0.11451384
73	0x3d19dad9	0.037562225
74	0x3df67e79	0.120358415
75	0xbc452705	-0.012033229
76	0xba252a36	-0.00063005404
77	0x3cac8a98	0.02106218
78	0xbd005bf6	-0.0313377
79	0x3de0b598	0.10972136
80	0x3d47ffd5	0.048827965
81	0x3d7b38a8	0.06133333
82	0x3d8f5ed0	0.07000506
83	0x3ce26f9a	0.027641106
84	0x3de3a119	0.11114711
85	0xbc4ee046	-0.012626713
86	0x3de61ba0	0.11235738
87	0x3d58aa79	0.05289695
88	0x3d3e787c	0.04650162
89	0x3bcfb612	0.006338843
90	0xbcda53a0	-0.026651204
91	0x3cc8d766	0.024516772
92	0x3d64c30f	0.055850085
93	0x3d4a7ee1	0.049437407
94	0x3d02419a	0.031800844
95	0xbc48403a	-0.012222344
96	0x3dcc5770	0.09977615
97	0x31296f7c	2.4656108e-09
98	0xbc7ef96f	-0.015562399
99	0xbcb5619c	-0.02214127
100	0x3d8d7cb4	0.06908551
101	0xbd097b23	-0.033564698
102	0x3c188ec9	0.009311386
103	0x3c80a4ca	0.015703578
104	0x3e003773	0.12521152
105	0x3d9ae07c	0.07562348
106	0x3a3b3b07	0.00071422796
107	0x3dcc9265	0.0998886
108	0x3d94f765	0.07273749
109	0x3d3535d3	0.044240784
110	0x3cf9c995	0.03049163
111	0x3d38053f	0.044926878
112	0x3a6d865d	0.0009060854
113	0xbbc851fc	-0.006113289
114	0x3d25ef55	0.040511448
115	0x3d3aa4da	0.04556737
116	0xbd5ae1de	-0.05343806
117	0xba00b04c	-0.0004909083
118	0x3dc6cbc0	0.09706831
119	0x3d4a8acc	0.049448773
120	0x3d43afb5	0.04777499
121	0x3ce18830	0.02753076
122	0x3dd95c56	0.10613315
123	0x3bb0c04e	0.0053940183
124	0x3ca14aa9	0.019688921
125	0x3d096b02	0.033549316
126	0xbb5f2082	-0.0034046476
127	0x3d4f3e26	0.05059638
128	0xbd0f5519	-0.034993265
129	0x3cdaf50f	0.026728181
130	0x3d578939	0.0526211
131	0x3dc261b0	0.09491289
132	0x3ddecc6e	0.108788356
133	0x3daeda93	0.085377835
134	0x3d290ece	0.041273884
135	0x3c0a049c	0.0084239505
136	0x3d11291d	0.0354396
137	0x3d38bc37	0.04510137
138	0x3d340c9d	0.04395734
139	0x3d2fddf3	0.042936277
140	0xbc38c9a0	-0.01127854
141	0x3d3940b5	0.045227725
142	0x3df50caf	0.1196531
143	0x3d693940	0.056939363
144	0x3cbe9bc3	0.023267632
145	0x3d397bbe	0.045284025
146	0x3d604b3b	0.054759245
147	0x3cab1d5f	0.020888029
148	0x3c935cdb	0.017988613
149	0x3d3a1847	0.04543331
150	0x3d3846d5	0.044989426
151	0xbc38b6eb	-0.01127408
152	0x3d40b7ca	0.047050275
153	0x3cc70e2c	0.02429875
154	0x3ccb4cd3	0.024816906
155	0xbcf8ff52	-0.030395184
156	0xbb9534ca	-0.004553412
157	0x3c7de540	0.015496552
158	0x3d2871b9	0.04112408
159	0x3d218a6e	0.039438657
160	0x3d3b5ebf	0.045744654
161	0xb425ce84	-1.5441952e-07
162	0x3dfe9e57	0.12432545
163	0x3de372c7	0.111058764
164	0x3d278622	0.040899403
165	0x3cb7f46e	0.02245542
166	0x3c6256ba	0.013814623
167	0xbc0fe73f	-0.008783161
168	0x3d37cada	0.04487119
169	0x3dd7cdeb	0.105373226
170	0x3ce88231	0.028382393
171	0x3c6eb83f	0.014570295
172	0x3dd58464	0.10425642
173	0x3d455ad3	0.04818232
174	0x3d4e8389	0.05041841
175	0x3d3b83c9	0.045779977
176	0x3de62c33	0.11238899
177	0xbb0bd2b0	-0.0021335296
178	0x3df5ff79	0.12011618
179	0x3d645b79	0.055751298
180	0x3d4531e0	0.048143268
181	0x3d37aaa0	0.044840455
182	0x3cf494b1	0.029856058
183	0x3c6c2237	0.014412454
184	0x3d2bf3ef	0.04198068
185	0xbd00b8ee	-0.031426363
186	0x3dacbc38	0.084343374
187	0x3d3892b6	0.04506179
188	0x3caced53	0.021109259
189	0x3d08ebcb	0.033427995
190	0x3cf2530c	0.029580615
191	0xbcb73b88	-0.022367254
192	0xbd9a0e7f	-0.07522296
193	0x3e017fd1	0.12646414
194	0xbdad284d	-0.084549524
195	0xbdec1b69	-0.115286656
196	0xbb9c96d9	-0.0047787246
197	0x3d6e8236	0.058229648
198	0x3d176736	0.036963664
199	0x3e1d24c1	0.15346052
200	0x3d2f92bf	0.042864557
201	0x3e054d12	0.13017681
202	0x3d8e5ae6	0.06950931
203	0xbc135b4f	-0.008993938
204	0xbdc1868d	-0.09449492
205	0x3cce3adc	0.02517455
206	0x3e0aedb0	0.13567233
207	0x3db3f3aa	0.087867096
208	0xbd5586be	-0.052130453
209	0x3cd4b5fb	0.025965681
210	0x3de6768e	0.11253081
211	0xbcc900eb	-0.02453657
212	0x3d495169	0.049149904
213	0x3dcbb3ec	0.09946427
214	0x3d855b3c	0.06511542
215	0x3b99d4aa	0.004694541
216	0xbd82e84d	-0.06391964
217	0xbc0d0d95	-0.008609195
218	0x3c42ff9a	0.0119017605
219	0x3d05fedd	0.03271376
220	0x3d24ff13	0.04028232
221	0xbb97f34a	-0.0046371566
222	0x3d1f6918	0.038918585
223	0xbc6e1e31	-0.014533565
224	0x39ab77a4	0.000327048
225	0xbcafcd22	-0.02146012
226	0x3c4f1a1b	0.012640501
227	0xbc349e09	-0.011024007
228	0x3cee9de7	0.029128028
229	0x3b0b1180	0.0021220148
230	0xa9d5b1bb	-9.4899315e-14
231	0xbde767bf	-0.11299085
232	0xbbcc4621	-0.006233946
233	0xbc8a4320	-0.01687771
234	0x3db11396	0.08646314
235	0x3daf3531	0.08555067
236	0x3d4fcbfc	0.050731644
237	0xbd8d46e4	-0.06898287
238	0x3d88840c	0.06665811
239	0x3e242bbc	0.16032308
240	0x3d861fe1	0.06549049
241	0x3d1d868b	0.03845839
242	0x3d646a65	0.05576553
243	0x3dc3b200	0.09555435
244	0x3d2efb95	0.042720396
245	0xbdc72c87	-0.0972529
246	0xbdd0805c	-0.101807326
247	0xbd2b5fd1	-0.041839425
248	0x3cc1fd6f	0.023680417
249	0x3cdea994	0.02718047
250	0x3d4216c9	0.04738501
251	0x3d8bd355	0.06827418
252	0xbcd5dd06	-0.026106369
253	0x3cfa4abb	0.030553212
254	0x3d90ecd0	0.070764184
255	0xbc317e36	-0.010833314

flows.0.flows.1.param_map.net.2.bias f4 [64]
0	0x3dfffb29	0.12499077
1	0x3d74073b	0.059577208
2	0x3c97254e	0.018450405
3	0x3dadcb4c	0.084860414
4	0xbd9a3178	-0.07528967
5	0x3dfa9418	0.12235278
6	0xbda3332c	-0.07968745
7	0x3d9dd56b	0.07706722
8	0x3d61aa80	0.055094242
9	0x3ce17b44	0.027524598
10	0x3e11ebce	0.14250109
11	0x3da7aa1d	0.081867434
12	0xbcd8f85a	-0.02648561
13	0x3da6de5e	0.08147882
14	0xb90b0aa6	-0.0001326004
15	0x3ddd8c6b	0.10817798
16	0x3d4edbcf	0.050502595
17	0x3dc202bd	0.094731785
18	0x3da56b11	0.08077062
19	0x3c2ac002	0.010421755
20	0x3d180bc1	0.037120584
21	0x3d7a17f1	0.06105799
22	0x3e0eb632	0.1393669
23	0xbccf7bb1	-0.025327535
24	0xbcea81ca	-0.028626341
25	0x3e1df60d	0.15425892
26	0xbd4055a3	-0.04695667
27	0xbd72258a	-0.05911783
28	0x3cc03282	0.023461584
29	0x3db971dd	0.09054921
30	0x3c694d8e	0.014239682
31	0xbd4a4201	-0.049379352
32	0x3e167328	0.14692366
33	0x3e244345	0.16041286
34	0x3d51caa4	0.051218644
35	0x3b33f014	0.002745633
36	0xbd96ca0a	-0.07362755
37	0x3e2c4bc9	0.16825785
38	0x3c94b5b8	0.018153057
39	0x3d2a42b2	0.04156751
40	0xbd01f707	-0.031729724
41	0x3cd0fb85	0.025510559
42	0x3dd281ed	0.102786876
43	0x3d0e4cea	0.03474132
44	0x3ab9cad0	0.0014174823
45	0x3dc4c167	0.09607201
46	0x3cda5690	0.026652604
47	0xbc232ff9	-0.009960168
48	0xbd9ef79d	-0.07762072
49	0x3d84eefb	0.064908944
50	0x3caa1ea4	0.020766564
51	0x3d2110cb	0.039322656
52	0x3e2c7287	0.16840564
53	0x3c3a1004	0.0113563575
54	0x3e1eeecc	0.15520781
55	0x3e0fc471	0.1403978
56	0xbd52b5d8	-0.05144295
57	0xbd078695	-0.03308733
58	0x3a74ec23	0.00093430484
59	0x3d971f0e	0.0737897
60	0x3dc8b05f	0.09799265
61	0xbd82f9cf	-0.063953035
62	0x3e03c3d5	0.12867673
63	0xbc620960	-0.0137961805

flows.0.flows.1.param_map.net.4.weight f4 [2, 64]
0	0xbd09618c	-0.033540294
1	0xbd42db6f	-0.04757255
2	0xbd254078	-0.040344685
3	0xbd0499d7	-0.032373276
4	0xbcf1d453	-0.02952019
5	0xbd089683	-0.033346664
6	0xbd3000f0	-0.042969644
7	0xbd9b3d34	-0.07580033
8	0xbd4a13d7	-0.049335327
9	0xbce4f471	-0.02794859
10	0xbd149c62	-0.03628195
11	0xbd988f00	-0.0744915
12	0x00000000	0.0
13	0xbd3a470d	-0.045477916
14	0x00000000	0.0
15	0xbd6b0121	-0.057374123
16	0xbd6ebb1b	-0.058283906
17	0xbd1fa9a6	-0.03898015
18	0xbd18f462	-0.037342437
19	0xbd1e424d	-0.038637448
20	0xbd901afc	-0.07036397
21	0xbd8e0399	-0.0693428
22	0xbd8de81f	-0.06929039
23	0xbd0d5fd0	-0.034515202
24	0xbd159f65	-0.036528964
25	0xbd4fd83c	-0.050743327
26	0xbcca9fe9	-0.024734454
27	0xbd196cc7	-0.037457254
28	0x00000000	0.0
29	0xbcfa0e57	-0.030524416
30	0xbd11c816	-0.035591207
31	0x00000000	0.0
32	0xbd90e603	-0.07075121
33	0xbd767d77	-0.060178246
34	0xbc8bd832	-0.017070863
35	0xbcbec477	-0.023287041
36	0xbd83136b	-0.06400188
37	0xbd983306	-0.07431607
38	0xbd148f18	-0.036269277
39	0xbcf54119	-0.029938268
40	0xbd8e91d5	-0.06961409
41	0xbcc455e3	-0.023966735
42	0xbcf21d61	-0.029555025
43	0xbd9ccd0f	-0.07656299
44	0xbce3de90	-0.027816087
45	0xbcfe09c9	-0.031010525
46	0xbcc9cb13	-0.024632966
47	0xbd68ac76	-0.056805097
48	0xbcc4b686	-0.024012815
49	0xbd193a0b	-0.03740887
50	0x00000000	0.0
51	0xbcc58a5a	-0.024113823
52	0xbd9c122b	-0.07620653
53	0xbd799e8a	-0.06094221
54	0xbd71c88f	-0.05902916
55	0xbd045817	-0.03231057
56	0x00000000	0.0
57	0xbd8d695a	-0.0690486
58	0xbd4e6f5a	-0.050399162
59	0xbcd6ffe3	-0.026245063
60	0xbd8ad812	-0.067794934
61	0xbd70206f	-0.05862468
62	0xbd0ab3a7	-0.033862736
63	0xbcb541b4	-0.022126056
64	0x3bf4d8be	0.0074721267
65	0x3d47b512	0.048756666
66	0x3d4bf745	0.04979636
67	0x3bcd9513	0.0062738745
68	0x3bb95246	0.0056555597
69	0x3bd94db4	0.0066315774
70	0x3c2b9f0f	0.010474934
71	0x3d5673ff	0.052356716
72	0x3d4bb592	0.049733706
73	0x3babffc7	0.005248997
74	0x3bed89db	0.0072490997
75	0x3d58e369	0.05295125
76	0x00000000	0.0
77	0x3c50c75a	0.012742842
78	0x00000000	0.0
79	0x3d0039b5	0.031305034
80	0x3d489133	0.048966598
81	0x3c0d0391	0.008606807
82	0x3c024bf2	0.007952677
83	0x3d1f0866	0.03882637
84	0x3d49851b	0.049199205
85	0x3d4369ab	0.047708195
86	0x3d434cb4	0.04768057
87	0x3bda4691	0.006661244
88	0x3bf8e773	0.0075959503
89	0x3ca57a45	0.020199904
90	0x3b9a2d0c	0.004705077
91	0x3c0395b9	0.008031302
92	0x00000000	0.0
93	0x3bc2a825	0.0059404545
94	0x3d509072	0.050919004
95	0x00000000	0.0
96	0x3d49433e	0.049136393
97	0x3d111035	0.035415847
98	0x3b79b6b2	0.003810328
99	0x3b92345f	0.0044618095
100	0x3d305191	0.043046538
101	0x3d57a672	0.05264897
102	0x3bfaaa46	0.0076496927
103	0x3bbde898	0.0057955496
104	0x3d49eecc	0.0493
105	0x3b992dc7	0.0046746465
106	0x3bbbe112	0.0057336176
107	0x3d6503d2	0.055911846
108	0x3bacf6f5	0.005278463
109	0x3bc74d59	0.0060822186
110	0x3b9b6392	0.0047420943
111	0x3cfa7697	0.030574126
112	0x3b9886c1	0.004654736
113	0x3bfe75c0	0.0077655017
114	0x00000000	0.0
115	0x3b8ff14d	0.004392779
116	0x3d5f4e23	0.054517876
117	0x3d1b7072	0.037949033
118	0x3d0d4bdc	0.034496173
119	0x3bcc4be5	0.0062346333
120	0x00000000	0.0
121	0x3d3ffba8	0.046870857
122	0x3c94d838	0.018169507
123	0x3ba1e85d	0.00494103
124	0x3d48db66	0.04903736
125	0x3d0a729e	0.033800714
126	0x3bde86ea	0.0067909854
127	0x3b8fa2b3	0.004383409

flows.0.flows.1.param_map.net.4.bias f4 [2]
0	0xbd5c12c2	-0.053728826
1	0x3cd6797f	0.02618098

flows.2.flows.1.param_map.net.0.weight f4 [64, 1]
0	0xbf2b570e	-0.6692971
1	0x3d962e86	0.073330924
2	0xbf3beaf5	-0.7340539
3	0x3ee2a238	0.44264388
4	0x3f71baa0	0.9442539
5	0x3f581fa2	0.8442327
6	0x3e4aa698	0.19790113
7	0xbeddb954	-0.43305457
8	0x3e8ad64a	0.27116615
9	0x3eaca65d	0.33720675
10	0xbf42e891	-0.7613612
11	0x3ecc0dde	0.3985433
12	0x3e187d99	0.14891662
13	0xbf8134d2	-1.0094244
14	0xbf32f891	-0.6991053
15	0x3f5703f8	0.8399043
16	0xbee2aa00	-0.44270325
17	0xbf093ee7	-0.53611606
18	0xbf536858	-0.8258109
19	0xbef311c9	-0.47474506
20	0x3f7bcc68	0.98358774
21	0x3f401911	0.7503825
22	0x3f666966	0.90004575
23	0xbe7f8a50	-0.24955106
24	0x3f2ce7ce	0.67541206
25	0x3ec419a8	0.38300824
26	0x3ea5e4d3	0.32401142
27	0x3f70a676	0.94004
28	0xbdb0fcde	-0.086419806
29	0xbe221186	-0.15826997
30	0xbe52fe36	-0.20604786
31	0x3eed81a0	0.4638796
32	0x3ec56ee9	0.3856118
33	0x3f3f1d5e	0.74654186
34	0xbd8e7351	-0.069555886
35	0x3f3bd00c	0.7336433
36	0x3f1cc2cd	0.6123474
37	0x3e951cad	0.2912344
38	0x3ee4c404	0.44680798
39	0xbf78a57c	-0.9712751
40	0xbe96e2c5	-0.29469886
41	0xbf19d477	-0.6008982
42	0x3ed57289	0.41688946
43	0xbe9af81f	-0.30267426
44	0xbf43c5d9	-0.76473767
45	0x3eb2f9f1	0.34956315
46	0xbf35c163	-0.7099821
47	0xbe07e158	-0.13269556
48	0x3e556063	0.2083755
49	0x3f56c97d	0.83901197
50	0xbf107ef2	-0.56443703
51	0xbecbb114	-0.39783537
52	0xbe8fb1fc	-0.2806548
53	0xbe846808	-0.2586062
54	0xbd8fd07c	-0.07022187
55	0xbc5c7957	-0.013456664
56	0x3f1432b6	0.5788988
57	0xbf212b4a	-0.6295668
58	0x3f2a2af9	0.6647182
59	0xbf6c735b	-0.9236352
60	0x3ea53590	0.32267427
61	0xbe858fb5	-0.26086202
62	0x3ece7f3e	0.40331453
63	0x3ef58a21	0.47956946

flows.2.flows.1.param_map.net.0.bias f4 [64]
0	0xbf4dafd6	-0.8034643
1	0x3efe5c52	0.4967981
2	0xbee620e2	-0.44946963
3	0x3d72f585	0.059316177
4	0xbe588c16	-0.21147189
5	0xbf521735	-0.8206666
6	0x3f5bf025	0.85913306
7	0x3e118817	0.1421207
8	0x3f141021	0.5783711
9	0xbf3b0a06	-0.7306217
10	0xbdce7e7d	-0.100827195
11	0xbea938ff	-0.33051297
12	0xbe8c6c3e	-0.27426332
13	0x3e887eb5	0.2665917
14	0x3f3f855f	0.74812883
15	0xbeddfdc4	-0.4335767
16	0xbe855fe8	-0.26049733
17	0x3e1c7600	0.15279388
18	0xbf070041	-0.5273476
19	0x3f646b0a	0.8922583
20	0x3f34363c	0.70395255
21	0x3f7976e9	0.9744707
22	0xbee343ff	-0.44387814
23	0x3f68eb11	0.9098368
24	0xbe223a77	-0.15842615
25	0x3f5a396c	0.8524387
26	0x3f0e32a2	0.5554601
27	0x3ea773e2	0.327056
28	0x3e6ab150	0.22919202
29	0xbe7585bc	-0.23976797
30	0x3e0834c5	0.1330138
31	0xbf2a100d	-0.6643074
32	0xbe766001	-0.2406006
33	0x3f84eea9	1.0385333
34	0x3f4d9d8e	0.80318534
35	0xbf0d52d6	-0.5520452
36	0x3f81c1b8	1.0137243
37	0xbe61d204	-0.22052771
38	0xbe132fcc	-0.14373702
39	0xbe9379ee	-0.28803962
40	0x3f4e4af1	0.805831
41	0xbf2ba1e6	-0.6704391
42	0x3f4f0c85	0.8087848
43	0xbf71f87f	-0.945198
44	0xbf10b439	-0.56525
45	0x3f23aa52	0.63931763
46	0x3f2ea2eb	0.68217343
47	0x3cc6def0	0.024276227
48	0xbf361626	-0.71127546
49	0xbedfebca	-0.4373458
50	0xbef86937	-0.48517773
51	0x3efd068d	0.4941906
52	0x3f092a28	0.5357995
53	0xbf663784	-0.8992846
54	0xbc8b973c	-0.017039888
55	0x3f530a9e	0.82438076
56	0xbef68114	-0.48145354
57	0xbf17e0f0	-0.593276
58	0xbf731667	-0.9495606
59	0x3e77103f	0.24127291
60	0x3f4c3ff4	0.79785085
61	0xbe2bde8e	-0.16784117
62	0xbbcbee3d	-0.0062234686
63	0x3f2b9bc8	0.6703458

flows.2.flows.1.param_map.net.2.weight f4 [64, 64]
0	0x3c80c2d1	0.015717896
1	0x3d673d30	0.056454837
2	0x3dc147a1	0.0943749
3	0x3d150e6b	0.036390703
4	0xbd003615	-0.031301577
5	0x3d1c910a	0.038224258
6	0xbd954386	-0.0728827
7	0x3e220dce	0.15825579
8	0x3dd372fc	0.10324666
9	0xbd8e2ad3	-0.06941762
10	0xbcf849ce	-0.03030863
11	0x3d0f9dda	0.03506265
12	0xbdb319b4	-0.08745137
13	0x3e1aab70	0.1510446
14	0xbd2d8875	-0.042366464
15	0x3c7ee07e	0.015556453
16	0xbdb18eac	-0.086697906
17	0x3dcaccf5	0.09902374
18	0xbd5235e3	-0.05132092
19	0x3e0e27ba	0.13882342
20	0x3cbe8d89	0.023260849
21	0xbd73e87a	-0.05954788
22	0x3d7354ba	0.059406973
23	0xbcd34ff0	-0.025794953
24	0x3dc42b35	0.095785536
25	0xbd7a4d18	-0.06110868
26	0x3e107358	0.141065
27	0xbdbd5b04	-0.092458755
28	0xbabfdce6	-0.0014637976
29	0xba5e221f	-0.00084737124
30	0x3dc8c7b7	0.098037176
31	0xbd11af58	-0.03556761
32	0x3dcb2cd1	0.099206574
33	0x3d5ca9a4	0.05387272
34	0x3ddb142a	0.10697205
35	0x3da58c88	0.08083445
36	0x3d5b6707	0.05356505
37	0x3dbdbae8	0.09264165
38	0x3df93186	0.12167649
39	0xbda31ccd	-0.07964478
40	0x3e1269f2	0.14298227
41	0x3d56d78d	0.05245166
42	0xbd38a20d	-0.04507642
43	0x3d9492c1	0.072545536
44	0xbd6b2a06	-0.057413124
45	0x3d5223e3	0.051303755
46	0x3deca8de	0.11555646
47	0x3c520180	0.01281774
48	0x3c9e9bb0	0.019361347
49	0xbdd7a3cf	-0.10529291
50	0x3ce72bce	0.02821913
51	0xbc94d41a	-0.018167544
52	0x3dfc381e	0.12315391
53	0xbdbe66b8	-0.09296936
54	0xbdb8e0fc	-0.09027287
55	0x3e1c7bbc	0.15281576
56	0xbd960e09	-0.07326896
57	0xbcc32844	-0.023822911
58	0x3c912d33	0.017721748
59	0xbd8ce20e	-0.06879054
60	0xbd86a89c	-0.065751284
61	0x3dc1595b	0.09440871
62	0xbd4ed03e	-0.050491564
63	0xbdb436d3	-0.087995194
64	0x3d59b88b	0.05315451
65	0x3afb46ad	0.0019170843
66	0x3dbc6210	0.091983914
67	0x3d5ccfac	0.05390899
68	0x3e0357de	0.12826487
69	0x3d2cc252	0.042177506
70	0x3d68092e	0.05664938
71	0x3dded9c2	0.10881378
72	0x3d919f26	0.07110433
73	0x3d761e90	0.06008774
74	0x3dd129c1	0.10213042
75	0xbc497b02	-0.012297394
76	0x3ce1d603	0.027567869
77	0xbd14c1e1	-0.03631771
78	0x3cd37517	0.025812669
79	0x3c779e8a	0.015113482
80	0x3e18eb80	0.14933586
81	0xbd8cfba0	-0.06883931
82	0xbcdc413f	-0.02688658
83	0xbd2e5e80	-0.04257059
84	0x3df16f39	0.11788792
85	0x3dbb144a	0.09134729
86	0xbdf49ab3	-0.11943569
87	0x3c11d05c	0.008899774
88	0xbd889727	-0.06669455
89	0x3bb9b7e1	0.005667672
90	0xbd9ba7ab	-0.076003395
91	0xbd62a075	-0.055328805
92	0xbd8aa599	-0.067698665
93	0x3d8a61cc	0.067569345
94	0x3e01df6c	0.12682885
95	0x3d9229f3	0.071369074
96	0x3ddb2a5e	0.1070144
97	0x3d3c7756	0.046012245
98	0x3e09e445	0.13465984
99	0x3d9e311e	0.07724212
100	0xbce3464b	-0.02774348
101	0xbd667ac4	-0.056269422
102	0x3c67ee2b	0.014155905
103	0x3c0c10a1	0.0085488865
104	0x3d7c93b2	0.06166429
105	0x3e03977b	0.12850754
106	0x3b6e83a2	0.0036394377
107	0x3d96e3cf	0.0736767
108	0x3d21ae97	0.039473142
109	0xbcd9b73b	-0.026576629
110	0xbd7d622e	-0.06186121
111	0x3cd2406c	0.025665484
112	0xbd173769	-0.036918078
113	0x3cc29060	0.023750484
114	0xbbf9e539	-0.0076262024
115	0x3dbb8f9b	0.0915825
116	0xbcae1885	-0.021251926
117	0xbda18bc4	-0.07887986
118	0x3d4765b1	0.048680965
119	0x3ddfa73f	0.109205715
120	0x3db317b3	0.08744755
121	0x3d80f11d	0.06295989
122	0x3a03d9e9	0.00050297246
123	0x3db3d7ab	0.0878137
124	0x3def9432	0.11698188
125	0x3c755dfd	0.014976022
126	0xbded4d02	-0.11586954
127	0xbd65dcfa	-0.056118943
128	0xbda2a3e0	-0.07941413
129	0x3df245ce	0.118297204
130	0x3d249d21	0.040188912
131	0x3c11a7fd	0.008890149
132	0xbd05271c	-0.032508
133	0x3de00bbe	0.1093974
134	0xbb645bdb	-0.003484479
135	0x3be9b0fb	0.0071316934
136	0x3d5f59c7	0.054528978
137	0x3d93272b	0.07185205
138	0x3cf04170	0.029328078
139	0x3deca377	0.11554616
140	0xbc275640	-0.010213435
141	0xbd4afbc7	-0.04955652
142	0x3c9cd3a9	0.019143896
143	0xbd83c8df	-0.064347975
144	0x3b3cf822	0.0028834422
145	0x3d60b3c1	0.054858927
146	0x3b36ff66	0.0027923225
147	0x3ca2fd32	0.019896124
148	0xbcb66d41	-0.022268893
149	0x3d9f3726	0.077741906
150	0x3df02b8b	0.11727055
151	0x3d842ebd	0.06454227
152	0xbd91efda	-0.07125826
153	0xbd47f4a5	-0.048817296
154	0x3dba06cc	0.09083328
155	0xbdac3628	-0.08408767
156	0xbc86625d	-0.016404325
157	0x3d95e87e	0.07319735
158	0x3da4cd23	0.08046939
159	0x3c68fc68	0.014220335
160	0x3dbdf124	0.092745095
161	0xbcd501d0	-0.02600184
162	0x3d802bec	0.062583774
163	0xbdf44f99	-0.119292445
164	0x3df6ba30	0.12047231
165	0xbd938269	-0.07202608
166	0x3d8e9561	0.069620855
167	0x3dad6612	0.08466734
168	0xbdb2d207	-0.08731466
169	0xbb4785cd	-0.0030444742
170	0x3dbb28b9	0.091386266
171	0xbdcf8643	-0.1013303
172	0x3ddaffc1	0.106933124
173	0xbc433bb1	-0.011916087
174	0x3d6beeae	0.05760067
175	0x3d4a3b5e	0.049373023
176	0x3db63319	0.08896465
177	0x3dcc36f5	0.0997142
178	0xbc9697d0	-0.018382937
179	0xbd886601	-0.06660081
180	0xba6eb21a	-0.00091055187
181	0x3d8ec642	0.069714084
182	0x3de2992d	0.11064372
183	0xbd84d32b	-0.064855896
184	0xbcf859be	-0.03031623
185	0xbce5a628	-0.028033331
186	0x3df51630	0.119671226
187	0xbd6bd02a	-0.057571568
188	0x3dfa1428	0.12210876
189	0x3d46e6e7	0.04856005
190	0xbc36a9e8	-0.011148907
191	0x3d14e4d1	0.03635103
192	0x3a481a7b	0.00076333404
193	0x3ca12ea5	0.019675562
194	0x3d9ee81b	0.07759114
195	0x3cd2b28c	0.025719903
196	0x3dc27348	0.094946444
197	0x3c6cab3d	0.014445123
198	0x3d7a8c5c	0.061169013
199	0x3d4290f3	0.047501516
200	0xbde6a29f	-0.11261486
201	0xbc73a9e9	-0.014872053
202	0xbde1b512	-0.110208645
203	0x3c2a8a9a	0.010409022
204	0xbdb02ff5	-0.08602897
205	0xbafcf1a2	-0.0019298086
206	0x3c3efe06	0.011657244
207	0x3d97c48a	0.07410534
208	0x3d7bc234	0.061464503
209	0xbdc1dece	-0.09466325
210	0xbc6af859	-0.014341437
211	0x3c8d0e67	0.017218782
212	0x3c8549d8	0.016270563
213	0xbca889db	-0.020573547
214	0x3d8ab96b	0.06773647
215	0xbd0e5f95	-0.034759123
216	0xba36844c	-0.0006962463
217	0xbc921527	-0.017832352
218	0xbceda9eb	-0.029011687
219	0x3d829014	0.06375137
220	0xbd5a93c0	-0.05336356
221	0xbc8ce460	-0.017198741
222	0x3cdb1eca	0.02674808
223	0xbca00b6d	-0.019536698
224	0xbdac7899	-0.0842144
225	0x3db86d85	0.09005264
226	0xbd3bdb7a	-0.045863606
227	0x3df98a78	0.12184614
228	0xbcd1afb9	-0.025596486
229	0xbd32748c	-0.04356818
230	0xbc2f8dc8	-0.010714956
231	0x3d74f2a7	0.059801724
232	0x3b9054be	0.0044046333
233	0xbd9f3ff9	-0.07775874
234	0xbbe95f29	-0.0071219397
235	0x3cff769b	0.031184485
236	0x3dce7e4b	0.10082682
237	0x3da0aec5	0.07845835
238	0xbde03137	-0.10946887
239	0x3dbf4ff3	0.09341421
240	0x3cdc0d7a	0.026861895
241	0xbde5d2e9	-0.112218685
242	0x3d48a27d	0.048983086
243	0x3dcfb2ca	0.10141523
244	0xbc1357d6	-0.00899311
245	0xbd56c36e	-0.05243247
246	0xbdb7b2ac	-0.08969626
247	0x3e034526	0.12819347
248	0x3d28d143	0.041215193
249	0xbd80db29	-0.062918015
250	0xbaf671ca	-0.0018802222
251	0x3daaee75	0.08346263
252	0x3c11471d	0.008867052
253	0x3de57656	0.112042114
254	0xbdd85e83	-0.10564902
255	0x3cf592ee	0.029977288

flows.2.flows.1.param_map.net.2.bias f4 [64]
0	0x3e0bd7a1	0.13656475
1	0x3dbc3aeb	0.09190925
2	0x3caaeecd	0.020865822
3	0xbd5e600c	-0.054290816
4	0x3ddee96b	0.10884365
5	0xbd7f3f3a	-0.062316157
6	0x3e084e1e	0.1331105
7	0x3d858270	0.065190196
8	0x3d3d0c6c	0.046154425
9	0x3d4f2d25	0.050580163
10	0xbdc03193	-0.093844555
11	0xbcf7f303	-0.030267244
12	0x3c93e8a1	0.018055262
13	0x3b80c901	0.0039302115
14	0xbda8ba77	-0.0823869
15	0xbd04b9f4	-0.0324039
16	0x3dd2fd36	0.103022024
17	0x3d858212	0.065189496
18	0x3e0a1e08	0.13488019
19	0x3cd85ffa	0.026412953
20	0xbcee60b2	-0.029098842
21	0x3da6da94	0.08147159
22	0x3d343e95	0.044004995
23	0xbb9352d5	-0.0044959583
24	0x3e0f37d7	0.13986145
25	0x34e33aa6	4.2324717e-07
26	0x3da07e57	0.078365974
27	0x3dbdcbcf	0.09267389
28	0x3c1e36b2	0.009656595
29	0xbcd374e7	-0.02581258
30	0xbd5f8fe4	-0.054580584
31	0xbba4f578	-0.005034145
32	0xbd0e0a89	-0.034678016
33	0x3de9399f	0.113879435
34	0x3d83230d	0.0640317
35	0x3d91ae98	0.07113379
36	0x3de42e2b	0.11141618
37	0x3dc71349	0.09720475
38	0xbd25dbdf	-0.04049289
39	0x3a3a585c	0.00071085035
40	0x3db129e4	0.08650568
41	0xbba3b14a	-0.0049954997
42	0x3daf7dc7	0.08568912
43	0x3d811a94	0.063038975
44	0xbc0aa7b7	-0.008462838
45	0x3d563949	0.052300725
46	0xbd93b41b	-0.07212087
47	0xbdd7c72e	-0.105360374
48	0xbcc659cd	-0.024212742
49	0xbd1b730b	-0.03795151
50	0x3d8d6dfd	0.06905744
51	0x3d75745e	0.05992543
52	0xbbfa1314	-0.007631669
53	0x3cc058ef	0.023479907
54	0x3dba47b5	0.09095708
55	0x3deca54f	0.115549676
56	0x3d38fff0	0.045165956
57	0x3d7731fa	0.060350396
58	0xbdacec27	-0.0844348
59	0xbdb803e7	-0.08985119
60	0x3c3e31ec	0.011608582
61	0x3c332eae	0.010936422
62	0x3d4c4f39	0.04988024
63	0xbdb81e78	-0.089901865

flows.2.flows.1.param_map.net.4.weight f4 [2, 64]
0	0x3d5653b4	0.05232592
1	0x3cb55ba7	0.02213843
2	0x3c7b6327	0.015343464
3	0x3c8e152f	0.017344085
4	0x3d1420d6	0.036164127
5	0x3ce6c9f5	0.028172472
6	0x3d2709bd	0.04078077
7	0x3d08b47d	0.033375252
8	0x3c913b0a	0.017728347
9	0x3c9e6bdc	0.01933854
10	0x3c838c3d	0.016058082
11	0x3c6b2878	0.01435291
12	0x00000000	0.0
13	0x00000000	0.0
14	0x3cd0d814	0.02549366
15	0x3c5f67b7	0.013635567
16	0x3c8bfa2b	0.017087063
17	0x3d312820	0.043251157
18	0x3cbca4eb	0.023027858
19	0x3ca48540	0.02008307
20	0x3c93e6bb	0.018054357
21	0x3cafbcee	0.021452393
22	0x3d1b9baa	0.03799025
23	0x00000000	0.0
24	0x3d1c70bc	0.03819345
25	0x00000000	0.0
26	0x3c8cf216	0.01720528
27	0x3d07fffa	0.033203103
28	0x3c7e4d88	0.015521415
29	0x00000000	0.0
30	0x3c72ccf1	0.01481937
31	0x3cb8db54	0.022565521
32	0x3d25d234	0.04048367
33	0x3c69e8b4	0.014276672
34	0x3c904986	0.017613184
35	0x3d5ee895	0.054421026
36	0x3d086167	0.033296015
37	0x3d48730e	0.04893785
38	0x3c82668e	0.015918043
39	0x00000000	0.0
40	0x3c6d6e8f	0.014491691
41	0x3d19ac5b	0.037517887
42	0x3cb78531	0.022402378
43	0x3c828204	0.015931137
44	0x3cd53c63	0.026029771
45	0x3c7e6033	0.015525865
46	0x3c84bdc2	0.016203765
47	0x3c605e65	0.01369438
48	0x3d3c2fbd	0.045943964
49	0x3d0e2103	0.03469945
50	0x3c772e33	0.015086698
51	0x3cad7021	0.021171631
52	0x3d0bc4ef	0.034123357
53	0x3c87a3dd	0.016557628
54	0x3c718aa8	0.014742531
55	0x3c70012a	0.014648715
56	0x3cc55e36	0.024092775
57	0x3c9a20da	0.018814493
58	0x3cb729fd	0.022358889
59	0x3c93797f	0.01800227
60	0x3cdd3470	0.027002543
61	0x3cd27e0f	0.025694875
62	0x3c85183f	0.016246913
63	0x3c685b7f	0.014181971
64	0x3cf72e26	0.030173372
65	0x3ae5f3b2	0.001754394
66	0x3aef795d	0.0018270422
67	0x3afbbbcd	0.0019205749
68	0x3c81752b	0.01580294
69	0x3b178a66	0.0023123263
70	0x3cb8d9cc	0.022564791
71	0x3b2dd575	0.0026524935
72	0x3b0d4c5b	0.0021560404
73	0x3b278afc	0.002556502
74	0x3af44eda	0.0018639222
75	0x3ae6eb3a	0.001761771
76	0x00000000	0.0
77	0x00000000	0.0
78	0x3b4b80c2	0.0031052087
79	0x3af3b5ae	0.0018593573
80	0x3b2a07a7	0.0025944503
81	0x3c89acd6	0.016806047
82	0x3ad83bb1	0.0016497282
83	0x3b398df0	0.002831336
84	0x3b0f5756	0.0021872125
85	0x3ad6ee74	0.0016397969
86	0x3c94b69c	0.018153481
87	0x00000000	0.0
88	0x3b5a7226	0.0033332198
89	0x00000000	0.0
90	0x3b1fdbac	0.002439241
91	0x3b112ac1	0.0022150727
92	0x3aea9334	0.0017896653
93	0x00000000	0.0
94	0x3b118d4f	0.002220947
95	0x3b29c859	0.002590677
96	0x3b82ab1e	0.003987684
97	0x3b0a4d91	0.0021103362
98	0x3b0c9d8f	0.0021456217
99	0x3d14700a	0.03623966
100	0x3c18d8f8	0.009329073
101	0x3cfec17c	0.03109812
102	0x3b0bde49	0.002134221
103	0x00000000	0.0
104	0x3b011b0e	0.0019699964
105	0x3b1edcf0	0.0024240576
106	0x3b055f4f	0.0020350998
107	0x3b06177b	0.0020460773
108	0x3b018aea	0.0019766637
109	0x3b1ace86	0.0023621633
110	0x3acc35fe	0.0015580056
111	0x3afb2eb1	0.0019163695
112	0x3cedb2a4	0.029015847
113	0x3b4dae7d	0.003138452
114	0x3b1888be	0.0023274864
115	0x3b1609dd	0.0022894063
116	0x3af8f0c4	0.0018992652
117	0x3b1199c7	0.0022216903
118	0x3afc8e2b	0.0019268444
119	0x3b15541e	0.0022785733
120	0x3acc04c4	0.0015565385
121	0x3b327781	0.0027231874
122	0x3b3a8388	0.0028459746
123	0x3b1c0d48	0.0023811627
124	0x3b11a10a	0.002222123
125	0x3b06f553	0.0020593002
126	0x3b13610d	0.0022488267
127	0x3b10fbcb	0.0022122737

flows.2.flows.1.param_map.net.4.bias f4 [2]
0	0x3cc8632c	0.024461351
1	0x3bc5c086	0.0060349135

flows.4.flows.1.param_map.net.0.weight f4 [64, 1]
0	0x3dcddcff	0.10051917
1	0xbe66b038	-0.2252816
2	0x3f10c6a8	0.56553125
3	0x3f6976e9	0.9119707
4	0xbe1369c9	-0.14395823
5	0xbdd8d97b	-0.10588356
6	0x3f222a64	0.6334593
7	0xbed11f81	-0.40844348
8	0xbde9b0fe	-0.11410712
9	0x3f21c0b3	0.6318466
10	0x3f4ceccd	0.8004883
11	0x3ea4559d	0.32096568
12	0x3f31c4c8	0.6944089
13	0x3f4adf40	0.792469
14	0xbf4d19cd	-0.80117494
15	0xbee38494	-0.44437087
16	0xbf2f70d8	-0.6853156
17	0xbf4ae65f	-0.7925777
18	0x3efa7d88	0.48923898
19	0xbe999f42	-0.30004317
20	0x3ecab2e5	0.3958961
21	0x3e2a7fbc	0.1665029
22	0xbf51f591	-0.8201533
23	0xbeaa54aa	-0.3326772
24	0x3f4110d9	0.7541633
25	0xbf2a8972	-0.66615975
26	0x3da707c3	0.08155777
27	0xb6087ae8	-2.033712e-06
28	0x3f71a0b5	0.94385844
29	0xbf03e39f	-0.515192
30	0xbef289d4	-0.4737078
31	0x3f1615b2	0.58626854
32	0x3f82b137	1.0210332
33	0xbc241648	-0.010015078
34	0xbf68ea65	-0.9098266
35	0x3d670bf7	0.056407895
36	0x3ec3172c	0.38103616
37	0xbf180929	-0.5938898
38	0xbe21d69d	-0.15804525
39	0x3f42255e	0.7583827
40	0x3f0e9a1f	0.5570392
41	0xbc58b1f9	-0.013226026
42	0x3f7c03a0	0.9844303
43	0x3f5d6535	0.86482555
44	0x3f13e0b3	0.5776474
45	0xbf0905fb	-0.5352475
46	0xbde495d1	-0.11161388
47	0x3f335e25	0.7006553
48	0x3ed70b53	0.42000827
49	0xbcf25cc6	-0.029585253
50	0xbec7feee	-0.39061683
51	0xbf50ad72	-0.81514657
52	0xbf0583c6	-0.52154195
53	0xbf09c956	-0.5382284
54	0x3e850edf	0.25987908
55	0x3db452b4	0.08804837
56	0xbe0806f9	-0.1328391
57	0x3ecc8c11	0.39950612
58	0xbebf8aad	-0.3741049
59	0x3e569439	0.2095498
60	0x3f585e3a	0.8451878
61	0xbe78b008	-0.242859
62	0x3f0ef985	0.55849487
63	0x3eb8f9ea	0.3612817

flows.4.flows.1.param_map.net.0.bias f4 [64]
0	0xbe1a3e10	-0.15062737
1	0x3f730436	0.949283
2	0xbf782cfc	-0.9694364
3	0xbf5cde7d	-0.8627699
4	0xbedf4dfc	-0.43614185
5	0xbeb4f6a0	-0.3534441
6	0xbf0e7003	-0.55639666
7	0x3f5b62ae	0.8569745
8	0xbf01edcd	-0.5075348
9	0x3e854b86	0.26034182
10	0x3e2633f5	0.16230758
11	0x3f368b18	0.7130599
12	0xbf01d056	-0.5070852
13	0xbecb3196	-0.3968627
14	0x3f1c6ae2	0.6110059
15	0x3f7937b1	0.97350603
16	0x3f7be7d4	0.98400617
17	0xbf471128	-0.77760553
18	0x3eb438e5	0.35199657
19	0x3f843f56	1.0331829
20	0xbeb22b5b	-0.34798703
21	0x3f32e3f3	0.6987907
22	0xbf45e460	-0.773016
23	0xbc73e950	-0.014887169
24	0x3e56a40d	0.20961018
25	0xbf52a258	-0.82278967
26	0x3f041925	0.5160087
27	0xbec79505	-0.3898088
28	0xbf25da8e	-0.64786613
29	0xbe4454a4	-0.19172913
30	0xbf21d1b4	-0.63210607
31	0x3dabb970	0.08384979
32	0x3f49484c	0.7862594
33	0xbcd7c241	-0.026337745
34	0x3f1fce55	0.6242421
35	0xbf25bf35	-0.64744884
36	0x3f368b68	0.7130647
37	0xbe144a1c	-0.14481395
38	0xbcb4f23f	-0.022088168
39	0xbe86e128	-0.26343656
40	0xbe3ec6f7	-0.18630587
41	0xbf4ee933	-0.80824584
42	0x3f42acd3	0.7604496
43	0xbf2a94c5	-0.66633254
44	0x3e9d832a	0.30764133
45	0xbf3adfe0	-0.72997856
46	0x3f417d73	0.75582045
47	0xbf6e04d2	-0.92976105
48	0xbf051c25	-0.5199607
49	0x3e06fbd6	0.13182005
50	0xbf587676	-0.8455576
51	0xbce6b7b2	-0.028163765
52	0xb7a5424e	-1.9700408e-05
53	0x3f1d5699	0.6146026
54	0x3f09be54	0.5380604
55	0x3bd30723	0.0064400597
56	0x3eed28d7	0.4632022
57	0x3eb03065	0.34411922
58	0x3f54c6f5	0.83116084
59	0x3eb3d265	0.35121456
60	0xbec1b101	-0.37830356
61	0x3f1dbe79	0.61618763
62	0xbed8b53f	-0.4232578
63	0xbdd1a7aa	-0.102370575

flows.4.flows.1.param_map.net.2.weight f4 [64, 64]
0	0x3c8bb316	0.017053168
1	0xbe276277	-0.16346155
2	0x3d4fdeca	0.050749578
3	0x3e160d98	0.14653623
4	0xb64a610c	-3.0156834e-06
5	0xb9212bdd	-0.00015370497
6	0x3c44619e	0.011986164
7	0xbdc0426d	-0.0938767
8	0x3c91b22a	0.01778515
9	0x3d6a66ff	0.05722713
10	0x3c8656dc	0.01639884
11	0xbc69c771	-0.014268742
12	0xbd8a59f6	-0.0675544
13	0xbc1007d5	-0.00879093
14	0xbcc00c8a	-0.02344348
15	0xbd1f0d81	-0.038831238
16	0xbdcc113d	-0.099642254
17	0xbcc9cc8b	-0.024633667
18	0x3dbcd7ad	0.092208244
19	0x3cbda38a	0.02314927
20	0xbcd478d4	-0.025936522
21	0x3e01b442	0.12666419
22	0xbceefe8b	-0.02917411
23	0xbcc980b7	-0.024597509
24	0xbdc67db0	-0.09691942
25	0xa3fe8493	-2.7594883e-17
26	0x3cd56aec	0.02605196
27	0xb53da315	-7.06453e-07
28	0x3e0f66fb	0.14004128
29	0x3d00a651	0.03140861
30	0x3cdb6c88	0.02678515
31	0xbd530c94	-0.051525667
32	0xbd81e7d6	-0.06343047
33	0xbcb4dc75	-0.022077778
34	0x3cc9677d	0.02458548
35	0xbccf3bdb	-0.025297096
36	0x3c3c5eae	0.011497183
37	0xbd1308b2	-0.035896964
38	0x3d0f7c7e	0.035030834
39	0x3dd4d250	0.103916764
40	0x3decab7d	0.11556146
41	0xbd4d4ce9	-0.050122175
42	0xbd5337e3	-0.05156697
43	0x3d9562fe	0.07294272
44	0x3c5e8eff	0.013583898
45	0x3b99b465	0.004690694
46	0xbdceed21	-0.101038225
47	0x3e0714c1	0.1319151
48	0xbd04b43b	-0.032398444
49	0xbe094022	-0.13403371
50	0xbc8c080f	-0.017093686
51	0x10f255c5	9.558432e-29
52	0x3c1c7fad	0.009551925
53	0xbcea9f66	-0.02864046
54	0x3e0df11c	0.13861507
55	0x3bfb48de	0.0076685986
56	0xbd507ca0	-0.0509001
57	0x3b46f5d0	0.0030358918
58	0xbcfbebcd	-0.030752087
59	0x3dfaa3b7	0.122382574
60	0x3caaeffa	0.020866383
61	0x3ca0def5	0.019637564
62	0xbce4af7c	-0.027915709
63	0x3df6be46	0.120480105
64	0xbd112776	-0.035438024
65	0x00036cc0	3.14519e-40
66	0x3c988466	0.01861782
67	0xbd60e06f	-0.054901537
68	0x3cd20fd5	0.025642315
69	0x3395750e	6.959645e-08
70	0xbcfb0049	-0.030639784
71	0xb8160d8f	-3.5775414e-05
72	0xbc2fa0b8	-0.010719471
73	0xbb3a573f	-0.002843335
74	0xb39fef3f	-7.447533e-08
75	0xbcb5c09d	-0.022186572
76	0xbd241af6	-0.040064774
77	0x3c5ce975	0.013483395
78	0x3d00bb86	0.031428836
79	0xb3cf9488	-9.666206e-08
80	0xa9637594	-5.0506108e-14
81	0xbafa0967	-0.0019076288
82	0xbd2f7725	-0.042838234
83	0x3d0b392d	0.033990074
84	0xb907f360	-0.00012965268
85	0xafb9dd15	-3.3808392e-10
86	0x3951b18d	0.00019997936
87	0x3d275114	0.040848807
88	0x3d3faaed	0.046793867
89	0xbd2fe418	-0.042942137
90	0xb61a9518	-2.3034572e-06
91	0xbcf3819f	-0.029724894
92	0xbd090fee	-0.033462457
93	0xa075788a	-2.079219e-19
94	0xbc9a52b1	-0.018838258
95	0xbb6932ed	-0.0035583333
96	0xbd269485	-0.040668983
97	0x0331ce54	5.225248e-37
98	0x3d0a9594	0.033834055
99	0xa01dec2f	-1.3376564e-19
100	0xbd2a835d	-0.041629184
101	0x33ae1637	8.106547e-08
102	0x308fe95e	1.0470946e-09
103	0x393459fc	0.0001719966
104	0xadf25060	-2.7547908e-11
105	0x805f55ef	-8.7552e-39
106	0xbd185711	-0.037192408
107	0x3d3afd7a	0.04565189
108	0xbc2343b8	-0.009964876
109	0x3885a0d4	6.371891e-05
110	0xbd35053c	-0.044194445
111	0x3d5156bf	0.05110812
112	0x26d4d6e0	1.4768697e-15
113	0x3c059720	0.008153707
114	0xbd15cd77	-0.0365729
115	0x3ab5d43d	0.0013872456
116	0x3d05ab62	0.032634147
117	0x3d5d6053	0.05404694
118	0x8704f16e	-1.0001526e-34
119	0x3acd9893	0.001568573
120	0xbb034065	-0.0020027396
121	0x3b0ae67c	0.0021194508
122	0x3c1f5967	0.009725905
123	0x3d4e7c9b	0.0504118
124	0x19044097	6.837284e-24
125	0x07f41f0f	3.6731294e-34
126	0xa2540e4a	-2.8738922e-18
127	0xbbc2fa16	-0.0059502227
128	0x3de2596d	0.11052213
129	0xbaaaad18	-0.0013021557
130	0x3da61f18	0.081113994
131	0xbd41eb09	-0.047343288
132	0x355cd82b	8.227095e-07
133	0x3adc80ec	0.001682309
134	0x3d3ad261	0.04561079
135	0xbc88f199	-0.016716765
136	0xbd0d16da	-0.03444562
137	0x3d5d4ddf	0.05402934
138	0x3d2bb8cf	0.041924294
139	0x3da1901f	0.07888817
140	0xbd1a7ecd	-0.037718583
141	0x3b6dbde9	0.0036276525
142	0x3b30f206	0.0026999726
143	0x3d9d2fac	0.07675108
144	0x3dac932c	0.08426508
145	0x3d0b77e8	0.0340499
146	0xbd9474e5	-0.07248858
147	0x3e05eec6	0.13079366
148	0x3db0fefa	0.08642383
149	0x3c701e74	0.014655698
150	0x3d22a9b7	0.039712634
151	0x38779720	5.9030135e-05
152	0xbbcda3df	-0.0062756385
153	0x319552a0	4.345864e-09
154	0xbd98d8be	-0.07463215
155	0xbc043d26	-0.00807122
156	0x3dbf9230	0.09354055
157	0x3d15f8df	0.036614295
158	0xbd2dd27c	-0.04243706
159	0x3e02145d	0.1270308
160	0x3d7631a4	0.060105935
161	0x2f1b8246	1.414345e-10
162	0x3d2552a2	0.040362008
163	0xbcc4a59a	-0.024004746
164	0x3ddffc19	0.10936756
165	0x346f9bd2	2.2315297e-07
166	0x3d2f287b	0.042763215
167	0x3d89bda5	0.06725625
168	0x3d8a1d33	0.067438506
169	0xbd431404	-0.04762651
170	0x3d69d2a3	0.057085644
171	0xbd09274b	-0.03348474
172	0xbda1ae7c	-0.078946084
173	0x1ae9a353	9.6630406e-23
174	0x3e24a42a	0.16078249
175	0xbc9d7599	-0.019221114
176	0x3d548f0b	0.05189423
177	0x3d8e9d21	0.06963564
178	0x3cb760b3	0.022384977
179	0x3d438b8f	0.047740515
180	0x1ea6ce45	1.7661245e-20
181	0x3e33661d	0.17519422
182	0x3dc4e758	0.09614438
183	0xbdafb921	-0.085802324
184	0x3e138cac	0.14409131
185	0x3e06bf65	0.13158949
186	0x3c4a274a	0.012338469
187	0x3e00cd0e	0.12578222
188	0xbda50e15	-0.080593266
189	0x3dfbcb1e	0.12294601
190	0x3e02e421	0.12782337
191	0xbd52de94	-0.0514818
192	0xbd49562b	-0.04915444
193	0xbcb1d54e	-0.021708157
194	0x3d118e4a	0.035536088
195	0xbd33b791	-0.043876234
196	0xbc4717c1	-0.0121516595
197	0x3c6213cb	0.013798664
198	0xbb9ce251	-0.004787721
199	0x3e01d658	0.12679422
200	0x9f578bb3	-4.5643577e-20
201	0x3c969532	0.018381689
202	0x3d4690ab	0.04847781
203	0xbd932dc6	-0.07186465
204	0x3bedd654	0.007258216
205	0x3d6fbebd	0.05853151
206	0x3dbdc1bb	0.09265467
207	0x3dea1921	0.11430574
208	0x3d916c46	0.0710073
209	0xb034e412	-6.5807726e-10
210	0xbc8ba853	-0.017048037
211	0x3e05069f	0.12990807
212	0x3cf0c7c6	0.029392134
213	0x3db77a48	0.0895887
214	0xbbd16e82	-0.0063913474
215	0xb937aecf	-0.00017517361
216	0xbb8209d8	-0.0039684586
217	0x3d47f2dc	0.048815593
218	0x3e074be6	0.13212547
219	0x3cecd130	0.028908342
220	0x3da21637	0.079143934
221	0xbd2a01d6	-0.041505657
222	0xbc1476d8	-0.009061538
223	0xbd192676	-0.037390195
224	0xbd326a59	-0.043558452
225	0xbd571d0f	-0.052517947
226	0x3de23290	0.110448
227	0xbdbd0743	-0.09229901
228	0x3d853ecf	0.065061204
229	0xb8938423	-7.0341186e-05
230	0x8675078b	-4.608492e-35
231	0x3dbd8058	0.09252995
232	0x3da7637f	0.08173274
233	0xbcf5a26b	-0.029984673
234	0x3d0ad807	0.033897426
235	0x3df43237	0.1192364
236	0xbd14f028	-0.036361843
237	0x3bdd3997	0.00675125
238	0x3b901c7f	0.0043979282
239	0xbce345e8	-0.027743295
240	0xbd242c1d	-0.040081132
241	0x3cea9c7f	0.028639076
242	0xbb8473d0	-0.0040421262
243	0xb95195f3	-0.00019987654
244	0xbb0188ae	-0.0019765305
245	0x3d9c35ff	0.076274864
246	0x3d2de37a	0.042453267
247	0x3d1d419a	0.03839264
248	0x3da935eb	0.08262237
249	0x3d57a5fd	0.052648533
250	0x3e38a482	0.18031505
251	0x3c8826d7	0.016620083
252	0xbdaa68b8	-0.08320755
253	0x3daf9d97	0.0857498
254	0xbdbaaf07	-0.09115415
255	0xba6e581e	-0.000909211

flows.4.flows.1.param_map.net.2.bias f4 [64]
0	0xbe11eac7	-0.14249717
1	0x3b8b8044	0.004257234
2	0x3da21b70	0.079153895
3	0x3dab5929	0.08366615
4	0x3e07030b	0.13184755
5	0xbc833842	-0.016018037
6	0xbc7d2256	-0.015450081
7	0x374e75c4	1.2305976e-05
8	0x3dcebf62	0.10095097
9	0x3d70f458	0.058826774
10	0xbdb38a0a	-0.08766563
11	0x3d08f88e	0.033440165
12	0x3c4bd6c2	0.012441339
13	0x3d9b66c4	0.0758796
14	0xbd9668ff	-0.07344245
15	0xbdbf91d9	-0.0935399
16	0x3d69b80c	0.057060286
17	0x3de33b54	0.110953
18	0x3d84dcd6	0.064874336
19	0x3d23d5c8	0.0399988
20	0x3dcf62e4	0.10126284
21	0x3b089682	0.0020841663
22	0xb0499637	-7.333684e-10
23	0xbd752610	-0.059850752
24	0xbe114916	-0.14188036
25	0x3db2b547	0.08725982
26	0xbcd402ed	-0.025880301
27	0xbbbdf521	-0.005797044
28	0x3ab04535	0.001344836
29	0x3c95a00d	0.018264795
30	0x3b4bd57c	0.0031102588
31	0x3ad03d7b	0.0015887463
32	0xbd28b22f	-0.041185554
33	0xbdadcc93	-0.08486285
34	0xbbdc9e1c	-0.0067327153
35	0x3e19b626	0.1501089
36	0x3c58647f	0.013207554
37	0x3e2bb372	0.16767672
38	0xbabf081d	-0.0014574562
39	0xbd187ce4	-0.03722848
40	0x3e15091c	0.14554256
41	0x3d414d10	0.047192633
42	0xbe12272d	-0.14272757
43	0xbbdb9ba9	-0.0067019057
44	0x3d8a56bc	0.067548245
45	0x3df409d7	0.11915939
46	0xbc8c3c1f	-0.017118512
47	0xbcd54d63	-0.026037877
48	0xbd0b15fd	-0.033956517
49	0xbb5106d8	-0.0031894948
50	0x3de0ba02	0.10972978
51	0x3cc11b73	0.02357266
52	0x3cf74241	0.03018296
53	0xb23abd46	-1.0869661e-08
54	0xbdfa5bfc	-0.12224576
55	0x3cd15ff2	0.025558446
56	0xbdc7aa85	-0.09749321
57	0xbe070667	-0.13186036
58	0xb5c1adfd	-1.4430258e-06
59	0xbc13b6c7	-0.0090157455
60	0x3defa702	0.11701776
61	0xbdfbd33d	-0.1229615
62	0x3d26d35b	0.040728908
63	0x3d405f34	0.046965793

flows.4.flows.1.param_map.net.4.weight f4 [2, 64]
0	0x3cffe45c	0.03123682
1	0x00000000	0.0
2	0x3d051d41	0.0324986
3	0x3d590ca2	0.052990563
4	0x3d57e5c2	0.05270935
5	0x00000000	0.0
6	0x3d05e39c	0.03268777
7	0x00000000	0.0
8	0x3cdabdb0	0.026701778
9	0xbbe87a49	-0.0070946557
10	0x3d114e41	0.03547502
11	0x3ccd8b5e	0.02509087
12	0x3d3bb87b	0.04583023
13	0x3cdfc0d9	0.027313637
14	0x3ccd4105	0.025055418
15	0x3cf248a2	0.02957565
16	0x3ce272b3	0.027642583
17	0x3d4359bf	0.04769301
18	0x3d1d6c03	0.038433086
19	0x3d493acd	0.049128342
20	0x3cd8a2a0	0.026444733
21	0x00000000	0.0
22	0x00000000	0.0
23	0x3cb717ef	0.02235028
24	0x3ce69c85	0.028150806
25	0x3ccc0b59	0.024907755
26	0x3d000b61	0.03126085
27	0x3cfc9f3d	0.03083765
28	0x00000000	0.0
29	0x3d1934a9	0.037403736
30	0x3d7da205	0.061922092
31	0xbd48d956	-0.049035393
32	0x3d09221a	0.033479787
33	0x3cbb162b	0.022837719
34	0x00000000	0.0
35	0x3d2eabf1	0.042644445
36	0xbc5e0c1b	-0.013552691
37	0xbc5ca70e	-0.013467563
38	0x00000000	0.0
39	0x3cd0e453	0.025499498
40	0x3d2ab192	0.04167325
41	0x3d376eb6	0.044783317
42	0x3d174f21	0.036940698
43	0x3d08fac5	0.033442277
44	0x3d350869	0.044197474
45	0x3d167563	0.036733042
46	0x3cc7a631	0.024371238
47	0xbc09bfe2	-0.008407565
48	0x00000000	0.0
49	0x00000000	0.0
50	0xbc57eb57	-0.013178668
51	0x3cfdcda5	0.030981848
52	0x3d42a0cf	0.04751664
53	0x00000000	0.0
54	0x3cda49a4	0.026646443
55	0x00000000	0.0
56	0x3cc0daf3	0.023541903
57	0x3ccafff5	0.024780253
58	0x00000000	0.0
59	0x3d14095a	0.03614173
60	0x3d558640	0.052129984
61	0x3cf2575b	0.02958267
62	0x00000000	0.0
63	0x3d762274	0.06009145
64	0xbb9c97af	-0.0047788243
65	0x00000000	0.0
66	0x3b2c086c	0.0026250137
67	0x3d03931e	0.032122724
68	0x3d5d3a28	0.05401054
69	0x00000000	0.0
70	0x3b0ab407	0.0021164434
71	0x00000000	0.0
72	0xba151933	-0.0005687654
73	0x3d84288f	0.064530484
74	0xbbf0747e	-0.0073381057
75	0xbadeca18	-0.0016997484
76	0x3d25ef81	0.04051161
77	0xba96da13	-0.0011509083
78	0xbb0ae6c7	-0.0021194683
79	0xbb4e2701	-0.0031456354
80	0xbadef4c2	-0.0017010199
81	0x3d49ab5f	0.049235698
82	0x3c8a8016	0.01690678
83	0xbc246bea	-0.010035494
84	0xbafd5295	-0.001932698
85	0x00000000	0.0
86	0x00000000	0.0
87	0xbaaff861	-0.0013425463
88	0xbb49a73a	-0.003076984
89	0xbaf1af0a	-0.0018439007
90	0x3b4f41fc	0.0031625023
91	0xbb503e61	-0.0031775462
92	0x00000000	0.0
93	0xbc390233	-0.011292028
94	0x3d6d937c	0.05800198
95	0x3d427031	0.047470275
96	0xbbb57c23	-0.00553848
97	0xbaf4590c	-0.0018642261
98	0x00000000	0.0
99	0x3ccef0d3	0.025261318
100	0x3c79f979	0.015257233
101	0x3d81e7c8	0.06343037
102	0x00000000	0.0
103	0xbb0d5d89	-0.0021570644
104	0x3cdf6ebc	0.027274482
105	0x3d13688a	0.035988368
106	0xbc27faa6	-0.01025263
107	0xbb585705	-0.0033010852
108	0x3d2e9929	0.042626534
109	0x3a6153af	0.00085955387
110	0xba9189a8	-0.0011103647
111	0x3d8485e6	0.064708516
112	0x00000000	0.0
113	0x00000000	0.0
114	0x3d84831a	0.06470318
115	0xbb6ed1b8	-0.003644092
116	0x3d563180	0.0522933
117	0x00000000	0.0
118	0xbb132146	-0.0022450252
119	0x00000000	0.0
120	0xbae418d5	-0.001740242
121	0xbaf37ef8	-0.0018577268
122	0x00000000	0.0
123	0x3b94bf3e	0.0045393994
124	0x3d7d236b	0.061801355
125	0x3d2d1467	0.042255785
126	0x00000000	0.0
127	0x3d5ce8ce	0.053932957

flows.4.flows.1.param_map.net.4.bias f4 [2]
0	0x3d00b9c2	0.031427152
1	0x3ce51801	0.027965548

flows.6.flows.1.param_map.net.0.weight f4 [64, 1]
0	0xbf07046d	-0.5274113
1	0x3f5857e3	0.84509104
2	0xbecdd100	-0.40198517
3	0x3f18b052	0.59644043
4	0x3eb80b4a	0.35946113
5	0x3e94c58a	0.2905696
6	0xbea13bac	-0.3149084
7	0xbf421f77	-0.7582926
8	0x3d2a5b7a	0.041591145
9	0xbf800752	-1.0002234
10	0xbdc3f02d	-0.09567294
11	0xbec20391	-0.37893346
12	0x3f01d39b	0.5071351
13	0xbf4f0c79	-0.80878407
14	0x3f8019e3	1.00079
15	0xbe523560	-0.20528173
16	0x3f325746	0.6966442
17	0x3ea0ea4c	0.31428754
18	0xbf04a66a	-0.5181643
19	0xbeb5ecf1	-0.35532334
20	0x3f3601bf	0.71096414
21	0x3f4c12c6	0.79716146
22	0xbf391a05	-0.7230533
23	0xbf1ebca9	-0.6200662
24	0x3efaa667	0.4895508
25	0xbf3d2a1e	-0.7389239
26	0xbf1e47a5	-0.6182807
27	0x3f48484d	0.7823532
28	0xbf19077f	-0.59777063
29	0x3f5c77d9	0.86120373
30	0xbd5a12c8	-0.053240567
31	0xbe7d4640	-0.2473383
32	0xbeca23f9	-0.3948057
33	0xbecb67c4	-0.39727604
34	0xbf3f35d6	-0.7469152
35	0x3f0ae2e1	0.5425244
36	0xbf1f5c08	-0.62249804
37	0x3f766ffe	0.96264637
38	0x3f2fedd1	0.68722254
39	0x3e8e0780	0.27740097
40	0x3cda2518	0.026629016
41	0xbf2543d5	-0.6455663
42	0xbf139593	-0.5765011
43	0x3d773765	0.060355563
44	0x3ef972cb	0.48720393
45	0x0c9af281	2.3873409e-31
46	0x3f032fe5	0.51244956
47	0xbf470b86	-0.7775196
48	0x3ef9b57c	0.48771274
49	0x3edb647b	0.42850098
50	0x3e51cd5e	0.20488498
51	0xbf70dc91	-0.9408656
52	0x3e845af9	0.25850657
53	0x3ea927fa	0.33038312
54	0x3eebf444	0.46084797
55	0x3eeb834f	0.45998618
56	0xbe8f44a2	-0.2798205
57	0x3f31b5fa	0.694183
58	0xbf7d4294	-0.98929715
59	0xbeacd278	-0.33754325
60	0xbf440d2d	-0.76582605
61	0x3e4aedeb	0.19817321
62	0x3df9faef	0.12206065
63	0xbdc7f3aa	-0.09763272

flows.6.flows.1.param_map.net.0.bias f4 [64]
0	0xbf6650e0	-0.89967155
1	0x3d944bc0	0.07241011
2	0x3e3d962b	0.18514316
3	0x3e19581a	0.14975014
4	0x3ed0b71f	0.4076471
5	0xbf0e2044	-0.55517983
6	0x3f406d91	0.75167185
7	0x3f0ad3f4	0.54229665
8	0x3b50a6b6	0.0031837649
9	0x3f642c44	0.89130044
10	0x3f5f0d29	0.87129456
11	0x3f0b4085	0.54395324
12	0xbc227231	-0.009914921
13	0x3e0297cf	0.12753223
14	0x3f6293c0	0.885067
15	0xbb018f43	-0.0019769229
16	0x3f3f2590	0.7466669
17	0x3f4f0b94	0.8087704
18	0x3f12b6f2	0.573104
19	0xbf044e1f	-0.51681703
20	0xbe40fbd2	-0.18846062
21	0xbeb81378	-0.35952353
22	0xbf249092	-0.64283097
23	0xbdaa2570	-0.08307922
24	0xbe6b4411	-0.22975184
25	0xbdcb2658	-0.09919423
26	0x3f802dc1	1.0013963
27	0xbf5cb11b	-0.8620774
28	0x3f801c24	1.0008588
29	0xbec694a9	-0.38785294
30	0xbf1eb890	-0.6200037
31	0x3f1d343d	0.61407834
32	0xbf1329ba	-0.57485545
33	0xbf634ec5	-0.8879207
34	0x3f0120da	0.5044075
35	0x3f0ba2e3	0.5454542
36	0xbf64d455	-0.8938649
37	0x3f811a25	1.0086104
38	0xbe0fd68e	-0.1404669
39	0x3d4d53d0	0.050128758
40	0x3e8b90e1	0.2725897
41	0x3ea9f575	0.3319508
42	0xbe9c8d40	-0.30576515
43	0x3daaca7a	0.083394006
44	0x3f65b698	0.8973174
45	0xbf1469c3	-0.5797388
46	0x3e56a6db	0.20962088
47	0x3e8d8cea	0.2764657
48	0x3f26af99	0.6511169
49	0x3f4c686d	0.7984684
50	0xbe790878	-0.24319637
51	0xbe46c962	-0.19412759
52	0x3d8b075a	0.067885116
53	0xbee359a0	-0.44404316
54	0x3f7d53e6	0.98956144
55	0x3f5dc0fc	0.86622596
56	0xbf5f3911	-0.8719645
57	0xbf2e1991	-0.6800776
58	0xbf552b5d	-0.8326929
59	0x3f3d0b3c	0.7384527
60	0xbf03a174	-0.5141823
61	0xbf57dbd6	-0.8431982
62	0xbefcc525	-0.4936916
63	0x3ef01aee	0.46895546
