macros/GregFlow/models/November_04/run_1_2flows_4hl_64hu_2000bs_checkpoint_e50.pth (torch, 82688 bytes, 26 tensors)

q0.loc f4 [1, 2]
0	0x3c6cdf9e	0.014457611
1	0xbd07d346	-0.03316047

q0.log_scale f4 [1, 2]
0	0x3bb2b28a	0.0054534124
1	0x3cbbe139	0.022934543

flows.0.flows.1.param_map.net.0.weight f4 [64, 1]
0	0x3e3f587e	0.18686101
1	0x3e62aaf3	0.22135524
2	0x3e9924b5	0.29910818
3	0x3ec5ce3f	0.38633916
4	0xbed466d7	-0.4148471
5	0xbf59ddc1	-0.85103995
6	0xbf3af6bc	-0.73032737
7	0xbdb89dfd	-0.09014509
8	0xbf7ae0b1	-0.979991
9	0xbf12c9c8	-0.57339144
10	0xbf29b7a0	-0.66295815
11	0xbf820d4b	-1.0160307
12	0x3eaf652e	0.3425688
13	0xbeafff62	-0.3437453
14	0xbe6b69ec	-0.22989625
15	0xbf57d4e7	-0.8430924
16	0x3f2134dc	0.6297128
17	0xbee6564b	-0.4498771
18	0x3f48668c	0.78281474
19	0xbf5be478	-0.8589549
20	0xbecefbcc	-0.4042648
21	0x3f76c879	0.96399647
22	0x3f5b69fc	0.85708594
23	0x3f64f2d3	0.8943302
24	0xbd5f2555	-0.054478962
25	0xbf0754be	-0.5286368
26	0xbf452a4d	-0.7701767
27	0xbf227514	-0.634599
28	0x3e4e46d1	0.20144202
29	0xbeb58d55	-0.3545939
30	0xbf37d899	-0.71814877
31	0x3d9e44b8	0.07727951
32	0xbe87e289	-0.2654002
33	0xbea68bd2	-0.3252855
34	0xbf70a9af	-0.94008917
35	0x3e8b6fd8	0.27233768
36	0x3f2551b4	0.64577794
37	0x3ef206d1	0.47270826
38	0xbe002951	-0.12515761
39	0x3e9023fe	0.2815246
40	0xbf6d931c	-0.92802596
41	0x3d2f37a8	0.042777687
42	0x3f213589	0.62972313
43	0xbe4cf4b5	-0.20015223
44	0xbf7a0fba	-0.97680247
45	0x3dea2390	0.11432564
46	0x3e84d52e	0.25943893
47	0xbeb7b63d	-0.35881224
48	0x3f49b19b	0.7878663
49	0x3f447746	0.76744497
50	0x3ef9d52b	0.48795447
51	0x3e3e21ec	0.18567628
52	0x3e831a41	0.25605968
53	0x3ee02adb	0.43782696
54	0x3e90bbdc	0.28268325
55	0xbec39e86	-0.3820688
56	0xbf1148e9	-0.5675188
57	0xbf4c3134	-0.7976258
58	0xbf44d7b7	-0.76891655
59	0xbf1c9b9e	-0.61174953
60	0xbf44a87b	-0.7681958
61	0xbeed01f2	-0.46290547
62	0x3dbfc58f	0.09363853
63	0x3f33bed1	0.7021304

flows.0.flows.1.param_map.net.0.bias f4 [64]
0	0x3f4328d9	0.76234204
1	0xbeab2e41	-0.33433726
2	0x3e5516dc	0.20809501
3	0xbf83127b	-1.0240015
4	0x3eb239b1	0.3480964
5	0x3ed7c38c	0.42141378
6	0x3f182960	0.59438133
7	0x3f784196	0.96975076
8	0x3e9804f3	0.29691276
9	0x3f3e9b7d	0.74456006
10	0x3d2a53d0	0.041583836
11	0x3d13ba74	0.036066487
12	0x3b836824	0.0040102173
13	0x3f0aa289	0.5415426
14	0x3f4d2782	0.8013841
15	0x3ed5aeba	0.41734868
16	0xbf6c0914	-0.9220135
17	0x3f5153f8	0.8176875
18	0xbebc60d7	-0.36792633
19	0xbf5cd338	-0.86259794
20	0xbed0431d	-0.40676203
21	0xbf2b610b	-0.6694495
22	0xbf0981bb	-0.5371358
23	0x3e4c8109	0.19971098
24	0x3ecd951f	0.40152833
25	0xbe990419	-0.2988594
26	0x3f374092	0.715829
27	0xbee0160c	-0.4376682
28	0x3f33a23f	0.7016944
29	0x3eacda99	0.33760527
30	0x3f1d2892	0.6139003
31	0x3e59d6ea	0.2127339
32	0x3f5e73f4	0.8689568
33	0xbf4e8673	-0.80673903
34	0x3de5e63f	0.112255566
35	0xbf24282b	-0.6412379
36	0x3efca553	0.49344882
37	0x3f51b7dc	0.8192117
38	0xbec60609	-0.3867648
39	0xbf153f6f	-0.58299917
40	0x3f352158	0.70754004
41	0x3f40d8d7	0.7533087
42	0xbed06313	-0.40700588
43	0x3f139ac8	0.5765805
44	0xbbc62e96	-0.006048034
45	0x3f560dd8	0.83614874
46	0x3ecddf7e	0.40209574
47	0x3f5c6f5c	0.8610742
48	0xbeef7a3f	-0.46772954
49	0xbee549d2	-0.44782883
50	0x3f37c8a8	0.7179055
51	0xbda12269	-0.07867891
52	0xbf808f04	-1.0043645
53	0xbe979ff3	-0.2961422
54	0xbf6e92ed	-0.9319294
55	0x3f414ba0	0.7550602
56	0xbe37050d	-0.1787302
57	0x3d1fe2dc	0.03903471
58	0xbe80dea8	-0.25169873
59	0x3f3d1962	0.73866856
60	0xbf745c9c	-0.9545381
61	0xbec4f1b7	-0.38465664
62	0x3ea7585f	0.3268461
63	0x3e81fd61	0.25388625

flows.0.flows.1.param_map.net.2.weight f4 [64, 64]
0	0xbd19821c	-0.037477598
1	0x3d9e432a	0.07727654
2	0xbd360091	-0.044434134
3	0xbdc47f37	-0.09594577
4	0xb88ae466	-6.622895e-05
5	0xbc83e87b	-0.016102066
6	0x3dac3286	0.08408074
7	0xbda9f593	-0.08298793
8	0xbd978318	-0.07398051
9	0xbca05ba9	-0.019574957
10	0xbd32e2b3	-0.04367323
11	0xbd903324	-0.07041004
12	0x3d1b1ead	0.03787105
13	0x3de7af9d	0.113127925
14	0xbd22ef8d	-0.039779235
15	0xbd190b4b	-0.037364285
16	0x3b0fcc98	0.0021942016
17	0x3b92ce64	0.00448017
18	0x3cecd0ce	0.02890816
19	0xbcaa9cec	-0.02082678
20	0x3b9f9be8	0.0048708804
21	0x3d2a8d61	0.041638736
22	0x3cf3f9f8	0.02978228
23	0xbde279c9	-0.11058385
24	0x3ddd5cd4	0.10808721
25	0xb7d93f3e	-2.5897865e-05
26	0x3d410ad5	0.04712947
27	0xbdadb6e7	-0.084821515
28	0xbde63867	-0.11241227
29	0x3d3af6f6	0.045645677
30	0x3a4beb25	0.0007778875
31	0xbddca5e2	-0.10773827
32	0xbd62c8a3	-0.055367123
33	0x396183b0	0.0002150673
34	0x3cd31408	0.025766388
35	0xbd7bb526	-0.061452053
36	0xbc116465	-0.008874034
37	0x3dadf7c7	0.084945254
38	0x3c913b8b	0.017728588
39	0x3d0b6fa8	0.03404203
40	0xbda610ba	-0.08108659
41	0xbd47bc42	-0.04876352
42	0x3dc9e6e5	0.09858493
43	0x3d46bdd5	0.04852088
44	0xbc134f09	-0.008991011
45	0x3d9b58b9	0.07585282
46	0xbd3bda39	-0.04586241
47	0xbc30488f	-0.010759487
48	0x3d9a3698	0.07529944
49	0x3d895cc4	0.06707147
50	0x3c7f67c4	0.0155887045
51	0x3d9dfc5d	0.0771415
52	0x3dc0b81f	0.09410118
53	0xbd960ac3	-0.073262714
54	0xbd321de0	-0.043485522
55	0xbd9cdc64	-0.07659224
56	0xbd9a4ab5	-0.075337805
57	0xbd961914	-0.07329002
58	0xbd95b49b	-0.073098384
59	0x3ce55628	0.027995184
60	0xbd24d45f	-0.040241595
61	0xbc7e0b35	-0.015505602
62	0x3da7a298	0.08185309
63	0xbc789b9d	-0.01517382
64	0x268a3218	9.589252e-16
65	0x3d05b486	0.032642864
66	0x3d880c3c	0.066429585
67	0x3d27126a	0.040789045
68	0xbd2dbdf0	-0.042417467
69	0xbd71df80	-0.059051037
70	0x3534bb82	6.7328085e-07
71	0x3b9f2f0c	0.0048579033
72	0x3d9136d6	0.07090537
73	0xbbeeb3f9	-0.007284638
74	0x3d9daadc	0.076986045
75	0xbd65a5b7	-0.05606624
76	0xbd6787aa	-0.056525864
77	0xbcc49ef3	-0.024001574
78	0xbd9dbeea	-0.077024296
79	0x3d8707f2	0.06593312
80	0xb7f6581e	-2.9366518e-05
81	0x3c8afbea	0.016965825
82	0x3c824bff	0.015905378
83	0x2088fea7	2.320781e-19
84	0x3dac49ed	0.08412538
85	0xbd8ca7b8	-0.06867927
86	0x3d6f9d22	0.058499463
87	0x3ab27a4a	0.0013616767
88	0x39c1c599	0.0003695905
89	0xbce952ec	-0.028481923
90	0xbd928903	-0.07155039
91	0xbc10a588	-0.008828528
92	0x3c088ac9	0.00833387
93	0x3ba72b0a	0.005101566
94	0xbc5454f3	-0.012959707
95	0xbd79382c	-0.060844585
96	0x3d61d0bf	0.055130716
97	0x3a2b38ab	0.00065315765
98	0xbd753b20	-0.05987084
99	0xbd86d6e7	-0.06583958
100	0x3ca02d61	0.019552888
101	0xbda9812e	-0.08276592
102	0x3d07be54	0.033140495
103	0xbcf85271	-0.030312749
104	0x3da69c69	0.081353016
105	0x3cef2ae2	0.029195253
106	0xbd62d646	-0.05538013
107	0x3d62a9e8	0.055337816
108	0x3cf23e2d	0.029570663
109	0xbb4d3f66	-0.0031318306
110	0xbc9a8459	-0.018861936
111	0xa1156b74	-5.0625377e-19
112	0xbd62b2eb	-0.05534641
113	0xbd7f91de	-0.06239497
114	0xbc10e9dd	-0.00884482
115	0xbc23efd8	-0.010005914
116	0xbd88d492	-0.066811696
117	0xbd681030	-0.056656063
118	0x3d934906	0.071916625
119	0x3b9f9c25	0.004870909
120	0x3c0eb165	0.008709286
121	0xbc87965c	-0.01655119
122	0x3d8b5ebf	0.06805181
123	0xbd221b51	-0.039576832
124	0x2b742219	8.6733534e-13
125	0x2dea31e8	2.6624883e-11
126	0xbd53a8db	-0.051674705
127	0xb2668531	-1.3418046e-08
128	0xbd98a898	-0.07454032
129	0xbbb20db9	-0.005433765
130	0x3c10c376	0.008835664
131	0x3d916169	0.07098658
132	0x3d95018e	0.07275687
133	0x3d4b43f1	0.04962534
134	0x3bb208b7	0.005433168
135	0xbcf0f498	-0.029413506
136	0xb988909a	-0.00026047678
137	0x3c1513bf	0.009098946
138	0x3c04d4f2	0.008107411
139	0x3bf166b9	0.007366982
140	0xbd85ea0e	-0.06538783
141	0x3c1529c5	0.009104197
142	0x3da9cbbf	0.082908146
143	0x3cad44ed	0.02115103
144	0xbc15f57a	-0.009152764
145	0x3c1549fe	0.009111879
146	0xa4173381	-3.278653e-17
147	0xbbd88ee3	-0.0066088303
148	0xbc30da30	-0.010794207
149	0xb248b8e8	-1.1683575e-08
150	0xbbab13e2	-0.005220876
151	0xbd71a2da	-0.058993198
152	0x3c17f60e	0.009274973
153	0xbbed545a	-0.0072427215
154	0xbc3509ce	-0.011049701
155	0xbd80e9a8	-0.062945664
156	0xbd357959	-0.04430518
157	0xbca7ee58	-0.020499393
158	0x3bac7ad6	0.0052636666
159	0xba54df84	-0.00081204646
160	0x3c151e96	0.009101531
161	0xbafcd91e	-0.001929078
162	0x3db59c7a	0.08867736
163	0x3dadfdbf	0.08495664
164	0xbb1b8361	-0.002372943
165	0xbc973c67	-0.01846142
166	0x3d213b17	0.039362993
167	0xbd2487ee	-0.040168695
168	0x3c1476ab	0.009061496
169	0x3d88ad06	0.066736266
170	0xbcab70f8	-0.020927891
171	0xbcb4173d	-0.021983737
172	0x3d8c483a	0.068497136
173	0x3c160628	0.009156741
174	0x3c168014	0.00918581
175	0x3c1a4f07	0.009418256
176	0x3d7e7635	0.06212445
177	0xbd5f8f80	-0.05458021
178	0x3da16211	0.07880033
179	0x28c64f54	2.2016819e-14
180	0x3d474fb2	0.048659988
181	0xbb1bb44b	-0.0023758586
182	0x3c3d1ee5	0.01154301
183	0xbcb2b8e9	-0.021816688
184	0x3c0e58f1	0.0086881975
185	0xbd8972d6	-0.06711356
186	0x3d53ac5d	0.05167805
187	0x3c14f231	0.009090946
188	0x3b02e721	0.001997419
189	0xaffbd1b5	-4.580564e-10
190	0xbc27d8d1	-0.010244564
191	0xbd8bf2e4	-0.06833437
192	0xbd9f678f	-0.07783424
193	0x3e014830	0.12625194
194	0xbdaee5db	-0.08539935
195	0xbdec4952	-0.11537422
196	0xbc52b289	-0.012859949
197	0x3d4a4fdc	0.049392566
198	0x3cee9709	0.029124754
199	0x3e16ae39	0.14714898
200	0x3d05b3f4	0.03264232
201	0x3dfbd70b	0.122968756
202	0x3d561df6	0.052274667
203	0xbcddc704	-0.027072437
204	0xbdc25c9d	-0.09490321
205	0x3c941d63	0.018080419
206	0x3e042fdd	0.12908883
207	0x3da1aa11	0.07893766
208	0xbd566644	-0.05234362
209	0x3c9c4c0d	0.019079233
210	0x3de5c421	0.11219049
211	0xbd4f922b	-0.050676506
212	0x3cc8802c	0.02447518
213	0x3dcb1325	0.09915761
214	0x3d84b62c	0.06480059
215	0x3b892f1f	0.0041865255
216	0xbd90b16f	-0.07065093
217	0xbd0d6ba9	-0.0345265
218	0x3b8ccaf7	0.004296656
219	0x3b9046ed	0.0044029863
220	0x3d1b48db	0.037911277
221	0xbc4c750d	-0.012479079
222	0x3cff34e9	0.03115316
223	0xbc8a9e73	-0.016921258
224	0xbbcbc6fb	-0.0062187887
225	0xbd482044	-0.048858896
226	0xbaa8b33e	-0.0012870801
227	0xbc368ac4	-0.011141483
228	0x3ce79eab	0.028273901
229	0x3a3545ba	0.0006914992
230	0xb7d1ae4c	-2.4995905e-05
231	0xbde7b71f	-0.113142245
232	0xbc67af17	-0.014140866
233	0xbcb2b716	-0.021815818
234	0x3db072f3	0.08615675
235	0x3da182c2	0.07886268
236	0x3cf478d9	0.02984278
237	0xbd94d461	-0.072670706
238	0x3d85b107	0.06527906
239	0x3e1d5256	0.1536344
240	0x3d8577c0	0.06516981
241	0x3d1c378d	0.038138915
242	0x3d5f12ca	0.054461278
243	0x3dc2f18c	0.09518728
244	0x3d2eee52	0.04270775
245	0xbdc7cf71	-0.09756363
246	0xbdd09a43	-0.10185673
247	0xbd475dfb	-0.04867361
248	0xba1543cc	-0.00056940014
249	0x3c1ce7ef	0.009576782
250	0x3cc0dad8	0.023541853
251	0x3d79ca33	0.060983848
252	0xbd41cb6d	-0.047313143
253	0x21c8a250	1.3595491e-18
254	0x3d8ba9c8	0.068194926
255	0xbc3b1a6b	-0.011419873

flows.0.flows.1.param_map.net.2.bias f4 [64]
0	0x3df147cf	0.117812745
1	0x3c5aef82	0.013362767
2	0xbca247d5	-0.019809643
3	0x3da2d748	0.07951218
4	0xbda499a0	-0.08037114
5	0x3def09dc	0.116718024
6	0xbdb104d7	-0.08643501
7	0x3d8fc08b	0.070191465
8	0x3d0c8847	0.03430965
9	0x3cb7d14f	0.022438673
10	0x3e0b8bcc	0.13627547
11	0x3d99abb8	0.07503456
12	0xbd602452	-0.054722138
13	0x3d982c7f	0.07430362
14	0xbc1c2d3a	-0.009532267
15	0x3dd08305	0.1018124
16	0x3d0d0607	0.034429576
17	0x3db55e94	0.0885593
18	0x3d9960ac	0.07489142
19	0xbd2a8bc6	-0.041637205
20	0x3ccda1b5	0.025101522
21	0x3d5ebb8d	0.05437808
22	0x3e07e132	0.13269499
23	0xbd028c2d	-0.031871963
24	0xbd0e7d72	-0.034787603
25	0x3e172b04	0.14762503
26	0xbd556cf7	-0.05210587
27	0xbd84dec8	-0.06487805
28	0x3d51cbd0	0.05121976
29	0x3dae8c12	0.0852281
30	0xbcea5ddf	-0.028609214
31	0xbda3809c	-0.07983515
32	0x3e0f8ae4	0.14017826
33	0x3e1dc5d1	0.15407492
34	0x3d4014f7	0.046894994
35	0xbb15dd71	-0.0022867585
36	0xbda496bb	-0.08036562
37	0x3e25427a	0.1613864
38	0x3c4af45e	0.012387363
39	0x3d14518a	0.036210574
40	0xbd21fda7	-0.039548542
41	0x3caa197d	0.020764107
42	0x3dc7891e	0.0974295
43	0x3cdf658b	0.0272701
44	0xbb7204bd	-0.0036929094
45	0x3db9adff	0.0906639
46	0x3cb37a3b	0.02190887
47	0xbc88aebe	-0.016684886
48	0xbda8a91a	-0.082353786
49	0x3d702e11	0.058637682
50	0x3d44bc84	0.048031345
51	0x3cfcff7d	0.030883545
52	0x3e254fc0	0.16143703
53	0x3b9ac3ba	0.0047230395
54	0x3e183b3e	0.14866349
55	0x3e09fb0f	0.13474678
56	0xbda7fe90	-0.08202851
57	0xbd22dfa1	-0.03976405
58	0xbbcca5bc	-0.006245343
59	0x3d8d405c	0.06897041
60	0x3dba811f	0.09106659
61	0xbd90363b	-0.07041594
62	0x3dfc4c17	0.123192005
63	0xbc969312	-0.018380675

flows.0.flows.1.param_map.net.4.weight f4 [2, 64]
0	0xbc8b630c	-0.017015003
1	0x00000000	0.0
2	0x3bfd0b97	0.007722329
3	0xbc6dc573	-0.014512408
4	0xbc600b55	-0.013674577
5	0xbc5958ce	-0.013265802
6	0xbc8e0d57	-0.017340345
7	0xbd3dcba9	-0.046336804
8	0xbc036b3a	-0.00802117
9	0xbc4d5f1d	-0.012534884
10	0xbc77560a	-0.015096197
11	0xbd36dd62	-0.04464472
12	0x00000000	0.0
13	0xbc98b6d5	-0.018641869
14	0x00000000	0.0
15	0xbd02bf94	-0.031920984
16	0xbcaf5560	-0.021403015
17	0xbc899f3a	-0.016799558
18	0xbc89116d	-0.016731942
19	0x00000000	0.0
20	0xbd16a7c4	-0.036781088
21	0xbd245001	-0.04011536
22	0xbd252c46	-0.040325426
23	0xbc6a5ce3	-0.0143043725
24	0xbc61a912	-0.01377322
25	0xbcc76868	-0.024341777
26	0xbc445000	-0.011981964
27	0xbc8c5bc3	-0.0171336
28	0x00000000	0.0
29	0xbc5c30f8	-0.013439409
30	0x3bc2e32a	0.00594749
31	0x00000000	0.0
32	0xbd296cbc	-0.041363463
33	0xbd0a0e0c	-0.033704802
34	0xbc1b7b5f	-0.009489863
35	0xbc2bf7ce	-0.010496093
36	0xbd125255	-0.03572305
37	0xbd35edf2	-0.044416375
38	0xbc7cf5f8	-0.015439503
39	0xbc580f0c	-0.013187181
40	0xbd232cb6	-0.03983756
41	0xbc3d5cad	-0.01155774
42	0xbc4f016b	-0.012634615
43	0xbd3386d7	-0.043829765
44	0xbc4657df	-0.012105911
45	0xbc63a7f3	-0.013895023
46	0xbc4318d0	-0.011907771
47	0xbcf421cb	-0.02980127
48	0xbc3c7655	-0.011502822
49	0xbc6fa62d	-0.014627022
50	0x00000000	0.0
51	0xbc26693f	-0.010156929
52	0xbd3965f4	-0.045263246
53	0xbd08d12a	-0.0334026
54	0xbd034281	-0.032045845
55	0xbc54c3e3	-0.012986156
56	0x00000000	0.0
57	0xbd29a937	-0.04142114
58	0xbcc07184	-0.023491628
59	0xbc510929	-0.012758532
60	0xbd1e7112	-0.03868205
61	0xbd04a1cc	-0.032380864
62	0xbc8141f2	-0.015778515
63	0xbc37857c	-0.011201259
64	0x3bdb92fd	0.006700872
65	0x00000000	0.0
66	0x3c18a42e	0.009316487
67	0x3bb5c3ec	0.0055470373
68	0x3ba664a3	0.005077915
69	0x3bba7e49	0.005691324
70	0x3c0b1fc9	0.008491465
71	0x3d3994ce	0.045307927
72	0x3cde91d6	0.02716915
73	0x3b9a2514	0.004704127
74	0x3bc7b56a	0.0060946243
75	0x3d3d546b	0.046223085
76	0x00000000	0.0
77	0x3c28845d	0.010285464
78	0x00000000	0.0
79	0x3cdafcdf	0.026731906
80	0x3d01203e	0.03152489
81	0x3bf07359	0.0073379693
82	0x3be1ab60	0.0068868846
83	0x00000000	0.0
84	0x3d14c73b	0.036322813
85	0x3d280e89	0.041029487
86	0x3d28b8fc	0.04119204
87	0x3bb8fe57	0.005645554
88	0x3bd08c52	0.0063643837
89	0x3c87ccfa	0.016577233
90	0x3b8d6dca	0.0043160664
91	0x3be33e0c	0.006934887
92	0x00000000	0.0
93	0x3bad08c3	0.0052805855
94	0x3bc7472f	0.006081484
95	0x00000000	0.0
96	0x3d2cf8ae	0.042229347
97	0x3cf9be2d	0.03048619
98	0x3b6df9fd	0.0036312335
99	0x3b8511df	0.0040609683
100	0x3d165697	0.036703672
101	0x3d3a829d	0.04553472
102	0x3bd62ead	0.006536326
103	0x3ba9d021	0.0051822816
104	0x3d271459	0.04079089
105	0x3b8d1cc1	0.0043064062
106	0x3ba72e35	0.005101944
107	0x3d4658ce	0.048424534
108	0x3b9b1c2b	0.0047335825
109	0x3bb1d337	0.00542679
110	0x3b8ecdd1	0.0043580313
111	0x3cd0acca	0.025473017
112	0x3b8c5498	0.0042825453
113	0x3bd4ea07	0.006497625
114	0x00000000	0.0
115	0x3b8013c4	0.0039086062
116	0x3d409c6e	0.047024183
117	0x3d045ac9	0.032313142
118	0x3ceffdb8	0.029295787
119	0x3bb1b1a8	0.0054227896
120	0x00000000	0.0
121	0x3d24de16	0.04025086
122	0x3c72b9c3	0.014814797
123	0x3b9465a8	0.00452872
124	0x3d2bce82	0.041944988
125	0x3ce84cf7	0.028357012
126	0x3bc5709c	0.006025387
127	0x3b85fcc7	0.0040889713

flows.0.flows.1.param_map.net.4.bias f4 [2]
0	0xbceeb861	-0.029140653
1	0x3cbbe2f4	0.022935368

flows.2.flows.1.param_map.net.0.weight f4 [64, 1]
0	0xbf2b02a9	-0.66800934
1	0x3da38f2e	0.07986294
2	0xbf3bc657	-0.7334952
3	0x3ee28ea2	0.44249445
4	0x3f71327c	0.9421766
5	0x3f58825a	0.845739
6	0x3e4cbf8c	0.19994944
7	0xbede0b83	-0.43368158
8	0x3e8aec3e	0.27133363
9	0x3eabe111	0.3357015
10	0xbf426613	-0.75937
11	0x3ec8e194	0.39234602
12	0x3e172a39	0.147622
13	0xbf811fca	-1.0087826
14	0xbf32aaab	-0.6979167
15	0x3f56b922	0.8387624
16	0xbee19dcc	-0.44065702
17	0xbf08ed62	-0.5348722
18	0xbf533554	-0.8250325
19	0xbef31165	-0.47474208
20	0x3f7d257c	0.9888532
21	0x3f3fcdcf	0.74923414
22	0x3f666966	0.90004575
23	0xbe7d6d8c	-0.2474882
24	0x3f2cbbbc	0.6747396
25	0x3ec420a5	0.38306156
26	0x3ea76b9a	0.3269928
27	0x3f706698	0.93906546
28	0xbdae47bd	-0.08509777
29	0xbe1fa05a	-0.15588513
30	0xbe50e847	-0.20401107
31	0x3eeeaab0	0.466146
32	0x3ec5c5aa	0.38627368
33	0x3f4072d4	0.75175214
34	0xbd95a191	-0.07306207
35	0x3f3b7fbd	0.7324179
36	0x3f1c8ebf	0.61155313
37	0x3e9757b0	0.29559088
38	0x3ee5d091	0.44885686
39	0xbf786a54	-0.97037244
40	0xbe974704	-0.29546368
41	0xbf19ae92	-0.60032
42	0x3ed5614e	0.416758
43	0xbe9a6056	-0.30151623
44	0xbf438b19	-0.7638412
45	0x3eb4a7ac	0.35284173
46	0xbf35a456	-0.7095388
47	0xbe06f8ef	-0.13180898
48	0x3e5715d6	0.21004423
49	0x3f566ccd	0.83759767
50	0xbf0ff896	-0.5623869
51	0xbecbea0e	-0.39827007
52	0xbe8f36a3	-0.27971372
53	0xbe826129	-0.25464752
54	0xbd8f8ed3	-0.070096634
55	0xbcaad865	-0.020855138
56	0x3f13bd45	0.5771068
57	0xbf20e1d2	-0.62844574
58	0x3f2a4c57	0.66522735
59	0xbf6c25ed	-0.9224537
60	0x3ea34276	0.31886643
61	0xbe8411a7	-0.25794718
62	0x3ecc97ad	0.3995947
63	0x3ef5834d	0.47951737

flows.2.flows.1.param_map.net.0.bias f4 [64]
0	0xbf4cab9f	-0.79949373
1	0x3ef52a8e	0.4788403
2	0xbeebc519	-0.4604881
3	0x3d3a11ed	0.04542725
4	0xbe4ace8e	-0.19805357
5	0xbf5482ee	-0.8301228
6	0x3f585e5e	0.8451899
7	0x3e042e22	0.12908223
8	0x3f11a286	0.56888616
9	0xbf39758e	-0.72445
10	0xbde52f9c	-0.111907214
11	0xbea05a73	-0.31319007
12	0xbe8dd58f	-0.27701995
13	0x3e8286b6	0.254934
14	0x3f3c2f7d	0.7350996
15	0xbee10dae	-0.4395575
16	0xbe8b88e0	-0.27252865
17	0x3e1011ee	0.1406934
18	0xbf064aa7	-0.5245766
19	0x3f612617	0.87948745
20	0x3f30f21f	0.6911945
21	0x3f772215	0.9653638
22	0xbee4eab7	-0.44710323
23	0x3f64bc53	0.8934986
24	0xbe26d317	-0.16291462
25	0x3f5902ca	0.8476988
26	0x3f0b1d0e	0.5434121
27	0x3ea8828d	0.32912102
28	0x3e59f968	0.21286547
29	0xbe7472aa	-0.23871866
30	0x3dfd1920	0.12358308
31	0xbf2bf662	-0.67172825
32	0xbe80dde6	-0.25169295
33	0x3f8378a9	1.0271198
34	0x3f48e99b	0.78481454
35	0xbf0bc57a	-0.545982
36	0x3f8174a3	1.011372
37	0xbe6bf05d	-0.2304091
38	0xbe14bdc5	-0.14525516
39	0xbe965a6d	-0.29365864
40	0x3f4ad49e	0.7923068
41	0xbf2cd538	-0.67512846
42	0x3f4b0ded	0.79318124
43	0xbf74d631	-0.9563933
44	0xbf135af5	-0.57560664
45	0x3f206edb	0.6266915
46	0x3f2b7fe9	0.6699205
47	0x3c0d272b	0.008615295
48	0xbf36a9ed	-0.71353036
49	0xbed97665	-0.4247314
50	0xbefa168a	-0.4884532
51	0x3ef7393f	0.48285863
52	0x3f04a5fb	0.51815766
53	0xbf6588bc	-0.89661765
54	0xbcfaca99	-0.030614184
55	0x3f4fb5a5	0.8113654
56	0xbeefe9c2	-0.4685803
57	0xbf1a6fad	-0.60326654
58	0xbf73d040	-0.9523964
59	0x3e6ba591	0.23012377
60	0x3f4af5c0	0.79281235
61	0xbe3c3b7d	-0.18382068
62	0x3bce01fa	0.0062868567
63	0x3f292cc1	0.66083914

flows.2.flows.1.param_map.net.2.weight f4 [64, 64]
0	0x3c931915	0.017956296
1	0x3d515a13	0.051111292
2	0x3dc40032	0.0957035
3	0x3d29a32b	0.041415375
4	0xbcd2d084	-0.025734194
5	0x3d38315f	0.04496896
6	0xbd9a3e40	-0.075314045
7	0x3e21f5c8	0.15816414
8	0x3dd64ccd	0.10463867
9	0xbd7a44df	-0.061100837
10	0xbcf38855	-0.029728094
11	0x3d2a519e	0.041581742
12	0xbda2c608	-0.07947928
13	0x3e1aa907	0.15103541
14	0xbd322281	-0.043489937
15	0x3cb107f6	0.021610241
16	0xbdaeda53	-0.08537736
17	0x3dcabc7b	0.09899231
18	0xbd4cbc1b	-0.04998408
19	0x3e0bf0e8	0.13666117
20	0x3cdf3615	0.027247468
21	0xbd67f299	-0.056627844
22	0x3d85fb75	0.06542102
23	0xbcf44a5b	-0.029820612
24	0x3dcfa572	0.10138978
25	0xbd755fe2	-0.059905894
26	0x3e12b3f0	0.14326453
27	0xbdb3e7ed	-0.08784471
28	0xbb970dfc	-0.0046098214
29	0x3afd5257	0.0019326907
30	0x3dc7b447	0.09751182
31	0xbce6c3e9	-0.02816959
32	0x3dd7f8b5	0.10545484
33	0x3d67fd3d	0.05663799
34	0x3dca2f38	0.098722875
35	0x3db2a9ba	0.08723779
36	0x3d64a2da	0.05581937
37	0x3dcae12d	0.0990623
38	0x3e027dad	0.12743254
39	0xbda16ec8	-0.07882458
40	0x3e0f335b	0.13984434
41	0x3d5f8c09	0.054576907
42	0xbd316af9	-0.043314908
43	0x3da11d6f	0.07866942
44	0xbd64e516	-0.055882536
45	0x3d5a3a89	0.05327848
46	0x3deaa496	0.114571735
47	0x3c5542ec	0.013016444
48	0x3ced42b3	0.028962469
49	0xbdcb42f5	-0.099248804
50	0x3cf519b9	0.029919492
51	0xbc9fcafd	-0.019505972
52	0x3df7cd47	0.120997004
53	0xbdb1672c	-0.086622566
54	0xbdb6b313	-0.089208744
55	0x3e115a1b	0.14194529
56	0xbd88b7ab	-0.06675657
57	0xbcb3fdf8	-0.021971688
58	0x3ccdb00b	0.025108358
59	0xbd8ce481	-0.06879521
60	0xbd8532ed	-0.06503854
61	0x3dc4529b	0.09586068
62	0xbd3987a2	-0.045295365
63	0xbdae9550	-0.08524573
64	0x3d2a3b97	0.041560736
65	0x3a4815db	0.0007632651
66	0x3da3894f	0.07985174
67	0x3d5bc94d	0.053658772
68	0x3e032126	0.12805614
69	0x3d2c4371	0.042056505
70	0x3d6453ce	0.055743985
71	0x3dc47cae	0.09594093
72	0x3d9084d3	0.07056584
73	0x3d761a69	0.06008378
74	0x3db7ab75	0.0896825
75	0xbc4bcb3f	-0.012438594
76	0x3ce18f6e	0.027534213
77	0xbd48d7f4	-0.049034074
78	0x3c4e3a6a	0.012587169
79	0x3c74c7f2	0.014940249
80	0x3e0c64b0	0.13710284
81	0xbda72dab	-0.08163007
82	0xbd1f6a40	-0.038919687
83	0xbd6688f2	-0.056282945
84	0x3df0c388	0.117560446
85	0x3dba3dcd	0.09093819
86	0xbdf4f6be	-0.11961125
87	0xbbb62bec	-0.005559435
88	0xbd89037b	-0.06690117
89	0x3ba7c94b	0.0051204315
90	0xbd9c9e12	-0.07647337
91	0xbd63c5b9	-0.055608485
92	0xbda86054	-0.08221498
93	0x3d664cf9	0.05622575
94	0x3de90d19	0.11379451
95	0x3d9203eb	0.071296535
96	0x3ddad7cd	0.10685692
97	0x3d3abd61	0.045590762
98	0x3df41dde	0.11919759
99	0x3d9de429	0.07709534
100	0xbce714b5	-0.028208116
101	0xbd670cc2	-0.05640865
102	0x3c64b271	0.013958559
103	0xbb768a56	-0.0037619076
104	0x3d42b608	0.04753688
105	0x3def34b5	0.11679975
106	0x3b4d97ef	0.0031371077
107	0x3d82205b	0.063538276
108	0x3ce0c33f	0.02743685
109	0xbcddb1eb	-0.027062377
110	0xbd99b2d2	-0.075048104
111	0x3c4e37d0	0.012586549
112	0xbd16cdd9	-0.036817405
113	0x3cc1254d	0.023577357
114	0xbc9fe9a5	-0.01952059
115	0x3da04ca5	0.07827119
116	0xbd0f414b	-0.034974378
117	0xbdb4c034	-0.08825722
118	0x3d1042e8	0.035220057
119	0x3dcade18	0.09905642
120	0x3db2cebd	0.087308384
121	0x3d5154af	0.05110615
122	0x39e107c0	0.00042921118
123	0x3d99d111	0.075105794
124	0x3dee5b74	0.11638537
125	0x3b30b56c	0.0026963605
126	0xbdedc724	-0.11610249
127	0xbd679aa3	-0.056543957
128	0xbda3b74e	-0.07993947
129	0x3df03f78	0.11730856
130	0x3d220a52	0.039560623
131	0x3c0f819e	0.0087589305
132	0xbd058766	-0.03259983
133	0x3de00746	0.10938887
134	0xbb8aa6b3	-0.004231298
135	0x3bcf743d	0.0063309954
136	0x3d5db342	0.05412603
137	0x3d935c08	0.07195288
138	0x3cea8788	0.02862908
139	0x3dec94c2	0.11551811
140	0xbc2611dc	-0.010136094
141	0xbd4e21da	-0.050325252
142	0x3c955e6c	0.0182335
143	0xbd83e72a	-0.064405754
144	0x3b12d238	0.0022403132
145	0x3d5d7d64	0.05407466
146	0x3b0ecc1c	0.002178914
147	0x3c9a0a7e	0.018803831
148	0xbcb8199b	-0.022473147
149	0x3d9ea369	0.07746012
150	0x3df00bd7	0.11721008
151	0x3d814e00	0.063137054
152	0xbd921ec0	-0.07134771
153	0xbd49a527	-0.049229767
154	0x3db95557	0.090494804
155	0xbdac899a	-0.08424683
156	0xbc910d0c	-0.017706417
157	0x3d94ed7c	0.07271859
158	0x3da325f3	0.079662226
159	0x3c699c56	0.014258465
160	0x3dbdda2c	0.092701286
161	0xbcd76914	-0.026295222
162	0x3d75083a	0.0598223
163	0xbdf460e7	-0.11932545
164	0x3df60b2f	0.12013852
165	0xbd939125	-0.072054185
166	0x3d8e6b72	0.06954087
167	0x3dac059d	0.08399508
168	0xbdb56659	-0.08857412
169	0xbb6aaf28	-0.0035809968
170	0x3dba66a8	0.091016114
171	0xbdd01775	-0.10160724
172	0x3dd9c083	0.10632422
173	0xbc49088b	-0.012270103
174	0x3d6839d9	0.056695793
175	0x3d46e707	0.04856017
176	0x3db69e5f	0.08916926
177	0x3dcc1849	0.099655695
178	0xbc9b4715	-0.018954793
179	0xbd8a4c1d	-0.06752799
180	0xbb00aabd	-0.0019633018
181	0x3d8e5ac8	0.06950909
182	0x3de0a05c	0.10968086
183	0xbd8db6b5	-0.06919614
184	0xbcf88fbf	-0.030341981
185	0xbcea4d31	-0.02860126
186	0x3df5294e	0.11970769
187	0xbd6ef33c	-0.058337435
188	0x3df92418	0.121650875
189	0x3d446065	0.04794349
190	0xbc3892b0	-0.011265442
191	0x3d13adce	0.036054425
192	0x3922de3f	0.00015532317
193	0x3c9864e5	0.018602798
194	0x3d9d7007	0.07687383
195	0x3cd14efb	0.025550356
196	0x3dc22ff0	0.094817996
197	0x3c6c00e4	0.014404509
198	0x3d773125	0.060349602
199	0x3d3ee0b8	0.046601027
200	0xbde79176	-0.11307041
201	0xbc72701b	-0.014797236
202	0xbde353e2	-0.11099984
203	0x3c298999	0.010347747
204	0xbdb01669	-0.085980244
205	0xbb372c5f	-0.0027950031
206	0x3c2e5c1c	0.010642078
207	0x3d9793e8	0.07401258
208	0x3d78c07f	0.060730454
209	0xbdc3ad84	-0.0955458
210	0xbc76739b	-0.015042211
211	0x3c8325ec	0.016009293
212	0x3c834535	0.016024211
213	0xbcab398a	-0.02090146
214	0x3d8a878b	0.06764134
215	0xbd14aed7	-0.036299553
216	0xba5783c4	-0.0008221234
217	0xbc95e585	-0.01829792
218	0xbcf0d75d	-0.029399568
219	0x3d8227d7	0.06355255
220	0xbd6073df	-0.054798003
221	0xbc917a0c	-0.017758392
222	0x3cd3b611	0.025843652
223	0xbc9ffa1e	-0.019528445
224	0xbdaca15a	-0.08429213
225	0x3db7bb43	0.08971264
226	0xbd481824	-0.048851147
227	0x3df9678e	0.121779546
228	0xbcd4d290	-0.02597931
229	0xbd32b3fa	-0.04362867
230	0xbc3174e8	-0.010831095
231	0x3d71d273	0.05903859
232	0x3b45c0d5	0.0030174751
233	0xbda084e9	-0.078378506
234	0xbbf72917	-0.00754274
235	0x3cfc92c5	0.030831704
236	0x3dcd10ee	0.10012995
237	0x3d9fdb04	0.07805446
238	0xbde242c0	-0.11047888
239	0x3dbd6fcf	0.092498414
240	0x3cdd8d22	0.027044836
241	0xbde603b4	-0.11231175
242	0x3d45f1ff	0.04832649
243	0x3dcd95be	0.10038327
244	0xbc267101	-0.010158778
245	0xbd57dfcb	-0.05270366
246	0xbdb9ef30	-0.090788245
247	0x3dfd0e2b	0.12356218
248	0x3d2893b1	0.041156475
249	0xbd8231a1	-0.06357122
250	0xbaf59206	-0.0018735535
251	0x3da92a8c	0.08260068
252	0x3c08dcad	0.008353394
253	0x3de404b0	0.111337066
254	0xbdd8af20	-0.105802774
255	0x3cf2c2bd	0.029633874

flows.2.flows.1.param_map.net.2.bias f4 [64]
0	0x3e006983	0.1254025
1	0x3dab9e43	0.083797954
2	0x3c898fcb	0.016792199
3	0xbd702a3a	-0.05863402
4	0x3dcfe27c	0.1015062
5	0xbd8fedcd	-0.07027779
6	0x3dfafbc0	0.12255049
7	0x3d62dba5	0.05538525
8	0x3d2ab1b9	0.041673396
9	0x3d3b247a	0.045689084
10	0xbdc8bfe3	-0.098022245
11	0xbd0c5077	-0.034256425
12	0x3d3742a3	0.044741284
13	0x3cc4db41	0.02403033
14	0xbdb4de29	-0.08831436
15	0xbd1526d4	-0.036413983
16	0x3dc15119	0.09439296
17	0x3d61d6aa	0.05513636
18	0x3e01a683	0.12661175
19	0x3c885b22	0.016645018
20	0xbd145bd5	-0.03622039
21	0x3d96e66b	0.073681675
22	0x3d068e76	0.032850705
23	0xbcce232e	-0.02516326
24	0x3e06060e	0.13088247
25	0x3b21dadb	0.0024697098
26	0x3d96eb5c	0.0736911
27	0x3dac170c	0.08402833
28	0x3bb2149e	0.0054345867
29	0xbd5cf930	-0.05394858
30	0xbd808c3d	-0.06276748
31	0xbc38acde	-0.0112716835
32	0xbd31934d	-0.043353368
33	0x3de0800c	0.10961923
34	0x3d73f98b	0.059564155
35	0x3d73b086	0.059494518
36	0x3dd85f00	0.10564995
37	0x3daf8ab3	0.08571377
38	0xbd376ae6	-0.04477968
39	0x3c6da86c	0.014505487
40	0x3da8a81b	0.082351886
41	0xbc61bdc6	-0.013778156
42	0x3d9ea74e	0.077467546
43	0x3d708e4c	0.058729455
44	0xbc86ede9	-0.016470866
45	0x3d439af4	0.047755197
46	0xbd99655e	-0.074900374
47	0xbde02ef8	-0.109464586
48	0xbd17b4f8	-0.03703782
49	0xbd4171b3	-0.047227573
50	0x3d843651	0.064556725
51	0x3d5608e0	0.052254558
52	0xbc8cffc0	-0.017211795
53	0x3c9bc280	0.019013643
54	0x3db1c7de	0.086807
55	0x3de39072	0.11111535
56	0x3d15bd8f	0.03655773
57	0x3d5117ab	0.051047962
58	0xbdb76f31	-0.08956755
59	0xbdc3d945	-0.09562925
60	0x3b3f47a2	0.0029186984
61	0x3b47bdcc	0.0030478118
62	0x3d2b3b54	0.041804627
63	0xbdc12e1a	-0.09432621

flows.2.flows.1.param_map.net.4.weight f4 [2, 64]
0	0x3d1c354b	0.03813676
1	0x3c36e5f7	0.011163226
2	0x3c14aca4	0.009074364
3	0x3c289030	0.010288283
4	0x3cb4804a	0.02203383
5	0x3c6f1e9e	0.014594702
6	0x3ccf5ccb	0.025312802
7	0x3c895094	0.016762055
8	0x3c279e92	0.010230677
9	0x3c2c1e00	0.010505199
10	0x3c189792	0.009313481
11	0x3c090cee	0.008364899
12	0x00000000	0.0
13	0x00000000	0.0
14	0x3c6ab958	0.014326416
15	0x3be9fdae	0.0071408367
16	0x3bef4581	0.0073019867
17	0x3cd3f4bb	0.025873533
18	0x3c3a08c9	0.011354634
19	0x3beb1ee7	0.0071753147
20	0x3c0cfe62	0.008605571
21	0x3c2bf5c5	0.010495608
22	0x3c893cae	0.016752567
23	0x00000000	0.0
24	0x3cce2fbc	0.025169246
25	0x00000000	0.0
26	0x3bfe12cf	0.007753707
27	0x3caca4f4	0.02107475
28	0x3c18ff96	0.00933828
29	0x00000000	0.0
30	0x3bcef73d	0.006316094
31	0x3c398fe1	0.011325807
32	0x3ceaad16	0.028646987
33	0x3bc9f7f1	0.00616359
34	0x3c28ffc2	0.010314884
35	0x3d245ab1	0.040125553
36	0x3ca23760	0.019801795
37	0x3d0fb59f	0.035085317
38	0x3bf9d0ee	0.0076237833
39	0x00000000	0.0
40	0x3bf2c537	0.0074087637
41	0x3cd14644	0.0255462
42	0x3c423dfe	0.0118556
43	0x3c119cab	0.00888745
44	0x3c5d14dc	0.013493743
45	0x3bd83264	0.006597804
46	0x3c1ec144	0.009689633
47	0x3be22b34	0.006902123
48	0x3d02c61b	0.03192721
49	0x3c96f200	0.018425941
50	0x3bce368f	0.006293125
51	0x3c320e2f	0.010867639
52	0x3c7884a0	0.015168339
53	0x3c018717	0.007905743
54	0x3c080bc7	0.008303589
55	0x3bc79ce8	0.0060917027
56	0x3c3a859f	0.011384397
57	0x3bd44b8a	0.0064787315
58	0x3c3c8734	0.011506844
59	0x3c0594c1	0.0081531415
60	0x3c7d0ee5	0.015445446
61	0x3c5c07fb	0.013429637
62	0x3bfb5f3a	0.007671264
63	0x3bb87609	0.0056293053
64	0x3cf9ab23	0.030477112
65	0x3afcef18	0.001929733
66	0x3afe8558	0.0019418402
67	0x3b08453f	0.0020793227
68	0x3c825603	0.015910154
69	0x3b2744c1	0.0025523158
70	0x3cc4f695	0.02404336
71	0x3b397401	0.0028297903
72	0x3b12a41c	0.002237565
73	0x3b285f4a	0.0025691562
74	0x3b034e0e	0.0020035538
75	0x3af75304	0.0018869345
76	0x00000000	0.0
77	0x00000000	0.0
78	0x3b4f597c	0.003163903
79	0x3b012af9	0.0019709452
80	0x3b25defa	0.0025309906
81	0x3c911afb	0.01771306
82	0x3af6498b	0.0018790228
83	0x3b354d4a	0.0027664476
84	0x3b157f0a	0.0022811317
85	0x3aefe630	0.0018302854
86	0x3c95f288	0.018304124
87	0x00000000	0.0
88	0x3b92f442	0.004484684
89	0x00000000	0.0
90	0x3b2504e2	0.0025179912
91	0x3b31801f	0.0027084423
92	0x3afc9831	0.0019271431
93	0x00000000	0.0
94	0x3b142683	0.0022605963
95	0x3b3277a9	0.0027231968
96	0x3ba3a31e	0.0049938103
97	0x3b10d7a0	0.0022101179
98	0x3b11205c	0.0022144532
99	0x3d17942e	0.03700655
100	0x3c1f55e5	0.009725069
101	0x3d008715	0.031378824
102	0x3b134e0c	0.002247694
103	0x00000000	0.0
104	0x3b081455	0.0020764072
105	0x3b53ca40	0.0032316595
106	0x3b1213a1	0.0022289532
107	0x3b0b8842	0.0021290933
108	0x3b131f3c	0.0022449037
109	0x3b1e9338	0.0024196636
110	0x3aefb2cc	0.0018287539
111	0x3b040890	0.0020146705
112	0x3ce9b9a9	0.028530912
113	0x3b5f5681	0.003407866
114	0x3b1c1053	0.002381344
115	0x3b1d4796	0.0023998967
116	0x3b18b730	0.0023302548
117	0x3b18cb48	0.0023314524
118	0x3b038591	0.0020068625
119	0x3b192569	0.0023368245
120	0x3aed0d60	0.0018085651
121	0x3b338971	0.0027395154
122	0x3b42819e	0.0029679309
123	0x3b2178a3	0.0024638555
124	0x3b208de8	0.0024498645
125	0x3b14b6ce	0.0022691968
126	0x3b1671c9	0.0022956005
127	0x3b162cbc	0.0022914847

flows.2.flows.1.param_map.net.4.bias f4 [2]
0	0x3c483a48	0.012220927
1	0x3ba13c8a	0.004920547

flows.4.flows.1.param_map.net.0.weight f4 [64, 1]
0	0x3dc4cecb	0.09609755
1	0xbe701844	-0.23446757
2	0x3f115178	0.56764936
3	0x3f69237a	0.9106976
4	0xbe3551d9	-0.17707004
5	0xbe0db5a4	-0.13838822
6	0x3f20e4f2	0.6284934
7	0xbed40d63	-0.41416463
8	0xbe164b11	-0.14677073
9	0x3f1fde8e	0.62448967
10	0x3f4b17c6	0.7933315
11	0x3ea174ae	0.31534332
12	0x3f2f6c09	0.68524224
13	0x3f48f1b2	0.784938
14	0xbf4f1350	-0.80888844
15	0xbee67692	-0.45012337
16	0xbf30cb26	-0.6905998
17	0xbf53d4c3	-0.82746524
18	0x3ef65877	0.48114368
19	0xbe9cd29d	-0.30629435
20	0x3ec645d3	0.38725147
21	0x3e23c070	0.15991378
22	0xbf5ae3f5	-0.85504085
23	0xbebbda09	-0.36689785
24	0x3f3f1bcd	0.74651796
25	0xbf336a10	-0.70083714
26	0x3da2bbe8	0.079459965
27	0xbb6b682d	-0.0035920248
28	0x3f6f4f1b	0.9348008
29	0xbf0cbc7a	-0.5497509
30	0xbf0218f5	-0.5081933
31	0x3f142db8	0.5788226
32	0x3f822ff4	1.0170884
33	0xbd0bef23	-0.034163605
34	0xbf6aa30b	-0.91655034
35	0x3d516488	0.051121265
36	0x3ec1bbe4	0.37838662
37	0xbf20e9c7	-0.62856716
38	0xbe43e8d2	-0.19131783
39	0x3f3fda94	0.749429
40	0x3f0c5a82	0.54825604
41	0xbd1e0cd5	-0.038586456
42	0x3f7a54ad	0.97785455
43	0x3f5a45c4	0.85262704
44	0x3f136eb3	0.5759079
45	0xbf11e439	-0.56988865
46	0xbdef6a95	-0.11690251
47	0x3f3171d0	0.6931429
48	0x3ed24c8d	0.4107403
49	0xbd29346f	-0.04130977
50	0xbed9989b	-0.4249924
51	0xbf599bd6	-0.8500341
52	0xbf0e569e	-0.5560092
53	0xbf0b53db	-0.5442483
54	0x3e829585	0.255047
55	0x3db771e1	0.089572676
56	0xbe0e5e5b	-0.13903181
57	0x3ec88310	0.39162493
58	0xbec2f520	-0.3807764
59	0x3e4e13dd	0.20124765
60	0x3f55e1e8	0.8354783
61	0xbe7f1133	-0.24908905
62	0x3f0da9f6	0.55337465
63	0x3eb5eb08	0.35530877

flows.4.flows.1.param_map.net.0.bias f4 [64]
0	0xbe1b476c	-0.15163964
1	0x3f6e43a8	0.93071985
2	0xbf77f1d1	-0.9685336
3	0xbf5d81b8	-0.8652606
4	0xbef0f325	-0.47060505
5	0xbec684a2	-0.38773066
6	0xbf0eb800	-0.5574951
7	0x3f574311	0.8408671
8	0xbf0ac517	-0.54206985
9	0x3e7d6740	0.24746418
10	0x3e1c4c9a	0.15263596
11	0x3f3258a7	0.6966652
12	0xbf01b935	-0.5067323
13	0xbecc96a9	-0.39958695
14	0x3f176247	0.59134334
15	0x3f7510e1	0.9572888
16	0x3f77ce9f	0.96799654
17	0xbf4ffc4d	-0.81244355
18	0x3eae09f0	0.33991957
19	0x3f823a6f	1.0174083
20	0xbeb28b4c	-0.348719
21	0x3f2f5f7c	0.6850507
22	0xbf4ece51	-0.80783564
23	0xbd26f05f	-0.04075658
24	0x3e50636c	0.20350426
25	0xbf5b90bc	-0.8576772
26	0x3f00ab3d	0.5026129
27	0xbed92e91	-0.4241834
28	0xbf278e60	-0.6545162
29	0xbe66b5d0	-0.22530293
30	0xbf2ab252	-0.66678345
31	0x3dc05a5e	0.09392236
32	0x3f46da02	0.77676404
33	0xbd5f725c	-0.05455242
34	0x3f1b168e	0.6058129
35	0xbf2b859f	-0.67000765
36	0x3f36e7f4	0.7144768
37	0xbe3634d0	-0.17793584
38	0xbd4b2d67	-0.049603846
39	0xbe8955d2	-0.26823288
40	0xbe41dc8d	-0.1893179
41	0xbf57d797	-0.8431334
42	0x3f400d47	0.7502026
43	0xbf2a2885	-0.6646808
44	0x3ea07268	0.31337285
45	0xbf43c28a	-0.7646872
46	0x3f3dde08	0.7416692
47	0xbf6ede4c	-0.9330795
48	0xbf056340	-0.5210457
49	0x3de7f957	0.11326855
50	0xbf6164da	-0.8804451
51	0xbd67fccb	-0.056637567
52	0xb7a5792b	-1.9725956e-05
53	0x3f18f0e7	0.5974259
54	0x3f05af15	0.5222028
55	0xbbc14d67	-0.0058991197
56	0x3ee52d31	0.4476104
57	0x3ea7fc67	0.32809755
58	0x3f507647	0.81430477
59	0x3ea86a6d	0.32893696
60	0xbec34d31	-0.3814483
61	0x3f19a79e	0.6002139
62	0xbeda30da	-0.42615396
63	0xbdcbddae	-0.099543914

flows.4.flows.1.param_map.net.2.weight f4 [64, 64]
0	0x3c249eb6	0.010047605
1	0xbe213e23	-0.1574636
2	0x3d364a44	0.04450442
3	0x3e0f4518	0.13991201
4	0xbb811c8e	-0.0039401716
5	0xbc21d11b	-0.009876515
6	0x3bab13f7	0.005220886
7	0xbda5d87e	-0.08097933
8	0x3d35e54a	0.04440812
9	0x3d4c89d9	0.04993615
10	0x3c174fde	0.00923535
11	0xbcb7cb45	-0.022435794
12	0xbd9863e5	-0.07440928
13	0xbc808d98	-0.015692517
14	0xbd51b5a0	-0.0511986
15	0xbce2a684	-0.027667291
16	0xbd8e13f8	-0.069374025
17	0xbd576422	-0.05258573
18	0x3dad9d68	0.084772885
19	0x3cf11edd	0.029433662
20	0xbd06a1cf	-0.032869156
21	0x3defe59d	0.11713717
22	0xbd6cad55	-0.05778249
23	0xbd573816	-0.052543722
24	0xbdd540c9	-0.104127474
25	0xb56e600d	-8.880168e-07
26	0x3c82f068	0.015983775
27	0xbb372027	-0.0027942748
28	0x3e086bdd	0.13322397
29	0x3d76f790	0.060294688
30	0x3d618c35	0.055065352
31	0xbd707178	-0.058701962
32	0xbd90eeed	-0.070768215
33	0xbd4b2087	-0.049591567
34	0x3d572976	0.052529775
35	0xbcf270fa	-0.029594887
36	0x3b7673c4	0.0037605623
37	0xbd85acdf	-0.06527113
38	0x3d83b8b7	0.06431716
39	0x3dc68814	0.096939236
40	0x3dde4819	0.10853595
41	0xbda51f06	-0.08062558
42	0xbd71656e	-0.05893462
43	0x3d87653e	0.06611107
44	0x3bd23b92	0.0064157927
45	0x3cd135cb	0.025538346
46	0xbdc4f659	-0.096172996
47	0x3e0053fd	0.12532039
48	0xbd2073d7	-0.039172973
49	0xbde42c12	-0.11141218
50	0xbd326189	-0.043550048
51	0x2a17ae87	1.3472045e-13
52	0x3d092fd4	0.033492878
53	0xbd6a33fc	-0.057178482
54	0x3e058a56	0.13041052
55	0x3aa3fa82	0.001251057
56	0xbd2f012b	-0.042725723
57	0xbb93c0ea	-0.004509081
58	0xbc9af47e	-0.018915411
59	0x3dea5183	0.114413284
60	0x3c6415ca	0.013921211
61	0x3cf4a8e4	0.02986569
62	0xbd0e39e9	-0.034723196
63	0x3de83cd6	0.113397285
64	0xbd84a406	-0.064765975
65	0x1a9c8b7a	6.4745424e-23
66	0x3d3a16b5	0.04543181
67	0xbdaf7da0	-0.08568883
68	0x3d5c2b7a	0.0537524
69	0x3acf1e28	0.0015801834
70	0xbd73703c	-0.059433207
71	0xbbe569ba	-0.007001129
72	0xbd1009c1	-0.035165552
73	0xbcb10e40	-0.02161324
74	0xbad2b188	-0.0016074637
75	0xbd4ba776	-0.04972025
76	0xbd8f0097	-0.069825344
77	0x3d1f71f8	0.03892705
78	0x3d770f49	0.06031731
79	0xbae0fa2a	-0.0017164398
80	0xb7a5e27f	-1.9775003e-05
81	0xbc9c9d77	-0.019118054
82	0xbd95267b	-0.0728273
83	0x3d815dbf	0.06316709
84	0xbc1b569d	-0.009481099
85	0xb9c26685	-0.00037078946
86	0x3c2c7718	0.010526441
87	0x3d90bea3	0.07067611
88	0x3d9dda07	0.07707601
89	0xbd95613c	-0.072939366
90	0xbb7267f9	-0.0036988242
91	0xbd6f3931	-0.05840415
92	0xbd802b2e	-0.06258236
93	0xb3b76538	-8.540013e-08
94	0xbd3b3138	-0.045701236
95	0xbcbe6b0e	-0.023244407
96	0xbd905865	-0.0704811
97	0x1f001f4c	2.7130942e-20
98	0x3d81032a	0.062994316
99	0xb39292ab	-6.8253335e-08
100	0xbd9279ae	-0.07152115
101	0x3ad73f19	0.0016422003
102	0x3a06ac5c	0.0005137378
103	0x3c2644e7	0.010148264
104	0xb93575b0	-0.00017305347
105	0x9c58ba63	-7.1709304e-22
106	0xbd889641	-0.06669284
107	0x3d9b58d6	0.075853035
108	0xbd0ba371	-0.034091417
109	0x3c034683	0.008012417
110	0xbd982454	-0.07428804
111	0x3da74441	0.08167315
112	0x36a5ea05	4.9446267e-06
113	0x3d009d90	0.031400263
114	0xbd873226	-0.06601362
115	0x3c8ebe34	0.01742468
116	0x3d7c9162	0.061662085
117	0x3dada459	0.084786125
118	0xa23a7488	-2.5269392e-18
119	0x3c93dec2	0.018050555
120	0xbc9ee8b0	-0.019398063
121	0x3ca1a4c9	0.019731896
122	0x3d0a393f	0.033746
123	0x3da5c073	0.080933474
124	0x2f8d903e	2.575024e-10
125	0x230b04bf	7.53621e-18
126	0xb4a69ee1	-3.103551e-07
127	0xbce3e8ed	-0.027821029
128	0x3dd381a4	0.10327461
129	0xbc914903	-0.01773501
130	0x3d98f60f	0.07468807
131	0xbd5d050d	-0.053959895
132	0x3b3dede4	0.0028980905
133	0x3c96e9c4	0.018422015
134	0x3d1f22d8	0.03885159
135	0xbd0b74c0	-0.03404689
136	0xbd8265f6	-0.06367104
137	0x3d4055fc	0.046957
138	0x3d0f57d1	0.034995858
139	0x3d915555	0.07096354
140	0xbd36651a	-0.04453001
141	0xbb4f5246	-0.0031634732
142	0xbc86f584	-0.016474493
143	0x3d73cfd4	0.059524372
144	0x3d87fe77	0.06640332
145	0x3d818077	0.06323331
146	0xbda33a64	-0.079701215
147	0x3de9e6e6	0.114209935
148	0x3da2c3ba	0.07947488
149	0x3bb7b8fe	0.0056067696
150	0x3d8e37f4	0.06944266
151	0x3c00f10c	0.00786997
152	0xbc592375	-0.0132530825
153	0x3a48123d	0.0007632112
154	0xbdac1642	-0.08402683
155	0xbd00185a	-0.031273223
156	0x3db1b864	0.08677748
157	0x3d8749f8	0.06605905
158	0xbd944378	-0.07239431
159	0x3df5fd52	0.12011208
160	0x3d591374	0.052997068
161	0x39961756	0.00028627616
162	0x3cac7490	0.021051675
163	0xbd00ee07	-0.031477
164	0x3dd0b4a2	0.10190703
165	0x3b0a736b	0.0021125923
166	0x3d94fc0c	0.072746366
167	0x3d7781ab	0.060426395
168	0x3d780705	0.06055357
169	0xbd9faca7	-0.07796603
170	0x3d4c931a	0.049944974
171	0xbd25002b	-0.040283363
172	0xbdafd3a4	-0.08585289
173	0x30af4a52	1.2754049e-09
174	0x3e14700a	0.14495865
175	0xbcd47d3b	-0.02593862
176	0x3d3851af	0.044999775
177	0x3d4e97f0	0.050437868
178	0x3d4c9d26	0.049954556
179	0x3d9fec82	0.07808782
180	0x33c60a28	9.221941e-08
181	0x3e2086f9	0.15676488
182	0x3db48cca	0.08815916
183	0xbdbc4632	-0.09193076
184	0x3e02344a	0.12715259
185	0x3dfe784f	0.12425291
186	0xbba21e56	-0.004947464
187	0x3df1c0d4	0.11804357
188	0xbdb30a1a	-0.08742161
189	0x3dd88eef	0.105741374
190	0x3df7e1a6	0.12103586
191	0xbd6f2999	-0.05838928
192	0xbd55d1ae	-0.05220192
193	0xbd1758b4	-0.03694983
194	0x3d057204	0.032579437
195	0xbd3f9985	-0.046777267
196	0xbd182513	-0.03714473
197	0x3d212514	0.039342
198	0xbbfc528f	-0.0077002714
199	0x3de27e7c	0.11059281
200	0xb3283c8d	-3.917062e-08
201	0x3c682c6e	0.014170749
202	0x3d37d06e	0.04487651
203	0xbda37648	-0.07981545
204	0x3b8e4990	0.0043422654
205	0x3d63d4bf	0.055622812
206	0x3d9882b3	0.07446804
207	0x3dc9259a	0.09821625
208	0x3d5e22ba	0.054232337
209	0xb9ebe043	-0.0004498978
210	0xbcb50511	-0.022097142
211	0x3dea8409	0.11450965
212	0x3cd8aeb5	0.026450494
213	0x3da35f5b	0.07977172
214	0xbcea11cd	-0.028572941
215	0xbc2701d9	-0.010193312
216	0xbbff94af	-0.007799707
217	0x3da245c4	0.07923463
218	0x3df8e440	0.1215291
219	0x3d6b7220	0.057481885
220	0x3d9c21ba	0.0762362
221	0xbd9233a2	-0.071387544
222	0xbd063b2b	-0.03277127
223	0xbd27597c	-0.040856823
224	0xbd47727d	-0.04869317
225	0xbdaa5417	-0.0831682
226	0x3dbca75a	0.09211607
227	0xbdcbd2a7	-0.09952288
228	0x3d6c8a37	0.057749
229	0xbc065cf6	-0.008200875
230	0xa1c163fd	-1.3104655e-18
231	0x3db78545	0.08960966
232	0x3da162be	0.07880162
233	0xbd706c0f	-0.058696803
234	0x3ceb7d8c	0.028746389
235	0x3dee395b	0.116320334
236	0xbd277b40	-0.040889025
237	0x3ceef967	0.029171659
238	0xbc2739c4	-0.0102066435
239	0xbcfb6dbb	-0.030691972
240	0xbd3052de	-0.04304778
241	0x3c2a03ca	0.01037688
242	0xbcc6bcf3	-0.02426002
243	0xbc2c718b	-0.010525118
244	0xbc9d5cef	-0.019209353
245	0x3d713496	0.05888804
246	0x3d0e2757	0.034705486
247	0x3d114963	0.035470378
248	0x3d88e001	0.0668335
249	0x3d4179ed	0.047235418
250	0x3e281954	0.16415912
251	0x3c1aa095	0.0094377
252	0xbdb060ee	-0.08612238
253	0x3d8eb459	0.06967992
254	0xbdc0a420	-0.09406304
255	0xbb7bb7fd	-0.0038409226

flows.4.flows.1.param_map.net.2.bias f4 [64]
0	0xbe15c744	-0.14626795
1	0x3cca49fa	0.024693478
2	0x3d87c63b	0.06629606
3	0x3d947e6d	0.07250676
4	0x3dfbb5ba	0.12290521
5	0xbd2cd96d	-0.04219954
6	0xbcd62f3e	-0.026145574
7	0x3bb31794	0.005465457
8	0x3dcd9f1f	0.100401156
9	0x3d35d154	0.044389084
10	0xbdb9b529	-0.09067757
11	0x3cf42f9c	0.029807858
12	0x3b6d0320	0.0036165193
13	0x3d90c9e6	0.07069759
14	0xbd9d1e33	-0.07671776
15	0xbdc5d152	-0.09659065
16	0x3d5646d0	0.052313626
17	0x3dcd47fe	0.10023497
18	0x3d6aedac	0.057355568
19	0xb92744bc	-0.00015951967
20	0x3dc76773	0.09736528
21	0x3ca0d36d	0.019632066
22	0xb9f3543c	-0.0004641133
23	0xbd799f34	-0.060942844
24	0xbe156f9a	-0.14593354
25	0x3daba663	0.08381345
26	0xbd1d647a	-0.0384259
27	0xbc276ace	-0.010218335
28	0x3c8d7d0a	0.017271537
29	0x3c84a654	0.016192593
30	0xbc03edf6	-0.00805234
31	0xbc94d0f4	-0.018166043
32	0xbd38817c	-0.04504536
33	0xbdb4db4d	-0.08830891
34	0xbceeb963	-0.029141134
35	0x3e115787	0.14193545
36	0xbc465aeb	-0.0121066375
37	0x3e210efb	0.15728371
38	0xbc90c5a3	-0.017672366
39	0xbd26e948	-0.040749818
40	0x3e0b70f4	0.13617307
41	0x3d197dfe	0.03747367
42	0xbe14e137	-0.14539038
43	0xbc5acd0e	-0.013354553
44	0x3d6f8b43	0.05848242
45	0x3de3c07a	0.11120696
46	0xbc8c1097	-0.017097754
47	0xbd278497	-0.040897932
48	0xbd814a40	-0.0631299
49	0xbcb7b548	-0.022425309
50	0x3dc53ee9	0.0963114
51	0x3ca15b1e	0.019696768
52	0x3cacc580	0.02109027
53	0xba8005c0	-0.0009767339
54	0xbdfe971b	-0.12431165
55	0x3d5bc615	0.053655703
56	0xbdcf32c3	-0.10117104
57	0xbe0b104a	-0.13580433
58	0xbb591719	-0.003312534
59	0xbc87641b	-0.016527226
60	0x3ddb26d3	0.107007645
61	0xbdc177a1	-0.094466455
62	0x3d907a75	0.07054607
63	0x3d1d10d9	0.038346145

flows.4.flows.1.param_map.net.4.weight f4 [2, 64]
0	0x3cc2a6e0	0.023761213
1	0x00000000	0.0
2	0x3ccb6932	0.024830434
3	0x3d18f54a	0.0373433
4	0x3d217958	0.039422363
5	0x00000000	0.0
6	0x3ccc496f	0.02493736
7	0x00000000	0.0
8	0x3cabf8f2	0.02099273
9	0x3ce0f89b	0.027462294
10	0x3cda4f6a	0.026649196
11	0x3ca3b755	0.01998488
12	0x3d0a67da	0.033790447
13	0x3caee45f	0.02134913
14	0x3ca3cd43	0.019995337
15	0x3cba3a69	0.02273293
16	0x3cb098f8	0.021557316
17	0x3d0a55b9	0.033773158
18	0x3cede59e	0.029040154
19	0x00000000	0.0
20	0x3caaa658	0.020831272
21	0x00000000	0.0
22	0x00000000	0.0
23	0x3c96976a	0.018382747
24	0x3cb30d7d	0.021857018
25	0x3ca2fcb6	0.019895893
26	0x3cc49388	0.02399613
27	0x3cc0dde7	0.023543311
28	0x00000000	0.0
29	0x3ce1ab38	0.027547464
30	0x3d245cca	0.040127553
31	0xbc50e941	-0.012750925
32	0x3cced5f1	0.0252485
33	0x3c98f190	0.018669873
34	0x00000000	0.0
35	0x3d01d606	0.03169825
36	0x00000000	0.0
37	0x3c8b388e	0.01699474
38	0x00000000	0.0
39	0x3ca5cae3	0.020238345
40	0x3cfe4a49	0.031041281
41	0x3d06de7f	0.032927033
42	0x3ce2dea4	0.027694054
43	0x3ccf28ab	0.025287947
44	0x3d085cbc	0.033291563
45	0x3ce3ba87	0.027798904
46	0x3ca075db	0.019587448
47	0x3cd55933	0.02604351
48	0x00000000	0.0
49	0x00000000	0.0
50	0x3cb0bb03	0.02157355
51	0x3cc1b261	0.023644628
52	0x3d16173d	0.036643256
53	0x00000000	0.0
54	0x3caba4b4	0.02095256
55	0x00000000	0.0
56	0x3c9c5a18	0.019085929
57	0x3ca259b1	0.019818159
58	0x00000000	0.0
59	0x3ce2d19b	0.027687838
60	0x3d1fe8be	0.03904032
61	0x3c04f440	0.008114874
62	0x00000000	0.0
63	0x3d30a441	0.043125395
64	0xbb7aa98e	-0.0038248035
65	0x00000000	0.0
66	0x3ad45063	0.0016198274
67	0x3cbd0fb8	0.023078784
68	0x3d3370d5	0.043808777
69	0x00000000	0.0
70	0x3abfbdd2	0.0014628714
71	0x00000000	0.0
72	0xb93b1ee0	-0.00017845212
73	0x3d4b09d1	0.04956991
74	0xbbb8c461	-0.0056386446
75	0xbaa80e3b	-0.0012821624
76	0x3d0455b4	0.032308295
77	0xba1c0038	-0.00059509603
78	0xbadfe1a0	-0.0017080791
79	0xbb1c5004	-0.0023851404
80	0xba8f9258	-0.0010953648
81	0x3d16b64e	0.036794953
82	0x3c5d5548	0.013509102
83	0x00000000	0.0
84	0xbaba51fa	-0.0014215105
85	0x00000000	0.0
86	0x00000000	0.0
87	0xba8c4aa0	-0.0010703392
88	0xbb1fb952	-0.0024371934
89	0xbabb9b07	-0.001431317
90	0x3b05ba02	0.0020405059
91	0xbb14735a	-0.0022651763
92	0x00000000	0.0
93	0xbc136c91	-0.008998052
94	0x3d3439e2	0.044000514
95	0x3ce202fc	0.027589314
96	0xbb8a5f90	-0.0042228177
97	0xbaccce3a	-0.0015625425
98	0x00000000	0.0
99	0x3ca2bbb7	0.0198649
100	0x00000000	0.0
101	0x3d4f807d	0.050659645
102	0x00000000	0.0
103	0xbae110b8	-0.001717112
104	0x3ca533b6	0.02016626
105	0x3cdd82fd	0.02704
106	0xbc06998d	-0.00821532
107	0xbb0246e7	-0.0019878687
108	0x3d08d5d9	0.033407066
109	0x39f96be3	0.00047573363
110	0xba44542c	-0.0007489349
111	0x3d488b58	0.048961014
112	0x00000000	0.0
113	0x00000000	0.0
114	0x3d4d1604	0.050069824
115	0xbb315bd5	-0.0027062793
116	0x3d2aaa9c	0.041666612
117	0x00000000	0.0
118	0xbae27bd4	-0.0017279335
119	0x00000000	0.0
120	0xbab75c4b	-0.0013989297
121	0xbabe2f0d	-0.0014509872
122	0x00000000	0.0
123	0x3b7f7285	0.003897817
124	0x3d461f2d	0.048369575
125	0x3cb54c80	0.022131205
126	0x00000000	0.0
127	0x3d380faf	0.044936832

flows.4.flows.1.param_map.net.4.bias f4 [2]
0	0x3cbd6d72	0.023123477
1	0x3cc5d8a8	0.024151161

flows.6.flows.1.param_map.net.0.weight f4 [64, 1]
0	0xbf05e681	-0.52304846
1	0x3f56d357	0.8391623
2	0xbec94fd5	-0.3931872
3	0x3f1701f9	0.58987385
4	0x3eb254aa	0.3483022
5	0x3e9082d9	0.2822483
6	0xbe9d38ae	-0.30707306
7	0xbf419394	-0.7561581
8	0x3d04ba01	0.03240395
9	0xbf7f210b	-0.99659795
10	0xbdb3090b	-0.08741959
11	0xbec059f7	-0.37568638
12	0x3f004d3a	0.5011784
13	0xbf4e1431	-0.8049956
14	0x3f7e585c	0.99353576
15	0xbe4dd5a6	-0.20101032
16	0x3f3111bb	0.6916768
17	0x3ea20c2c	0.3164991
18	0xbf0468b5	-0.5172227
19	0xbeb3bcbb	-0.35104927
20	0x3f33f607	0.7029728
21	0x3f4a6da9	0.7907358
22	0xbf385dd0	-0.72018147
23	0xbf1e6fba	-0.6188923
24	0x3ef93321	0.4867182
25	0xbf3d68c0	-0.7398796
26	0xbf1cc39f	-0.61235994
27	0x3f471af8	0.77775526
28	0xbf1876f9	-0.5955654
29	0x3f5b2fa6	0.8561958
30	0xbd5c2833	-0.053749274
31	0xbe7a54fd	-0.24446483
32	0xbec86035	-0.391359
33	0xbec88706	-0.39165515
34	0xbf3e3acf	-0.74308485
35	0x3f074b31	0.5284911
36	0xbf1e6695	-0.6187528
37	0x3f74a544	0.95564675
38	0x3f2c6205	0.67337066
39	0x3e89ab9a	0.26888734
40	0x3caea59b	0.021319201
41	0xbf23caa4	-0.6398108
42	0xbf13217d	-0.57472974
43	0x3d4d9277	0.050188508
44	0x3ef63995	0.48090807
45	0x26ce9b43	1.4336205e-15
46	0x3f022c1f	0.50848573
47	0xbf46e43a	-0.77691996
48	0x3ef3c56e	0.47611564
49	0x3edbe315	0.42946687
50	0x3e473ed0	0.19457555
51	0xbf705335	-0.93876964
52	0x3e80f287	0.25185034
53	0x3ea6a25e	0.3254575
54	0x3ee7d318	0.4527824
55	0x3ee7ab59	0.45247915
56	0xbe8bc18e	-0.27296108
57	0x3f2fc7d4	0.6866429
58	0xbf7c6661	-0.9859372
59	0xbeaa375f	-0.3324537
60	0xbf428e8c	-0.7599876
61	0x3e4d1d6b	0.20030753
62	0x3de741c5	0.112918414
63	0xbdb7f468	-0.08982164

flows.6.flows.1.param_map.net.0.bias f4 [64]
0	0xbf68d7fb	-0.9095456
1	0x3d84f745	0.064924754
2	0x3e2c2077	0.1680926
3	0x3e1062ca	0.14100185
4	0x3ec97fad	0.3935522
5	0xbf10e016	-0.5659193
6	0x3f3d65ac	0.73983264
7	0x3f099698	0.5374541
8	0xbc06d9ba	-0.008230621
9	0x3f6225c1	0.8833886
10	0x3f5d7089	0.8649984
11	0x3f09756a	0.53694785
12	0xbc8e07a6	-0.017337631
13	0x3df4ef78	0.119597375
14	0x3f5f9e1d	0.87350637
15	0xbc327591	-0.010892288
16	0x3f3d422a	0.73929083
17	0x3f4fafa3	0.81127375
18	0x3f11cd20	0.5695362
19	0xbf068df0	-0.5256033
20	0xbe4b1b68	-0.19834673
21	0xbebc9fdf	-0.36840722
22	0xbf262fdf	-0.64916795
23	0xbdb00faf	-0.085967414
24	0xbe6f2f6a	-0.23357931
25	0xbdc680dc	-0.09692547
26	0x3f7d70fa	0.99000514
27	0xbf5e5b7b	-0.8685834
28	0x3f7ebbe2	0.99505436
29	0xbecaff07	-0.39647695
30	0xbf1e6f2a	-0.6188837
31	0x3f1b6bf4	0.607116
32	0xbf150a5d	-0.5821894
33	0xbf664f19	-0.89964443
34	0x3efe3ed5	0.49657312
35	0x3f070cab	0.52753705
36	0xbf6707bf	-0.90246195
37	0x3f7ffcb6	0.9999498
38	0xbe20c78c	-0.15701121
39	0x3d2229ab	0.03959052
40	0x3e87e359	0.2654064
41	0x3ea37121	0.31922248
42	0xbe9e8d38	-0.30967116
43	0x3d905290	0.070469975
44	0x3f63ba0d	0.88955766
45	0xbf1d4a61	-0.6144162
46	0x3e512439	0.20423974
47	0x3e8cf06d	0.2752718
48	0x3f22efed	0.6364735
49	0x3f4caea2	0.7995397
50	0xbe8309d7	-0.25593445
51	0xbe4c140c	-0.19929522
52	0x3d7494c6	0.059712194
53	0xbee6bf37	-0.4506776
54	0x3f7ae026	0.97998273
55	0x3f5b82e0	0.85746574
56	0xbf6309ca	-0.8868681
57	0xbf3094e7	-0.68977207
58	0xbf57162f	-0.84018224
59	0x3f3acf50	0.72972584
60	0xbf06a6a0	-0.52598
61	0xbf571b49	-0.8402601
62	0xbf025de2	-0.50924504
63	0x3ee9d542	0.45670515
