macros/GregFlow/models/November_04/run_1_2flows_4hl_64hu_2000bs_checkpoint_e99.pth (torch, 82688 bytes, 26 tensors)

q0.loc f4 [1, 2]
0	0x3cd35278	0.02579616
1	0xbd8d19b8	-0.06889671

q0.log_scale f4 [1, 2]
0	0x3be98cdd	0.007127388
1	0x3cd8d6e1	0.02646965

flows.0.flows.1.param_map.net.0.weight f4 [64, 1]
0	0x3e43f037	0.19134603
1	0x3e660c4c	0.22465628
2	0x3e9d1a00	0.306839
3	0x3ec4da94	0.38448012
4	0xbee0e2d5	-0.4392306
5	0xbf5f9257	-0.8733267
6	0xbf3fd2d3	-0.7493107
7	0xbda6103c	-0.08108565
8	0xbf807bf7	-1.0037831
9	0xbf161e71	-0.586402
10	0xbf300ab0	-0.6876631
11	0xbf851691	-1.0397512
12	0x3eafe7be	0.34356493
13	0xbeb427ba	-0.3518656
14	0xbe5bcf99	-0.21465911
15	0xbf5e1a6a	-0.86759055
16	0x3f228c7f	0.6349563
17	0xbee8b268	-0.45448613
18	0x3f495a66	0.7865356
19	0xbf6294b6	-0.88508165
20	0xbedde796	-0.4334075
21	0x3f788c93	0.970895
22	0x3f5bd2ab	0.8586833
23	0x3f65bb3e	0.89738834
24	0xbd24ff3f	-0.040282484
25	0xbf0ecd18	-0.557817
26	0xbf498836	-0.78723466
27	0xbf2b2ad4	-0.66862226
28	0x3e53763c	0.20650572
29	0xbebfa170	-0.37427855
30	0xbf3ccfc6	-0.7375454
31	0x3da72817	0.081619434
32	0xbe83c201	-0.2573395
33	0xbe92a8b1	-0.28644326
34	0xbf76c3ef	-0.9639272
35	0x3e8c35d2	0.27384812
36	0x3f267873	0.6502754
37	0x3ef2aad9	0.4739597
38	0xbdb54f93	-0.08853068
39	0x3e920e84	0.285267
40	0xbf72cb66	-0.9484161
41	0x3d3f5181	0.046708588
42	0x3f212d97	0.6296019
43	0xbe47a71a	-0.19497338
44	0xbf805024	-1.0024457
45	0x3df2645b	0.118355475
46	0x3e85f84d	0.26166
47	0xbeb7510b	-0.35804018
48	0x3f4a2aac	0.7897136
49	0x3f44c0b6	0.76856554
50	0x3efbef49	0.49205998
51	0x3e412199	0.18860473
52	0x3e8304df	0.25589654
53	0x3ee222b1	0.44167092
54	0x3e925385	0.28579345
55	0xbec5009f	-0.38477036
56	0xbf195875	-0.599006
57	0xbf52343f	-0.8211097
58	0xbf4d84d5	-0.8028081
59	0xbf204cec	-0.62617373
60	0xbf4a00f7	-0.7890772
61	0xbef68b1f	-0.48153016
62	0x3dc55fcd	0.09637413
63	0x3f33fb78	0.70305586

flows.0.flows.1.param_map.net.0.bias f4 [64]
0	0x3f45c8e4	0.7725966
1	0xbea5be28	-0.3237164
2	0x3e64c284	0.22339827
3	0xbf839ac3	-1.0281605
4	0x3ebb29a8	0.3655522
5	0x3edd5cec	0.43234956
6	0x3f1ad471	0.6048041
7	0x3f7ae8ae	0.9801129
8	0x3e9e62c6	0.30934733
9	0x3f417e30	0.7558317
10	0x3d68b007	0.056808498
11	0x3d4ed25d	0.050493587
12	0x3bb39a1f	0.005481019
13	0x3f0d48fa	0.5518948
14	0x3f50646a	0.8140322
15	0x3edcd0a1	0.4312792
16	0xbf686ef3	-0.90794295
17	0x3f540244	0.8281596
18	0xbeb72388	-0.35769296
19	0xbf54deff	-0.83152765
20	0xbebe4816	-0.37164372
21	0xbf28628d	-0.65775377
22	0xbf075988	-0.5287099
23	0x3e55bc85	0.20872696
24	0x3ed3b6cc	0.413504
25	0xbe8942fe	-0.26808923
26	0x3f39f871	0.72644717
27	0xbecd79ba	-0.40131932
28	0x3f367d6b	0.7128512
29	0x3eb2c262	0.34913927
30	0x3f200b38	0.6251712
31	0x3e63e163	0.22253947
32	0x3f614ac0	0.88004684
33	0xbf445fab	-0.7670848
34	0x3e00516b	0.12531058
35	0xbf2253b0	-0.63408947
36	0x3f00f11d	0.5036791
37	0x3f542941	0.8287545
38	0xbeb205b2	-0.3476997
39	0xbf12d446	-0.57355154
40	0x3f380637	0.71884483
41	0x3f435036	0.7629427
42	0xbed0a0c7	-0.40747663
43	0x3f166d25	0.5876029
44	0x3c82bd70	0.015959471
45	0x3f589436	0.8460115
46	0x3ed323d3	0.4123827
47	0x3f5f1b95	0.8715146
48	0xbeea8998	-0.458081
49	0xbede8950	-0.43464136
50	0x3f3a89a2	0.7286626
51	0xbd8f32c2	-0.06992103
52	0xbf80b427	-1.0054978
53	0xbe8c4f6d	-0.27404347
54	0xbf6c18a8	-0.9222512
55	0x3f43d91a	0.76503146
56	0xbe13eb5f	-0.14445256
57	0x3d58a789	0.05289415
58	0xbe5bea3b	-0.2147607
59	0x3f3ff884	0.7498858
60	0xbf6cf7c1	-0.9256554
61	0xbeb8ed30	-0.3611846
62	0x3eac9962	0.33710772
63	0x3e872608	0.26396203

flows.0.flows.1.param_map.net.2.weight f4 [64, 64]
0	0xbd101a8d	-0.03518157
1	0x3d9eb3d0	0.0774914
2	0xbd32dfce	-0.043670468
3	0xbdc45579	-0.09586615
4	0x3d0e0fb4	0.034682944
5	0x3cb9aae5	0.022664497
6	0x3de7ba58	0.11314839
7	0xbd81ddc0	-0.063411236
8	0xbd07974c	-0.033103272
9	0x3cb69aa2	0.022290532
10	0xba9d677c	-0.001200899
11	0xbce0e6fb	-0.02745389
12	0x3d1cc8f8	0.038277596
13	0x3e1a94ba	0.15095797
14	0xbc160053	-0.009155351
15	0x3b20b14f	0.0024519747
16	0x3b1da247	0.0024053024
17	0x3d254f62	0.04035891
18	0x3cef9cd1	0.02924958
19	0xbbc88843	-0.0061197593
20	0x3c5f7d84	0.013640765
21	0x3d2bd1d6	0.041948162
22	0x3cf68eca	0.030097384
23	0xbde17ad9	-0.110097595
24	0x3e0973b7	0.13423048
25	0x3d09d4e9	0.033650313
26	0x3d9cc6ba	0.076550916
27	0xbd5bc439	-0.05365393
28	0xbde200ff	-0.11035346
29	0x3d99f628	0.07517654
30	0x3d0e81b3	0.03479166
31	0xbdd863a2	-0.105658785
32	0xbcca64de	-0.0247063
33	0x2bfbef55	1.7901051e-12
34	0x3d6d6551	0.05795795
35	0xbd7b3f94	-0.06133993
36	0xbc04ee3c	-0.00811344
37	0x3db078ef	0.08616816
38	0x3a3f197c	0.0007289869
39	0x3d0c0a30	0.034189403
40	0xbd2806b6	-0.041022025
41	0xbd2e9393	-0.042621206
42	0x3dca89bd	0.09889553
43	0x3da5e258	0.08099812
44	0x3d04acde	0.03239142
45	0x3da2ac91	0.07943071
46	0xbd370040	-0.044677973
47	0x3cba119b	0.022713473
48	0x3d9ade03	0.075618766
49	0x3d8a042a	0.067390755
50	0x3c88e504	0.016710766
51	0x3d9ebdff	0.07751083
52	0x3dc0bbe1	0.09410835
53	0xbd9565f5	-0.072948374
54	0xbd31f1b6	-0.043443404
55	0xbd299c71	-0.04140896
56	0xbccee3e2	-0.025255147
57	0xbcf8e1ad	-0.030381048
58	0xbcbc899a	-0.023014832
59	0x3d981bf1	0.074272044
60	0xbd06e25d	-0.03293072
61	0x3ba53652	0.005041876
62	0x3dac3e60	0.084103346
63	0xbc6fa488	-0.01462663
64	0x3d4fdb0c	0.05074601
65	0x3da88045	0.082275905
66	0x3df47131	0.11935652
67	0x3d9ad95a	0.07560988
68	0x3ba68d7f	0.0050827856
69	0xbc428a68	-0.011873819
70	0x3d402e37	0.046919074
71	0x3d5c1d6b	0.053738993
72	0x3def932b	0.11697992
73	0x3d241767	0.04006138
74	0x3dfba407	0.12287145
75	0xbc1c7f2a	-0.009551803
76	0x3b50d84f	0.0031867211
77	0x3cc1319e	0.02358323
78	0xbcea9aaa	-0.028638203
79	0x3de5c55d	0.11219285
80	0x3d55c56b	0.052190226
81	0x3d82cbf0	0.06386554
82	0x3d970b98	0.07375258
83	0x3cba39c8	0.02273263
84	0x3dda00e7	0.10644703
85	0xbc1261fd	-0.008934495
86	0x3dedafbd	0.11605785
87	0x3d67b014	0.056564406
88	0x3d4a5df4	0.049406007
89	0x3bae9ffc	0.00532913
90	0xbcc607ce	-0.024173643
91	0x3cb56678	0.022143587
92	0x3d717caf	0.0589568
93	0x3d54b7d8	0.05193314
94	0x3d0c66d0	0.034277737
95	0xbc144066	-0.009048557
96	0x3dd1ca01	0.10243607
97	0x2f05dddc	1.21751e-10
98	0xbc566b2a	-0.013087073
99	0xbca27f6d	-0.019836152
100	0x3d946f33	0.07247772
101	0xbcf89992	-0.030346666
102	0x3be1b6cc	0.006888246
103	0x3c97e897	0.018543525
104	0x3e02bef9	0.12768163
105	0x3da0f9c4	0.07860139
106	0x3b900f96	0.0043963892
107	0x3dd1f23f	0.10251283
108	0x3d9a1eed	0.0752543
109	0x3d4197c2	0.04726387
110	0x3d0a34b2	0.03374166
111	0x3d428d50	0.047498047
112	0x3b97578e	0.0046185916
113	0xbb1ce716	-0.002394145
114	0x3d33426f	0.043764528
115	0x3d4a3645	0.04936816
116	0xbd71e38d	-0.0590549
117	0x3b54b045	0.0032453698
118	0x3dc38032	0.09545936
119	0x3d54f585	0.05199196
120	0x3d499c03	0.04922105
121	0x3cf5f5cb	0.03002443
122	0x3ddbd691	0.10734285
123	0x3c013a8a	0.007887492
124	0x3c676a68	0.01412449
125	0x3cf2010c	0.029541515
126	0xb995d323	-0.00028576804
127	0x3d5de296	0.054171167
128	0xbd03515f	-0.032060023
129	0x3cf5d5ba	0.03000914
130	0x3d652c2b	0.055950325
131	0x3dc4d385	0.09610657
132	0x3de390e0	0.11111617
133	0x3db38923	0.08766391
134	0x3d32769e	0.043570153
135	0x3c368ff9	0.011142724
136	0x3d1a8377	0.03772303
137	0x3d42404c	0.0474246
138	0x3d3d925c	0.046282157
139	0x3d393d8d	0.045224715
140	0xbbf7e08a	-0.007564609
141	0x3d42dcb8	0.047573775
142	0x3dfa38a9	0.12217838
143	0x3d729c4b	0.059231084
144	0x3cd94771	0.026523324
145	0x3d4323bc	0.0476415
146	0x3d6f3900	0.05840397
147	0x3c85db0b	0.0163398
148	0x3c600063	0.013671967
149	0x3d48cb86	0.04902222
150	0x3d4702d7	0.048586693
151	0xbbfcd0be	-0.0077153137
152	0x3d4bee3b	0.04978774
153	0x3cc00bed	0.023443187
154	0x3cde249b	0.027117064
155	0xbd04d466	-0.03242912
156	0xbad104b3	-0.0015946835
157	0x3c91f315	0.017816106
158	0x3d31dcc3	0.043423425
159	0x3d2df390	0.042468607
160	0x3d458da9	0.0482308
161	0xb2652a80	-1.3339218e-08
162	0x3e01a6d5	0.12661298
163	0x3de7f495	0.11325947
164	0x3d34e9b3	0.044168185
165	0x3cd12f1f	0.025535164
166	0x3c333fc0	0.010940492
167	0xbbc64a58	-0.006051343
168	0x3d412e1b	0.04716311
169	0x3ddd947f	0.10819339
170	0x3d02e980	0.031960964
171	0x3c8b7007	0.017021192
172	0x3dda464f	0.106579416
173	0x3d511b03	0.05105115
174	0x3d5b4503	0.05353261
175	0x3d4555c6	0.048177503
176	0x3ded907f	0.11599826
177	0x3ac24e01	0.0014824272
178	0x3dfc6223	0.123234056
179	0x3d7381db	0.05945001
180	0x3d2f2280	0.04275751
181	0x3d468c90	0.048473895
182	0x3ce828db	0.028339794
183	0x3c8978e1	0.016781272
184	0x3d312bec	0.043254778
185	0xbcee945a	-0.029123474
186	0x3daee5c0	0.08539915
187	0x3d421083	0.047379028
188	0x3c80fa5c	0.01574438
189	0x3cf469e3	0.029835647
190	0x3d055563	0.032552134
191	0xbc9ae076	-0.01890586
192	0xbd9970a1	-0.074921854
193	0x3e018781	0.12649347
194	0xbdaceaa3	-0.08443191
195	0xbdec1929	-0.115282364
196	0xbb865988	-0.0041000284
197	0x3d717705	0.058951396
198	0x3d1a0fb9	0.03761265
199	0x3e1dce1c	0.15410656
200	0x3d32f0ca	0.043686666
201	0x3e05ec5a	0.13078442
202	0x3d90f54a	0.07078035
203	0xbbfc828f	-0.0077059935
204	0xbdc16382	-0.09442808
205	0x3cd33061	0.025779905
206	0x3e0b8ebb	0.13628666
207	0x3db572cc	0.088597864
208	0xbd5567ec	-0.05210106
209	0x3cd98f0e	0.026557472
210	0x3de69327	0.11258536
211	0xbce3ff91	-0.027831824
212	0x3d3cbd40	0.04607892
213	0x3dcbcd44	0.09951261
214	0x3d857521	0.06516481
215	0x3b9c6042	0.004772217
216	0xbd817d0b	-0.06322678
217	0xbc152ba8	-0.009104647
218	0x3c4d5a4c	0.0125337355
219	0x3d00e942	0.031472452
220	0x3d262136	0.040559016
221	0xbb826c08	-0.0039801635
222	0x3d220caa	0.03956286
223	0xbc696766	-0.0142458435
224	0x3a72ff00	0.00092695653
225	0xbc945e31	-0.01811132
226	0x3c609931	0.013708399
227	0xbc347158	-0.011013351
228	0x3cef8eef	0.02924296
229	0x3b16a2db	0.0022985253
230	0xa6fdb59a	-1.7604625e-15
231	0xbde75e49	-0.1129728
232	0xbbb6e1a1	-0.0055810963
233	0xbc85e1c6	-0.016343009
234	0x3db12cda	0.08651133
235	0x3db070ff	0.08615302
236	0x3d55a669	0.052160654
237	0xbd8c6f52	-0.0685717
238	0x3d88deb5	0.06683103
239	0x3e24c596	0.16090998
240	0x3d863a5c	0.065541
241	0x3d1dbb9a	0.03850899
242	0x3d651620	0.055929303
243	0x3dc3d178	0.09561437
244	0x3d2ef6b5	0.042715747
245	0xbdc7128a	-0.09720333
246	0xbdd080e8	-0.10180837
247	0xbd28f446	-0.041248582
248	0x3cc8c308	0.02450706
249	0x3ce91b46	0.028455388
250	0x3d44ddfb	0.04806326
251	0x3d8d1467	0.06888657
252	0xbcf9cff5	-0.03049467
253	0x3ce68609	0.028140085
254	0x3d918adf	0.07106566
255	0xbc301607	-0.010747439

flows.0.flows.1.param_map.net.2.bias f4 [64]
0	0x3e00fea3	0.12597136
1	0x3d800121	0.06250215
2	0x3cadc95c	0.02121418
3	0x3daef247	0.085423045
4	0xbd991a7c	-0.074757546
5	0x3dfbce6d	0.12295232
6	0xbda1b922	-0.078966394
7	0x3d9f3f11	0.07775701
8	0x3d69c233	0.05706997
9	0x3ce5dbf2	0.02805898
10	0x3e129a58	0.1431669
11	0x3da90fa3	0.082549356
12	0xbcbbd8c1	-0.022930505
13	0x3da86cb5	0.08223859
14	0xb820828e	-3.826856e-05
15	0x3ddee0c5	0.10882715
16	0x3d556cd2	0.052105732
17	0x3dc357eb	0.095382534
18	0x3da6af1a	0.08138867
19	0x3c767af1	0.01504396
20	0x3d1d0b7f	0.03834104
21	0x3d7cd9d9	0.061731193
22	0x3e0f65fd	0.14003749
23	0xbcc9c5b8	-0.024630412
24	0xbce51e07	-0.02796842
25	0x3e1eabd6	0.15495238
26	0xbd3e25fa	-0.046422936
27	0xbd6fa929	-0.058510933
28	0x3ca40832	0.02002344
29	0x3dba96b4	0.091107756
30	0x3c8c1eed	0.01710459
31	0xbd399da1	-0.045316342
32	0x3e172550	0.14760327
33	0x3e24ebba	0.16105548
34	0x3d5394a0	0.05165541
35	0x3b564e1e	0.003270037
36	0xbd956471	-0.07294548
37	0x3e2d0057	0.16894661
38	0x3c99b864	0.018764682
39	0x3d2c8e32	0.042127796
40	0xbcfd6ca3	-0.030935591
41	0x3cd50204	0.026001938
42	0x3dd3a88b	0.103348814
43	0x3d115888	0.03548482
44	0x3b0003bd	0.0019533478
45	0x3dc5e9d8	0.09663743
46	0x3cde5e6e	0.027144637
47	0xbc17db94	-0.00926866
48	0xbd9df64d	-0.07712994
49	0x3d864dbc	0.065577954
50	0x3c8ef625	0.017451355
51	0x3d24a0fe	0.040192597
52	0x3e2d29a4	0.16910416
53	0x3c451814	0.012029666
54	0x3e1f9d8f	0.15587448
55	0x3e106127	0.1409956
56	0xbd41f471	-0.047352258
57	0xbd04c37c	-0.03241299
58	0x3adcca68	0.001684499
59	0x3d9825a2	0.07429053
60	0x3dca1e33	0.09869041
61	0xbd819dc8	-0.063289225
62	0x3e045a40	0.12925053
63	0xbc5a4fd9	-0.013324701

flows.0.flows.1.param_map.net.4.weight f4 [2, 64]
0	0xbd141769	-0.03615514
1	0xbd51cb61	-0.051219348
2	0xbd33d4e8	-0.043904215
3	0xbd0cf610	-0.03441435
4	0xbd00b9d0	-0.031427205
5	0xbd11339d	-0.035449613
6	0xbd39658a	-0.04526285
7	0xbda05e1f	-0.07830452
8	0xbd572288	-0.052523166
9	0xbcf4bac4	-0.029874213
10	0xbd1dbc0a	-0.038509406
11	0xbd9d7aac	-0.076894134
12	0x00000000	0.0
13	0xbd43af7b	-0.047774773
14	0x00000000	0.0
15	0xbd74a55d	-0.059728015
16	0xbd7b1419	-0.061298463
17	0xbd28a819	-0.041175935
18	0xbd21c55d	-0.03949486
19	0xbd33c291	-0.043886725
20	0xbd95df06	-0.07317929
21	0xbd931508	-0.07181746
22	0xbd92dea4	-0.071713716
23	0xbd1646cd	-0.036688615
24	0xbd1e7e63	-0.03869475
25	0xbd5998ea	-0.053124346
26	0xbcd8856e	-0.026430812
27	0xbd225598	-0.03963241
28	0x00000000	0.0
29	0xbd052afd	-0.0325117
30	0xbd20db08	-0.039271384
31	0x00000000	0.0
32	0xbd95fb78	-0.073233545
33	0xbd802f4b	-0.062590204
34	0xbc94b6bf	-0.018153546
35	0xbccc1cac	-0.024916016
36	0xbd880543	-0.066416286
37	0xbd9d3e90	-0.076779485
38	0xbd1d8052	-0.038452454
39	0xbd02720d	-0.03184705
40	0xbd93d7c3	-0.07218888
41	0xbcd1b9e2	-0.025601331
42	0xbd00e2d8	-0.031466335
43	0xbda1d509	-0.07901961
44	0xbcf2da89	-0.029645221
45	0xbd06fcff	-0.03295612
46	0xbcd75dfa	-0.026289929
47	0xbd726b0a	-0.05918411
48	0xbcd24fd3	-0.025672829
49	0xbd21f60f	-0.0395413
50	0x00000000	0.0
51	0xbcd49c74	-0.025953509
52	0xbda12f51	-0.07870353
53	0xbd81ac13	-0.06331649
54	0xbd7b8ca6	-0.06141343
55	0xbd0c7c21	-0.034298066
56	0x00000000	0.0
57	0xbd927d8c	-0.071528524
58	0xbd580eb3	-0.052748393
59	0xbce53fb4	-0.027984478
60	0xbd8fd223	-0.07022502
61	0xbd7a28f3	-0.06107421
62	0xbd13187d	-0.035912026
63	0xbcc1946b	-0.023630342
64	0x3bf99c41	0.007617504
65	0x3d541ace	0.051783375
66	0x3d57c506	0.05267813
67	0x3bcff346	0.006346139
68	0x3bbb3526	0.005713123
69	0x3bdc1d3d	0.0067173527
70	0x3c2e9149	0.010654756
71	0x3d593a55	0.053034145
72	0x3d541ca2	0.05178512
73	0x3badc5d4	0.005303124
74	0x3bf12ac8	0.0073598363
75	0x3d5b6a42	0.053568132
76	0x00000000	0.0
77	0x3c545f0a	0.012962112
78	0x00000000	0.0
79	0x3d020846	0.03174617
80	0x3d4f698e	0.050637774
81	0x3c0ef8ec	0.00872634
82	0x3c03fcb8	0.008055858
83	0x3d335136	0.04377862
84	0x3d4ec588	0.05048135
85	0x3d45f51f	0.04832947
86	0x3d45bd32	0.048276134
87	0x3bdd7d47	0.006759319
88	0x3bfc80c5	0.00770578
89	0x3ca84f93	0.020545756
90	0x3b9b7b99	0.0047449586
91	0x3c055559	0.008138024
92	0x00000000	0.0
93	0x3bc4bd47	0.006004009
94	0x3d5cdb87	0.053920295
95	0x00000000	0.0
96	0x3d4be933	0.049782943
97	0x3d12fc41	0.0358851
98	0x3b7ae664	0.0038284296
99	0x3b937309	0.0044997972
100	0x3d32b7b4	0.043632224
101	0x3d5a582f	0.053306755
102	0x3bfe150e	0.0077539748
103	0x3bbfd356	0.0058540506
104	0x3d4d3d4a	0.050107278
105	0x3b9a6371	0.0047115614
106	0x3bbdcc58	0.005792182
107	0x3d67cf1a	0.05659399
108	0x3baea9ea	0.005330314
109	0x3bc95ba9	0.00614496
110	0x3b9ca9cb	0.004780983
111	0x3cfe5992	0.03104857
112	0x3b99c2e0	0.0046924204
113	0x3c0116a4	0.007878933
114	0x00000000	0.0
115	0x3b91977b	0.0044431067
116	0x3d621c87	0.055202987
117	0x3d1d9056	0.038467728
118	0x3d0f47be	0.034980528
119	0x3bceb4b7	0.006308164
120	0x00000000	0.0
121	0x3d42a5d6	0.047521435
122	0x3c97644d	0.018480444
123	0x3ba3540a	0.0049843835
124	0x3d4b863c	0.049688563
125	0x3d0c9bc7	0.03432825
126	0x3be10f8f	0.00686831
127	0x3b90a460	0.0044141263

flows.0.flows.1.param_map.net.4.bias f4 [2]
0	0xbd6530f1	-0.055954877
1	0x3cd8f8dc	0.026485853

flows.2.flows.1.param_map.net.0.weight f4 [64, 1]
0	0xbf2b6851	-0.6695605
1	0x3d95bd26	0.07311468
2	0xbf3bec99	-0.73407894
3	0x3ee2b9b0	0.44282293
4	0x3f71a10f	0.9438638
5	0x3f582e60	0.8444576
6	0x3e4a7ce6	0.19774207
7	0xbedd9ef1	-0.43285325
8	0x3e8ad748	0.27117372
9	0x3eac9a71	0.3371158
10	0xbf42fc23	-0.7616598
11	0x3ecbaa80	0.3977852
12	0x3e184759	0.14870967
13	0xbf813628	-1.0094652
14	0xbf330155	-0.6992391
15	0x3f57038a	0.83989775
16	0xbee2c5e7	-0.44291613
17	0xbf094639	-0.53622776
18	0xbf537412	-0.82598984
19	0xbef300ed	-0.47461644
20	0x3f7bf2e5	0.984175
21	0x3f401743	0.75035495
22	0x3f6666ef	0.90000814
23	0xbe7fcc91	-0.2498038
24	0x3f2cece1	0.6754895
25	0x3ec4149e	0.3829698
26	0x3ea5efbb	0.32409462
27	0x3f709afd	0.93986493
28	0xbdb13f0e	-0.08654605
29	0xbe227d0e	-0.15868017
30	0xbe5353df	-0.20637463
31	0x3eeda15f	0.4641218
32	0x3ec591f2	0.3858791
33	0x3f3f3901	0.74696356
34	0xbd8d2793	-0.06892314
35	0x3f3bc45b	0.7334649
36	0x3f1caa84	0.61197686
37	0x3e9560e9	0.291755
38	0x3ee49a54	0.44648993
39	0xbf78ae35	-0.9714082
40	0xbe96c16f	-0.29444453
41	0xbf19db2d	-0.6010006
42	0x3ed56b00	0.41683197
43	0xbe9b005c	-0.30273712
44	0xbf43ca00	-0.764801
45	0x3eb32662	0.3499022
46	0xbf35bf71	-0.7099524
47	0xbe07f6d9	-0.13277759
48	0x3e5561be	0.20838067
49	0x3f569287	0.83817333
50	0xbf1097e3	-0.5648176
51	0xbecba575	-0.3977467
52	0xbe8fc31c	-0.28078544
53	0xbe84c78a	-0.25933486
54	0xbd8fa97e	-0.0701475
55	0xbc4dcf35	-0.012561609
56	0x3f14195c	0.57851195
57	0xbf2135e0	-0.6297283
58	0x3f2a2950	0.6646929
59	0xbf6c7d89	-0.9237905
60	0x3ea51039	0.3223894
61	0xbe85c8cc	-0.26129758
62	0x3ece3987	0.40278265
63	0x3ef58fae	0.4796118

flows.2.flows.1.param_map.net.0.bias f4 [64]
0	0xbf4ddb1d	-0.80412465
1	0x3effbad5	0.4994723
2	0xbee53e6f	-0.44774196
3	0x3d7b4f12	0.061354704
4	0xbe5a9ef4	-0.21349698
5	0xbf51aefd	-0.81907636
6	0x3f5c8f80	0.86156464
7	0x3e138e27	0.14409696
8	0x3f1486de	0.5801829
9	0xbf3b4218	-0.73147726
10	0xbdcab484	-0.09897712
11	0xbeaa5c1b	-0.33273396
12	0xbe8c7530	-0.27433157
13	0x3e896fb1	0.26843026
14	0x3f400afb	0.75016755
15	0xbedd7ef0	-0.43260908
16	0xbe846ae0	-0.2586279
17	0x3e1e69b1	0.15470006
18	0xbf071d3e	-0.52778995
19	0x3f64ed58	0.8942466
20	0x3f34b78d	0.70592576
21	0x3f79e1ca	0.9761015
22	0xbee30719	-0.44341353
23	0x3f6997cb	0.9124724
24	0xbe2112af	-0.15729783
25	0x3f5a85ef	0.85360616
26	0x3f0eb20f	0.55740446
27	0x3ea74735	0.32671514
28	0x3e6d38db	0.2316622
29	0xbe75b594	-0.23995048
30	0x3e09ec16	0.13468966
31	0xbf29b399	-0.6628967
32	0xbe7452b5	-0.23859675
33	0x3f85309c	1.040546
34	0x3f4e4e53	0.80588263
35	0xbf0d8473	-0.55280226
36	0x3f81d2bf	1.014244
37	0xbe604a33	-0.21903305
38	0xbe13440e	-0.1438143
39	0xbe92f637	-0.28703472
40	0x3f4ed503	0.8079378
41	0xbf2b70bd	-0.669689
42	0x3f4fbb86	0.81145513
43	0xbf719037	-0.9436068
44	0xbf10493f	-0.56361765
45	0x3f243f83	0.6415941
46	0x3f2f207d	0.6840895
47	0x3cd988d4	0.026554503
48	0xbf3607b6	-0.71105516
49	0xbee1086f	-0.43951747
50	0xbef82265	-0.4846374
51	0x3efdf835	0.4960343
52	0x3f09e566	0.5386566
53	0xbf666063	-0.89990824
54	0xbc7598f1	-0.014990077
55	0x3f538fe2	0.8264142
56	0xbef79747	-0.48357603
57	0xbf177cab	-0.59174603
58	0xbf72f8c0	-0.9491081
59	0x3e78ea1a	0.24308053
60	0x3f4ca487	0.7993855
61	0xbe297dea	-0.16551939
62	0xbc0744df	-0.008256166
63	0x3f2c1411	0.6721812

flows.2.flows.1.param_map.net.2.weight f4 [64, 64]
0	0x3c78af44	0.015178505
1	0x3d6e4f58	0.058181137
2	0x3dc082a3	0.09399917
3	0x3d17952e	0.037007503
4	0xbcfbfd9c	-0.030760579
5	0x3d1e3583	0.03862525
6	0xbd924aeb	-0.07143196
7	0x3e21ef14	0.15813857
8	0x3dd5966e	0.10429083
9	0xbd8dbc46	-0.06920676
10	0xbcfa3f13	-0.030547654
11	0x3d115fae	0.035491638
12	0xbdb290dd	-0.08719037
13	0x3e1a88d7	0.15091263
14	0xbd2d3bf2	-0.042293496
15	0x3c836a4d	0.0160419
16	0xbdb252e1	-0.08707214
17	0x3dca8a0f	0.09889614
18	0xbd53c214	-0.05169876
19	0x3e0e6ca4	0.1390863
20	0x3cc49057	0.023994608
21	0xbd70604e	-0.058685593
22	0x3d755571	0.059895936
23	0xbcce63e7	-0.025194122
24	0x3dc5463c	0.09632537
25	0xbd75f56b	-0.060048502
26	0x3e116cd1	0.14201666
27	0xbdbc02a5	-0.09180192
28	0xba841f55	-0.0010080138
29	0xbac24fdf	-0.0014824829
30	0x3dc8b6a1	0.09800459
31	0xbd105cf8	-0.035244912
32	0x3dcc2122	0.09967257
33	0x3d6042c0	0.054751158
34	0x3dddba0e	0.10826503
35	0x3da67380	0.081274986
36	0x3d5f402a	0.05450455
37	0x3dbea02f	0.09307896
38	0x3dfa42c0	0.12219763
39	0xbda3b184	-0.07992843
40	0x3e12dd8c	0.14342326
41	0x3d54b7fe	0.05193328
42	0xbd3484cc	-0.044071957
43	0x3d921f87	0.071349196
44	0xbd6cda47	-0.057825353
45	0x3d562237	0.052278724
46	0x3decc138	0.11560291
47	0x3c4f5783	0.012655142
48	0x3c9f0a99	0.019414233
49	0xbdd6a68e	-0.104809865
50	0x3ce38c81	0.027776958
51	0xbc93e4b5	-0.018053392
52	0x3dfcc4c1	0.12342215
53	0xbdc0ec3b	-0.094200574
54	0xbdb98abf	-0.09059667
55	0x3e1e35ab	0.1545016
56	0xbd952ebd	-0.07284305
57	0xbcc6feee	-0.024291482
58	0x3c93d387	0.0180452
59	0xbd8d2790	-0.068923116
60	0xbd845d2a	-0.06463082
61	0x3dc08ac8	0.094014704
62	0xbd4c6d15	-0.049908716
63	0xbdb26729	-0.087110825
64	0x3d5f27a6	0.05448117
65	0x3b052b05	0.002031983
66	0x3dbf57da	0.09342928
67	0x3d5c9767	0.053855326
68	0x3e034815	0.12820466
69	0x3d2c75a3	0.042104375
70	0x3d6843bc	0.05670522
71	0x3de224a1	0.11042143
72	0x3d919b53	0.07109704
73	0x3d75c23a	0.059999682
74	0x3dd44a77	0.103657655
75	0xbc4aa3a8	-0.01236812
76	0x3ce11c7c	0.027479403
77	0xbd0e4149	-0.03473023
78	0x3ce16d56	0.027517956
79	0x3c768a5c	0.015047636
80	0x3e1a6ad1	0.1507981
81	0xbd89b520	-0.06724
82	0xbcd0878e	-0.025455263
83	0xbd26f63c	-0.04076217
84	0x3df1598c	0.11784658
85	0x3dbb0597	0.091319256
86	0xbdf4bcea	-0.11950095
87	0x3c324a42	0.010881962
88	0xbd88b6f6	-0.06675522
89	0x3bb98fd6	0.0056628985
90	0xbd9bb118	-0.07602137
91	0xbd62d3fa	-0.055377938
92	0xbd86a079	-0.065735765
93	0x3d8d005b	0.068848334
94	0x3e0393ed	0.12849398
95	0x3d91ffc6	0.07128863
96	0x3ddb071d	0.10694716
97	0x3d3c5c44	0.04598643
98	0x3e0c2b07	0.13688289
99	0x3d9e0ca7	0.07717257
100	0xbce36f26	-0.02776296
101	0xbd66c238	-0.056337565
102	0x3c66e809	0.014093407
103	0x3c248dec	0.010043602
104	0x3d822d1b	0.063562594
105	0x3e04f8f3	0.12985592
106	0x3b6db73d	0.0036272549
107	0x3d98bf47	0.07458358
108	0x3d278250	0.04089576
109	0xbcd9d6ce	-0.026591685
110	0xbd767470	-0.060169637
111	0x3cdfa2be	0.027299281
112	0xbd17a403	-0.03702165
113	0x3cc20769	0.023685174
114	0xbbcc15fa	-0.0062282057
115	0x3dbf1878	0.09330839
116	0xbc9f2ea7	-0.019431425
117	0xbd9fefe7	-0.078094296
118	0x3d4e0e8c	0.05030684
119	0x3de2d9c6	0.11076693
120	0x3db2f27c	0.087376565
121	0x3d83c6cc	0.06434402
122	0x39ddb0b1	0.0004228405
123	0x3db717dc	0.08940098
124	0x3def952d	0.11698375
125	0x3c86c036	0.016449075
126	0xbded6a18	-0.115925014
127	0xbd65f80d	-0.056144763
128	0xbda28c64	-0.07936934
129	0x3df28bf1	0.11843098
130	0x3d24deed	0.04025166
131	0x3c1164a0	0.0088740885
132	0xbd053e93	-0.03253038
133	0x3ddff9c5	0.10936312
134	0xbb5ed268	-0.0033999924
135	0x3becc233	0.007225299
136	0x3d5f75f7	0.05455586
137	0x3d930d8b	0.071803175
138	0x3cf0e1fe	0.029404636
139	0x3dec92a6	0.115514085
140	0xbc281d67	-0.010260916
141	0xbd4a9e52	-0.049467392
142	0x3c9dc5df	0.019259391
143	0xbd83d734	-0.06437531
144	0x3b413830	0.0029482953
145	0x3d61138d	0.054950286
146	0x3b3afad3	0.002853085
147	0x3ca432a1	0.020043673
148	0xbcb6776c	-0.022273742
149	0x3d9f3b04	0.07774928
150	0x3df01d72	0.11724366
151	0x3d849b97	0.06474989
152	0xbd91fbb3	-0.07128086
153	0xbd47d693	-0.04878862
154	0x3dba0f9c	0.090850085
155	0xbdac3c78	-0.08409971
156	0xbc84d924	-0.016216822
157	0x3d95fbbe	0.07323407
158	0x3da50109	0.08056838
159	0x3c6850c0	0.014179409
160	0x3dbde203	0.09271624
161	0xbcd4ee21	-0.025992455
162	0x3d811898	0.06303519
163	0xbdf45fd5	-0.11932341
164	0x3df6c24a	0.120487764
165	0xbd93924b	-0.072056375
166	0x3d8e88b5	0.069596685
167	0x3dad8b87	0.08473878
168	0xbdb27469	-0.0871361
169	0xbb44712b	-0.002997468
170	0x3dbb3434	0.09140816
171	0xbdcf8871	-0.10133446
172	0x3ddb1ebf	0.10699224
173	0xbc42ea71	-0.0118967155
174	0x3d6c65ba	0.0577142
175	0x3d4a9ebe	0.049467795
176	0x3db6122e	0.08890186
177	0x3dcc28b9	0.09968705
178	0xbc9626a0	-0.018328965
179	0xbd882767	-0.066481404
180	0xba491e45	-0.0007672052
181	0x3d8ec00f	0.06970226
182	0x3de2d071	0.11074913
183	0xbd836352	-0.06415428
184	0xbcf89d43	-0.030348426
185	0xbce53836	-0.027980905
186	0x3df500d3	0.11963048
187	0xbd6b730b	-0.05748276
188	0x3dfa26ae	0.12214409
189	0x3d472811	0.048622195
190	0xbc36f756	-0.011167368
191	0x3d14eeec	0.036360666
192	0x3a56a663	0.00081882457
193	0x3ca24c3c	0.019811742
194	0x3d9f0f38	0.077665746
195	0x3cd28384	0.025697477
196	0x3dc2641d	0.09491751
197	0x3c6bfd1b	0.014403607
198	0x3d7ae3c7	0.06125238
199	0x3d43015c	0.04760872
200	0xbde696c5	-0.11259226
201	0xbc7497db	-0.014928783
202	0xbde18661	-0.11011959
203	0x3c29e608	0.010369785
204	0xbdb04d14	-0.086084515
205	0xbaef8bac	-0.0018275878
206	0x3c411fa2	0.011787327
207	0x3d97b28e	0.074071035
208	0x3d7c12e4	0.061541453
209	0xbdc1a7dc	-0.09455845
210	0xbc69c905	-0.014269118
211	0x3c8e66c0	0.01738298
212	0x3c85337f	0.016259907
213	0xbca88537	-0.020571334
214	0x3d8aa7bd	0.06770275
215	0xbd0d70d4	-0.03453143
216	0xba3e3248	-0.00072554173
217	0xbc91e18d	-0.017807746
218	0xbced90a7	-0.02899964
219	0x3d828694	0.06373325
220	0xbd59bab9	-0.05315659
221	0xbc8c8143	-0.01715148
222	0x3cdc0aa6	0.026860546
223	0xbca0712a	-0.01958521
224	0xbdac8b54	-0.08425012
225	0x3db86fcf	0.09005701
226	0xbd39dca7	-0.045376446
227	0x3df9767a	0.12180801
228	0xbcd19984	-0.025585897
229	0xbd329b96	-0.04360541
230	0xbc300f91	-0.010745899
231	0x3d754a42	0.05988527
232	0x3b96c96a	0.004601647
233	0xbd9f219c	-0.07770082
234	0xbbe8cc29	-0.007104416
235	0x3cff813f	0.031189559
236	0x3dcea35e	0.100897536
237	0x3da0b67c	0.07847306
238	0xbddfee0b	-0.10934075
239	0x3dbf8908	0.093523085
240	0x3cdb77ac	0.026790462
241	0xbde5e4c3	-0.112252735
242	0x3d48e6ba	0.049048163
243	0x3dcff91c	0.10154936
244	0xbc10bae5	-0.008833622
245	0xbd56c75c	-0.052436218
246	0xbdb7723a	-0.08957334
247	0x3e0407fb	0.1289367
248	0x3d28a806	0.041175865
249	0xbd80b9c9	-0.06285436
250	0xbafcc6ee	-0.001928536
251	0x3dab23dd	0.0835645
252	0x3c11cb4d	0.008898568
253	0x3de59d1a	0.11211605
254	0xbdd86b82	-0.105673805
255	0x3cf59c76	0.029981833

flows.2.flows.1.param_map.net.2.bias f4 [64]
0	0x3e0da1e5	0.13831289
1	0x3dbeccf1	0.09316433
2	0x3cb0486b	0.021518907
3	0xbd5b8c9e	-0.0536009
4	0x3de16eb4	0.11007443
5	0xbd7a30bb	-0.06108163
6	0x3e09fca3	0.1347528
7	0x3d8897e3	0.06669595
8	0x3d4007e5	0.04688253
9	0x3d52802a	0.051391758
10	0xbdbed35a	-0.09317656
11	0xbcf2b7d5	-0.029628674
12	0x3c73e793	0.014886755
13	0x3b1f8b30	0.0024344437
14	0xbda6bde8	-0.081416905
15	0xbd020bbb	-0.03174947
16	0x3dd5e19b	0.104434215
17	0x3d88b70e	0.0667554
18	0x3e0b6953	0.13614397
19	0x3ce557a6	0.027995896
20	0xbce4f627	-0.027949406
21	0x3da953f7	0.08267968
22	0x3d3ca59d	0.04605638
23	0xbb3bfd07	-0.0028684752
24	0x3e10b1b2	0.14130285
25	0x33374ca4	4.2677712e-08
26	0x3da21855	0.07914797
27	0x3dc06c36	0.093956396
28	0x3c29316a	0.010326723
29	0xbcb68872	-0.02228186
30	0xbd5a2549	-0.053258214
31	0xbb83e93c	-0.0040256064
32	0xbd0888c7	-0.033333566
33	0x3deaaf87	0.114592604
34	0x3d84a022	0.064758554
35	0x3d955692	0.072919026
36	0x3de62562	0.11237599
37	0x3dcabcb0	0.098992705
38	0xbd22ec45	-0.039776105
39	0x399bc5e5	0.00029711347
40	0x3db28f0f	0.087186925
41	0xbb720187	-0.003692718
42	0x3db213f6	0.086952135
43	0x3d828b49	0.06374223
44	0xbbed35d7	-0.007239084
45	0x3d595f3a	0.05306933
46	0xbd92e68e	-0.07172881
47	0xbdd6651e	-0.10468505
48	0xbcb6ba03	-0.022305494
49	0xbd15a14a	-0.03653077
50	0x3d8efe1a	0.0698206
51	0x3d7a6f57	0.06114134
52	0xbbcb6de3	-0.006208168
53	0x3cc66480	0.024217844
54	0x3dbbaa50	0.09163344
55	0x3dee2f71	0.116301425
56	0x3d3e5e97	0.046476927
57	0x3d7d9c9b	0.06191693
58	0xbdab32f5	-0.08359329
59	0xbdb60eee	-0.08889566
60	0x3c53cfa7	0.012927926
61	0x3c4730d5	0.012157639
62	0x3d51a782	0.05118514
63	0xbdb6955d	-0.089152075

flows.2.flows.1.param_map.net.4.weight f4 [2, 64]
0	0x3d5ae0cd	0.053437043
1	0x3cb9f13e	0.022698041
2	0x3c78dfcb	0.015190075
3	0x3c8cdab3	0.017194128
4	0x3d17a9cd	0.03702717
5	0x3cedf7e2	0.029048864
6	0x3d2b8201	0.04187203
7	0x3d0e1bb5	0.034694392
8	0x3c912a1e	0.017720278
9	0x3ca0cc86	0.019628774
10	0x3c82dddb	0.01597493
11	0x3c68f168	0.014217712
12	0x00000000	0.0
13	0x00000000	0.0
14	0x3cd42992	0.025898729
15	0x3c6211d8	0.0137982
16	0x3c92dbf7	0.017927153
17	0x3d369651	0.044576947
18	0x3cc220ae	0.023697224
19	0x3ca538bd	0.020168656
20	0x3c99738b	0.018731853
21	0x3cb48ec5	0.022040734
22	0x3d1db383	0.038501274
23	0x00000000	0.0
24	0x3d1a9e5b	0.037748676
25	0x00000000	0.0
26	0x3c92debe	0.017928477
27	0x3d076933	0.03305931
28	0x3c7a9e31	0.015296505
29	0x00000000	0.0
30	0x3c7ec072	0.015548812
31	0x3cbe4253	0.023224985
32	0x3d2591a9	0.040422115
33	0x3c74bd07	0.014937646
34	0x3c8fd10d	0.017555738
35	0x3d63e5ca	0.055639066
36	0x3d0b509a	0.034012415
37	0x3d4d1b02	0.050074585
38	0x3c8653fe	0.016397472
39	0x00000000	0.0
40	0x3c7198fd	0.014745948
41	0x3d189ba5	0.03725781
42	0x3cba41d0	0.02273646
43	0x3c831fe7	0.016006423
44	0x3cdb421e	0.026764926
45	0x3c85b4c4	0.016321547
46	0x3c82be99	0.015960025
47	0x3c64dce2	0.013968678
48	0x3d417e23	0.047239434
49	0x3d130cc2	0.03590084
50	0x3c824d64	0.015906043
51	0x3cb1f3aa	0.021722633
52	0x3d129379	0.035785172
53	0x3c8bda96	0.017072003
54	0x3c71b372	0.014752256
55	0x3c7d2ffa	0.015453333
56	0x3ccc777d	0.02495932
57	0x3c99efba	0.018791068
58	0x3cbbf509	0.02294399
59	0x3c99dd57	0.0187823
60	0x3cde2ff8	0.027122483
61	0x3cd83c74	0.026396014
62	0x3c8c66d8	0.017138883
63	0x3c76667f	0.015039085
64	0x3cf996f4	0.030467488
65	0x3ae687a0	0.0017588027
66	0x3af12b3d	0.0018399727
67	0x3afd4dc9	0.001932555
68	0x3c83321f	0.01601511
69	0x3b17affa	0.0023145662
70	0x3cb9de44	0.022688992
71	0x3b2ea884	0.0026650736
72	0x3b0ea268	0.0021764282
73	0x3b2961c7	0.0025845633
74	0x3af587e4	0.0018732515
75	0x3ae7ea4b	0.0017693726
76	0x00000000	0.0
77	0x00000000	0.0
78	0x3b4e3153	0.0031462505
79	0x3af3acbb	0.0018590906
80	0x3b2b47d5	0.0026135345
81	0x3c8a2274	0.016862132
82	0x3ad7a945	0.0016453644
83	0x3b3d1b59	0.0028855412
84	0x3b0f26b8	0.0021843147
85	0x3ad71925	0.0016410692
86	0x3c982c97	0.01857595
87	0x00000000	0.0
88	0x3b6eca9d	0.0036436685
89	0x00000000	0.0
90	0x3b1fbbfe	0.0024373527
91	0x3b151078	0.0022745412
92	0x3aec03b3	0.0018006474
93	0x00000000	0.0
94	0x3b117f36	0.0022201068
95	0x3b2a0318	0.0025941785
96	0x3b889d90	0.0041691735
97	0x3b09b29c	0.0021011
98	0x3b0e4111	0.0021706263
99	0x3d14f0a4	0.036362305
100	0x3c1a0c80	0.009402394
101	0x3d006d1a	0.031354047
102	0x3b0bb102	0.0021315222
103	0x00000000	0.0
104	0x3b01259f	0.0019706262
105	0x3b261ceb	0.0025346826
106	0x3b0587b2	0.002037507
107	0x3b06fd3f	0.0020597724
108	0x3b0118db	0.0019698653
109	0x3b1a8e4e	0.0023583355
110	0x3acb8779	0.0015528045
111	0x3afb223e	0.0019159985
112	0x3cef7e33	0.029234981
113	0x3b4e0a48	0.0031439234
114	0x3b184931	0.0023236985
115	0x3b165fbb	0.0022945243
116	0x3af45a3d	0.0018642616
117	0x3b116938	0.002218796
118	0x3afe330a	0.0019393873
119	0x3b1502ae	0.0022737193
120	0x3acb088f	0.0015490222
121	0x3b35271c	0.002764172
122	0x3b3b06cd	0.002853799
123	0x3b1be626	0.0023788302
124	0x3b13646d	0.0022490278
125	0x3b0733ac	0.0020630164
126	0x3b130925	0.002243587
127	0x3b104ead	0.002201955

flows.2.flows.1.param_map.net.4.bias f4 [2]
0	0x3cd3039e	0.02575856
1	0x3bcc2bf0	0.0062308237

flows.4.flows.1.param_map.net.0.weight f4 [64, 1]
0	0x3dcee2f3	0.10101881
1	0xbe663fcf	-0.22485279
2	0x3f10bf6d	0.5654209
3	0x3f697fe8	0.91210794
4	0xbe0eb940	-0.13937855
5	0xbdcfb127	-0.10141211
6	0x3f224dd5	0.6340001
7	0xbed1078c	-0.4082607
8	0xbde07975	-0.10960666
9	0x3f21fdf6	0.6327814
10	0x3f4d2e8c	0.8014915
11	0x3ea4ae4b	0.32164225
12	0x3f321274	0.6955941
13	0x3f4b2153	0.79347724
14	0xbf4d1060	-0.8010311
15	0xbee36b4f	-0.44417807
16	0xbf2f68e4	-0.68519425
17	0xbf49a7ea	-0.7877184
18	0x3efb0aa2	0.4903155
19	0xbe997c17	-0.29977486
20	0x3ecb3765	0.396907
21	0x3e2b30e7	0.16717874
22	0xbf50b689	-0.81528527
23	0xbea7e40e	-0.3279118
24	0x3f414e43	0.7551004
25	0xbf294c56	-0.66132104
26	0x3da78855	0.081803
27	0xb48e5e60	-2.6518228e-07
28	0x3f71ef20	0.945055
29	0xbf02a86f	-0.5103826
30	0xbef01374	-0.46889842
31	0x3f1662c7	0.5874447
32	0x3f82bf35	1.0214602
33	0xbbf60783	-0.0075082197
34	0xbf68e293	-0.90970725
35	0x3d690ce8	0.056897074
36	0x3ec34d12	0.38144737
37	0xbf16cc0d	-0.58905107
38	0xbe1d1ea2	-0.15343717
39	0x3f427102	0.75953686
40	0x3f0ee797	0.5582213
41	0xbc2a6920	-0.01040104
42	0x3f7c39ed	0.9852589
43	0x3f5dd73d	0.8665655
44	0x3f13f232	0.57791436
45	0xbf07cacb	-0.5304381
46	0xbde3ef64	-0.111296445
47	0x3f339e0c	0.70163035
48	0x3ed7a3bf	0.42117116
49	0xbced7f10	-0.028991252
50	0xbec58b3d	-0.38582793
51	0xbf4f6e6a	-0.81027853
52	0xbf044896	-0.5167326
53	0xbf09c145	-0.5381053
54	0x3e854fe8	0.26037526
55	0x3db44967	0.08803063
56	0xbe07bff7	-0.13256823
57	0x3ecd17ff	0.4005737
58	0xbebf6dc8	-0.37388444
59	0x3e57c423	0.21070914
60	0x3f58ba55	0.8465932
61	0xbe7874e7	-0.24263345
62	0x3f0f2a29	0.55923706
63	0x3eb97226	0.362199

flows.4.flows.1.param_map.net.0.bias f4 [64]
0	0xbe19bfa4	-0.15014511
1	0x3f739202	0.95144665
2	0xbf785255	-0.9700063
3	0xbf5cabed	-0.8619984
4	0xbedcd988	-0.43134713
5	0xbeb28418	-0.34866405
6	0xbf0e4f90	-0.5559015
7	0x3f5bdcb1	0.85883623
8	0xbf00b29d	-0.5027254
9	0x3e861448	0.26187348
10	0x3e2769e6	0.16348991
11	0x3f37057b	0.7149274
12	0xbf01a458	-0.50641394
13	0xbecaef57	-0.39635727
14	0x3f1d01ad	0.6133068
15	0x3f79b491	0.9754115
16	0x3f7c61be	0.9858664
17	0xbf45d40c	-0.7727668
18	0x3eb50551	0.3535562
19	0x3f847b43	1.0350116
20	0xbeb1bf4c	-0.3471626
21	0x3f334d7e	0.7004012
22	0xbf44a744	-0.7681773
23	0xbc437340	-0.011929333
24	0x3e576c66	0.21037444
25	0xbf516350	-0.81792164
26	0x3f047f89	0.51757103
27	0xbec5219f	-0.38502213
28	0xbf259757	-0.6468405
29	0xbe3f8f34	-0.18706971
30	0xbf209498	-0.62726736
31	0x3da96dd3	0.082729004
32	0x3f4994f8	0.78742933
33	0xbcbaadbd	-0.022787923
34	0x3f205c4a	0.6264082
35	0xbf252b4d	-0.64519197
36	0x3f36a4ed	0.71345407
37	0xbe0f98fb	-0.14023201
38	0xbc994615	-0.018710176
39	0xbe8627b3	-0.26202163
40	0xbe3e7840	-0.18600559
41	0xbf4daa2b	-0.8033778
42	0x3f4300db	0.7617318
43	0xbf2a7dd2	-0.66598237
44	0x3e9d41dc	0.3071431
45	0xbf39a2c4	-0.72513986
46	0x3f41e8a9	0.75745636
47	0xbf6dc743	-0.92882174
48	0xbf04e1ca	-0.51907027
49	0x3e092a3a	0.13395014
50	0xbf57376e	-0.84068954
51	0xbcc9203f	-0.024551509
52	0xb7a52fd4	-1.9691804e-05
53	0x3f1dd8bf	0.61658853
54	0x3f0a3ea7	0.5400185
55	0x3c130cc3	0.008975211
56	0x3eee163d	0.4650134
57	0x3eb11d68	0.34592748
58	0x3f55459f	0.8330936
59	0x3eb52e2d	0.35386792
60	0xbec107ff	-0.37701413
61	0x3f1e36f0	0.6180258
62	0xbed8a76d	-0.42315236
63	0xbdd12b42	-0.10213329

flows.4.flows.1.param_map.net.2.weight f4 [64, 64]
0	0x3c92a7fa	0.017902363
1	0xbe27ab57	-0.16373955
2	0x3d52ec5c	0.05149494
3	0x3e16df2c	0.14733571
4	0xb4e1ec8d	-4.208163e-07
5	0xb83ffc2b	-4.57728e-05
6	0x3c51ca3d	0.012804565
7	0xbdc17f38	-0.09448093
8	0x3c6fbe56	0.014632782
9	0x3d6e141e	0.058124654
10	0x3c8d8af7	0.017278178
11	0xbc59066b	-0.013246159
12	0xbd88a53e	-0.066721424
13	0xbc024462	-0.007950874
14	0xbca3e3d4	-0.020006098
15	0xbd212e3f	-0.039350744
16	0xbdd1a35d	-0.10236237
17	0xbcad3e45	-0.021147856
18	0x3dbeba39	0.09312863
19	0x3cbb4d5b	0.022864034
20	0xbccd9237	-0.025094135
21	0x3e02f02f	0.12786935
22	0xbcd123bb	-0.025529733
23	0xbcacf56c	-0.02111312
24	0xbdc4ad50	-0.09603369
25	0xa0b5fda7	-3.0830446e-19
26	0x3cdffbcd	0.027341748
27	0xb3a5fe11	-7.729626e-08
28	0x3e104018	0.1408695
29	0x3ce2e826	0.027698588
30	0x3cbe36cd	0.02321949
31	0xbd4f7051	-0.050644223
32	0xbd800d88	-0.06252581
33	0xbc993147	-0.018700255
34	0x3cacdd2a	0.021101553
35	0xbccb9495	-0.024851123
36	0x3c4c351b	0.012463833
37	0xbd035fcd	-0.032073785
38	0x3cffd165	0.031227777
39	0x3dd690e2	0.10476853
40	0x3dee6dc1	0.11642028
41	0xbd3c9dde	-0.04604899
42	0xbd4f7e84	-0.050657764
43	0x3d971662	0.07377316
44	0x3c6d0444	0.014466349
45	0x3b45f24c	0.0030204235
46	0xbdcf653a	-0.10126729
47	0x3e07e508	0.13270962
48	0xbd01589e	-0.031578653
49	0xbe0a8575	-0.13527472
50	0xbc651d5f	-0.013984053
51	0x0d1eb5a8	4.890617e-31
52	0x3be8a2db	0.007099492
53	0xbccce7ba	-0.02501284
54	0x3e0efd8b	0.13963906
55	0x3c0a96be	0.008458791
56	0xbd5210df	-0.05128562
57	0x3b8225f5	0.00397181
58	0xbd0038e5	-0.03130426
59	0x3dfcb311	0.12338842
60	0x3cb1df71	0.02171299
61	0x3c9cf7e9	0.019161182
62	0xbcddeba0	-0.027089894
63	0x3df8849c	0.12134668
64	0xbd0189a4	-0.031625405
65	0x800557d8	-4.9069e-40
66	0x3c7c962a	0.015416661
67	0xbd4ff264	-0.05076827
68	0x3cb5309b	0.022117903
69	0x31b7c9f4	5.3489604e-09
70	0xbcdcc984	-0.026951559
71	0xb7048149	-7.897915e-06
72	0xbc054677	-0.008134476
73	0xbad69b6c	-0.0016373224
74	0xb1c699c7	-5.780041e-09
75	0xbc9a0b17	-0.018804116
76	0xbd141653	-0.036154103
77	0x3c2e4541	0.010636629
78	0x3ce3115c	0.027718239
79	0xb205da8c	-7.791311e-09
80	0xa680e2f7	-8.943303e-16
81	0xba83545c	-0.0010019648
82	0xbd1f3d44	-0.038876787
83	0x3cf77fa0	0.030212224
84	0xb81c3284	-3.7240345e-05
85	0xad692d0f	-1.3254522e-11
86	0x3884267d	6.3014195e-05
87	0x3d173cd2	0.036923237
88	0x3d2f2dd1	0.042768303
89	0xbd1fa850	-0.038978875
90	0xb4a4b8e1	-3.0681898e-07
91	0xbcd5837a	-0.02606367
92	0xbcf348dd	-0.02969783
93	0x9d0c4908	-1.8566602e-21
94	0xbc7ffe79	-0.015624636
95	0xbb0d47ed	-0.0021557764
96	0xbd1683cf	-0.036746796
97	0x00168358	2.067498e-39
98	0x3cf64092	0.030060086
99	0x9cb14fd2	-1.1733511e-21
100	0xbd1a6002	-0.037689216
101	0x31dad6ba	6.3690466e-09
102	0x2e4d4f27	4.6681905e-11
103	0x385c0f56	5.246637e-05
104	0xab6a1d83	-8.3174456e-13
105	0x000558d8	4.91049e-40
106	0xbd088ffa	-0.03334043
107	0x3d2a92d0	0.041643918
108	0xbbf492d9	-0.0074637947
109	0x37847d25	1.5793901e-05
110	0xbd24b33a	-0.040209986
111	0x3d4099f0	0.047021806
112	0x23be6093	2.0640742e-17
113	0x3bc0c185	0.0058824443
114	0xbd0614a1	-0.032734517
115	0x3a3161ef	0.00067666074
116	0x3cecacaf	0.028890936
117	0x3d4c7ce2	0.049923785
118	0x8315c94e	-4.401825e-37
119	0x3a4e60ba	0.000787269
120	0xba8b7100	-0.0010638535
121	0x3a9583fc	0.0011407132
122	0x3beda850	0.0072527304
123	0x3d3dc97b	0.046334725
124	0x15581f21	4.364541e-26
125	0x040ae73b	1.6327998e-36
126	0x9f07d5cf	-2.876422e-20
127	0xbb840de8	-0.004029978
128	0x3de43f56	0.11144893
129	0x3a2b06ec	0.0006524164
130	0x3da7c6fd	0.08192251
131	0xbd3e803d	-0.046509016
132	0x33c62427	9.2266696e-08
133	0x3a60f8f4	0.0008582019
134	0x3d3e51a5	0.04646458
135	0xbc702d2c	-0.014659207
136	0xbcfb2388	-0.030656591
137	0x3d60f87d	0.054924477
138	0x3d2f4efc	0.042799935
139	0x3da3a048	0.079895556
140	0xbd16f61b	-0.0368558
141	0x3b93040c	0.0044865664
142	0x3ba2f6a6	0.0049732504
143	0x3da15fe5	0.078796186
144	0x3db0e954	0.08638254
145	0x3cf7f9f8	0.030270562
146	0xbd9294bc	-0.07157275
147	0x3e07f372	0.13276461
148	0x3db2cdb4	0.08730641
149	0x3c81837d	0.015809769
150	0x3d12ac44	0.035808817
151	0x3771b20a	1.4406172e-05
152	0xbbb0bbcd	-0.0053934813
153	0x2f7d1167	2.3016399e-10
154	0xbd96646b	-0.07343372
155	0xbbbe6e93	-0.0058115213
156	0x3dc152b5	0.09439603
157	0x3d063f08	0.032774955
158	0xbd1d9ff8	-0.038482636
159	0x3e02f9c6	0.12790594
160	0x3d79dec5	0.061003465
161	0x2cb185cc	5.045497e-12
162	0x3d2eb1d1	0.042650048
163	0xbcbd0762	-0.02307481
164	0x3de1ec2f	0.110313766
165	0x32af0c5d	2.0378303e-08
166	0x3d1eeff9	0.038803075
167	0x3d8b82ea	0.06812079
168	0x3d8be6ca	0.06831129
169	0xbd3289e2	-0.043588527
170	0x3d6d8527	0.057988312
171	0xbd059f7c	-0.0326228
172	0xbd9fe54c	-0.07807407
173	0x174d0e47	6.6257093e-25
174	0x3e269259	0.16266765
175	0xbc967f78	-0.018371329
176	0x3d582556	0.05276998
177	0x3d935238	0.07193416
178	0x3c9b986c	0.018993579
179	0x3d32ffae	0.043700866
180	0x1b1c705b	1.2940322e-22
181	0x3e35a33a	0.17738047
182	0x3dc6faf8	0.09715837
183	0xbdae21b3	-0.08502521
184	0x3e159d71	0.1461084
185	0x3e07b3fe	0.13252255
186	0x3c6bc853	0.014391023
187	0x3e01d264	0.12677914
188	0xbda348e8	-0.0797289
189	0x3dfffb60	0.12499118
190	0x3e03c50f	0.1286814
191	0xbd4f47bb	-0.050605517
192	0xbd47f94f	-0.048821744
193	0xbca3d56d	-0.01999923
194	0x3d12e886	0.035866283
195	0xbd32790f	-0.04357248
196	0xbc1a62dd	-0.009422985
197	0x3c330251	0.010925845
198	0xbb92f6f8	-0.0044850074
199	0x3e03b443	0.12861733
200	0x9be80de5	-3.839016e-22
201	0x3c99a021	0.018753113
202	0x3d47e1b2	0.048799224
203	0xbd91b45e	-0.071144804
204	0x3bf79dd9	0.0075566587
205	0x3d70ee6f	0.058821138
206	0x3dc1f86b	0.0947121
207	0x3dedcdf9	0.11611552
208	0x3d954b28	0.072897255
209	0xadf494d2	-2.7805678e-11
210	0xbc880a03	-0.016606336
211	0x3e06cb7f	0.13163565
212	0x3cf34873	0.029697632
213	0x3db96c3e	0.09053849
214	0xbb8ff3a6	-0.004393059
215	0xb86101aa	-5.364573e-05
216	0xbb6dd79e	-0.0036291848
217	0x3d3756c3	0.044760477
218	0x3e086633	0.13320236
219	0x3ccf07c4	0.025272258
220	0x3da2b18e	0.07944022
221	0xbd19e0d7	-0.03756794
222	0xbbda8cb3	-0.0066696047
223	0xbd17e488	-0.03708318
224	0xbd309442	-0.04311014
225	0xbd464d49	-0.04841355
226	0x3de671cf	0.11252176
227	0xbdbb6345	-0.091497935
228	0x3d869603	0.06571581
229	0xb7953dcf	-1.7790966e-05
230	0x82894372	-2.0169052e-37
231	0x3dbe1596	0.09281461
232	0x3da7f8f9	0.08201785
233	0xbcd793ef	-0.026315657
234	0x3d0caf8c	0.034347102
235	0x3df4cf87	0.11953645
236	0xbd1351e2	-0.03596676
237	0x3b99c308	0.004692439
238	0x3bc5a9d4	0.006032208
239	0xbce0a834	-0.027423956
240	0xbd22de27	-0.039762642
241	0x3cfb86b1	0.030703874
242	0xbb251c25	-0.0025193777
243	0xb8841159	-6.297482e-05
244	0xba894e80	-0.0010475665
245	0x3da03b68	0.07823831
246	0x3d30bf80	0.04315138
247	0x3d1e70e8	0.038681895
248	0x3dacd8ce	0.0843979
249	0x3d599713	0.05312259
250	0x3e3a80f5	0.18213256
251	0x3c8d6a46	0.01726259
252	0xbda9d1a2	-0.082919374
253	0x3db35194	0.08755794
254	0xbdba126a	-0.090855435
255	0xba241b16	-0.00062601396

flows.4.flows.1.param_map.net.2.bias f4 [64]
0	0xbe11085b	-0.14163344
1	0x3b2fe4f6	0.0026839352
2	0x3da5779c	0.08079454
3	0x3dadd830	0.084885
4	0x3e07fac6	0.13279256
5	0xbc54a701	-0.01297927
6	0xbc6653d3	-0.014058071
7	0x36148072	2.2128484e-06
8	0x3dcf5517	0.101236515
9	0x3d772747	0.060340192
10	0xbdb1ec01	-0.08687592
11	0x3d0c9bad	0.03432815
12	0x3c5b4c1a	0.013384843
13	0x3d9e01cf	0.07715189
14	0xbd94c7d7	-0.07264679
15	0xbdbddf8f	-0.09271156
16	0x3d6e8ded	0.05824082
17	0x3de596c3	0.11210396
18	0x3d868f85	0.06570343
19	0x3d355d8b	0.044278663
20	0x3dd15563	0.10221364
21	0x3a9274da	0.001117374
22	0xae09fbd5	-3.1373865e-11
23	0xbd72f971	-0.059319917
24	0xbe105d74	-0.1409815
25	0x3db471dc	0.088107795
26	0xbcc751d2	-0.024331007
27	0xbb9b02e1	-0.004730568
28	0x3a2ab947	0.0006512594
29	0x3c9a38e8	0.018825963
30	0x3b8cc347	0.00429574
31	0x3b6c6a60	0.0036074147
32	0xbd24e8bd	-0.04026102
33	0xbdac38a6	-0.08409242
34	0xbb994124	-0.004676955
35	0x3e1aa085	0.15100296
36	0x3cbb86ac	0.022891365
37	0x3e2cd694	0.1687873
38	0xba3c82df	-0.0007191132
39	0xbd151615	-0.036398012
40	0x3e161914	0.14658004
41	0x3d45a318	0.04825124
42	0xbe1177dc	-0.14205879
43	0xbba7e43f	-0.0051236446
44	0x3d8c5527	0.06852179
45	0x3df6ba9a	0.1204731
46	0xbc873632	-0.016505335
47	0xbcc7fc0a	-0.024412174
48	0xbcf73afd	-0.030179495
49	0xbaf71aeb	-0.0018852627
50	0x3de39261	0.11111904
51	0x3cc8ffed	0.024536097
52	0x3cff2cc2	0.031149272
53	0xb031f764	-6.474379e-10
54	0xbdf8f022	-0.12155177
55	0x3cb48743	0.022037154
56	0xbdc5f4e5	-0.096658505
57	0xbe061bc6	-0.13096532
58	0xb43ea8a7	-1.7756484e-07
59	0xbc059af1	-0.008154617
60	0x3df1d2e8	0.11807805
61	0xbe006390	-0.1253798
62	0x3d16c177	0.036805596
63	0x3d441326	0.047869824

flows.4.flows.1.param_map.net.4.weight f4 [2, 64]
0	0x3d03d3a6	0.032184266
1	0x00000000	0.0
2	0x3d092201	0.033479694
3	0x3d609595	0.054830153
4	0x3d5f78c2	0.054558523
5	0x00000000	0.0
6	0x3d09f4b4	0.033680633
7	0x00000000	0.0
8	0x3ce0a961	0.027424516
9	0xbc199fce	-0.009376479
10	0x3d15e0d0	0.03659135
11	0x3cd2c5a2	0.025729004
12	0x3d420c81	0.047375206
13	0x3ce5f4af	0.028070776
14	0x3cd267f5	0.025684336
15	0x3cf967e3	0.030445045
16	0x3ce8c61a	0.028414775
17	0x3d4aa390	0.04947239
18	0x3d223bc7	0.03960779
19	0x3d564e63	0.05232085
20	0x3cde6ba4	0.027150936
21	0x00000000	0.0
22	0x00000000	0.0
23	0x3cbb090c	0.022831462
24	0x3ced1d82	0.028944734
25	0x3cd12930	0.025532335
26	0x3d03da32	0.03219051
27	0x3d021e82	0.031767376
28	0x00000000	0.0
29	0x3d1e4e37	0.03864881
30	0x3d8508c6	0.06495814
31	0xbd52f1f7	-0.051500287
32	0x3d0d69b4	0.034524634
33	0x3cbf3ccb	0.023344418
34	0x00000000	0.0
35	0x3d3447df	0.044013854
36	0xbcbf4d08	-0.023352161
37	0xbc7fc9c2	-0.015612068
38	0x00000000	0.0
39	0x3cd64735	0.026157001
40	0x3d301294	0.042986467
41	0x3d3d694f	0.04624301
42	0x3d1c1060	0.038101554
43	0x3d0d4122	0.034485944
44	0x3d3ab1ac	0.045579597
45	0x3d1b213c	0.03787349
46	0x3ccc84fa	0.024965752
47	0xbc3031bf	-0.010754048
48	0x00000000	0.0
49	0x00000000	0.0
50	0xbc7cb62e	-0.015424294
51	0x3d02baa0	0.03191626
52	0x3d486c26	0.048931263
53	0x00000000	0.0
54	0x3ce02a70	0.027363986
55	0x00000000	0.0
56	0x3cc55664	0.024089046
57	0x3cd00df5	0.02539728
58	0x00000000	0.0
59	0x3d1874b1	0.03722066
60	0x3d5d9c82	0.054104336
61	0x3d049f4d	0.032378484
62	0x00000000	0.0
63	0x3d802d34	0.06258622
64	0xbba029cd	-0.0048877955
65	0x00000000	0.0
66	0x3b334fe1	0.0027360844
67	0x3d06f9e7	0.03295317
68	0x3d61c257	0.055116978
69	0x00000000	0.0
70	0x3b0f5f79	0.0021876974
71	0x00000000	0.0
72	0xba26c5fb	-0.0006361899
73	0x3d87965d	0.066204764
74	0xbbf6933b	-0.0075248755
75	0xbae5853e	-0.0017511023
76	0x3d297763	0.04137362
77	0xbaa0a499	-0.0012256085
78	0xbb0e12b0	-0.002167862
79	0xbb543489	-0.0032379946
80	0xbae919e7	-0.0017784209
81	0x3d4f1d5e	0.050565116
82	0x3c8d4f13	0.01724962
83	0xbc2b601c	-0.010459926
84	0xbb02cc28	-0.0019958112
85	0x00000000	0.0
86	0x00000000	0.0
87	0xbab4483a	-0.0013754435
88	0xbb4e8db5	-0.003151757
89	0xbaf83108	-0.0018935511
90	0x3b575b9d	0.0032861002
91	0xbb578f72	-0.0032891897
92	0x00000000	0.0
93	0xbc3cdb6d	-0.011526925
94	0x3d73bb10	0.05950457
95	0x3d4af114	0.049546316
96	0xbbba66bd	-0.005688517
97	0xbaf8c620	-0.0018979944
98	0x00000000	0.0
99	0x3cd3682f	0.025806515
100	0x3cd181e6	0.025574636
101	0x3d84c7c5	0.064834155
102	0x00000000	0.0
103	0xbb10c895	-0.0022092212
104	0x3ce55b09	0.02799751
105	0x3d172a1e	0.0369054
106	0xbc2b6e40	-0.010463297
107	0xbb62d6bc	-0.0034612855
108	0x3d329f9f	0.043609258
109	0x3a6c8ddd	0.0009023825
110	0xba97cc21	-0.0011581221
111	0x3d882206	0.066471145
112	0x00000000	0.0
113	0x00000000	0.0
114	0x3d87dacb	0.06633528
115	0xbb762dc7	-0.0037563907
116	0x3d5ae6b3	0.05344267
117	0x00000000	0.0
118	0xbb173949	-0.0023074916
119	0x00000000	0.0
120	0xbae9530f	-0.0017801243
121	0xbaf9dae6	-0.0019062429
122	0x00000000	0.0
123	0x3b9695fe	0.004595517
124	0x3d8191e4	0.063266546
125	0x3d334fb7	0.043777194
126	0x00000000	0.0
127	0x3d60d804	0.05489351

flows.4.flows.1.param_map.net.4.bias f4 [2]
0	0x3d07288e	0.03299766
1	0x3ce820f5	0.028336028

flows.6.flows.1.param_map.net.0.weight f4 [64, 1]
0	0xbf070a47	-0.52750057
1	0x3f588152	0.8457233
2	0xbecde851	-0.40216306
3	0x3f18e024	0.5971701
4	0x3eb8a6fe	0.36064905
5	0x3e953930	0.29145193
6	0xbea15355	-0.3150889
7	0xbf422202	-0.7583314
8	0x3d2e86d2	0.042609043
9	0xbf8009d8	-1.0003004
10	0xbdc4885f	-0.09596323
11	0xbec20cf7	-0.37900516
12	0x3f01fdb5	0.5077775
13	0xbf4f0fe0	-0.808836
14	0x3f80382c	1.0017142
15	0xbe525119	-0.20538749
16	0x3f327dde	0.6972331
17	0x3ea0df0a	0.31420165
18	0xbf04ad5f	-0.51827043
19	0xbeb5fc28	-0.35543942
20	0x3f3639ae	0.7118176
21	0x3f4c40a7	0.7978615
22	0xbf391db4	-0.7231095
23	0xbf1ebdc8	-0.62008333
24	0x3efae8d2	0.49005753
25	0xbf3d2711	-0.73887736
26	0xbf1e4a3d	-0.6183203
27	0x3f486a1b	0.78286904
28	0xbf19077f	-0.59777063
29	0x3f5ca463	0.86188334
30	0xbd5a2039	-0.053253386
31	0xbe7d56f3	-0.247402
32	0xbeca2961	-0.39484695
33	0xbecb7597	-0.3973815
34	0xbf3f3ae5	-0.7469924
35	0x3f0b41c3	0.5439722
36	0xbf1f5f63	-0.62254924
37	0x3f76a188	0.9634023
38	0x3f3051a3	0.6887457
39	0x3e8e8976	0.2783925
40	0x3cdfa00d	0.027297998
41	0xbf2548eb	-0.6456439
42	0xbf1396c4	-0.57651925
43	0x3d7bf630	0.06151408
44	0x3ef9cbd6	0.48788327
45	0x08bba938	1.1294436e-33
46	0x3f034d67	0.5128998
47	0xbf470ac7	-0.7775082
48	0x3efa53eb	0.4889215
49	0x3edb6dac	0.4285711
50	0x3e53061b	0.20607798
51	0xbf70de29	-0.9408899
52	0x3e84b8bf	0.259222
53	0x3ea96ec0	0.33092308
54	0x3eec635c	0.46169555
55	0x3eebea9f	0.4607744
56	0xbe8f5455	-0.27994028
57	0x3f31ec1c	0.695009
58	0xbf7d4518	-0.98933554
59	0xbeace1b1	-0.3376594
60	0xbf4416a4	-0.76597047
61	0x3e4ac243	0.19800667
62	0x3dfc149a	0.12308617
63	0xbdc83b00	-0.09776878

flows.6.flows.1.param_map.net.0.bias f4 [64]
0	0xbf65dc4c	-0.8978927
1	0x3d96acf5	0.07357208
2	0x3e41d78b	0.1892988
3	0x3e1acb4c	0.15116614
4	0x3ed1d610	0.4098363
5	0xbf0dbb64	-0.5536406
6	0x3f413a0c	0.754792
7	0x3f0afe5d	0.5429438
8	0x3ba30115	0.004974494
9	0x3f64aab7	0.8932299
10	0x3f5f67c6	0.8726772
11	0x3f0bbed7	0.54588073
12	0xbc0f4161	-0.008743615
13	0x3e03e38b	0.1287977
14	0x3f63166c	0.8870609
15	0x39c121f5	0.0003683713
16	0x3f3f7935	0.7479432
17	0x3f4efe07	0.80856365
18	0x3f13773d	0.5760382
19	0xbf03f2ca	-0.5154234
20	0xbe3f75b8	-0.1869725
21	0xbeb7618c	-0.3581661
22	0xbf245750	-0.6419573
23	0xbda92cef	-0.082605235
24	0xbe6a5103	-0.22882466
25	0xbdcd431b	-0.10022565
26	0x3f80567c	1.0026393
27	0xbf5c6e22	-0.8610555
28	0x3f8022db	1.0010637
29	0xbec5c3d6	-0.38625973
30	0xbf1ec336	-0.6201662
31	0x3f1d976e	0.6155919
32	0xbf1329e6	-0.57485807
33	0xbf630a26	-0.8868736
34	0x3f019e0d	0.5063179
35	0x3f0c491b	0.5479905
36	0xbf649085	-0.8928302
37	0x3f81488c	1.0100265
38	0xbe0d5bc0	-0.13804531
39	0x3d5464e0	0.051854014
40	0x3e8c6179	0.27418116
41	0x3eaadcea	0.3337167
42	0xbe9c59e3	-0.30537328
43	0x3daf10a2	0.08548094
44	0x3f660d14	0.89863706
45	0xbf132ca7	-0.5749001
46	0x3e5798ae	0.21054336
47	0x3e8d61a8	0.27613568
48	0x3f273d24	0.6532767
49	0x3f4c796b	0.7987277
50	0xbe770889	-0.2412435
51	0xbe46113b	-0.1934251
52	0x3d8da766	0.06916694
53	0xbee2d4e0	-0.44303036
54	0x3f7dbbf2	0.99114907
55	0x3f5e1ff9	0.86767536
56	0xbf5e9bad	-0.8695629
57	0xbf2db989	-0.6786123
58	0xbf54ef0a	-0.83177245
59	0x3f3d93ce	0.7405366
60	0xbf02f83b	-0.5116002
61	0xbf57f175	-0.8435281
62	0xbefbaf63	-0.49157247
63	0x3ef15d52	0.4714151
