macros/GregFlow/models/November_04/run_1_2flows_4hl_64hu_2000bs_checkpoint_e39.pth (torch, 82688 bytes, 26 tensors)

q0.loc f4 [1, 2]
000000 f6 5e 46 3c 7b 57 df bc
       0.012107601 -0.027263394

q0.log_scale f4 [1, 2]
000000 81 a5 a7 3b 48 e8 a9 3c
       0.005116165 0.020740643

flows.0.flows.1.param_map.net.0.weight f4 [64, 1]
000000 cf 55 3e 3e 24 fc 61 3e 40 99 98 3e 38 32 c6 3e
       0.18587421 0.2206884 0.2980442 0.3871019
000010 69 c7 d0 be ac 1d 57 bf 64 71 39 bf cd ac bc bd
       -0.40777138 -0.8402965 -0.72438645 -0.09212647
000020 40 12 77 bf 28 2c 12 bf 22 b9 25 bf fb 0f 80 bf
       -0.9651222 -0.5709863 -0.64735615 -1.0004877
000030 f7 7c af 3e 60 5a af be d0 15 6d be d6 de 53 bf
       0.34275028 -0.34248638 -0.23152852 -0.82761896
000040 d5 f3 20 3f a4 05 e6 be 81 42 48 3f 5c 2d 5e bf
       0.6287206 -0.44926178 0.78226477 -0.8678796
000050 73 7e d3 be 5f 6d 76 3f df 5e 5b 3f 6c cf 64 3f
       -0.4130741 0.9626064 0.85691637 0.89379
000060 5b 69 6a bd 4f d1 06 bf bd 07 44 bf 96 32 24 bf
       -0.05722938 -0.5266313 -0.7657431 -0.6413969
000070 44 2c 4d 3e 3b 8d b2 be ea 5d 36 bf 86 3e 9c 3d
       0.20036417 -0.34873375 -0.7123705 0.07629113
000080 2b 57 88 be 20 08 ab be 7a b9 6c bf 88 5d 8b 3e
       -0.26629004 -0.33404636 -0.92470515 0.27219796
000090 50 1a 25 3f 62 e0 f1 3e d3 c1 08 be 55 b0 8f 3e
       0.64493275 0.47241503 -0.13355188 0.28064218
0000a0 48 d3 6b bf ac 87 2b 3d ff 40 21 3f a7 a6 4d be
       -0.92119265 0.041877434 0.629898 -0.20083104
0000b0 42 65 75 bf 8f 4e e8 3d 7c 99 84 3e f2 d7 b7 be
       -0.9585763 0.11343109 0.2589835 -0.3590694
0000c0 fd 9f 49 3f 5a 6f 44 3f 85 68 f9 3e 7f 88 3d 3e
       0.7875975 0.7673241 0.48712555 0.185091
0000d0 e6 27 83 3e 66 e0 df 3e 0c 52 90 3e 8b 77 c3 be
       0.25616378 0.4372589 0.28187597 -0.38177142
0000e0 95 75 0d bf 3e 40 48 bf ac c8 44 bf 28 d6 1b bf
       -0.5525754 -0.78223026 -0.768687 -0.6087365
0000f0 5f f1 46 bf fe 87 f1 be 7e 8e be 3d 3f b4 33 3f
       -0.77712053 -0.47174066 0.09304522 0.7019691

flows.0.flows.1.param_map.net.0.bias f4 [64]
000000 dd d9 41 3f 56 20 ac be 70 bc 4e 3e 08 e5 82 bf
       0.7572306 -0.3361842 0.2018907 -1.0226145
000010 94 01 ae 3e b5 a2 d4 3e 21 a5 16 3f ec e9 76 3f
       0.3398558 0.41530386 0.58845717 0.96450686
000020 6c 91 94 3e a0 1b 3d 3f b2 2a 09 3d f1 1e e4 3c
       0.29017198 0.7387028 0.033487983 0.027846785
000030 d1 d0 9c 3b 0d 33 09 3f 47 81 4b 3f b6 c6 d1 3e
       0.004785635 0.5359352 0.79494137 0.40971917
000040 f5 a6 6c bf 46 d9 4f 3f 92 23 bd be 1c 1c 5f bf
       -0.92442256 0.8119091 -0.369412 -0.87152267
000050 0e c6 d4 be 4b f3 2b bf bd bd 09 bf 1a d5 47 3e
       -0.41557354 -0.6716811 -0.5380514 0.19514886
000060 8b b0 ca 3e 41 6f a1 be df bf 35 3f 7d f7 e4 be
       0.39587817 -0.31530192 0.709959 -0.4472007
000070 98 2c 32 3f 83 97 a9 3e e1 95 1b 3f 47 a1 54 3e
       0.69599295 0.33123407 0.6077557 0.20764647
000080 63 00 5d 3f 57 cf 50 bf 72 7d d7 3d cd 49 24 bf
       0.86328715 -0.81566375 0.10521974 -0.6417511
000090 20 1b fa 3e e4 78 50 3f ea 86 ca be 74 b7 15 bf
       0.4884882 0.81434464 -0.39556056 -0.5848305
0000a0 52 88 33 3f 01 96 3f 3f 67 02 d0 be 23 27 12 3f
       0.70129883 0.7483826 -0.40626833 0.5709097
0000b0 06 1b a8 bc c1 cf 54 3f 33 69 cb 3e 05 02 5b 3f
       -0.020520698 0.8312951 0.39728698 0.85549957
0000c0 4e 21 f0 be 42 06 e6 be ec 88 36 3f 4f ad a4 bd
       -0.4690041 -0.4492665 0.71302676 -0.080408685
0000d0 1a 7e 80 bf d9 b5 99 be 7a 17 6f bf f9 dd 3f 3f
       -1.0038483 -0.3002155 -0.933952 0.7494808
0000e0 6c ac 4f be a9 83 fe 3c ba ca 84 be 12 86 3b 3f
       -0.20280617 0.03106864 -0.25935918 0.7325145
0000f0 80 a5 76 bf 68 72 c9 be f7 c4 a4 3e 8c 1f 7f 3e
       -0.9634628 -0.39345098 0.32181522 0.24914378

flows.0.flows.1.param_map.net.2.weight f4 [64, 64]
000000 c0 48 1a bd 44 21 9e 3d 4b 81 36 bd fd 92 c4 bd
       -0.037667036 0.07721189 -0.044556897 -0.09598348
000010 a3 b1 0d ba a6 fa b6 bc 11 df bc 3d ac fa ab bd
       -0.0005405193 -0.022336315 0.09222234 -0.08397421
000020 9a fc a7 bd 53 75 0b bd 6f d2 51 bd c4 97 a0 bd
       -0.08202477 -0.034047436 -0.051226076 -0.07841447
000030 50 b5 1a 3d 4b b9 d9 3d 3b 47 29 bd 5e 44 37 bd
       0.03777057 0.10631045 -0.041327696 -0.044742934
000040 f0 98 0b 3b 5a e7 1b 3a b5 13 ec 3c 92 d0 e0 bc
       0.0021300875 0.0005947255 0.02881799 -0.027443204
000050 92 57 16 3c ff 34 2a 3d ca 46 f3 3c d7 b1 e2 bd
       0.009176152 0.041554447 0.02969684 -0.110690765
000060 fa 5b da 3d e7 12 99 b9 b9 4e 60 3d cc 66 be bd
       0.106620744 -0.00029196517 0.054762576 -0.09296951
000070 27 96 e6 bd e5 17 5a 3d 8e 63 2f 3b e3 0a dd bd
       -0.11259108 0.053245444 0.002676222 -0.10793092
000080 51 d2 68 bd 06 59 98 3a 8e da 05 3d d0 e2 7b bd
       -0.0568412 0.0011623211 0.032679133 -0.061495602
000090 31 5f 13 bc 62 ae ad 3d 38 7f c5 3c 44 3a 0b 3d
       -0.008994863 0.084805265 0.024108514 0.033991113
0000a0 47 af b6 bd 0d 42 49 bd b7 ba c9 3d 9a ed 3e 3d
       -0.0892015 -0.049135257 0.09850066 0.046613313
0000b0 20 37 6a bc 37 d5 9a 3d fa 6d 3c bd ae 2b 52 bc
       -0.014295369 0.07560199 -0.04600332 -0.012827797
0000c0 53 09 9a 3d 93 2f 89 3d 8c 28 7d 3c 82 ca 9d 3d
       0.0752131 0.06698527 0.015451562 0.07704641
0000d0 ea ad c0 3d cf 36 96 bd e8 3c 32 bd 36 57 a3 bd
       0.094081715 -0.07334673 -0.043515116 -0.079756185
0000e0 bb cb aa bd af 8e a6 bd 20 29 a6 bd a1 3a 89 3c
       -0.0833964 -0.081326835 -0.08113313 0.01675159
0000f0 02 66 43 bd 46 9e b1 bc 32 3d a7 3d c0 67 7a bc
       -0.047704704 -0.021681916 0.08165969 -0.015283525
000100 fb a7 7a 2c 7e 44 23 3d 6a 57 98 3d da b3 45 3d
       3.5620385e-12 0.03986024 0.07438548 0.048267223
000110 8c 8c 4c bd a1 04 89 bd 23 7b d1 37 48 0f 16 3c
       -0.049938723 -0.06690336 2.4972082e-05 0.009158917
000120 78 9e a1 3d a1 99 48 bc b7 34 ae 3d 95 ce 82 bd
       0.07891554 -0.012243659 0.08506148 -0.06387059
000130 8b c3 83 bd 83 75 fc bc f9 48 ae bd cc 4f 97 3d
       -0.06433781 -0.030817753 -0.08510012 0.07388267
000140 89 49 a6 b9 ca b4 be 3c b1 36 b5 3c 5f 65 2d 27
       -0.00031716775 0.023279566 0.022120805 2.4063526e-15
000150 ab f6 bc 3d 90 01 9d bd f6 de 87 3d 31 29 7d 3b
       0.09226736 -0.07666314 0.06634323 0.0038629288
000160 d4 58 d8 3a d1 84 11 bd 82 f4 a2 bd 4f 10 67 bc
       0.0016505965 -0.035527054 -0.079567924 -0.014103009
000170 ed 68 5d 3c f5 55 1b 3c 7b 76 9a bc 1d bf 8c bd
       0.013513786 0.009480943 -0.018855324 -0.068723895
000180 c3 db 80 3d 3a 86 1c 3b fd b8 8a bd 1c 1e 97 bd
       0.06291916 0.0023883716 -0.06773565 -0.0737879
000190 23 a1 d5 3c ae 27 ba bd bf 61 25 3d 53 58 19 bd
       0.026077813 -0.090895995 0.04037642 -0.03743775
0001a0 39 3c b7 3d 44 92 14 3d c4 60 81 bd 35 4a 81 3d
       0.089470334 0.036272302 -0.06317285 0.06312982
0001b0 18 2d 16 3d 1f 4c dd bb 3c 89 cf bc a4 c3 ae a7
       0.0366641 -0.006753459 -0.025333993 -4.8506816e-15
0001c0 c9 4e 81 bd b4 f7 8f bd 4d 61 67 bc d5 b4 7d bc
       -0.06313855 -0.070296675 -0.014122319 -0.015485008
0001d0 4d 22 99 bd f4 08 84 bd a8 b6 a3 3d ba 57 16 3c
       -0.074772455 -0.0644702 0.07993823 0.009176189
0001e0 a9 be 64 3c 81 00 bb bc 9a b4 9b 3d 56 99 40 bd
       0.013961473 -0.022827389 0.076028064 -0.047021233
0001f0 2e af 88 30 2a cd 7e 32 15 4e 73 bd 95 35 d3 b5
       9.945091e-10 1.4831395e-08 -0.059400637 -1.573632e-06
000200 91 26 b9 bd 6e 71 22 bc 1f 8c a8 ba 8a c9 a1 3d
       -0.09040559 -0.009914739 -0.0012859142 0.07899769
000210 2e 18 90 3d 77 e9 3f 3d ef d5 dc bb 1b f5 36 bd
       0.07035862 0.04685351 -0.00673937 -0.044667345
000220 f3 38 5f bc a5 a8 4f af 13 78 0c bb bc df 62 bb
       -0.013624418 -1.8886455e-10 -0.0021433874 -0.003461822
000230 9a 6b 9e bd ef cb 23 37 73 f5 a4 3d 8b a1 8a 3c
       -0.07735367 9.763039e-06 0.08054628 0.016922733
000240 05 58 6d bc 7d 92 9e 23 db a3 5a aa d9 e9 3a bc
       -0.0144863175 1.7192435e-17 -1.9419138e-13 -0.011408293
000250 f2 51 86 bc 1a 14 bf b5 3e e6 1d bc 6b 5e 94 bd
       -0.016396496 -1.4236459e-06 -0.009637414 -0.07244571
000260 bc 4d 3e 3a 51 22 b0 bc ca 2d d1 bc 0e 27 98 bd
       0.0007259508 -0.021500738 -0.02553453 -0.07429324
000270 8b 31 75 bd 10 0f 11 bd f0 77 e4 bb cd 48 6c bc
       -0.0598617 -0.035414755 -0.0069723055 -0.014421654
000280 02 e1 51 b9 5d 82 9f bb 00 60 b1 3d 3a ae be 3d
       -0.00020015615 -0.0048678354 0.08660889 0.09310575
000290 d7 3e 85 bc bd dd 08 bd b1 b2 3f 3d 70 17 43 bd
       -0.016265316 -0.03341459 0.046801273 -0.047629774
0002a0 4d 03 d3 b8 fb 6c 83 3d 3b b3 e1 bc 39 8b 17 bd
       -0.00010061879 0.06417271 -0.027551284 -0.036998007
0002b0 a9 f3 87 3d ed cb 54 a3 88 43 97 b3 29 d6 98 3a
       0.06638271 -1.1535726e-17 -7.043769e-08 0.0011660504
0002c0 db 67 8f 3d 4a 6c 7f bd 5e 61 9c 3d ab 1c 5a 2e
       0.07002231 -0.062359132 0.07635759 4.9592924e-11
0002d0 ed b5 66 3d 32 71 b7 bb 64 57 8d 3c d4 d1 16 bd
       0.05632584 -0.0055982107 0.017253585 -0.0368212
0002e0 0f e8 b3 36 9c 1f a9 bd 85 1e 4a 3d 49 f2 70 b8
       5.361631e-06 -0.08257982 0.049345512 -5.7446105e-05
0002f0 e9 43 a3 3b 22 ef 0b b4 60 af ca bc 3f a7 a9 bd
       0.0049824608 -1.303238e-07 -0.024741828 -0.08283853
000300 a4 49 a2 bd ca 35 01 3e 5a ae af bd d6 5d ec bd
       -0.07924202 0.12618175 -0.08578177 -0.11541335
000310 6e 7b 92 bc f0 58 34 3d ab 33 c6 3c 55 c1 12 3e
       -0.017881121 0.04403013 0.02419456 0.14331563
000320 e3 9d da 3c 3b 5c f2 3d 96 c2 2a 3d 08 a3 1e bd
       0.026686614 0.11833998 0.041689478 -0.038729697
000330 c4 9d c2 bd 9f 5d 5d 3c ae c1 ff 3d 6c 96 96 3d
       -0.09502748 0.013511091 0.12488113 0.073529094
000340 b3 ad 56 bd e5 a7 6f 3c f3 8e e5 3d 28 23 6f bd
       -0.052411746 0.0146274315 0.11208906 -0.058383137
000350 7f 47 00 3d cb e2 ca 3d b5 84 84 3d 39 02 83 3b
       0.031318184 0.099065386 0.06470624 0.0039980677
000360 d8 12 99 bd 82 71 4c bd 87 89 09 ba 55 f8 3a 35
       -0.07474297 -0.049912937 -0.00052466284 6.965177e-07
000370 02 1a 16 3d 97 ae 8e bc cf 1b d7 3c 6b ba 94 bc
       0.036645897 -0.017417235 0.026258377 -0.018155297
000380 f1 b2 2a bc d3 8a 67 bd fb a1 15 bc fc 4b 37 bc
       -0.0104186395 -0.056528877 -0.009132857 -0.01118755
000390 f0 59 e4 3c 43 3e 2f b8 a7 89 95 b9 35 d3 e7 bd
       0.027874917 -4.1781237e-05 -0.00028522054 -0.113195814
0003a0 70 73 9c bc c9 e1 c9 bc 4c 42 b0 3d fa b5 98 3d
       -0.019098014 -0.024643796 0.08606395 0.07456584
0003b0 12 75 4b 3c c6 05 99 bd 95 44 84 3d 55 e5 18 3e
       0.012418048 -0.07471804 0.064583935 0.14931233
0003c0 b9 45 85 3d 6c d3 1b 3d 18 60 5c 3d 16 b9 c2 3d
       0.06507439 0.038043424 0.05380258 0.095079586
0003d0 df d8 2e 3d c1 ff c7 bd a3 aa d0 bd 2a 77 59 bd
       0.042687293 -0.09765578 -0.10188796 -0.05309216
0003e0 f9 46 c8 bc 10 39 c0 ba 4f 05 7b a8 f4 a8 66 3d
       -0.024447905 -0.0014665443 -1.393445e-14 0.05631347
0003f0 87 13 61 bd 95 4d 53 28 ca e0 88 3d 7a 05 3f bc
       -0.054950263 1.1729676e-14 0.066835 -0.011659021

flows.0.flows.1.param_map.net.2.bias f4 [64]
000000 08 60 f0 3d 82 29 9e 3c 4b 73 0e bd 41 63 9c 3d
       0.117370665 0.019306902 -0.03477792 0.07636119
000010 07 ca aa bd ab 60 e8 3d 05 cf b8 bd 98 f4 86 3d
       -0.08339315 0.11346563 -0.09023861 0.06589621
000020 d3 65 4a 3c 68 0d 9f 3c 80 df 07 3e 67 e1 90 3d
       0.012353378 0.019415572 0.13268852 0.07074242
000030 d9 01 80 bd eb ce 8f 3d 67 a6 74 bc a7 9c c8 3d
       -0.062503524 0.07021888 -0.014932252 0.09795504
000040 8a 4d bc 3c e4 06 ae 3d 4b 54 92 3d 0f 45 49 bd
       0.022986192 0.08497408 0.07144984 -0.049138125
000050 5e 03 8e 3c ac d6 4d 3d d4 a5 03 3e 85 38 12 bd
       0.01733559 0.050253555 0.12856227 -0.035698432
000060 0b df 1c bd 7c 36 13 3e 85 41 62 bd 72 c2 8b bd
       -0.038298648 0.14376253 -0.055238266 -0.06824197
000070 e5 67 71 3d 28 19 a8 3d 4e 47 28 bd 07 19 b4 bd
       0.058936972 0.08207923 -0.041083626 -0.08793836
000080 86 45 0b 3e 8b ce 19 3e 50 0a 35 3d 90 65 ae bb
       0.1360074 0.15020196 0.044199288 -0.005322166
000090 50 0b ad bd 7a de 20 3e 6d 50 14 3c 67 4a 07 3d
       -0.08449423 0.15709868 0.009052378 0.03302994
0000a0 3b b1 35 bd 01 8b 92 3c 85 0b c1 3d 16 88 b8 3c
       -0.044358473 0.017888548 0.09426025 0.022525828
0000b0 8d 5b dc bb 0e 1b b3 3d 13 ff 9b 3c 19 86 a9 bc
       -0.006724781 0.08745395 0.019042527 -0.020693826
0000c0 35 87 ae bd 73 88 61 3d d5 14 64 3d 8f 1b d7 3c
       -0.085218824 0.05506177 0.05568393 0.026258258
0000d0 d7 db 20 3e 64 3b 33 3a 43 2c 14 3e ab 9d 06 3e
       0.15708862 0.0006837158 0.1447001 0.13146083
0000e0 9d a1 b8 bd a6 c3 33 bd 9c c8 2a bc de 4d 87 3d
       -0.090152 -0.043887757 -0.010423806 0.06606649
0000f0 88 bb b1 3d 31 26 98 bd dd a3 f5 3d ec 89 ad bc
       0.08678347 -0.074291594 0.11994145 -0.02118393

flows.0.flows.1.param_map.net.4.weight f4 [2, 64]
000000 e7 bc 7c bc 00 00 00 00 00 00 00 00 f0 ef 49 bc
       -0.015425897 0.0 0.0 -0.012325272
000010 0b 13 40 bc 52 b8 3f bc 95 e8 71 bc 1d bd 21 bd
       -0.01172329 -0.01170166 -0.0147649245 -0.039486993
000020 49 e9 56 3b 70 ff 32 bc 08 45 55 bc b2 66 1c bd
       0.0032792857 -0.010925159 -0.013016947 -0.038183875
000030 00 00 00 00 96 d0 81 bc 00 00 00 00 9a 94 e0 bc
       0.0 -0.015846532 0.0 -0.027414609
000040 c2 42 d4 bb 50 dd 66 bc 8c eb 64 bc 00 00 00 00
       -0.0064776847 -0.014090851 -0.013972174 0.0
000050 d6 ce cc bc 3c ce 0e bd ae f8 0e bd e6 fc 4b bc
       -0.02500097 -0.03486465 -0.03490513 -0.012450432
000060 d0 06 44 bc 57 ab a8 bc 79 78 2a bc 01 f7 6b bc
       -0.011964515 -0.020589514 -0.0104046995 -0.014402152
000070 00 00 00 00 5a 84 3d bc 00 00 00 00 00 00 00 00
       0.0 -0.0115672 0.0 0.0
000080 2c 67 13 bd d7 dd ed bc 6c 5b 0a bc e8 02 18 bc
       -0.035987064 -0.029036446 -0.008444648 -0.009278037
000090 a2 17 fd bc 94 eb 1c bd 60 87 5b bc 1a 3b 37 bc
       -0.030895058 -0.038310602 -0.013398975 -0.0111835245
0000a0 07 d3 0a bd d8 05 25 bc 56 5d 32 bc 71 68 11 bd
       -0.033892658 -0.010072194 -0.010886511 -0.035499994
0000b0 32 82 2b bc 6f 92 40 bc 1f c2 28 bc 1b 81 d4 bc
       -0.010468053 -0.0117536625 -0.010300188 -0.025940469
0000c0 79 ea 24 bc af 69 4c bc 00 00 00 00 bb 17 1c bc
       -0.010065668 -0.012476369 0.0 -0.009527142
0000d0 f6 e9 20 bd 2a b1 ec bc 05 af e3 bc dd 53 35 bc
       -0.039285623 -0.028893072 -0.027793417 -0.011067358
0000e0 00 00 00 00 24 31 11 bd 92 03 a1 bc e7 65 31 bc
       0.0 -0.035447255 -0.019655023 -0.010827518
0000f0 68 a9 08 bd 80 8b e6 bc 72 38 57 bc d5 fc 1f bc
       -0.033364683 -0.02814269 -0.013136016 -0.00976487
000100 d5 a0 d9 3b 00 00 00 00 00 00 00 00 62 f9 a8 3b
       0.006641487 0.0 0.0 0.005156682
000110 3a 88 9c 3b 1a 03 aa 3b b3 3f f2 3b a8 bb 27 3d
       0.0047769817 0.005188358 0.0073928474 0.040950447
000120 c4 75 58 3b 16 47 91 3b 9a 20 b5 3b 6d 9b 2b 3d
       0.0033029178 0.004433523 0.005527568 0.041896272
000130 00 00 00 00 cf 44 11 3c 00 00 00 00 fe b6 c4 3c
       0.0 0.008866503 0.0 0.024013039
000140 e5 a7 9e 3c 5a 65 d8 3b 63 bf cd 3b 00 00 00 00
       0.019367168 0.006603879 0.0062789186 0.0
000150 59 fb e6 3c 60 6f 17 3d 4b 44 18 3d ac 1a a9 3b
       0.028196024 0.03697145 0.037174504 0.0051606502
000160 15 fb b9 3b 2a 65 6e 3c 42 56 87 3b e7 b8 cf 3b
       0.0056756833 0.014550487 0.004130156 0.0063391807
000170 00 00 00 00 c1 46 a1 3b 00 00 00 00 00 00 00 00
       0.0 0.0049217646 0.0 0.0
000180 f8 c7 1b 3d 32 7d e1 3c b1 33 68 3b 05 5a 7d 3b
       0.038032502 0.027525518 0.00354312 0.0038658392
000190 5d 88 06 3d a5 6e 28 3d 9b d1 c2 3b 47 40 9e 3b
       0.03284489 0.041121144 0.005945397 0.00482944
0001a0 21 66 12 3d 6a f4 86 3b 29 71 9b 3b 37 67 32 3d
       0.03574193 0.004118492 0.0047437144 0.043555465
0001b0 5d 65 91 3b 4a 7c a5 3b 3a 7b 88 3b 71 30 b8 3c
       0.0044371323 0.005050217 0.0041650804 0.022484036
0001c0 5f 44 86 3b 56 a8 bd 3b 00 00 00 00 ac 64 78 3b
       0.004097506 0.0057878895 0.0 0.0037901802
0001d0 70 a6 2d 3d ce 8e ec 3c 99 72 d6 3c 0c 6b a2 3b
       0.042395055 0.028876688 0.026177691 0.0049566086
0001e0 00 00 00 00 c4 98 14 3d fc 92 52 3c e7 8a 8d 3b
       0.0 0.0362785 0.012852427 0.004319537
0001f0 0d df 19 3d b0 43 cf 3c f5 51 b7 3b df 34 81 3b
       0.037566233 0.02530083 0.005594487 0.0039430703

flows.0.flows.1.param_map.net.4.bias f4 [2]
000000 45 7f c7 bc 3c e9 a9 3c
       -0.024352679 0.020741098

flows.2.flows.1.param_map.net.0.weight f4 [64, 1]
000000 db 17 2b bf db d3 ac 3d 6b 7e 3b bf 3b 7b e3 3e
       -0.66833276 0.08438846 -0.73239774 0.44429955
000010 3e cd 70 3f 95 e7 58 3f 3c 3c 4e 3e ee 0c dd be
       0.94063175 0.84728366 0.20140165 -0.43173927
000020 6f 70 8b 3e d6 6b ab 3e a6 46 42 bf d0 31 c7 3e
       0.27234218 0.3348071 -0.7588905 0.3890519
000030 ba 6c 17 3e 9c 00 81 bf 45 6c 32 bf ce f1 56 3f
       0.1478757 -1.0078311 -0.69696456 0.83962715
000040 c3 db e0 be 76 96 08 bf 37 46 53 bf 53 1c f2 be
       -0.43917665 -0.53354585 -0.82529014 -0.47287235
000050 6d a3 7e 3f 9d e0 3f 3f 05 77 66 3f 02 69 7c be
       0.9946812 0.7495211 0.9002536 -0.24649432
000060 07 d7 2c 3f ea 2e c4 3e a0 69 a8 3e 5c 4b 70 3f
       0.67515606 0.38317043 0.32893085 0.9386499
000070 b6 c2 ab bd 7e c1 1f be e6 5c 50 be 8e 85 ef 3e
       -0.083867475 -0.15601155 -0.20347938 0.46781582
000080 06 8d c6 3e 99 52 41 3f 6e d6 92 bd d2 4c 3b 3f
       0.38779467 0.7551666 -0.071698055 0.73164093
000090 c5 74 1c 3f 0a 8d 99 3e c4 12 e6 3e e4 58 78 bf
       0.61115676 0.29990417 0.44936192 -0.97010636
0000a0 1b 6c 96 be 2a 97 19 bf 87 8e d5 3e bf 5e 99 be
       -0.29379353 -0.59996283 0.41710302 -0.29955098
0000b0 25 43 43 bf 25 70 b6 3e eb 33 35 bf c4 8b 05 be
       -0.7627433 0.35632434 -0.70782346 -0.13041598
0000c0 e3 3c 58 3e df 3d 56 3f 89 ec 0f bf 43 b1 cb be
       0.21116976 0.8368816 -0.562203 -0.39783677
0000d0 44 df 8e be 33 90 82 be 9a 69 8b bd 5f cf 9d bc
       -0.27904713 -0.2550064 -0.06807251 -0.019263921
0000e0 96 68 13 3f 7b c9 20 bf eb 64 2a 3f 3c fe 6b bf
       0.5758146 -0.62807435 0.6656024 -0.92184806
0000f0 44 ca a2 3e 68 71 83 be c4 b5 cb 3e ed c8 f5 3e
       0.3179494 -0.2567246 0.39787114 0.48004857

flows.2.flows.1.param_map.net.0.bias f4 [64]
000000 2b 45 4c bf 28 d0 f2 3e 19 6b ed be 97 4b 2b 3d
       -0.7979304 0.47424436 -0.46370772 0.041820135
000010 f5 bf 48 be 05 02 55 bf ca 8f 57 3f de fe ff 3d
       -0.19604476 -0.83206207 0.8420378 0.12499784
000020 fb 04 11 3f d3 3b 39 bf ff 5d ea bd c5 73 9f be
       0.56648225 -0.7235691 -0.114437096 -0.31143013
000030 c2 76 8e be a0 cb 80 3e c0 3c 3b 3f 5c 02 e2 be
       -0.2782498 0.25155354 0.7313957 -0.44142425
000040 20 60 8d be 38 5c 0c 3e d0 fc 05 bf bc 2b 60 3f
       -0.276124 0.13707054 -0.52338886 0.87566733
000050 c9 1f 30 3f 79 97 76 3f 3f 66 e5 be bd ab 63 3f
       0.687985 0.9632488 -0.4480457 0.88933927
000060 4d da 27 be 72 c0 58 3f b6 50 0a 3f 3e 86 a8 3e
       -0.16391869 0.8466865 0.54029405 0.3291492
000070 a9 f1 54 3e 68 42 73 be c1 96 f9 3d 3c 6a 2c bf
       0.20795311 -0.237558 0.12186957 -0.673496
000080 9e 3a 82 be f0 1b 83 3f 3c 91 47 3f 35 8c 0b bf
       -0.25435346 1.0242901 0.77955985 -0.54510814
000090 3b 48 81 3f 95 8d 6e be 93 8c 16 be be f0 96 be
       1.0100168 -0.23296197 -0.14702062 -0.29480547
0000a0 07 d3 49 3f 63 21 2d bf 3b 09 4a 3f ee cc 75 bf
       0.7883763 -0.6762907 0.78920335 -0.9601582
0000b0 82 22 14 bf 7b 8c 1f 3f d8 92 2a 3f 1f 1c 7e 3b
       -0.57865155 0.6232373 0.66630316 0.0038774086
0000c0 e4 d4 36 bf eb e4 d9 be 69 41 fa be 4a b7 f5 3e
       -0.71418595 -0.42557463 -0.4887803 0.479914
0000d0 26 7f 03 3f c5 42 65 bf 81 70 0e bd f8 d1 4e 3f
       0.5136589 -0.8955501 -0.03477526 0.80789137
0000e0 df 0a ef be c2 08 1b bf 0a 0e 74 bf 64 9d 68 3e
       -0.4668798 -0.6056024 -0.9533392 0.2271629
0000f0 45 a7 4a 3f 65 e4 40 be 62 d3 05 3c 03 a7 28 3f
       0.79161483 -0.18837126 0.008168073 0.6587984

flows.2.flows.1.param_map.net.2.weight f4 [64, 64]
000000 c3 e7 85 3c 18 1f 53 3d 82 68 c0 3d 57 d6 3b 3d
       0.016345864 0.051543325 0.09394933 0.045858707
000010 1b 71 ac bc 08 81 4e 3d 5d a6 97 bd ef f0 1f 3e
       -0.021050027 0.050416023 -0.07404778 0.15619253
000020 82 d8 db 3d 52 62 5f bd c0 4d 01 bd c4 a6 3f 3d
       0.10734655 -0.054537125 -0.03156829 0.0467899
000030 43 bf 95 bd 97 b0 18 3e e2 a1 3a bd d0 fa d9 3c
       -0.07311871 0.14911114 -0.04556454 0.026608855
000040 a5 7a b2 bd 20 c3 c6 3d eb d3 53 bd e5 a5 09 3e
       -0.08714799 0.09705186 -0.051715773 0.1344219
000050 5c 0b ff 3c e7 38 5a bd 57 28 90 3d b3 4c 04 bd
       0.031133346 -0.053276923 0.07038944 -0.03229971
000060 39 53 d9 3d ca b5 6a bd 44 db 15 3e 21 5e ab bd
       0.106115766 -0.057302274 0.14634424 -0.08367563
000070 bb b0 e6 bb 95 57 d8 39 e0 a6 c3 3d 49 37 b6 bc
       -0.007040111 0.00041263984 0.09553313 -0.022243159
000080 d2 86 e2 3d 2e 83 75 3d eb d2 c3 3d 8d 4d bd 3d
       0.11060871 0.059939556 0.09561714 0.09243307
000090 40 22 71 3d 2b c1 d5 3d bb 71 07 3e 9d 22 a5 bd
       0.058870554 0.104372345 0.13226978 -0.080632426
0000a0 fc c2 0c 3e 1a d8 58 3d d0 b2 25 bd ef a2 9e 3d
       0.13746256 0.052940466 -0.040453732 0.07745921
0000b0 52 f8 6b bd 7a 72 66 3d 3f 68 e6 3d fa ef 34 3c
       -0.057609864 0.056261517 0.11250352 0.011043543
0000c0 c9 e2 16 3d f2 13 c1 bd 6a 55 e7 3c aa fc b0 bc
       0.036837373 -0.094276324 0.02823897 -0.021604855
0000d0 dc 47 f3 3d f0 82 b3 bd ae fd ba bd be e3 0d 3e
       0.118789405 -0.08765209 -0.09130417 0.13856408
0000e0 84 ea 7b bd 54 b0 c1 bc 1d e9 fd 3c 37 d3 90 bd
       -0.06150295 -0.02364365 0.030994946 -0.07071536
0000f0 3f 4d 80 bd a9 be c0 3d e5 5b 27 bd 82 dc a7 bd
       -0.062647335 0.094113655 -0.04085912 -0.081963554
000100 e7 2b 1b 3d 49 fe 14 3a 19 bf 9b 3d d3 b9 5b 3d
       0.037883665 0.00056836434 0.07604808 0.053644013
000110 52 1f 03 3e be 4e 2c 3d 0c ba 63 3d eb 52 bc 3d
       0.12804917 0.042067282 0.05559735 0.09195503
000120 b1 5e 90 3d 5d 3d 76 3d 45 bc af 3d 67 af 4b bc
       0.07049311 0.060117114 0.085808314 -0.012431956
000130 a2 cd e1 3c 42 fe 58 bd 29 a9 0b 3c ed c9 74 3c
       0.027563874 -0.052976854 0.008524218 0.014940721
000140 a4 7a 08 3e 44 49 af bd 29 e6 2e bd d0 ad 77 bd
       0.13328034 -0.08558896 -0.042699967 -0.060468495
000150 71 b3 f0 3d 1d 25 ba 3d d0 f6 f4 bd d2 43 22 bc
       0.11752976 0.0908911 -0.11961138 -0.009903865
000160 b7 06 89 bd fd 50 a5 3b 0c bd 9c bd de db 63 bd
       -0.06690734 0.005045055 -0.07653245 -0.055629604
000170 d4 49 b1 bd c8 90 57 3d 92 dc e0 3d b1 0e 92 3d
       -0.0865666 0.05262831 0.109795704 0.071317084
000180 91 d9 da 3d 47 89 3a 3d b9 06 eb 3d 07 e7 9d 3d
       0.10686029 0.045541074 0.114758916 0.077100806
000190 f2 8e e7 bc 5c 06 67 bd 65 a0 64 3c 57 46 f9 bb
       -0.028266404 -0.05640255 0.013954257 -0.007607262
0001a0 56 28 31 3d f0 9e e7 3d 11 4b 49 3b e7 76 76 3d
       0.043251358 0.11309612 0.003071491 0.060171988
0001b0 43 ca c1 3c d0 34 de bc 2f 02 a2 bd 06 78 0c 3c
       0.023656016 -0.027124792 -0.07910573 0.008573538
0001c0 b7 93 16 bd 74 25 c1 3c 16 90 be bc e0 ef 97 3d
       -0.036761966 0.02357743 -0.023262065 0.074187994
0001d0 5f 56 20 bd 69 3c bb bd 9c a2 fe 3c 7b e5 c5 3d
       -0.03914487 -0.09142382 0.031083398 0.096629106
0001e0 6f d2 b2 3d 17 09 42 3d 62 a7 eb 39 d8 bf 91 3d
       0.08731543 0.04737195 0.00044947403 0.071166694
0001f0 f7 2e ee 3d 75 ad 92 ba 92 cd ed bd 25 cf 67 bd
       0.116300516 -0.001119061 -0.11611475 -0.056594033
000200 77 24 a4 bd 47 f8 ef 3d e8 15 21 3d a2 3f 10 3c
       -0.080147676 0.11717277 0.039327532 0.008804234
000210 50 50 05 bd 73 2c e0 3d be 6e 8d bb 4f 7b c6 3b
       -0.032547295 0.10945978 -0.00431618 0.00605718
000220 8a a6 5d 3d 6a 8c 93 3d 6e 7e e8 3c 03 b7 ec 3d
       0.054113902 0.07204516 0.028380599 0.11558344
000230 94 92 24 bc ce 37 4f bd 16 ef 92 3c 71 c7 83 bd
       -0.010044713 -0.05059033 0.01793627 -0.06434525
000240 18 49 03 3b 0c 63 5c 3d 52 98 ff 3a 1e 3f 97 3c
       0.002003258 0.053805396 0.0019500351 0.018462714
000250 c7 db b7 bc ee a9 9e 3d 28 2b f0 3d 20 78 80 3d
       -0.022443665 0.07747255 0.117269814 0.06272912
000260 98 02 92 bd c4 b5 49 bd 0f 56 b9 3d 69 75 ac bd
       -0.07129401 -0.04924561 0.090496175 -0.08420832
000270 1a 33 94 bc 47 86 94 3d f2 98 a2 3d 8c f1 6a 3c
       -0.018090773 0.07252174 0.07939328 0.014339816
000280 5d fb bd 3d 96 53 d7 bc 82 23 72 3d a6 3e f4 bd
       0.09276459 -0.026284974 0.059115894 -0.11926012
000290 e0 0b f6 3d 8d 6e 93 bd ee 88 8e 3d 55 86 ab 3d
       0.12013984 -0.0719882 0.06959711 0.08375231
0002a0 ea 2c b6 bd eb 75 78 bb 6e 63 ba 3d 81 68 d0 bd
       -0.088952854 -0.0037912081 0.09100996 -0.101761825
0002b0 9d 48 d9 3d 80 10 49 bc 32 02 67 3d 00 c5 45 3d
       0.10609553 -0.012272 0.056398578 0.048283577
0002c0 11 dc b6 3d 78 37 cc 3d b4 0f 9d bc 51 e9 8a bd
       0.08928693 0.09971517 -0.019172527 -0.06782783
0002d0 bf 1c 16 bb 65 16 8e 3d 26 f2 df 3d 35 d5 8f bd
       -0.0022905318 0.06937865 0.10934858 -0.07023088
0002e0 e2 03 f8 bc 86 16 ec bc 86 53 f5 3d 2b 08 70 bd
       -0.030275289 -0.028819334 0.119788215 -0.05860154
0002f0 fe 16 f9 3d 7a 72 43 3d ff d1 37 bc 34 b8 13 3d
       0.121625885 0.047716595 -0.011219501 0.03606434
000300 63 47 90 b8 86 18 97 3c a5 ec 9c 3d 2a 93 d1 3c
       -6.879752e-05 0.01844431 0.07662324 0.025582869
000310 18 45 c2 3d 6f fa 6c 3c be c2 76 3d 6b ac 3d 3d
       0.09485835 0.014464005 0.060244314 0.04630701
000320 53 a0 e7 bd 87 16 71 bc d1 df e3 bd 29 6c 2a 3c
       -0.11309876 -0.014714844 -0.11126674 0.010401764
000330 16 ec af bd 8d d3 49 bb 0d 22 29 3c 6c ad 97 3d
       -0.08589952 -0.003079626 0.01032306 0.074061245
000340 50 b5 77 3d 17 45 c4 bd 94 7b 7a bc 5d 26 80 3c
       0.060475647 -0.0958349 -0.015288252 0.015643293
000350 59 66 83 3c b0 3d ab bc 9a a0 8a 3d bb 79 16 bd
       0.016040014 -0.020903438 0.067689136 -0.036737185
000360 c0 a6 4c ba 3c 28 96 bc 23 f4 f0 bc 28 35 82 3d
       -0.000780683 -0.018329732 -0.029413288 0.06357795
000370 2b 24 62 bd 78 36 93 bc 34 58 d1 3c 75 66 9f bc
       -0.055210274 -0.017970309 0.025554754 -0.019458035
000380 66 86 ac bd 25 b9 b7 3d 4d 34 4b bd be 83 f9 3d
       -0.08424072 0.089708604 -0.049610425 0.12183331
000390 02 ef d4 bc e1 7a 32 bd 94 bc 30 bc f1 c0 70 3d
       -0.025992874 -0.043574218 -0.010787148 0.058777753
0003a0 6a 1f 2b 3b 82 fb a0 bd 0d dd f7 bb 05 33 fb 3c
       0.0026111254 -0.07860471 -0.007564193 0.030663976
0003b0 0f 90 cc 3d 0f d2 9f 3d 0a ea e2 bd 1e d4 bc 3d
       0.099884145 0.07803737 -0.11079796 0.09220146
0003c0 83 70 de 3c ad ea e5 bd 73 fc 44 3d 24 ed cc 3d
       0.02715326 -0.112264015 0.048092317 0.100061685
0003d0 f1 31 2c bc 71 74 58 bd 28 aa ba bd ef c9 fa 3d
       -0.010509954 -0.052845422 -0.09114486 0.12245547
0003e0 90 cd 28 3d a0 ac 82 bd 64 71 ec ba df 95 a8 3d
       0.041211665 -0.06380582 -0.0018039164 0.08231711
0003f0 21 2f 08 3c c0 84 e3 3d 80 9d d8 bd c1 b8 f2 3c
       0.008312018 0.111093044 -0.10576916 0.029629113

flows.2.flows.1.param_map.net.2.bias f4 [64]
000000 73 79 fa 3d d2 d7 a7 3d 28 f0 81 3c de 41 74 bd
       0.12230196 0.08195461 0.015861586 -0.05963313
000010 e6 07 cc 3d 3b ac 93 bd 30 eb f4 3d 68 a7 59 3d
       0.09962444 -0.07210585 0.11958921 0.053138167
000020 56 88 26 3d 2b a6 36 3d ad b5 ca bd e8 0f 10 bd
       0.040657364 0.044592064 -0.09897933 -0.03517142
000030 6d 4d 56 3d 47 b5 fc 3c f6 a3 b7 bd e9 e8 18 bd
       0.052319933 0.030848159 -0.0896682 -0.037331495
000040 25 3b bd 3d 44 d8 56 3d b8 71 ff 3d aa 32 6b 3c
       0.092397965 0.05245234 0.12472862 0.014355341
000050 18 0a 1b bd c8 4b 93 3d b3 c8 f7 3c 93 40 03 bd
       -0.037851423 0.071921885 0.030247068 -0.032044005
000060 a7 0f 03 3e 47 4d bc 3b c8 c2 94 3d f9 92 a7 3d
       0.1279894 0.005746517 0.07263714 0.0818233
000070 ed 46 92 3b 4a ca 7c bd a7 7d 84 bd c7 e2 4f bc
       0.0044640214 -0.061716355 -0.06469279 -0.012688345
000080 b8 26 3c bd 22 84 de 3d 7c d4 6f 3d 53 48 66 3d
       -0.045935363 0.10865046 0.05855225 0.056221317
000090 dc 67 d5 3d fa f6 a8 3d 2a 5e 3b bd 24 94 a8 3c
       0.104202 0.08250232 -0.0457441 0.020578451
0000a0 ab b7 a6 3d 26 44 85 bc d0 be 9a 3d a5 8c 6c 3d
       0.08140501 -0.016267847 0.07555926 0.057751317
0000b0 60 0d 96 bc bd 67 3f 3d 35 b0 9a bd b0 19 e2 bd
       -0.018316925 0.046729792 -0.0755314 -0.11040056
0000c0 2d 01 26 bd 64 66 4a bd 0a 22 82 3d ec d2 4e 3d
       -0.040528465 -0.049414054 0.06354149 0.05049412
0000d0 d4 ba 9e bc 4e 78 93 3c 89 d9 af 3d 11 83 e1 3d
       -0.019376196 0.018001702 0.085864134 0.11011327
0000e0 fb 03 0e 3d 79 d9 4b 3d f5 d2 b9 bd 40 86 c6 bd
       0.034671765 0.049767945 -0.0907344 -0.09693575
0000f0 18 e8 63 3a 7e 06 a3 3a 6e 8a 23 3d 60 3c c3 bd
       0.00086939475 0.0012437848 0.03992694 -0.09533

flows.2.flows.1.param_map.net.4.weight f4 [2, 64]
000000 65 88 f4 3c e6 6b cc 3b c6 35 a9 3b 30 57 bf 3b
       0.029850194 0.0062384484 0.005163881 0.005839251
000010 99 7e 6a 3c 23 94 0f 3c aa 59 8c 3c 4f 36 25 3c
       0.01431241 0.008763346 0.017132599 0.010083749
000020 d4 51 c2 3b 73 53 cc 3b 0b 7c ad 3b 19 25 9c 3b
       0.005930165 0.006235534 0.005294328 0.0047651646
000030 00 00 00 00 00 00 00 00 8f ee 0b 3c c5 f2 88 3b
       0.0 0.0 0.0085407635 0.004179331
000040 f9 9c 94 3b f2 b5 92 3c cc 1a ce 3b 7d 59 91 3b
       0.004535314 0.017909024 0.0062898155 0.0044357167
000050 d6 48 ab 3b 52 49 ba 3b 6a ea 2d 3c 00 00 00 00
       0.0052271886 0.00568501 0.010614971 0.0
000060 ac f1 61 3c 00 00 00 00 e0 89 9a 3b 6d 37 50 3c
       0.013790529 0.0 0.004716143 0.012708527
000070 5e 60 ad 3b 00 00 00 00 ee 20 7f 3b 52 23 db 3b
       0.005291029 0.0 0.003892954 0.00668756
000080 26 3f 9e 3c 5d 20 78 3b 43 5c c3 3b e1 a4 02 3d
       0.01931722 0.0037861087 0.005961926 0.031895522
000090 0d 05 4d 3c 4a f3 db 3c 5b 21 94 3b 00 00 00 00
       0.012513411 0.026849408 0.004520578 0.0
0000a0 ac ca 8e 3b aa 3e 85 3c 5d d8 de 3b 57 33 a9 3b
       0.0043576565 0.016265232 0.006800695 0.005163591
0000b0 bf a1 03 3c 40 48 87 3b 17 03 ae 3b d0 fb 85 3b
       0.008034169 0.004128486 0.005310427 0.0040888563
0000c0 98 3d c4 3c fc b5 3e 3c 31 8c 81 3b 06 67 d5 3b
       0.023955151 0.011640068 0.0039534797 0.0065125255
0000d0 67 2f 03 3c d5 11 9a 3b 22 c7 9d 3b a4 2b 7b 3b
       0.008006907 0.004701833 0.0048149982 0.0038325572
0000e0 34 d9 c8 3b 65 ff 82 3b eb b3 df 3b 51 a1 a1 3b
       0.0061294083 0.0039977306 0.006826868 0.0049325605
0000f0 4d b7 11 3c 68 c1 02 3c 50 74 91 3b 1d 88 69 3b
       0.0088938 0.007980682 0.0044389144 0.0035634108
000100 d0 fa f5 3c 5e 19 01 3b db f8 02 3b 6e e6 0c 3b
       0.030026823 0.0019698958 0.0019984755 0.0021499651
000110 8d c8 80 3c 33 c2 27 3b cc 1d c1 3c c4 58 36 3b
       0.01572063 0.002559793 0.023573779 0.0027823905
000120 67 89 15 3b 46 d7 28 3b 34 08 07 3b 07 34 fe 3a
       0.0022817494 0.0025763079 0.0020604255 0.0019394167
000130 00 00 00 00 00 00 00 00 a0 8d 50 3b 7f b9 02 3b
       0.0 0.0 0.0031822696 0.001994699
000140 4f 7f 21 3b 75 aa 8b 3c ad 04 fc 3a 2c 38 30 3b
       0.0024642532 0.017049054 0.0019227468 0.002688895
000150 e9 8e 14 3b eb 11 f6 3a 3c 0a 8d 3c 00 00 00 00
       0.002266819 0.001877365 0.017216794 0.0
000160 37 cd a7 3b 00 00 00 00 17 79 23 3b aa e4 3c 3b
       0.005120899 0.0 0.0024944001 0.0028822818
000170 16 ad 02 3b 00 00 00 00 89 a7 11 3b 1c 1a 32 3b
       0.0019939593 0.0 0.0022225103 0.0027176207
000180 a4 e7 b2 3b 7a bd 0f 3b 19 29 14 3b 64 77 15 3d
       0.0054597426 0.0021933005 0.0022607504 0.036490813
000190 e1 3d 1f 3c 55 a9 fd 3c a1 66 13 3b 00 00 00 00
       0.009719343 0.030964533 0.0022491592 0.0
0001a0 2c 2e 09 3b 7c 76 69 3b be 1c 14 3b 16 94 0d 3b
       0.0020932062 0.00356236 0.002260014 0.0021603159
0001b0 34 11 15 3b d9 5f 1c 3b b8 89 fc 3a 4b dd 04 3b
       0.002274585 0.002386084 0.0019267118 0.0020273502
0001c0 7f d9 e3 3c 88 db 5b 3b b5 b3 19 3b ae 38 1d 3b
       0.027813671 0.00335476 0.002345306 0.0023990083
0001d0 af db 18 3b 8f c3 18 3b 80 b7 05 3b 6e e6 16 3b
       0.00233243 0.0023309921 0.0020403564 0.002302553
0001e0 c7 6c f2 3a 96 98 2f 3b 61 9e 42 3b 87 bd 1f 3b
       0.0018495553 0.002679383 0.0029696452 0.0024374442
0001f0 ac 7d 24 3b 94 56 16 3b dc d0 14 3b af dd 13 3b
       0.002509932 0.0022939788 0.0022707498 0.0022562554

flows.2.flows.1.param_map.net.4.bias f4 [2]
000000 32 4a 11 3c 1e 10 98 3b
       0.008867787 0.004640593

flows.4.flows.1.param_map.net.0.weight f4 [64, 1]
000000 65 5e c1 3d 41 c8 77 be f0 ac 11 3f 3a e9 68 3f
       0.094418325 -0.24197485 0.56904507 0.90980875
000010 06 16 3e be 14 5c 16 be 0b 64 20 3f 8c e8 d6 be
       -0.18563089 -0.14683563 0.62652653 -0.41974294
000020 37 f9 1e be ac 72 1f 3f 24 a7 4a 3f 72 b6 a0 3e
       -0.15524755 0.6228435 0.79161286 0.31389195
000030 4f ba 2e 3f a7 5c 48 3f 07 07 51 bf 53 4c e9 be
       0.68253034 0.78266376 -0.8165135 -0.45566043
000040 d0 31 32 bf a7 1d 56 bf 15 4d f5 3e e4 c4 9f be
       -0.6960726 -0.83638996 0.4791037 -0.31204903
000050 29 d9 c4 3e a4 0c 22 3e d9 2c 5d bf 33 5a c0 be
       0.3844693 0.15825135 -0.8639656 -0.37568817
000060 d0 ac 3e 3f 14 b0 35 bf 7d a4 a2 3d 5b 28 f3 bb
       0.7448244 -0.709718 0.0794153 -0.007420582
000070 22 ad 6e 3f d8 01 0f bf fa 5d 04 bf 75 aa 13 3f
       0.9323293 -0.5586219 -0.51705897 0.5768197
000080 12 16 82 3f 36 b9 29 bd 38 5f 6c bf 7f 11 45 3d
       1.0162985 -0.041436397 -0.9233279 0.04811239
000090 41 5f c1 3e 25 2f 23 bf 33 b5 4c be 29 33 3f 3f
       0.37767985 -0.6374381 -0.19990997 0.7468744
0000a0 12 bd 0b 3f b0 6c 3c bd 38 f8 79 3f 68 74 59 3f
       0.54585373 -0.04600209 0.97644377 0.84943247
0000b0 42 4c 13 3f 97 29 14 bf d9 bb f8 bd 54 e3 30 3f
       0.57538235 -0.5787596 -0.12145204 0.69096875
0000c0 59 bd d0 3e 61 70 4d bd 4b 1c de be ba e4 5b bf
       0.4076946 -0.050156 -0.4338096 -0.85895884
0000d0 95 95 10 bf 2f eb 0c bf 35 ee 81 3e 6e 4c b9 3d
       -0.56478244 -0.5504636 0.2537705 0.09047781
0000e0 3a 10 14 be 9c 7c c7 3e 6d 4d c6 be 9b 65 4c 3e
       -0.14459315 0.38962257 -0.38730946 0.19960634
0000f0 ac 2c 55 3f c5 99 82 be a8 62 0d 3f e8 2a b5 3e
       0.8327129 -0.25507942 0.5522866 0.35384297

flows.4.flows.1.param_map.net.0.bias f4 [64]
000000 31 10 19 be c7 bd 6b 3f a7 77 78 bf 08 f5 5c bf
       -0.14947583 0.9208645 -0.97057575 -0.8631139
000010 04 7a f5 be 99 05 cb be da 20 0e bf 77 10 55 3f
       -0.47944653 -0.39652708 -0.5551888 0.8322825
000020 75 0a 0d bf f5 f5 75 3e 49 05 18 3e 6f 09 30 3f
       -0.5509408 0.24019606 0.14845766 0.68764395
000030 73 db 00 bf 35 62 cc be 90 b0 14 3f fb de 72 3f
       -0.5033485 -0.39918676 0.58081913 0.9487149
000040 f7 9a 75 3f 31 45 52 bf fa dd aa 3e c3 23 81 3f
       0.9593958 -0.8213683 0.3337248 1.0089039
000050 95 e2 b0 be de 77 2d 3f 35 17 51 bf e5 90 45 bd
       -0.34547868 0.6776103 -0.81676036 -0.048233885
000060 66 96 4c 3e a0 d9 5d bf 9d 86 fd 3e 41 b2 dd be
       0.19979247 -0.86660194 0.49516764 -0.4330006
000070 38 19 28 bf f4 91 6f be b0 f7 2c bf 46 e9 cb 3d
       -0.6566348 -0.2339552 -0.6756544 0.09956603
000080 62 7e 45 3f 9e 4e 7f bd 09 92 18 3f c1 79 2d bf
       0.7714597 -0.062330835 0.5959783 -0.67763907
000090 49 fd 37 3f 9a f9 3e be fd a7 6a bd 74 cd 88 be
       0.7187086 -0.18649903 -0.057289112 -0.26719248
0000a0 94 70 44 be 7b 20 5a bf b6 ae 3e 3f 78 5e 29 bf
       -0.1918357 -0.8520581 0.7448534 -0.6615977
0000b0 59 c2 a2 3e 6e 0b 46 bf 6e f0 3b 3f f2 c5 6e bf
       0.317889 -0.7736119 0.7341374 -0.9327079
0000c0 ec 82 04 bf 10 88 d3 3d be ad 63 bf 17 ff 83 bd
       -0.5176227 0.10328686 -0.88936985 -0.06445139
0000d0 3d d8 a4 b7 f2 8f 16 3f 10 7d 03 3f dd 28 2e bc
       -1.9651017e-05 0.58813393 0.51362705 -0.01062986
0000e0 4e e6 e0 3e c6 8a a3 3e bf 1b 4e 3f 2e 04 a3 3e
       0.4392571 0.31941813 0.8051109 0.31839126
0000f0 65 73 c3 be 44 6f 17 3f 4c 9e db be ef d3 c4 bd
       -0.38173977 0.5915415 -0.42894208 -0.096107356

flows.4.flows.1.param_map.net.2.weight f4 [64, 64]
000000 a5 c5 fe 3b 06 85 1c be 9f c2 2d 3d d8 12 0d 3e
       0.007775026 -0.1528512 0.042421933 0.1377672
000010 26 9e 01 bc 1c 3d 7b bc 10 3a 47 3b 35 7d 94 bd
       -0.007911241 -0.015334394 0.0030399598 -0.07250444
000020 be e7 54 3d 44 54 43 3d 8b b1 e5 3b c9 39 cb bc
       0.05197882 0.047687784 0.00700969 -0.024807828
000030 d5 e1 9c bd f4 87 92 bc 45 51 71 bd 5c 2b a5 bc
       -0.076602615 -0.017887093 -0.058915395 -0.020162277
000040 32 72 9e bd 49 1b 77 bd f6 fa a8 3d f9 47 0c 3d
       -0.07736625 -0.060328756 0.08250992 0.034248326
000050 5a bc 0f bd d5 97 ea 3d 19 61 86 bd 6e ee 76 bd
       -0.035091735 0.11454741 -0.06561489 -0.060285978
000060 59 d3 d9 bd c3 6a fd b7 90 7e 5b 3c 74 bc cc bb
       -0.106360145 -3.0209665e-05 0.013396874 -0.0062480513
000070 ea 2f 06 3e 8e 9a 8b 3d e6 b8 80 3d ff 91 79 bd
       0.13104215 0.06816588 0.062852666 -0.06093025
000080 4a 86 95 bd da 9a 6a bd 88 df 76 3d cc 84 00 bd
       -0.07301004 -0.057276584 0.06027177 -0.031376645
000090 5e 2f c3 3a 33 f0 95 bd 66 f5 93 3d 0c 04 c2 3d
       0.0014891436 -0.07321205 0.072245404 0.09473428
0000a0 90 be d9 3d 52 bb b5 bd cb 9a 7a bd ea e9 82 3d
       0.1063205 -0.08873619 -0.06118278 0.06392272
0000b0 35 07 8a 3b e0 de 04 3d 74 e1 bc bd 15 3d fc 3d
       0.004212285 0.032439113 -0.09222689 0.12316338
0000c0 43 74 29 bd e4 7e c2 bd 15 4e 51 bd b2 27 72 2f
       -0.04137064 -0.09496859 -0.051099855 2.2023874e-10
0000d0 bb e0 26 3d 52 1f 85 bd a3 15 03 3e be 57 4b ba
       0.040741663 -0.065001145 0.12801223 -0.000775691
0000e0 a7 67 16 bd 6e 97 de bb 5b 2e 33 bc ba 8c e5 3d
       -0.036719944 -0.006792954 -0.010936345 0.11208482
0000f0 51 fd 3f 3c e6 aa 17 3d 25 2e 17 bd 39 ab e3 3d
       0.01171811 0.037028216 -0.03690924 0.111166425
000100 d9 e3 94 bd c5 85 ba 21 79 32 59 3d 5e 31 c0 bd
       -0.07270021 1.2639259e-18 0.05302665 -0.09384416
000110 f0 f8 7b 3d 28 ad 8b 3b 13 d0 89 bd 5c e3 42 bc
       0.061516702 0.004262585 -0.0672914 -0.011895027
000120 1f f8 2d bd 13 b1 e7 bc 7c 45 8d bb 83 24 6b bd
       -0.042472955 -0.028282678 -0.0043112617 -0.057407867
000130 a0 61 9f bd 54 dc 3d 3d 99 a6 8b 3d 2b 90 93 bb
       -0.07782292 0.0463527 0.06818885 -0.00450327
000140 c7 1a 80 b9 07 cc d1 bc 70 99 a5 bd 2d 92 91 3d
       -0.00024434013 -0.025609983 -0.080859065 0.07107959
000150 e2 aa 73 bc 2b cd d8 ba f3 ca 83 3c de 24 a1 3d
       -0.014872285 -0.0016540637 0.016087985 0.0786836
000160 5b 64 ae 3d d8 d4 a5 bd ce 20 f8 bb 35 ac 87 bd
       0.08515235 -0.08097237 -0.00757227 -0.06624643
000170 55 5b 90 bd 4c 4e c6 b6 7d 53 5a bd 8f e4 f5 bc
       -0.0704867 -5.909975e-06 -0.053302277 -0.030016212
000180 75 bd a0 bd 7b 1d c6 25 5a 36 91 3d 61 36 a9 b6
       -0.07848636 3.4367502e-16 0.07090445 -5.042923e-06
000190 01 e5 a2 bd 57 4a 8f 3b 44 eb 05 3b 2a 35 80 3c
       -0.07953835 0.0043728757 0.0020434419 0.01565035
0001a0 c0 53 84 ba 40 78 5e a3 35 e3 98 bd aa dc ab 3d
       -0.001009576 -1.2060108e-17 -0.07465211 0.08391698
0001b0 d8 6a 29 bd c8 15 57 3c 97 9f a8 bd 98 e5 b7 3d
       -0.04136166 0.013127752 -0.08233564 0.089793384
0001c0 62 67 cb 38 25 fb 1d 3d 8c 7a 97 bd 74 cb c2 3c
       9.699051e-05 0.03856959 -0.07396421 0.023778655
0001d0 fb 71 8e 3d 14 54 be 3d f4 58 b7 a8 d6 5a c8 3c
       0.06955334 0.092933804 -2.0355659e-14 0.024457376
0001e0 04 44 d4 bc 70 34 d7 3c c1 f3 27 3d 3f 5e b6 3d
       -0.025911339 0.026270121 0.041003946 0.08904695
0001f0 65 3c b5 33 e9 f2 70 29 8b 15 75 b7 bd af 0e bd
       8.439455e-08 5.3501396e-14 -1.4608154e-05 -0.034835566
000200 67 73 cf 3d 14 42 dd bc 02 47 95 3d 9e a6 64 bd
       0.10129433 -0.027009048 0.07288934 -0.05582296
000210 00 e2 d1 3b 6d a5 cb 3c a2 5a 17 3d 32 49 33 bd
       0.006405115 0.024859155 0.03695167 -0.043770976
000220 06 9e 92 bd 3e ee 37 3d ee 27 07 3d 8b 5e 8c 3d
       -0.07159047 0.04490494 0.032997064 0.0685397
000230 34 3c 3e bd c1 8f a6 bb 2f 49 de bc b2 32 4c 3d
       -0.046444133 -0.005083055 -0.027134506 0.049853034
000240 02 09 67 3d 62 b5 91 3d 7d 8b a7 bd 96 c3 d6 3d
       0.056405075 0.07114674 -0.08180902 0.10486524
000250 bb ca 9e 3d 5b 4e 31 3b 9f 96 9e 3d d7 44 54 3c
       0.077535115 0.002705476 0.077435724 0.012955866
000260 91 33 7a bc 88 39 2d 3b 5a 88 b2 bd 99 70 1d bd
       -0.015271083 0.0026431996 -0.08717413 -0.03843746
000270 ac d1 ad 3d af 92 97 3d e8 b3 a4 bd 68 e8 f1 3d
       0.08487257 0.074010246 -0.08042127 0.11811906
000280 fc 7d 50 3d 2d 5b b7 3a 23 1c 29 3c 12 ad 08 bd
       0.050901398 0.0013988964 0.01032165 -0.033368178
000290 13 0e cc 3d 39 83 a9 3b 89 6e a5 3d 59 95 6f 3d
       0.09963622 0.0051731137 0.080777235 0.05849204
0002a0 b6 0d 70 3d a1 3b b0 bd 2e f6 43 3d 7e d1 2c bd
       0.058606826 -0.08605123 0.047842197 -0.042191975
0002b0 af f7 b3 bd 33 74 96 34 2a 41 0b 3e 83 d7 e3 bc
       -0.08787476 2.8024223e-07 0.13599077 -0.027812725
0002c0 11 7b 30 3d b9 7c 22 3d 26 1f 6c 3d 1a 7c b0 3d
       0.043086115 0.039669726 0.057646893 0.086174205
0002d0 0e b5 73 37 ad ff 15 3e 45 91 af 3d e9 e4 bf bd
       1.4526084e-05 0.14648314 0.0857263 -0.09369833
0002e0 00 e4 f0 3d 71 11 fa 3d 88 14 70 bc 51 0d ed 3d
       0.117622375 0.12210358 -0.0146533325 0.115748055
0002f0 65 fe b6 bd 21 c4 c4 3d 54 f7 f3 3d 6b 2e 77 bd
       -0.08935241 0.09607721 0.119124085 -0.060347002
000300 c0 6a 55 bd 38 9b 39 bd f6 fc 05 3d 89 25 40 bd
       -0.052103758 -0.045314044 0.032711945 -0.046910796
000310 fa 56 36 bd 0e 9c 3f 3d ae cd 00 bc 43 60 d0 3d
       -0.04451654 0.046779685 -0.007861538 0.101746105
000320 68 fe 63 b6 3d 48 4f 3c 38 32 33 3d 57 97 ab bd
       -3.397372e-06 0.0126515 0.043749064 -0.08378475
000330 a5 c0 86 3b bf 67 62 3d a6 57 84 3d 05 25 b7 3d
       0.0041123205 0.05527472 0.0646203 0.08942608
000340 9b b2 38 3d 01 c0 f5 ba 5a ff c5 bc f0 3a d9 3d
       0.045092206 -0.0018749238 -0.024169613 0.106069446
000350 fe 65 d7 3c 77 be 98 3d 96 e8 11 bd c3 a2 80 bc
       0.02629375 0.07458203 -0.0356222 -0.01570261
000360 14 d8 14 bc 2f db b2 3d 8c 39 ed 3d f7 c0 85 3d
       -0.00908472 0.08733212 0.11583242 0.06530946
000370 25 a0 9b 3d 23 9e a2 bd 35 d0 23 bd 9b c6 2b bd
       0.075989045 -0.079403184 -0.039993484 -0.04193745
000380 aa 48 50 bd 76 fc ba bd 12 55 a8 3d 2f 3a cb bd
       -0.050850548 -0.09130184 0.08219351 -0.09923207
000390 31 bf 5d 3d 56 cc 5a bc c4 7d 4c a8 1e 9f b6 3d
       0.054137412 -0.013354382 -1.1351546e-14 0.08917068
0003a0 a1 78 a0 3d 04 48 88 bd 3b bf d9 3c 1d cb ed 3d
       0.07835508 -0.06654361 0.026580444 0.116110064
0003b0 89 cb 2e bd 75 78 14 3d c2 72 95 bc 81 44 fb bc
       -0.042674575 0.03624769 -0.018243197 -0.030672314
0003c0 a2 5b 30 bd 5a 08 d1 39 66 b2 fe bc c3 c7 83 bc
       -0.043056138 0.0003986981 -0.031090926 -0.016086465
0003d0 93 95 d1 bc 51 86 4a 3d 23 fa fc 3c aa c0 0e 3d
       -0.025584018 0.0494445 0.030880993 0.034851708
0003e0 bc 5a 6e 3d c6 16 38 3d 39 0f 1f 3e 56 5a c6 3b
       0.058192 0.044943593 0.1553315 0.0060532494
0003f0 4a 27 b1 bd 2c 6e 79 3d c6 13 c1 bd e1 07 8e bb
       -0.08650072 0.060896084 -0.094275996 -0.0043344353

flows.4.flows.1.param_map.net.2.bias f4 [64]
000000 52 03 15 be 1e 39 01 3d 42 1c 76 3d 2a 40 87 3d
       -0.14552048 0.03154861 0.060085543 0.06604035
000010 03 6c f0 3d 24 a2 4b bd 0e 90 00 bd c9 1d 23 3c
       0.117393516 -0.049715176 -0.03138738 0.009955832
000020 61 80 cd 3d ff be 15 3d f1 3e b7 bd ae fe f9 3c
       0.10034252 0.0365591 -0.08947552 0.030516949
000030 40 db dd ba 48 60 91 3d c1 8f 9b bd c7 88 c3 bd
       -0.0016926304 0.07098442 -0.07595778 -0.095475726
000040 c4 4a 59 3d f9 f8 bf 3d ac 46 59 3d f6 09 7b ba
       0.053049818 0.0937366 0.053045914 -0.00095763744
000050 77 f4 c8 3d 8c 53 d6 3c cb c1 fa ba d3 a7 6d bd
       0.09812253 0.026162885 -0.0019131241 -0.058021378
000060 48 de 14 be 0b 40 ad 3d fc ae 37 bd 58 41 19 bc
       -0.14537919 0.08459481 -0.044844612 -0.009353958
000070 6e 6e c1 3c ac e4 8c 3c 43 30 77 bc ae 24 06 bd
       0.023612227 0.017198883 -0.01508719 -0.032749824
000080 c4 9f 34 bd b2 ce b3 bd 09 57 14 bd a6 7f 0c 3e
       -0.044097677 -0.087796584 -0.036215816 0.13720569
000090 dd 95 92 bc 0d f3 1a 3e 53 ff c4 bc fc 1d 24 bd
       -0.017893726 0.15131779 -0.02404753 -0.040067658
0000a0 b3 06 06 3e a1 4e 02 3d 98 d8 13 be 2f e2 4a bc
       0.13088493 0.031813268 -0.14438093 -0.012383028
0000b0 26 5f 59 3d fe 53 de 3d fd 5b 6e bc ab 4d 49 bd
       0.053069256 0.10855864 -0.014548299 -0.049146336
0000c0 67 7e 91 bd 80 c5 ee bc c6 ee b4 3d 5c 7f a9 3c
       -0.071041875 -0.02914691 0.08834605 0.020690612
0000d0 1b d9 7e 3c 5f 81 4b bb b2 9e fb bd ac 91 7b 3d
       0.015554692 -0.0031052453 -0.12286128 0.06141822
0000e0 84 1d ce bd fa 86 0a be 98 f8 e5 bb 6a b7 aa bc
       -0.100642234 -0.13528052 -0.00701816 -0.020839412
0000f0 1b 6b ce 3d c7 d8 aa bd ed df a0 3d f0 08 07 3d
       0.100790225 -0.08342128 0.078552105 0.032967508

flows.4.flows.1.param_map.net.4.weight f4 [2, 64]
000000 45 07 b1 3c 00 00 00 00 1d 16 b9 3c 68 8b 03 3d
       0.021609912 0.0 0.022593552 0.03211537
000010 b9 98 0f 3d 00 00 00 00 5c db b9 3c 00 00 00 00
       0.035057757 0.0 0.022687607 0.0
000020 c4 37 9e 3c ce b5 be 3c 06 94 c5 3c e2 49 97 3c
       0.0193137 0.02328005 0.024118435 0.018467847
000030 9e 8d f5 3c 9d a3 a0 3c 41 6c 97 3c 7e 0c aa 3c
       0.029974755 0.019609267 0.018484237 0.02075791
000040 35 17 a2 3c 7c c0 ed 3c d1 6f d6 3c 00 00 00 00
       0.019786457 0.029022448 0.026176365 0.0
000050 2c 1f 9d 3c 00 00 00 00 00 00 00 00 50 88 8c 3c
       0.019179903 0.0 0.0 0.017154843
000060 c2 08 a4 3c 1b bf 96 3c f6 24 b3 3c fa b2 af 3c
       0.020023707 0.018401673 0.02186821 0.021447647
000070 00 00 00 00 f1 af ca 3c 51 2c 09 3d f2 f5 46 3a
       0.0 0.024742099 0.03348953 0.00075897493
000080 a3 86 bb 3c a6 73 8e 3c 00 00 00 00 28 15 e8 3c
       0.022891348 0.01738913 0.0 0.0283304
000090 00 00 00 00 f9 3b 8a 3c 00 00 00 00 47 04 99 3c
       0.0 0.0168743 0.0 0.018678797
0000a0 06 cb e2 3c c2 2e ee 3c 1f 0b cd 3c 06 1b bc 3c
       0.0276847 0.02907503 0.025029717 0.022962105
0000b0 cb 6b f3 3c cc 8d ce 3c af ae 94 3c 24 38 b2 3c
       0.029714486 0.025214098 0.018149702 0.021755286
0000c0 00 00 00 00 00 00 00 00 d0 15 94 3c 15 70 b0 3c
       0.0 0.0 0.018076807 0.02153782
0000d0 fa 75 06 3d 00 00 00 00 fd f6 9d 3c 00 00 00 00
       0.032827355 0.0 0.019282812 0.0
0000e0 dc 43 91 3c 79 34 96 3c 00 00 00 00 4e 9f ce 3c
       0.017732553 0.018335568 0.0 0.025222447
0000f0 96 dc 0c 3d ef a4 9c 3b 00 00 00 00 d4 74 1b 3d
       0.034390055 0.004780404 0.0 0.037953213
000100 8e 87 5a bb 00 00 00 00 fc 49 90 3a c7 ec 91 3c
       -0.0033344957 0.0 0.0011008377 0.0178131
000110 ab 4f 1b 3d 00 00 00 00 df 51 91 3a 00 00 00 00
       0.037917774 0.0 0.0011087022 0.0
000120 ad 21 06 b9 97 c4 28 3d 33 4b 9d bb 4b 1d 90 ba
       -0.00012791781 0.041203108 -0.004800224 -0.0010995058
000130 e4 a3 e2 3c c5 9f d6 b9 43 9c c5 ba 78 68 05 bb
       0.02766604 -0.00040936298 -0.0015076477 -0.0020356458
000140 06 64 60 ba d2 2c f3 3c 86 b2 3f 3c 00 00 00 00
       -0.00085598265 0.029684458 0.011700278 0.0
000150 0d 40 9d ba 00 00 00 00 00 00 00 00 55 f4 79 ba
       -0.0011997238 0.0 0.0 -0.00095350045
000160 92 e8 0a bb 28 c7 a2 ba 2d 06 be 3a ac 47 f4 ba
       -0.0021195752 -0.0012418972 0.001449769 -0.0018637083
000170 00 00 00 00 86 45 00 bc 87 67 12 3d 93 48 5b 3c
       0.0 -0.007829076 0.035743263 0.013384002
000180 c2 89 6a bb 24 0e b8 ba 00 00 00 00 e3 42 8b 3c
       -0.0035787676 -0.00140423 0.0 0.016999668
000190 00 00 00 00 43 cd 31 3d 00 00 00 00 49 4d c5 ba
       0.0 0.043408643 0.0 -0.001505294
0001a0 18 f3 85 3c c3 b7 b4 3c a6 5b ea bb eb 99 bd ba
       0.016351268 0.02206028 -0.0071520386 -0.0014465427
0001b0 85 54 e7 3c e3 01 9c 39 76 03 26 ba 52 4e 24 3d
       0.028238544 0.00029756044 -0.0006332913 0.040113755
0001c0 00 00 00 00 00 00 00 00 34 9c 2b 3d 23 ea 14 bb
       0.0 0.0 0.041897014 -0.0022722564
0001d0 29 b2 11 3d 00 00 00 00 7a 1c c3 ba 00 00 00 00
       0.035570297 0.0 -0.0014885806 0.0
0001e0 e4 cd a1 ba d8 4b a5 ba 00 00 00 00 61 25 62 3b
       -0.0012344685 -0.0012611104 0.0 0.0034507143
0001f0 2f 58 26 3d 2e ac 69 3c 00 00 00 00 16 1c 22 3d
       0.040611442 0.014262242 0.0 0.039577566

flows.4.flows.1.param_map.net.4.bias f4 [2]
000000 b2 b3 a6 3c 06 49 b1 3c
       0.020349357 0.021641266

flows.6.flows.1.param_map.net.0.weight f4 [64, 1]
000000 13 68 05 bf 9e 46 56 3f 9d ae c7 be 9f 6f 16 3f
       -0.5211193 0.83701503 -0.39000407 0.5876407
000010 55 40 b0 3e b3 f7 8e 3e 83 64 9b be ca 5a 41 bf
       0.3442408 0.27923355 -0.30350122 -0.7552916
000020 48 d0 ef 3c be c0 7e bf 9b 88 ab bd b0 9e bf be
       0.02927412 -0.9951285 -0.08375665 -0.37425756
000030 77 84 ff 3e 20 a1 4d bf 2b e3 7d 3f 16 d9 4b be
       0.4990575 -0.8032398 0.99174756 -0.1990703
000040 09 af 30 3f 2f c5 a2 3e a4 64 04 bf 6f ed b2 be
       0.6901708 0.31791064 -0.51716065 -0.34946772
000050 b6 3a 33 3f c4 d9 49 3f f6 0d 38 bf 8d 5b 1e bf
       0.7001146 0.7884791 -0.718963 -0.61858445
000060 eb 34 f9 3e 05 8d 3d bf d1 10 1c bf f2 b5 46 3f
       0.48673186 -0.74043304 -0.6096316 0.77621377
000070 e2 41 18 bf 87 e7 5a 3f 8a c0 5d bd ca 1c 79 be
       -0.5947553 0.8550953 -0.054138698 -0.24327388
000080 88 b5 c7 be 1e 45 c7 be 9d c8 3d bf b9 e8 05 3f
       -0.39005685 -0.3891992 -0.74134237 0.5230823
000090 5b fb 1d bf 26 02 74 3f 57 37 2b 3f 5c 51 88 3e
       -0.61711663 0.9531578 0.66881317 0.26624572
0000a0 94 e8 a3 3c 32 2d 23 bf 37 ef 12 bf 69 09 40 3d
       0.020008363 -0.6374084 -0.5739626 0.046883974
0000b0 5c 16 f5 3e e3 5f b0 2c 2d d7 01 3f 72 e0 46 bf
       0.4786862 5.0128664e-12 0.5071896 -0.77686226
0000c0 1a 88 f1 3e 50 78 dc 3e 36 fe 43 3e a9 1a 70 bf
       0.4717415 0.4306054 0.19139943 -0.9379068
0000d0 c8 76 7f 3e 78 c5 a5 3e 1a 4f e6 3e 37 42 e6 3e
       0.24947655 0.3237722 0.44982225 0.44972393
0000e0 3b 57 8a be 4a 1f 2f 3f ab 07 7c bf f3 0b a9 be
       -0.27019677 0.6840712 -0.984492 -0.3301693
0000f0 41 e1 41 bf 62 2f 4e 3e e7 54 e1 3d 43 8e b0 bd
       -0.75734335 0.20135263 0.11002522 -0.08620884
