macros/GregFlow/models/November_04/run_1_2flows_48hl_64hu_128bs_checkpoint_e0.pth (torch, 981856 bytes, 290 tensors)

q0.loc f4 [1, 2]
00000000: d876 89bb aa8c 23bb
-0.0041950755 -0.0024955668

q0.log_scale f4 [1, 2]
00000000: acbd bdbb fd9b d7bb
-0.005790433 -0.0065798745

flows.0.flows.1.param_map.net.0.weight f4 [64, 1]
00000000: fbd1 92be 7906 48bf b45a 353e 07c8 84be
00000010: b43f fdbe 97b9 a1be cb9d df3e fdf0 7d3f
00000020: ac27 683c 7aaf 313f 975d 693f 83cf 653f
00000030: f0de 6b3f 2dc1 7ebf ab53 423f fed4 333f
00000040: 1815 aabe 3771 4a3f 5763 14bf d555 153f
00000050: 855e ad3e eeff 2dbe a331 58bf f994 7c3f
00000060: 2d65 95be 1156 55bf 25fa 253f d878 163e
00000070: 0400 cdbd 5177 04bf efc6 c73e b330 263f
00000080: fbec 2bbf f5bf ea3e 389b f43e 1139 913e
00000090: c5ef 333e a11a e8be 99f9 a3be eedc bcbe
000000a0: 5497 723f 9b71 b3be def3 c0bd 0f83 913d
000000b0: 22b3 243f 1700 483e e976 a03d 8f2f 183f
000000c0: 015b f5be 6ed4 383f 3ccd 24bf 2db8 c83d
000000d0: 90a3 533e 3b91 353e a8ca f5be ad1a a53e
000000e0: 4907 11bc 8c09 603f 36ff 1fbf 210a 2e3f
000000f0: 1374 943e e130 70bf 517f 80bd d773 533f
-0.28675827 -0.78134876 0.17710382 -0.2593386 -0.49462664 -0.31586906 0.43675074 0.99195844
0.014169615 0.6940838 0.9115843 0.8976976 0.9213705 -0.9951351 0.7590892 0.70246875
-0.33219218 0.79079 -0.5796408 0.58334094 0.33861175 -0.1699216 -0.8445074 0.98664814
-0.29178753 -0.8333445 0.64834815 0.14694536 -0.100097686 -0.5174456 0.39018962 0.6491806
-0.6715848 0.45849577 0.47774673 0.2836385 0.17571934 -0.45332816 -0.32026365 -0.36887306
0.9476216 -0.35047612 -0.09421514 0.071050756 0.64335835 0.19531284 0.0783518 0.5944757
-0.47920993 0.7219914 -0.6437566 0.09800754 0.20667863 0.17731182 -0.48006177 0.32246915
-0.008851835 0.8751457 -0.62498796 0.67984205 0.28994808 -0.93824583 -0.06274284 0.8259863

flows.0.flows.1.param_map.net.0.bias f4 [64]
00000000: f4ff 663e 2a51 493d 4095 68bf 612e 45bf
00000010: b9a1 48bf 2cba eebe 677b aebe 3e2a 68be
00000020: 6a23 013f 181c 673f 4c05 8d3e ac07 c3bd
00000030: 0d5e 41bf cde7 dd3d b996 20bf 45ef de3e
00000040: 8ddb 24be 4895 09bf a87b 933e ae02 aebc
00000050: e0ed bf3e 56fb 69bf abc6 363e 15f0 7d3f
00000060: de25 09bf ed38 c63e ffce 3a3f f8cf 4d3d
00000070: 932c f63d 53c7 e4be 6664 5dbf 9776 8a3e
00000080: 59c8 113e d9a9 57bf 8612 91be 8b6b 7bbf
00000090: 268e 443f ba9a 243f 67b1 473f d741 6cbe
000000a0: 13cc a7be 1aaa 0b3f 6615 ee3e bacc 143f
000000b0: 558f 51be e751 77bf c4c7 803f 51cd 1fbf
000000c0: d712 6e3f 7ed7 143f ea76 64bf fb9d 58bf
000000d0: d3e4 9a3e 2d54 ae3e 77ff e0bd f29f 453e
000000e0: e9c2 18be dd62 40bf 2c21 51bf 3bd7 79bf
000000f0: a5c6 6abe 2808 e13e 8824 1a3f 9f99 cdbe
0.22558576 0.04914967 -0.9085274 -0.77023894 -0.7837177 -0.46626413 -0.34078524 -0.22672364
0.5044466 0.9027724 0.27543104 -0.09522948 -0.75534135 0.10835228 -0.62729985 0.43541923
-0.16099377 -0.5374341 0.2880528 -0.021241512 0.37486172 -0.91399133 0.17849223 0.9919446
-0.53573406 0.38715306 0.729721 0.050247163 0.120202206 -0.44683322 -0.8648132 0.27043602
0.14236583 -0.8424354 -0.28334445 -0.9821097 0.767794 0.64298594 0.7800507 -0.23071991
-0.32772884 0.5455643 0.465007 0.5812489 -0.20464833 -0.9660935 1.0060964 -0.6242266
0.929975 0.58141315 -0.8924395 -0.8461606 0.30252704 0.34048596 -0.10986226 0.19299296
-0.14918102 -0.75150853 -0.8169124 -0.9759404 -0.2292734 0.43951535 0.6021199 -0.40156266

flows.0.flows.1.param_map.net.2.weight f4 [64, 64]
00000000: 1f30 0c3e 5770 d4bb eee5 adbc 6582 433c
00000010: 568b bebd 3c83 cabd 230f 0c3d 4c0b 333c
00000020: 6886 87bd 9f51 823d 4715 bbbc 426d e53d
00000030: 2434 f4bd 1c14 87bd 185b 69bd 48c4 d9bd
00000040: 8cd6 b73d 3512 ce3d 336c 0a3e a7df 70bb
00000050: c23a 80bd 4b39 d4bb de3a 3a3c a016 bcbd
00000060: 9a21 81bd 6b90 e5bc 0c5e 79bd bd28 cabc
00000070: 4417 04bc d83c dabc 8584 803c 9f9e d33b
00000080: 6406 8b3d f7d5 db3a 4035 b8bd a450 bb3d
00000090: c300 063e 9bd2 2ebd f83c d13d b9ba 6f3d
000000a0: f6f3 9ebd 5660 543d a195 043e c73c 06bd
000000b0: c755 0dbd 11cd 7bbd f87c 3dbd cd6a 64bd
000000c0: 86c3 a3bc 7c07 443d a8d4 ee3d 0a28 6ebb
000000d0: 6079 093e bfbc 94bc 8933 ce3d e244 9a3d
000000e0: 6d8d 403d 3db8 97bd 45fb 55bd f738 85bd
000000f0: d663 a3bd d696 2d3d 3612 3dbd 336c f13d
00000100: e0c2 e13d 4425 84bd 0eaf d73d 36b1 953d
00000110: 8960 723a dbad d73d 6586 463c cc7e df3d
00000120: c916 c4bd fb05 62bd 4c3e f63c 4f1c ac3d
00000130: 6c8f adbc 0892 163d 1ddd de3d e349 31bb
00000140: ce3e c4bd 7f9e 323d fdb4 b93d 381b 01bd
00000150: 2360 87bd 471f dabb ed48 a43d 6984 d5bc
00000160: cced 3ebd 48b1 383c 606a 803d 55ca 1e3d
00000170: 1ef1 abbd acc5 5fbd 4edf 0dbd 98e9 65bc
00000180: 30b3 9a3c 50d6 1ebb 8bba 953b c6b5 9f3b
00000190: 1746 53ba f1bc 9dbd 6ab9 ce3c 4d8f 163d
000001a0: 5432 913d a7c1 38bd 6ce1 f93c 9b40 a8bd
000001b0: 3346 843d 6a04 65bc 0112 bebd 997d 9abd
000001c0: 819b a2bb f3f3 d1bd f979 7d3a 7836 923c
000001d0: 5536 5e3c ed0f 9a3d eaea ddbc 8876 d8bd
000001e0: 400b 51bd 3986 debd 3df3 94bd f558 4a3d
000001f0: 274a 3f3d 0666 023e e010 013e df9d 53bc
00000200: 5ba5 573d 16a7 98bd 1b3a 703c 3a1a 153d
00000210: 26b5 d23c 68f4 e5bd d268 12bb acef 18bd
00000220: bc02 a63d 260a 853d 2535 263d 4b03 a73d
00000230: b4da 4d3d 6ebb 53bc 2c5d 8f3d f928 d6bc
00000240: 82b1 55bc 068d 843d db69 e53d bc3c 183d
00000250: b3f4 ab3d 3537 c3bd 7dd1 ac3c ddbd 903d
00000260: 45c0 803d 2936 8abd 3fe5 ba3c fa98 2a3d
00000270: 6328 e9bd ee57 a63c 9977 a2bb 2115 c6bd
00000280: 9b38 223d 20fa 7abb acc8 ee3d 38c4 f43b
00000290: d444 d13d c919 f03b 38ad 22bb 9ad3 98bd
000002a0: 899c 94bd cfd3 acbd 497b a8bd ff70 8cbd
000002b0: c505 c43d b367 483d e3a4 ce3c 97f9 61bd
000002c0: 91d7 a53b 6838 a73d 5b28 54bd 4af9 89bd
000002d0: 73df e1bd 2d25 0b3d ae01 af3d 8405 00bd
000002e0: 7415 cfbd 65ab fc3c fee6 903d fa4f abbd
000002f0: 1187 563d 9e28 c0bd 115b 423d fce7 a33b
00000300: 9e12 d73d 30a2 ff3d 761e ba3b a36f 5b3d
00000310: d637 df3d 9ec4 18bd 80fd 9bbd 42ca b23d
00000320: 5c37 3cbd f9d6 d03d 087d dc3d f63d 5d3d
00000330: 19d9 acbd 7399 24bc 29b3 c9bd e554 bf3d
00000340: 2883 27bd e246 ec3d 0b86 083d c3a2 49bd
00000350: 56f0 2dbd 8c52 7c3c 2001 013e 61c0 75bc
00000360: 0923 30bb a77d dd3c d6ed 6fbd 3891 c03d
00000370: 7b8d 833d 58fe 023c f5d0 9e3d 76d6 893d
00000380: 7b30 62bd 4e3c 7ebb bcaa c1bd e9e5 81bc
00000390: 927e 67bd e858 84bd f0cc 3e3d 7038 dbbd
000003a0: 0446 a7bd 80bb 1fbd 72f5 2f3d e555 293d
000003b0: d876 0b3d b158 c1bc 3168 d83d 0395 bcbd
000003c0: 65f2 8bbd e3fb 883d dd88 ffbc 08a7 8c3d
000003d0: f64c c33b 03f7 f13c 5c39 1ebb 8f9e 6fba
000003e0: e6dc d9bd 008b 9ebd e11a 94bd 7382 7e3d
000003f0: 0be9 49bd d114 d93c 0636 25bb 7524 813c
0.13690232 -0.0064831185 -0.021227803 0.011932944 -0.0930392 -0.09888312 0.034194123 0.010927986
-0.06617433 0.06363224 -0.022837294 0.1120248 -0.119240075 -0.065956324 -0.05697164 -0.10633141
0.089764684 0.100620665 0.13517837 -0.00367544 -0.06261207 -0.0064765564 0.011366574 -0.09184003
-0.06305237 -0.028022965 -0.060880706 -0.024677629 -0.008062188 -0.02664034 0.01568819 0.006458118
0.06788328 0.001677214 -0.08994532 0.0914624 0.13086228 -0.042681318 0.10216707 0.058527682
-0.077613756 0.051849686 0.12947704 -0.032772806 -0.03450563 -0.061474863 -0.046261758 -0.055765916
-0.019990694 0.0478587 0.11661655 -0.0036339783 0.13425207 -0.018156407 0.10068423 0.075326696
0.047009874 -0.074081875 -0.052241582 -0.06505006 -0.079780266 0.042380176 -0.046159945 0.117882155
0.110234976 -0.0645242 0.10531436 0.07309191 0.0009245952 0.10531207 0.012117003 0.109128565
-0.095746584 -0.055181485 0.030059002 0.08403837 -0.021186553 0.03676036 0.10882018 -0.0027052097
-0.095822915 0.043608185 0.09067724 -0.0315201 -0.066101335 -0.0066565606 0.08021722 -0.026064115
-0.0466135 0.011272736 0.062702894 0.038767178 -0.08395599 -0.054631874 -0.034636788 -0.014032744
0.018884271 -0.0024236627 0.004569357 0.004873964 -0.00080594554 -0.07702053 0.025234897 0.036757756
0.070896775 -0.045106556 0.030502997 -0.082154475 0.06458702 -0.013978103 -0.09280778 -0.07543487
-0.004962385 -0.10251608 0.00096693594 0.017848238 0.013562758 0.07522569 -0.027089555 -0.10569483
-0.05103612 -0.10865445 -0.072729565 0.049401242 0.046701577 0.12734231 0.12604094 -0.012916057
0.05264793 -0.07453744 0.014662291 0.036401965 0.025721144 -0.112282574 -0.002234031 -0.037337944
0.0810599 0.06496076 0.040578026 0.08154925 0.0502574 -0.012923105 0.07000193 -0.026142584
-0.013042809 0.064722106 0.11201831 0.037167296 0.08396282 -0.09532014 0.021095986 0.070674635
0.062866725 -0.067486115 0.022814391 0.041649796 -0.11384656 0.0203056 -0.004958105 -0.09671999
0.039604764 -0.0038296059 0.11659369 0.00746968 0.10218206 0.0073272926 -0.0024822485 -0.07462235
-0.07256419 -0.08438837 -0.0822664 -0.0685749 0.09571413 0.04892702 0.025225108 -0.055169668
0.005061098 0.081650555 -0.0517963 -0.06737001 -0.11028948 0.033971 0.08545242 -0.03125526
-0.10111514 0.030843446 0.07075308 -0.08364864 0.052374903 -0.09382747 0.04745013 0.00500202
0.10501598 0.12482107 0.0056799008 0.053573262 0.10899322 -0.037296884 -0.07616711 0.08729984
-0.045951232 0.10197253 0.10766035 0.05401417 -0.084398456 -0.010046351 -0.09848625 0.09342364
-0.040896565 0.11536957 0.03333096 -0.049227487 -0.04246553 0.01540054 0.12598085 -0.01499948
-0.0026876351 0.027037455 -0.058576427 0.09402698 0.0642347 0.007995211 0.07754699 0.06730358
-0.055222016 -0.0038793269 -0.09456393 -0.0158567 -0.05651719 -0.0646227 0.046582162 -0.10704124
-0.08167651 -0.038997173 0.042958684 0.04134168 0.034048885 -0.023601862 0.10566748 -0.09208109
-0.068333425 0.066886686 -0.031193191 0.06867796 0.005960102 0.02953673 -0.0024143076 -0.00091407535
-0.10637836 -0.07741356 -0.07231689 0.062136125 -0.049294513 0.026499184 -0.0025209202 0.015764454

flows.0.flows.1.param_map.net.2.bias f4 [64]
00000000: 69f6 093e 83ef dfbb 8afd 2c3d 34a3 1f3d
00000010: ff29 2eb0 1170 833d d652 8d3d af13 053e
00000020: 664b 97bd 67ef c0bd 8945 bbbd c1f0 e53d
00000030: aee8 57bd dcc7 8cbd 8d4b 97bd 58d1 66bd
00000040: b616 b83c db88 103d 343f 05bd 2f15 9d3d
00000050: 771b bc3d 4392 3c3d b165 d53d 6727 493d
00000060: 188c 04bd 1885 88bd 4039 70bd a1f7 39bd
00000070: 98f9 4dbc 1d2d d83d a054 0cbc 64b8 933d
00000080: 9f4f 2c3d 9b46 03bc 638c df3c 5662 7d3d
00000090: 1061 6c3d 3150 c2bd 066d b13c d248 053d
000000a0: 7211 b3bc 59f4 00bd b535 333d 73f4 cebd
000000b0: 1dc0 6abd d2a7 093d 60a3 21b9 10c4 03bd
000000c0: 3933 19bd 2fa9 f83d f20e 7abc cdfe 21bd
000000d0: 4427 ccbd 1eba cbbd 6dc1 abbd b833 0abd
000000e0: 61e1 37bd a8e4 343d f5b9 d03d aab0 e73c
000000f0: ade2 583d b676 c93d 669e e1bd 70fb 3bbd
0.13472904 -0.006833972 0.04223398 0.038974002 -6.336051e-10 0.06417859 0.06900565 0.1299579
-0.07387428 -0.094206624 -0.09144122 0.11227561 -0.052712135 -0.06874058 -0.07387457 -0.05635199
0.022471767 0.035286766 -0.03253098 0.07670056 0.09184926 0.046037924 0.10419787 0.049109843
-0.032360166 -0.066660106 -0.058648348 -0.045402173 -0.012571715 0.1055548 -0.008565098 0.07212904
0.04206812 -0.008012439 0.027288621 0.06186136 0.057709754 -0.094879515 0.021658432 0.03254015
-0.021858905 -0.031483028 0.04375239 -0.10105219 -0.05731212 0.03360731 -0.00015415018 -0.0321694
-0.037402365 0.12141644 -0.015262352 -0.039549638 -0.09968427 -0.099476084 -0.083865024 -0.03374073
-0.044892672 0.044163376 0.101917185 0.028282482 0.05295055 0.098370954 -0.1101654 -0.045894086

flows.0.flows.1.param_map.net.4.weight f4 [2, 64]
00000000: cd1e 65bb dc96 a5bb d54b 63bb 8a7f 6bbb
00000010: 0000 0000 7fa4 4ebb bf63 67bb 735e 45bb
00000020: 6d9d 2fbb f7b6 5fbb 0000 0000 9600 3dbb
00000030: d42b eabb 6cce 44bb 4e61 d4bb 65b9 bdbb
00000040: 0000 0000 ab2c 7ebb a81b dcbb 63db 5abb
00000050: 9131 36bb 5ce6 39bb 1a25 79bb a21c 46bb
00000060: 51f1 31bb 34b0 8ebb 81bd c8bb a7b3 70bb
00000070: 0000 0000 672b faba ad3f d0ba 2c36 68bb
00000080: b411 6ebb de0b 61bb 985f aebb 0135 4ebb
00000090: 0c8d 6bbb 230a 03bc 3c81 1ebb 815d 34bb
000000a0: 0000 0000 66b3 54bb bd83 5abb 487d 57bb
000000b0: 0000 0000 40c8 a0bb 0000 0000 0000 0000
000000c0: b25f 18bb 94ea 81bb 0000 0000 d858 77bb
000000d0: 0000 0000 3e59 d5bb 2df7 37bb 2194 c4bb
000000e0: 9384 60bb ba04 52bb cb38 53bb 0792 82bb
000000f0: be67 70bb 0000 0000 0000 0000 0000 0000
00000100: 6425 42bc 8d9e 3dbc 3627 8bbb 8826 ddbb
00000110: 0000 0000 af4d c0bb 5464 dbbb aec2 c3bb
00000120: 23ec debb 8805 05bc 0000 0000 ffbe c8bb
00000130: af5a 2dbc 14c8 b8bb 80cb 43bc 7e54 2bbc
00000140: 0000 0000 a2a5 84bb 09e5 65bc 62de babb
00000150: 35af dcbb 254a 37bc d52b ddbb e328 dfbb
00000160: 0e29 c7bb 79f9 2abc 878a 4bbc 3d85 05bc
00000170: 0000 0000 9b4d 11bc 9346 02bc 0778 92ba
00000180: c314 e0bb 35d9 2fbc b138 6abc b42b e6bb
00000190: 1fef febb 89fd 7bbc e945 cabb 82b2 ebbb
000001a0: 0000 0000 6443 09bc 319c 6b3a fbc9 cbbb
000001b0: 0000 0000 4a9f 06bc 0000 0000 0000 0000
000001c0: 4967 dfbb eb76 123c 0000 0000 f0b3 f13b
000001d0: 0000 0000 1cf1 6bbc 141c 54bb 9192 49bc
000001e0: c414 83bb 4463 06bc 679c f7bb e596 183b
000001f0: 074d c6bb 0000 0000 0000 0000 0000 0000
-0.0034960986 -0.005053384 -0.003468265 -0.0035934174 0.0 -0.0031531153 -0.0035307256 -0.003011611
-0.0026796714 -0.0034136155 0.0 -0.002883946 -0.007146338 -0.0030030264 -0.006481326 -0.005789923
0.0 -0.0038783948 -0.006717164 -0.0033394925 -0.002780054 -0.0028366065 -0.00380165 -0.0030229469
-0.0027151892 -0.004354501 -0.0061261063 -0.0036728175 0.0 -0.0019086421 -0.0015888117 -0.003543268
-0.003632647 -0.0034339349 -0.0053214543 -0.0031464698 -0.0035942225 -0.007998022 -0.0024185916 -0.0027521553
0.0 -0.0032455563 -0.0033342682 -0.003288107 0.0 -0.004906684 0.0 0.0
-0.0023250398 -0.0039647315 0.0 -0.0037742164 0.0 -0.0065108826 -0.0028070912 -0.0059991037
-0.0034258708 -0.0032046274 -0.0032229896 -0.003984693 -0.003668293 0.0 0.0 0.0
-0.011849735 -0.011573446 -0.0042466177 -0.006748978 0.0 -0.0058686356 -0.0066953097 -0.0059741354
-0.006803052 -0.0081189945 0.0 -0.006126284 -0.010580703 -0.0056390855 -0.011950374 -0.010457156
0.0 -0.0040480653 -0.014031657 -0.0057027796 -0.0067347535 -0.011187111 -0.00674961 -0.006810294
-0.006077892 -0.0104354555 -0.012423164 -0.008149442 0.0 -0.0088686 -0.0079513965 -0.0011174687
-0.0068384125 -0.010732939 -0.014295743 -0.007024253 -0.0077799703 -0.015380272 -0.0061728847 -0.0071929106
0.0 -0.008377884 0.0008987813 -0.0062191463 0.0 -0.008216688 0.0 0.0
-0.0068177325 0.008939485 0.0 0.0073761865 0.0 -0.014400747 -0.0032365369 -0.012303011
-0.004000278 -0.008202378 -0.0075564864 0.00232833 -0.006051663 0.0 0.0 0.0

flows.0.flows.1.param_map.net.4.bias f4 [2]
00000000: 51aa 27bb 349c d7bb
-0.0025583694 -0.0065799

flows.2.flows.1.param_map.net.0.weight f4 [64, 1]
00000000: 1497 febe 2868 ca3d f060 4a3f ca72 623f
00000010: 4ef4 28bf 9f16 1f3f 9473 0b3f 3507 50bf
00000020: c18a 1b3d 2788 4cbf be7e 533d 1f53 16bf
00000030: 3273 14be b7e4 a0be 4a0e 693f 767a 38b4
00000040: 7671 ca3e 467e 573f effb e93e 5e66 04bf
00000050: 46d4 59bf 2135 df3e f34a 2bbe ae2b a9be
00000060: 54de 2e3f af96 f03e a25b 5abf e63b 613f
00000070: 285f 5cbf b9d3 403f 18ab 193f aa46 3abf
00000080: 2634 473f 9f50 063d 7923 d4be b090 c9be
00000090: fc8a 3e3f 7f9a 01bf 70a2 74bf 87eb 593e
000000a0: e698 aa3e b090 eebc 6834 5b3f 0d00 283f
000000b0: 0e18 39be 4e83 403e 2dcb 29bf af48 a63d
000000c0: 2d39 88be 0c2c 223f 229d 3abe de59 4f3f
000000d0: 689f 6ebf 52ea 993e 7ac3 183d 4a3f 2b3f
000000e0: b933 30bf c897 343f 2a0c c0be 2ccf 2cbf
000000f0: 734a 58bf 8049 423f 5fce dabe 3a55 edbe
-0.49724638 0.098831475 0.79054165 0.88456404 -0.6599778 0.6214389 0.54473233 -0.81261
0.037974123 -0.7989525 0.051634543 -0.5872058 -0.14497069 -0.31424496 0.9103743 -1.7180886e-07
0.3953969 0.8417705 0.45700023 -0.517187 -0.8508953 0.43595222 -0.1672781 -0.33041137
0.68307996 0.46989962 -0.8529607 0.8798202 -0.86082697 0.75323063 0.60026693 -0.72764075
0.7781395 0.03279173 -0.41433313 -0.393682 0.74430823 -0.5062637 -0.9556036 0.21281253
0.33319777 -0.029121727 0.8562684 0.6562508 -0.18075582 0.18800089 -0.66325647 0.08119332
-0.26606122 0.6334846 -0.18224004 0.809965 -0.93211985 0.30061585 0.037295796 0.66893446
-0.6882892 0.705441 -0.3750928 -0.6750362 -0.844886 0.758934 -0.42735574 -0.46354085

flows.2.flows.1.param_map.net.0.bias f4 [64]
00000000: c15a 1fbf 12bb 28bf 11eb 09bf ba19 de3d
00000010: 6b6d 3a3f ba0c 36bf d047 b53d 9333 ddbd
00000020: b06d 153e 16f9 51bf 1629 6abf a734 14bf
00000030: 41b0 763f e78e 90be 101a 003f f939 fdbe
00000040: 984d 00bf 8886 4ebf b69b 3bbf 2970 3abf
00000050: 4bbf 833e a39a b23e b09f 36bf 014d 3dbf
00000060: 2303 613f 6051 9e3e 3d5c 9abe 8297 493e
00000070: 7dbb fbbe d9e4 2dbf 0b25 303f 4940 ca3e
00000080: 9d0c 5abf 5844 07be a942 01bf 3d81 0ebf
00000090: f305 833d 2ac5 9a3d b5b7 0b3e e8c4 a7be
000000a0: e4af 4cbf 8438 533c 17db ef3d 6c1a eebe
000000b0: 902a a53e b339 08bf 2fa0 103f 2803 6abf
000000c0: 6d24 e0be e0be de3e 4305 923e 195a 1abb
000000d0: 3391 ba3e ccbf b1be 73ec 713f 1288 42bf
000000e0: 01d9 61bf 77b8 0b3f 6517 f7be 5f97 43be
000000f0: 71e6 073f 480a edbe 95bb 733f 4cb7 143f
-0.62247854 -0.65910447 -0.5387431 0.10844751 0.7282321 -0.7111317 0.08851588 -0.108008526
0.14592624 -0.820207 -0.9146894 -0.5789284 0.9636269 -0.28234026 0.5003977 -0.49458292
-0.501184 -0.8067403 -0.7328447 -0.7282739 0.25731882 0.34883603 -0.71337414 -0.73945624
0.8789541 0.3092146 -0.30148497 0.19686702 -0.4916648 -0.6792732 0.68806523 0.3950217
-0.85175496 -0.13209665 -0.5049234 -0.5566595 0.06397619 0.07557137 0.13644297 -0.32767415
-0.7995589 0.012891892 0.1171171 -0.46504533 0.32259035 -0.5321304 0.5649442 -0.91411066
-0.4377779 0.43505 0.2851964 -0.0023552238 0.36438903 -0.34716642 0.9450142 -0.75988877
-0.88221747 0.54578346 -0.48260036 -0.19100712 0.53086 -0.46296906 0.952081 0.5809219

flows.2.flows.1.param_map.net.2.weight f4 [64, 64]
00000000: dd85 81bd 5af4 a1bc ae16 10b7 4b09 a03d
00000010: 1903 b4bd 2c3e 01bd f2bb 113d 5054 2dbb
00000020: 87d0 eebc 6ce6 e53d c0e8 4738 d6b8 cf3d
00000030: a82b b13c 5bc2 363c ea68 de3d 1d7a e4bd
00000040: 77eb 84bd 2e1f f4bc eb12 8839 00d2 b33d
00000050: 0963 94bd da32 053d 9841 c43c f7db 90bd
00000060: e900 d13d 4203 c9bd 193c debd 02ec 96bc
00000070: 7465 fcbb eab4 c4bc c4f9 a5bd 2e38 0bbc
00000080: 0ddd 333c 2d6d a23d 12d7 c83d e2f4 91bc
00000090: 1de0 a03d 447d 8cbd 8f8e c9bd b258 24bd
000000a0: 0663 5cbd 6078 78bd dbcd 98bd ec70 bd3c
000000b0: f700 b5bd efba c13d f440 04bc 5d41 88bd
000000c0: 8c7c a5bc b498 83bd bbfc b73d 6cca c23d
000000d0: 4750 32bc 57c8 253c aba5 8cbd a80e c93d
000000e0: fa50 32b9 af91 893d fb69 503a ed85 2abd
000000f0: 5416 2fbd a479 5e3c 7f91 8dbd eb9a 8bbd
00000100: 4630 41bd 5b5b 523d e3ae 893d c48a 6bbd
00000110: 8dbf 4cbd 7554 8c3d a98d 57bd 043e 81bd
00000120: f7f1 273d 9851 16bd e85c 343c d078 8abd
00000130: ac9f c1bd 71dc 313d c16c d9bd 826c 603d
00000140: dfb9 d0bd 3612 a93d 5912 dbbd 6a66 133d
00000150: ed78 953c deef 353d c45a d83c f77d f43b
00000160: e2da dcbc 9e8f d3bc 5286 80bd 55f9 c73d
00000170: 82b3 7dbd dfc6 383d 8ec6 90bd 515f c13d
00000180: 5aa5 34bb 1243 d4bd 216c adbd 2654 af3d
00000190: ac61 ebbc 5313 67bc 62ff 75bb fb68 8c3d
000001a0: b0fd 643c 4f83 94bd f476 ae3d 4e9a 1a3d
000001b0: 48e4 6bbd f5c3 963d 9efe 983d fcd7 fd3b
000001c0: 1589 80bd 971f a8bd 0abb 973c 826c d6bd
000001d0: 8176 8b3c 1bcb 78bd 453c ce3c 94a5 d73b
000001e0: d504 1abc 5102 683a b6d7 debd 7738 283d
000001f0: 6259 3e3c f538 3b3d f509 903c c2a0 f1bc
00000200: 0297 9d3c 9f04 133d cc19 4bbd c9a7 cabd
00000210: 9f76 373d 9bf9 35bd 4ce4 4b3d 465b eb3d
00000220: eb71 9a3d 8af5 953d 0d0c 9f3d 0420 0a3b
00000230: 0283 8bbd 7808 b43d e38d 643d da2c dbbd
00000240: b757 f4bd 61da 8c3d 1497 94bb b357 fdbb
00000250: e988 dfbc 7bc9 d53d 42c4 213d 8c49 1ebb
00000260: 86f3 b43c b54c 12bd 1f46 a4bd f7c6 cb3d
00000270: 70dc 5ebd 6990 e0bb 9f0b e8bd 103a 103d
00000280: bba5 bb3d e504 833b ff9e 1fbd 73ba d3bd
00000290: 386a 8b3d 1bb4 bebd 735b d33c 49e5 c23d
000002a0: af96 9b3d 7eae 63bd cb53 b5bd e2d6 bbbd
000002b0: 96fd b7bd d293 4436 7f88 0b3d d840 dcbd
000002c0: e563 853d de47 fcbc 24ac c0bd 9680 c0bd
000002d0: 7f55 a93c ae12 08bd 9c9e 073e c98f 43bc
000002e0: d4e2 7cbd 93c9 d23d ff44 353d 0d6c ea3d
000002f0: 345d b2bd 39ef c23d 4c0f d03d c2d0 a039
00000300: 3b14 923a d6f2 bfbd fe8d 743d 8cf0 073e
00000310: 80ba cc3d 773b 5d3d 3726 193d 3cde 543d
00000320: 0096 6cbd 505d 833a b61c 9f3d 9238 04bd
00000330: 7286 b9bd cafb 9fbd 510c 87bd e233 353d
00000340: 5ce6 eb3d 2e49 253d 0086 9c3d 5057 a43d
00000350: 2c94 b53d 4be8 203d 8be5 afbd 30ed 6ebc
00000360: 85ad 94bd ca0f 23bd 4dfa a03d 68e9 f63a
00000370: ba2a 483c fbc2 733d f563 573d 2726 723c
00000380: b00a b03d bd0c a33c 4031 db3b be1e e9bc
00000390: 25db 00bd 09af 503d 1f96 9ebd aeca 133c
000003a0: 26f0 9bbd 0146 d2bd f9fe df3d d4cd cc3b
000003b0: baa6 7abd c889 9e37 d259 db3d 57cd 943c
000003c0: b0aa 9c3d b3d8 073c 22a1 28bd 241e ee3d
000003d0: 17b5 a1bd 0fac 253d 1d99 213d 74de b43d
000003e0: 071a 8a3d 6c94 6fba 1716 e5bb 9143 d2bd
000003f0: 00f4 92bd 45c4 c7bd 96c4 b93d 9a7f e4bd
-0.063243605 -0.019769836 -8.588349e-06 0.078142725 -0.08789653 -0.031553432 0.03557963 -0.002644796
-0.029152168 0.1122559 4.7662063e-05 0.101426765 0.021627262 0.011154736 0.108598545 -0.11156104
-0.06490224 -0.029800024 0.00025954036 0.08780289 -0.07245452 0.0325192 0.023957059 -0.07073205
0.10205252 -0.098150745 -0.108513065 -0.018423084 -0.007702524 -0.024012048 -0.0810428 -0.008497281
0.010977996 0.0793098 0.098066464 -0.017816965 0.07855246 -0.0685983 -0.09841644 -0.04012365
-0.053805374 -0.060661674 -0.07461139 0.023125134 -0.08838075 0.09459483 -0.008072127 -0.06653092
-0.02020099 -0.0642561 0.089837514 0.09511265 -0.010883397 0.0101185655 -0.06867536 0.098172486
-0.00017005569 0.0671724 0.00079503626 -0.041631628 -0.042745903 0.013578806 -0.06912517 -0.06816658
-0.047165178 0.051356655 0.0672281 -0.057505384 -0.049987365 0.068520464 -0.052625332 -0.06310657
0.04100224 -0.036698908 0.011008479 -0.067613244 -0.09454283 0.04342312 -0.10616446 0.05479098
-0.10191702 0.082554266 -0.10696859 0.03598634 0.018246138 0.04441821 0.026410468 0.0074613052
-0.02695984 -0.025825318 -0.062756196 0.09764353 -0.06193877 0.045111533 -0.07069121 0.09442008
-0.0027564378 -0.10364355 -0.084678896 0.08560972 -0.028733097 -0.014103728 -0.0037536253 0.06855961
0.013976499 -0.072516076 0.08518782 0.037744813 -0.057590753 0.073615946 0.074704394 0.0077466946
-0.06276146 -0.0820915 0.018521804 -0.10469915 0.01702428 -0.06074057 0.025175223 0.0065810177
-0.009400566 0.0008850443 -0.10880987 0.041069474 0.01161799 0.045708615 0.017582873 -0.0294956
0.019237045 0.03589308 -0.04958515 -0.09895284 0.04479086 -0.044427495 0.049778268 0.114920184
0.075412594 0.073222235 0.077659704 0.0021076212 -0.06812097 0.08790678 0.055799376 -0.10701914
-0.11930793 0.0687759 -0.0045346115 -0.007731402 -0.027286964 0.1043882 0.039493807 -0.0024152724
0.022088777 -0.035717685 -0.08021187 0.09950059 -0.054409444 -0.0068531525 -0.113303415 0.035211623
0.0916247 0.003998386 -0.03896999 -0.10338297 0.06807369 -0.09311696 0.025800442 0.09516389
0.075971 -0.05558633 -0.08853873 -0.09171845 -0.089839146 2.9292319e-06 0.03406572 -0.107545555
0.06513194 -0.030795988 -0.09407833 -0.09399526 0.02067065 -0.03322094 0.13244098 -0.0119361365
-0.061739758 0.102923535 0.044255253 0.1144639 -0.08709183 0.09518284 0.10159168 0.00030673115
0.0011144945 -0.09372489 0.059705727 0.13275355 0.099965096 0.05401179 0.03738996 0.05196975
-0.05776024 0.0010022316 0.07769148 -0.032280512 -0.090588465 -0.07811697 -0.06594146 0.044238932
0.11518547 0.040352993 0.07642746 0.08024466 0.08866152 0.03928403 -0.08588704 -0.014582917
-0.07259659 -0.03980998 0.07860241 0.0018837871 0.012217218 0.05951212 0.05258556 0.014779604
0.085957885 0.019903535 0.0066892207 -0.028457042 -0.031458993 0.050948177 -0.07743477 0.009020491
-0.07614164 -0.102672584 0.10937304 0.0062501226 -0.06119416 1.8899227e-05 0.10710491 0.01816432
0.076497436 0.008291411 -0.041169293 0.116268426 -0.07895868 0.04044729 0.03945266 0.08831492
0.067432456 -0.0009139243 -0.0069911587 -0.102667935 -0.071754456 -0.09754232 0.09070699 -0.111571506

flows.2.flows.1.param_map.net.2.bias f4 [64]
00000000: 53ae b4bc 58aa 0ebd 6545 01bd 8a29 8e3d
00000010: f4eb 9e3d b0bb 473c f568 2dbb e7cc 083e
00000020: 27a7 bebd 44af abbd 853c 3e3d f579 80bd
00000030: 71c8 babc 08b5 1fbd e1b8 1cbb f4b2 013e
00000040: 439d 8cbd 35e9 fcbc 6ad3 86bd 3719 bf3d
00000050: ab90 063e 8bf1 ebbc 8446 cbbd 712f d5bd
00000060: 1379 e73c 7686 d7bd 8a5e 66bc 5aa1 18bd
00000070: 4ad9 fe3d ae7a 4bbd 805b d0bd d087 c63d
00000080: 063c 843d e40b 0bbc 700c 78bd cabd 713d
00000090: fe2e 863c 9ba6 c0bd 4671 62bd 6ca7 5d3a
000000a0: d06e f63d 913e e7bd 3a43 7bbd 119e ba3d
000000b0: 66cc 02bd 72d0 2b3d 978c e73d deba afbd
000000c0: 9949 be3d 72ce 703d aed6 4abb cadc 94bb
000000d0: cd70 d13d c5d6 fb3c 2925 61bd 3389 253d
000000e0: 52fc dcbd 3253 98bd 2524 7fbd 99e9 fc3d
000000f0: ad53 d337 bf6f 70bd 7936 7abd 252e 263d
-0.02205578 -0.03483042 -0.03156032 0.06941517 0.07759848 0.012190744 -0.0026460264 0.13359414
-0.093092255 -0.08383039 0.046444435 -0.062732615 -0.022800656 -0.038991004 -0.0023913907 0.12665921
-0.06865933 -0.03087292 -0.06583293 0.09330981 0.13141124 -0.0288017 -0.09925559 -0.10409439
0.028255975 -0.10523693 -0.014060626 -0.03726325 0.12443788 -0.049677543 -0.10173702 0.09693873
0.06456761 -0.008486722 -0.060558736 0.059018888 0.01637983 -0.094067775 -0.055283807 0.0008455429
0.120328546 -0.112912305 -0.06134341 0.0911218 -0.03193321 0.041946836 0.11306112 -0.08580564
0.092913814 0.05879063 -0.0030950713 -0.0045429217 0.10226593 0.030742059 -0.05496708 0.040414046
-0.10790314 -0.07437743 -0.06229033 0.12349243 2.5192125e-05 -0.05870032 -0.061087105 0.04057135

flows.2.flows.1.param_map.net.4.weight f4 [2, 64]
00000000: 02b0 283c 0000 0000 da8d a3bb 97bc 3f3c
00000010: cbd6 4d3c 04f2 293c a9da 8a39 391e 7abb
00000020: f287 9cba 309b 42bb 7252 473c 0000 0000
00000030: 7e26 28bb dcd5 5f3c 03e3 273b 3504 35bb
00000040: 3c0e 2c3c d1ce 6abb 1bc8 4dbb 5a29 82bb
00000050: 9b71 a8bb a4c3 5fbb 2131 343c f44f 2c3b
00000060: 0746 9dba 4418 e1bb 0000 0000 4fc6 ab3b
00000070: 4d3f d3bb 12c4 14bc 0000 0000 e148 16bb
00000080: bd09 483c 222c 253c 0000 0000 7ce0 ccbb
00000090: 3331 45bb 01bf 143c cd35 a5ba c296 a4b9
000000a0: d85d 14bb 3dfe 14bb 0000 0000 fe65 f7ba
000000b0: 026a 253c 3cae 51bb 1d5d 0bbb ff1e 303c
000000c0: f804 85bb 9be3 7cbb bd3f edb9 8811 91bb
000000d0: 0000 0000 904d a2ba 0000 0000 74bb c5bb
000000e0: e3de 4c3c f014 463c 0000 0000 8224 39ba
000000f0: 0000 0000 1e81 6b3b e919 3fba 7c84 2cbb
00000100: 261e 07bb 0000 0000 853d 01bc a476 1abc
00000110: 1a4e 38bc 437b b83b b194 e3bb 7e12 cabb
00000120: d721 d6bb dc7c d1bb 1de1 2ebc 0000 0000
00000130: 9bc9 ccbb 35e1 3dbc 4b3f efbb bd51 c8bb
00000140: 5e89 f73b 6c57 d4bb 1cc8 e7bb c9bb d8bb
00000150: e4d9 dcbb 30d8 c5bb e629 eb3b 4fb3 e6bb
00000160: ce1b cabb c37a f9bb 0000 0000 9de8 15bc
00000170: adc1 d6bb 208b 11bc 0000 0000 6b18 c6bb
00000180: ad90 29bc 33a8 a63b 0000 0000 b9df e1bb
00000190: 03d3 05bc d9d4 c13b 76fc c8bb 2988 d7bb
000001a0: f9c2 cabb 6009 0bbc 0000 0000 1701 d6bb
000001b0: 5ced e53b 970a d7bb 3dc4 d2bb 04ba 6bbb
000001c0: f115 cabb 77cd 17bc 2a42 dabb 5775 11bc
000001d0: 0000 0000 725b cfbb 0000 0000 444b 00bc
000001e0: 3b66 2bbc 0b41 abbb 0000 0000 49a8 eebb
000001f0: 0000 0000 ce26 2bbc 09cf d2bb ad1f e6bb
0.01029587 0.0 -0.0049912753 0.011702678 0.012563418 0.010372642 0.00026484326 -0.0038164987
-0.001194237 -0.002969455 0.012165653 0.0 -0.0025657709 0.013661828 0.0025617487 -0.0027620916
0.010501441 -0.0035828839 -0.003139979 -0.0039722146 -0.005140496 -0.003414371 0.010998041 0.0026292773
-0.0011999019 -0.0068693478 0.0 0.005242146 -0.006446755 -0.00907995 0.0 -0.0022931623
0.012209353 0.010081323 0.0 -0.0062523466 -0.003008914 0.009078742 -0.0012604535 -0.0003139284
-0.0022638943 -0.0022734546 0.0 -0.0018875 0.010096075 -0.003199472 -0.0021265217 0.010749578
-0.00405943 -0.0038587812 -0.0004525165 -0.0044271387 0.0 -0.0012382735 0.0 -0.006034309
0.012504312 0.012089953 0.0 -0.000706263 0.0 0.0035935114 -0.00072899327 -0.0026324084
-0.0020617335 0.0 -0.007888203 -0.0094277 -0.01124909 0.0056299283 -0.0069452156 -0.006166755
-0.0065347957 -0.006393058 -0.010673788 0.0 -0.006249619 -0.011589338 -0.0073012463 -0.0061132596
0.0075542172 -0.006480148 -0.0070734154 -0.0066141826 -0.006739842 -0.0060377344 0.0071766255 -0.007040418
-0.0061678654 -0.0076135113 0.0 -0.009149698 -0.0065538497 -0.008883268 0.0 -0.0060453913
-0.010349435 0.005085969 0.0 -0.006893125 -0.008167985 0.005915266 -0.0061336113 -0.006577511
-0.0061877933 -0.008486122 0.0 -0.0065308916 0.007016821 -0.0065625417 -0.006432085 -0.0035969028
-0.0061671664 -0.009265295 -0.0066607194 -0.008878074 0.0 -0.00632804 0.0 -0.007830445
-0.010461385 -0.0052262596 0.0 -0.0072832447 0.0 -0.0104462635 -0.006433372 -0.007022819

flows.2.flows.1.param_map.net.4.bias f4 [2]
00000000: 7733 8abb 9db9 bebb
-0.004217561 -0.0058204667

flows.4.flows.1.param_map.net.0.weight f4 [64, 1]
00000000: 2e0a 70be 8312 0ebf 15cb 9e3d 6ca1 ce3e
00000010: 9c51 223d 7de8 7cbf 08e2 933e 87af ae3e
00000020: bc83 5bbf f1d6 6fbf 5154 5c3f 24b7 d1be
00000030: 5d35 e8be ade9 7dbf c908 103f 57bd de3e
00000040: a869 b5be 1783 24bf 6694 6a3e be02 cbbd
00000050: 7135 42bf b9e8 cebe 6894 083f 5518 923e
00000060: 2379 d63e 1c9d dc3e ed75 71be ad80 7a3e
00000070: f446 c1bd 6bd4 38bf 2eb2 a8be c46e 053f
00000080: bf6b 4dbf db31 043f 1290 07bf c350 36bf
00000090: c11f 233f 00c3 0fbe 4441 2e3f 16ef 41be
000000a0: 7601 0cbf 58cf 5ebd c742 443f 6047 683f
000000b0: c2c5 b8be 3e13 5cbf 09f3 dfbe 4881 c03a
000000c0: b333 093f 72c5 773f 4006 f5be 1509 ba3d
000000d0: a4e8 75bf d19c 5e3f 5d95 e73e 9f2e 08bf
000000e0: 66bc 4ebf d07a 713f d86e 203f 36f9 2a3f
000000f0: 7fb0 6b3f 6830 3f3f a184 1dbe 6898 5f3f
-0.23441383 -0.55496997 0.077535786 0.4035753 0.03962861 -0.9879225 0.28883386 0.34118292
-0.85747886 -0.9368735 0.86066157 -0.40960038 -0.45353213 -0.99184686 0.56263405 0.4350383
-0.35432172 -0.6426253 0.22908172 -0.099126324 -0.75862795 -0.40411928 0.5335145 0.2853419
0.41889295 0.43088615 -0.23580141 0.24463148 -0.09437361 -0.72199124 -0.3294844 0.5212214
-0.8024253 0.51638573 -0.5295421 -0.7121698 0.6372033 -0.1403923 0.6806834 -0.1893886
-0.5468973 -0.054396957 0.76664394 0.9073391 -0.36088377 -0.8596686 -0.4374011 0.0014686966
0.5359451 0.9678565 -0.4785633 0.090837635 -0.96058106 0.8695803 0.45231143 -0.5319614
-0.80756223 0.9432802 0.62669134 0.66786516 0.92066187 0.7468324 -0.15382625 0.8734193

flows.4.flows.1.param_map.net.0.bias f4 [64]
00000000: f772 43bf b018 ccbe 5b47 b53e 6aca 8b3e
00000010: 72df 7c3d cf27 303f 8f21 62bf 9a63 76bf
00000020: 9a09 1d3f 7194 3a3f f086 ddbd ccb3 c63e
00000030: b24f 723e 5f6a 183e 55e3 07bf 7241 c1bd
00000040: c2da bd3e fd3c 8dbc a3bf fc3e 5257 79bf
00000050: 1de7 5cbf 9f12 2a3f 8ab3 1fbd b890 1ebd
00000060: 3d84 66bf ea64 61bf 7a48 433e aa63 2a3f
00000070: 34a6 4ebf d57e 673f 8420 583f e7cf 283f
00000080: adbf 63be f33d 743f 7288 35bf 4b08 3bbf
00000090: cc3b 17bd 6cc4 af3e e6b1 78bd 5a0f ca3e
000000a0: e4a9 5fbe 8968 643f b840 db3e b3bb 3ebf
000000b0: 597d c53e 28af bd3b 7450 a83d 4595 cabe
000000c0: b5fd ab3e 484c 5e3f f53d 5a3f 57a8 4f3f
000000d0: 1264 de3e 2c29 423f ebd9 6b3e 16af 3b3f
000000e0: 6c42 7fbe 5616 5c3f 23f4 bdbe d479 0abf
000000f0: 5f39 8ebe 7f21 113d 2879 693f b1f1 75bd
-0.763473 -0.39862585 0.35406002 0.27302867 0.06173653 0.68810743 -0.88332456 -0.9624573
0.61342776 0.72882754 -0.10816753 0.3880905 0.23663214 0.14884327 -0.53081256 -0.09436311
0.3708096 -0.017240996 0.49364957 -0.97398865 -0.8629015 0.66434664 -0.03898958 -0.038712233
-0.9004553 -0.8804461 0.19070616 0.66558325 -0.80722356 0.90427905 0.84424615 0.65942234
-0.22241087 0.95407027 -0.70911324 -0.7305953 -0.03692226 0.34329545 -0.060716532 0.39464837
-0.21842152 0.8922201 0.42822814 -0.74505156 0.38572195 0.0057887025 0.0821847 -0.3956701
0.33592 0.86835146 0.8525079 0.8111624 0.43435723 0.75844073 0.23032348 0.73314035
-0.24927682 0.8597158 -0.37100324 -0.54092145 -0.27778146 0.035432335 0.91200495 -0.060044948

flows.4.flows.1.param_map.net.2.weight f4 [64, 64]
00000000: b14f b9bc 4300 323d f7ca ef3d 62da d6bc
00000010: af87 7bbd b028 7a3c 1083 593d 0c92 163d
00000020: 444a 013e e535 b5bd 2477 ed3b 5560 c33c
00000030: aaf6 083e 1d5c 153d 1754 c13c a149 debd
00000040: 9f75 4a3d 2be1 843d 6c8d 4bbd aeac 693d
00000050: 6fa5 cb3c 9595 6e3c e384 d83d d98a 4d3d
00000060: f89c 1abd a1b1 77bc 1b7d 493d 105d 7abc
00000070: 8436 bfbd fd64 d03d caa1 a5bd 9d7c 2bbd
00000080: 919c fd39 7b36 4abc 792d a43d cfb2 a1bd
00000090: bcb0 753c 9e54 383d 6b31 153d 8a03 0b3e
000000a0: 2b39 a13d d708 6bbc f418 b1bd dc4c 88bd
000000b0: ae24 a9bc 84c9 c2bc eb5f 023e 7a12 0bbd
000000c0: ecd0 b5bd 4172 48bc fc8c ce3d ac5c 093d
000000d0: be1b f23a 787a 3c3d 5459 d2bd d5ad 6b3d
000000e0: a2fd a93c 2003 d0bd c2a8 b63d 043a 5bbd
000000f0: d48a 9c3b afde bf3d 416f adbd f9a0 e73d
00000100: 0acf c4bd 7b04 1abc 1e61 01bd 9852 233d
00000110: a774 8d3d 9b8d 9fbc 3dd9 3bbd 1afd 343b
00000120: 63fa 953d 9591 cc3d 1f0b aabd 99ae 203d
00000130: 5307 0abc 57f8 6fbd 3723 0bbd 5a3b 813d
00000140: 86ef 9c3d 0e28 013e 7520 6f3d ef22 b53c
00000150: 9585 bbbc 2dc0 033e a3d1 63bb 4fb8 fb3c
00000160: f19c 0abd 85a2 bbbd 5742 4b3b 4e99 cabd
00000170: e2dd 923d e934 353d 1cc0 063d a510 78bd
00000180: f52b bf3c d8d2 153d f72d 34bd 4f96 b4bd
00000190: 35a0 d1bd 1c17 b3bd ec9b fe3d 870e bf3c
000001a0: 5d85 b2bb 2d4e d5bc bc8f 853c ca86 9a3d
000001b0: 705e 7b3d 8cf8 01bd 8381 b33d f872 5a3d
000001c0: 02b7 a1bd f99c d63d 78e8 b03d 92aa f03d
000001d0: c023 b53d 602d 593d 8df6 d23d 1e13 2a3d
000001e0: 7850 cd3c 27bc c73d ff1f acbd 3d07 e93d
000001f0: 9db4 553c bae8 c23d 3e1e 2c3d 5534 973d
00000200: 21a3 b3bd 4f63 9dbc 0ee5 8f3d 4bcc 68bd
00000210: 6fc8 e2bd f605 c2bd 7e16 203d 6ba8 c83c
00000220: dd6b ee3d 3f04 92bd 7a89 553d 9baa d0bd
00000230: 6ceb 7b3c d01e 073e ada8 a5bc 8771 25bd
00000240: f52a a73c bc30 ee3c 9630 91bd 6754 7a34
00000250: 8b00 0cbd 48b1 b73d fc20 603d 9131 2d3c
00000260: 0e73 4ab7 cfd1 e6bc 651c b8bd b95f 8f3d
00000270: 007b 8b3d 30b2 b1bd 0ae7 60b8 33d8 6ebd
00000280: 7899 4c3c 9f77 7a3d e491 d3bd ed4d 18bc
00000290: c78e 30bc e81f 8dbc 762f 033e 2392 f53d
000002a0: 28bd 273d e5f2 2e3c 05f0 983d b514 813b
000002b0: b618 1b3d 90ec 63bd 3734 e23d 84de c6bd
000002c0: 02b8 40bb 0e97 c53c c735 82bd 6791 a6bd
000002d0: 4410 c43d aec6 023e b747 533d 00c2 cf3d
000002e0: cf20 92bd 8368 44bd 3c0b 4d3d 8ffa b2bd
000002f0: 8498 eb3d b6ac 06bd f40d 0cbd 43f8 5dbd
00000300: 0364 d73d 1717 3e3d 6bec da3b 81fc d3bb
00000310: ed77 cb3c af8a 02bd 9f09 c3b7 fbd8 b63b
00000320: 8d65 043e ffe2 b6bd 209c 1ebd feef d6bd
00000330: 0732 eb3d c321 013b 9e91 b9bd df92 883d
00000340: 8791 813d d1c5 d83d 49cc 463d 3707 1d3d
00000350: da88 4e3d 91ad 0a3e 9bea 9f3d bbc2 8cbc
00000360: f0f6 e23d 8efa dbbd 59cc 38bc 470b 213d
00000370: 3bf8 04ba 68d8 d2bd 425a 0a3e cdfc a9bd
00000380: b799 8cbd 50ef 033d 4e25 a2bd f300 03bd
00000390: 96bb d93d 7fe6 8e3d 1f5f d9bd 801e c23d
000003a0: e022 cabd 88cc 0bbd b4d9 613b 0832 943d
000003b0: 9123 debd 1330 dabd 353d 8f3c 61e7 043d
000003c0: 9e41 1a3d de8a d3bd 2212 ce3d 532d 82bb
000003d0: 0f86 e63d 9370 0ebc d9c1 673c bd08 7a3c
000003e0: cf51 e23d a0db 3bbc a0aa c2bc 2fd2 aabd
000003f0: 444c 663d bdd2 7ebd c1a9 d43c cc98 8bbd
-0.022621008 0.04345728 0.11708634 -0.02622718 -0.061408695 0.01526849 0.053103507 0.036760375
0.12625986 -0.0884817 0.0072468687 0.023849646 0.13375345 0.0364648 0.023599667 -0.10853887
0.04942858 0.0648826 -0.049695417 0.057049446 0.024859158 0.01456203 0.10572221 0.050181244
-0.037747353 -0.015118034 0.049191575 -0.015280977 -0.0933657 0.10175512 -0.080874994 -0.041866887
0.00048372571 -0.012342091 0.08016486 -0.07895433 0.01499575 0.045002572 0.03642408 0.13575569
0.07872232 -0.014345369 -0.086473376 -0.06655285 -0.020647373 -0.02377773 0.12731902 -0.033953167
-0.08877739 -0.0122342715 0.100854844 0.033535644 0.0018471403 0.046015233 -0.10270944 0.057538826
0.020750824 -0.10156846 0.08918907 -0.053522125 0.004777292 0.093686454 -0.084684856 0.1131
-0.09609802 -0.009400482 -0.03158676 0.03987369 0.06907015 -0.019476702 -0.04586147 0.002761668
0.07323148 0.09988705 -0.083029024 0.03922901 -0.008424598 -0.058586445 -0.03396913 0.063101485
0.07662873 0.12612936 0.058380563 0.022111384 -0.022890845 0.12866278 -0.0034762404 0.030727534
-0.033841077 -0.091618575 0.0031014883 -0.09892522 0.07171227 0.044239912 0.032898054 -0.06056275
0.02333639 0.03657803 -0.043989148 -0.088177316 -0.10235635 -0.08744642 0.124320835 0.023322357
-0.005448027 -0.026038254 0.01630389 0.0754524 0.06136936 -0.031731173 0.08764937 0.0533323
-0.07896234 0.10479159 0.0863809 0.11751284 0.088447094 0.05302179 0.10300932 0.041522138
0.025062785 0.09752684 -0.0840454 0.11378334 0.01304355 0.09517045 0.04202103 0.073830284
-0.08771349 -0.019212393 0.070261106 -0.056835454 -0.11073386 -0.09473793 0.03908395 0.02449437
0.11641667 -0.07129716 0.05213306 -0.101887904 0.015375953 0.13195348 -0.020222032 -0.04039147
0.020406226 0.029075973 -0.07089345 2.331377e-07 -0.034180205 0.089693606 0.054718956 0.0105709
-1.20669265e-05 -0.028176216 -0.08989791 0.070006795 0.0681057 -0.08676565 -5.3620934e-05 -0.058311652
0.012487762 0.061149236 -0.10330561 -0.009295923 -0.010776228 -0.017227128 0.12811074 0.11990764
0.040951878 0.010678028 0.07467655 0.003939236 0.037865363 -0.055645525 0.110451154 -0.0971041
-0.0029406552 0.02411988 -0.063579135 -0.08133202 0.09573415 0.12771103 0.051582064 0.101444244
-0.07135164 -0.047951233 0.050059542 -0.087391965 0.115036994 -0.032879554 -0.034192994 -0.05419184
0.105171226 0.04640874 0.0066810152 -0.00646931 0.024837459 -0.03187054 -2.3250292e-05 0.0055800653
0.12929364 -0.08930015 -0.03872311 -0.104949936 0.11484151 0.0019703961 -0.090609774 0.066686384
0.06326585 0.105846055 0.048534665 0.03833696 0.05042348 0.13542773 0.07808419 -0.017182698
0.11082256 -0.10741149 -0.011279189 0.039317396 -0.00050723896 -0.102951825 0.13510993 -0.08300171
-0.06865256 0.032210648 -0.079172716 -0.031983327 0.10631482 0.069775574 -0.10613846 0.09478474
-0.09869933 -0.034130603 0.0034462037 0.07236105 -0.108466275 -0.10653701 0.01748524 0.032447223
0.037660234 -0.10329221 0.10062052 -0.003972688 0.112560384 -0.008693832 0.014145338 0.015260872
0.1105076 -0.011465937 -0.023763001 -0.083408706 0.056225076 -0.062212694 0.025959851 -0.06816253

flows.4.flows.1.param_map.net.2.bias f4 [64]
00000000: b76d 213d 1c9f b03c 56de 003e 51a8 70bb
00000010: f6f0 3cbd 1ef6 20bd 7b31 9b3d b07d 39bd
00000020: 0acb 013e 0e3f e9b9 9234 003e 33ac 72bd
00000030: 8d5d 463c 0f4a 94bd c6ca fa3d 7aee 08bd
00000040: feb8 cb3d 32e4 f13c b7b8 ac3d b694 abbd
00000050: f4b6 d2bb 815c 83bd 7aae 72bd d897 b63b
00000060: 5db7 b73d 5200 b63d ae95 ddbd f07b 13bd
00000070: ba55 c43d c34c 75bd 2b7f 5dbc cfdc a3bd
00000080: 3061 bd3d 0e17 25bc 7d19 453d c651 063e
00000090: 10ad 8abd f8d7 5c3d 6b7e c9bd 14e1 573d
000000a0: ff19 9a3d 8d28 a0bd 7d1c 80bd ca9d 8d3d
000000b0: 0479 cabd 8aa5 cf3c b919 913d 4d4c dcbd
000000c0: 3426 98bd 5de0 63bd aeb5 b43d a791 5a3d
000000d0: 2d8a e5bd 8f6c 21bd ffe3 58bd 9c70 37bd
000000e0: d307 80bb f50d d0bb 16df fb3d c4c2 ecbc
000000f0: 6489 e23d b150 ab3d 8307 c3bd d85e 463c
0.039411273 0.021560244 0.12584814 -0.0036721418 -0.046128236 -0.039297216 0.07577797 -0.04528588
0.1267511 -0.00044488203 0.12520054 -0.059246253 0.012107265 -0.07240688 0.12245707 -0.033430554
0.09947394 0.029527757 0.08433669 -0.08377974 -0.006430501 -0.06414128 -0.059248425 0.0055723004
0.08970521 0.0888678 -0.10819565 -0.036006868 0.095866635 -0.05988766 -0.013519089 -0.080011
0.09247053 -0.010076297 0.04812001 0.13117132 -0.0677129 0.0539169 -0.098385654 0.052704886
0.075244896 -0.078202344 -0.06255434 0.069148615 -0.09886363 0.02534749 0.07084984 -0.10756741
-0.07429162 -0.05563389 0.08823715 0.05336156 -0.112079956 -0.03941017 -0.05295181 -0.044785127
-0.0039071827 -0.00634932 0.1229841 -0.028901465 0.110613614 0.08365 -0.09522917 0.012107573

flows.4.flows.1.param_map.net.4.weight f4 [2, 64]
00000000: c7fc 04bc 7186 8dbb c9e8 b9bb d9ca adbb
00000010: 1279 d1bb fc62 97bb 1672 8ebb 0000 0000
00000020: 8e0d 06bb fbb6 5bbb 4f1a 88bb 8275 7abb
00000030: 388b 96bb 3d74 d7bb e2f2 57bb 0000 0000
00000040: 282f afbb 89a6 9dbb d149 94bb a915 55bb
00000050: 2fe7 93bb e653 6ebb adac a1bb 9f0e e1bb
00000060: 09b3 87bb e875 72bb 46c6 e9bb 8c16 afbb
00000070: 75e0 61bb 0000 0000 de2d 96bb 2303 14bb
00000080: 21a6 92bb 0000 0000 0000 0000 ea28 8cbb
00000090: 0000 0000 90fa f3bb 5ade 63bb 8eb2 9cbb
000000a0: bd8e 89bb 0000 0000 5290 a8bb fc61 8dbb
000000b0: 317d c8bb ca7c 99bb 97bf 85bb 0000 0000
000000c0: f30e 92bb 0000 0000 6f60 9ebb da12 57bb
000000d0: df30 8cbb df9c a2bb 26fb 8ebb 2409 8cbb
000000e0: 0000 0000 5318 b0bb 9f30 bbbb f87f 89bb
000000f0: d77a 90bb 682d 3bbb 0000 0000 0000 0000
00000100: 201c 79bc 5e4a f1bb f031 03bc 151b 6cbc
00000110: deea 53bc d08b d4bb 0006 1dbc 0000 0000
00000120: ebe8 4dbc 14d8 0cbc 5d59 f2bb 23e7 e6bb
00000130: bf0c c6bb 2722 3fbc 8574 26bc 0000 0000
00000140: 627e 57bc 6c29 5cbc 7f4b e9bb 0d4f 10bc
00000150: bd5d 11bc d224 1cbc 9758 99bb b4ba 50bc
00000160: caa9 cebb 253a 09bc ea6b 6fbc 84b9 14bc
00000170: 38f9 f9bb 0000 0000 cf83 15bc 4d69 48bc
00000180: 2ff8 b5bb 0000 0000 0000 0000 29bf ecbb
00000190: 0000 0000 8e93 77bc 0547 eabb 877e 06bc
000001a0: 29e6 06bc 0000 0000 5aa3 2dbc e6bf 13bc
000001b0: c7d3 1dbb 0b2d aebb b804 26bc 0000 0000
000001c0: a809 56bc 0000 0000 960b 63bc 9e5b 0bbc
000001d0: 0844 dfbb 1bdf f5bb 3935 1db7 3a11 19bc
000001e0: 0000 0000 b964 f7bb 8e4c 50bc 1f4b eabb
000001f0: 2704 08bc b835 0abc 0000 0000 0000 0000
-0.008116907 -0.004319005 -0.005673502 -0.0053037223 -0.0063926065 -0.004619954 -0.004347096 0.0
-0.0020454857 -0.0033525813 -0.004153527 -0.0038217013 -0.004594233 -0.006575136 -0.0032951166 0.0
-0.0053461976 -0.0048111123 -0.004525401 -0.003251413 -0.004513643 -0.0036365925 -0.0049339146 -0.006868198
-0.0041412157 -0.0036996547 -0.0071342317 -0.005343264 -0.0034466062 0.0 -0.0045831045 -0.0022584877
-0.0044753705 0.0 0.0 -0.0042773383 0.0 -0.007445641 -0.0034769983 -0.0047820276
-0.004197924 0.0 -0.0051441574 -0.004314659 -0.0061184396 -0.0046840655 -0.004081677 0.0
-0.0044573485 0.0 -0.004833273 -0.0032817633 -0.004278287 -0.004962548 -0.0043634353 -0.0042735506
0.0 -0.0053739934 -0.005712583 -0.0041961633 -0.004409175 -0.0028561 0.0 0.0
-0.015204459 -0.0073636016 -0.0080075115 -0.014410754 -0.012934415 -0.0064863935 -0.00958395 0.0
-0.012567739 -0.008596439 -0.007395907 -0.0070465966 -0.006044 -0.011665857 -0.010159616 0.0
-0.013152691 -0.01343761 -0.0071195955 -0.00880791 -0.008872447 -0.009530263 -0.00467975 -0.012739826
-0.0063068615 -0.008375679 -0.014613131 -0.0090774335 -0.007628586 0.0 -0.009125664 -0.012232137
-0.0055532674 0.0 0.0 -0.0072249365 0.0 -0.015110863 -0.0071495795 -0.008208877
-0.008233585 0.0 -0.010598028 -0.00901792 -0.0024082528 -0.005315428 -0.010132961 0.0
-0.013063826 0.0 -0.013857743 -0.00850573 -0.00681353 -0.007503403 -9.370321e-06 -0.009342486
0.0 -0.007549849 -0.012713565 -0.0071500684 -0.008301771 -0.008435659 0.0 0.0

flows.4.flows.1.param_map.net.4.bias f4 [2]
00000000: 12fd 68bb 7ed6 d7bb
-0.0035551232 -0.0065868488

flows.6.flows.1.param_map.net.0.weight f4 [64, 1]
00000000: 8f84 e53e 95d5 873d a405 56be 5dbe a5be
00000010: c541 ea3d 54d6 28bf 63b8 aebe 5e37 b8be
00000020: a322 0c3e eb64 21be e35c 5cbf f466 313e
00000030: 09ac 76bf b0c9 4c3f be91 34be 8915 c0bd
00000040: c89c 27bc a979 6dbd 41b5 2dbf 6ed0 2ebf
00000050: 1bd1 773f aaa6 2a3f c161 50bf 4c3f 963e
00000060: f541 18bf 69fa 4e3f a135 9b3e 4fba fd3d
00000070: d667 193e 4e50 10be 0e3d aabd 1ff3 583f
00000080: e577 f13e 2173 f6be 2396 39bf 5f59 2dbf
00000090: f94a fa3e b7cb 4c3f 7eb3 5a3f 4e2d f63e
000000a0: ed8c 053f ce2f 123f 33cd 4b3e 076e 84be
000000b0: 2111 0fbd f9ad 3f3f d671 30bf 0aac 41bf
000000c0: 6386 2abe 7169 543f 4bd7 1ebf ed22 21bf
000000d0: 0fa1 a7be 7784 5abf 4988 ed3d 288f c63e
000000e0: be60 5cbf b961 1dbf 1824 f13b 5155 87be
000000f0: 5602 b43e ef64 a6bd a1e3 57bf 4d75 0b3f
0.44827697 0.066325344 -0.20900589 -0.32371798 0.11438326 -0.6595204 -0.3412505 -0.35979742
0.13685088 -0.15761153 -0.86079234 0.1732443 -0.96356255 0.7999525 -0.17633721 -0.093791075
-0.010230251 -0.057977352 -0.67854697 -0.6828679 0.96803445 0.6666056 -0.8139916 0.29345167
-0.5947564 0.80850846 0.30314353 0.12389051 0.14981017 -0.14093134 -0.083124265 0.84745973
0.47161785 -0.4813471 -0.72494715 -0.67714494 0.48885325 0.79998344 0.85430133 0.4808144
0.5216816 0.57104194 0.19902496 -0.25865194 -0.034928445 0.74874836 -0.689237 -0.75653136
-0.16652827 0.8297339 -0.6204726 -0.6294392 -0.32740065 -0.85358375 0.1159826 0.38781095
-0.86085117 -0.6147724 0.007359039 -0.2643228 0.35158032 -0.0812472 -0.8433171 0.5447586

flows.6.flows.1.param_map.net.0.bias f4 [64]
00000000: b641 ab3e 5b90 4ebd d5bc eabe 5910 5c3f
00000010: 54bc b6bc d52d 1cbf 2d7d 7d3f cebe 03bf
00000020: 7226 e23d 10e4 21bd 7d22 0a3d f3d2 30bf
00000030: 979c 71bf 86fd 733f dd3f 1dbf 2c84 50bf
00000040: 407b 6abf 20c0 003f 4ce4 ae3b 8ad8 6e3f
00000050: f6aa 623e 795f 4dbe b712 8cbd 635b 6b3f
00000060: c4ed 673f f8da b83e 7cfd 833e 7cde 2cbf
00000070: 0e3d 70bf 2b05 6abe 45f9 1cbe 2993 083f
00000080: 3ae5 e03e 7b30 44be 9f5a 7d3f 4cd4 05bf
00000090: 145e 273e 3ad6 72be 48a7 b6be 559a f0be
000000a0: 3dd6 3a3f 95d0 3ebf c135 22bf bdfa 1bbf
000000b0: 0a3a 443f 72bb 7f3f 23f5 bd3e 0546 9cbe
000000c0: 0722 263f 4286 56bf 836c 503d 0a77 973e
000000d0: 355e 763f 3829 893e 4bd5 103d bc54 293f
000000e0: 9f6e 093f 941e 1dbf 3040 013f d3df a53e
000000f0: bc29 763e 2c17 cfbe 5c63 473f 9791 3b3f
0.3344857 -0.050430637 -0.45847192 0.85962445 -0.022306599 -0.61007434 0.9901913 -0.5146302
0.11042489 -0.039524138 0.033724297 -0.6907188 -0.9437956 0.9530872 -0.6142557 -0.8145168
-0.91594315 0.5029316 0.0053372737 0.9329916 0.22135529 -0.20055951 -0.06839507 0.9193632
0.90597177 0.3610456 0.2577933 -0.67526984 -0.9384316 -0.22853534 -0.15329464 0.5334955
0.43924886 -0.19159119 0.989664 -0.52277064 0.16344482 -0.23714533 -0.356745 -0.46992746
0.7298315 -0.7453702 -0.6336327 -0.6092947 0.7665106 0.99895394 0.37101087 -0.3052217
0.6489567 -0.8379861 0.050884735 0.29583007 0.962375 0.2678926 0.035359662 0.6614492
0.5368442 -0.61374784 0.5048857 0.32397327 0.24039358 -0.40447366 0.77885985 0.7326903
