macros/Timing_estimation/models/GNN_Energy_prediction/February_05/events50k_lr0_001_hiddendim6_epoch34_geometry_2.pth (torch, 5736 bytes, 14 tensors)

mlp1.0.weight f4 [6, 4]
000000 dc 13 ae be ed 39 9b be d8 fc 12 3d 10 57 ab 3c
       -0.33999527 -0.3031763 0.03588566 0.020915538
000010 7a 70 fd 3c 98 b3 f9 bd 20 fa 4c 3e 23 bf 88 be
       0.030937422 -0.12192458 0.2001729 -0.26708326
000020 f0 85 15 bd 46 da bf 3e 14 15 ce 3d 71 37 86 3d
       -0.036504686 0.37471217 0.10062614 0.06553543
000030 96 0f c9 bd 26 b4 8c 3e 9c a8 c1 be 4d cf 9d 3e
       -0.09817426 0.27481192 -0.3782395 0.3082222
000040 56 6d a6 be f9 1c 65 3e 84 05 ec be 38 e1 60 bd
       -0.32505292 0.22374333 -0.46097958 -0.054902285
000050 57 e5 7f 3e 09 7e 4d 3b b3 b3 b9 3d 61 64 25 be
       0.2498983 0.003135564 0.09067478 -0.16151573

mlp1.0.bias f4 [6]
000000 85 42 33 3d 12 3d 29 3e 09 66 70 3d 40 48 d8 3d
       0.04376461 0.16527203 0.05869106 0.105606556
000010 45 bd 49 be 31 ff ad bc
       -0.19701107 -0.021239849

mlp1.2.weight f4 [6, 6]
000000 85 fd 93 3e 4f b2 9f be 37 fe d4 3c e1 a1 a2 3e
       0.28904358 -0.31190726 0.026000125 0.3176413
000010 fa e9 91 3e 52 ef c6 be 41 1c 70 be b3 41 c6 be
       0.28498822 -0.38854462 -0.23448278 -0.38722
000020 c7 ec 2d be 1d d6 8e 3e 89 1e 88 3d 14 44 91 3e
       -0.16984855 0.2789773 0.06646449 0.28372252
000030 61 1e 9a be e6 f1 0d 3e cf 24 25 3e 6b e9 a2 3e
       -0.30101302 0.13861808 0.16127323 0.3181871
000040 9c bb 7f 3e 2e 2f db 3d b6 2f 65 bd fd 03 6a 3a
       0.24973911 0.10702358 -0.055953704 0.0008926986
000050 e9 7d 30 bd 94 02 a9 be b3 99 bd be ed ab 63 be
       -0.043088827 -0.3300978 -0.37031326 -0.22233553
000060 2a 07 8f be 91 e1 f5 3d 6d 10 17 be 2d ad 46 be
       -0.27935153 0.12005914 -0.1475236 -0.19401999
000070 5d 6d 3f 3e 43 a9 a2 bd d6 27 b9 bd fe 32 a0 3d
       0.18694063 -0.0794244 -0.09040801 0.07822226
000080 af 86 db 3c 4c a8 b0 3e 07 80 98 3e a6 a6 45 3e
       0.02679762 0.345034 0.29785177 0.19301853

mlp1.2.bias f4 [6]
000000 de 0f 82 be dd 54 15 be be 40 b6 be 19 e1 69 3e
       -0.2540273 -0.14583154 -0.3559627 0.22839774
000010 d9 ac b2 be b0 e5 df 3e
       -0.34897497 0.43729925

mlp2.0.weight f4 [6, 6]
000000 03 a7 90 be ca f0 77 3e 64 64 b6 be d4 36 a3 be
       -0.2825242 0.24212947 -0.35623467 -0.31877768
000010 b4 53 17 be 84 4c 6d 3b 94 0a 26 bc 5b 1f d4 3c
       -0.14778024 0.0036208937 -0.010134358 0.025893858
000020 4d b6 4c be be 4a 2b be f6 79 83 3e bc eb d5 bd
       -0.19991417 -0.1672773 0.25678986 -0.104453534
000030 52 50 99 bd 03 a8 be be 05 82 b9 bd 72 c0 99 3e
       -0.07486023 -0.37237558 -0.090580024 0.30029637
000040 c3 c2 db bc 62 3f 08 3d c8 3a 60 bd e1 51 6f 3e
       -0.026826268 0.03326357 -0.05474356 0.23371078
000050 12 45 48 3e ea 8b 1b 3e e8 cf 2a 3c 17 df ea be
       0.19557598 0.15190092 0.010425545 -0.4587333
000060 7b 6e a6 3d e0 49 8f be ff 06 d0 be 9f 46 22 be
       0.08126541 -0.2798605 -0.40630338 -0.15847252
000070 42 1b cb ba 2f 07 89 3e 3f ce 3a 3e 22 7a d6 bd
       -0.0015495794 0.26763293 0.18242739 -0.10472514
000080 76 76 a4 bd fb 12 ca 3d 3a d7 14 bd 37 e6 54 bd
       -0.08030407 0.098669015 -0.03633807 -0.051977362

mlp2.0.bias f4 [6]
000000 f3 1e 64 be 2d 2c 41 bd 0f 1f f7 be 20 07 98 3e
       -0.22277431 -0.04716127 -0.48265883 0.29692936
000010 76 7a 0c 3e 3c 95 50 be
       0.1371859 -0.20369428

mlp2.2.weight f4 [1, 6]
000000 4c 57 16 be 6b 86 8e be 4b 46 91 be 8c 80 86 be
       -0.14681739 -0.27836928 -0.28373942 -0.26269948
000010 b7 81 f3 bd b0 ca 3b be
       -0.118899755 -0.18339038

conv1.apply_func.0.weight f4 [6, 4]
000000 dc 13 ae be ed 39 9b be d8 fc 12 3d 10 57 ab 3c
       -0.33999527 -0.3031763 0.03588566 0.020915538
000010 7a 70 fd 3c 98 b3 f9 bd 20 fa 4c 3e 23 bf 88 be
       0.030937422 -0.12192458 0.2001729 -0.26708326
000020 f0 85 15 bd 46 da bf 3e 14 15 ce 3d 71 37 86 3d
       -0.036504686 0.37471217 0.10062614 0.06553543
000030 96 0f c9 bd 26 b4 8c 3e 9c a8 c1 be 4d cf 9d 3e
       -0.09817426 0.27481192 -0.3782395 0.3082222
000040 56 6d a6 be f9 1c 65 3e 84 05 ec be 38 e1 60 bd
       -0.32505292 0.22374333 -0.46097958 -0.054902285
000050 57 e5 7f 3e 09 7e 4d 3b b3 b3 b9 3d 61 64 25 be
       0.2498983 0.003135564 0.09067478 -0.16151573

conv1.apply_func.0.bias f4 [6]
000000 85 42 33 3d 12 3d 29 3e 09 66 70 3d 40 48 d8 3d
       0.04376461 0.16527203 0.05869106 0.105606556
000010 45 bd 49 be 31 ff ad bc
       -0.19701107 -0.021239849

conv1.apply_func.2.weight f4 [6, 6]
000000 85 fd 93 3e 4f b2 9f be 37 fe d4 3c e1 a1 a2 3e
       0.28904358 -0.31190726 0.026000125 0.3176413
000010 fa e9 91 3e 52 ef c6 be 41 1c 70 be b3 41 c6 be
       0.28498822 -0.38854462 -0.23448278 -0.38722
000020 c7 ec 2d be 1d d6 8e 3e 89 1e 88 3d 14 44 91 3e
       -0.16984855 0.2789773 0.06646449 0.28372252
000030 61 1e 9a be e6 f1 0d 3e cf 24 25 3e 6b e9 a2 3e
       -0.30101302 0.13861808 0.16127323 0.3181871
000040 9c bb 7f 3e 2e 2f db 3d b6 2f 65 bd fd 03 6a 3a
       0.24973911 0.10702358 -0.055953704 0.0008926986
000050 e9 7d 30 bd 94 02 a9 be b3 99 bd be ed ab 63 be
       -0.043088827 -0.3300978 -0.37031326 -0.22233553
000060 2a 07 8f be 91 e1 f5 3d 6d 10 17 be 2d ad 46 be
       -0.27935153 0.12005914 -0.1475236 -0.19401999
000070 5d 6d 3f 3e 43 a9 a2 bd d6 27 b9 bd fe 32 a0 3d
       0.18694063 -0.0794244 -0.09040801 0.07822226
000080 af 86 db 3c 4c a8 b0 3e 07 80 98 3e a6 a6 45 3e
       0.02679762 0.345034 0.29785177 0.19301853

conv1.apply_func.2.bias f4 [6]
000000 de 0f 82 be dd 54 15 be be 40 b6 be 19 e1 69 3e
       -0.2540273 -0.14583154 -0.3559627 0.22839774
000010 d9 ac b2 be b0 e5 df 3e
       -0.34897497 0.43729925

conv2.apply_func.0.weight f4 [6, 6]
000000 03 a7 90 be ca f0 77 3e 64 64 b6 be d4 36 a3 be
       -0.2825242 0.24212947 -0.35623467 -0.31877768
000010 b4 53 17 be 84 4c 6d 3b 94 0a 26 bc 5b 1f d4 3c
       -0.14778024 0.0036208937 -0.010134358 0.025893858
000020 4d b6 4c be be 4a 2b be f6 79 83 3e bc eb d5 bd
       -0.19991417 -0.1672773 0.25678986 -0.104453534
000030 52 50 99 bd 03 a8 be be 05 82 b9 bd 72 c0 99 3e
       -0.07486023 -0.37237558 -0.090580024 0.30029637
000040 c3 c2 db bc 62 3f 08 3d c8 3a 60 bd e1 51 6f 3e
       -0.026826268 0.03326357 -0.05474356 0.23371078
000050 12 45 48 3e ea 8b 1b 3e e8 cf 2a 3c 17 df ea be
       0.19557598 0.15190092 0.010425545 -0.4587333
000060 7b 6e a6 3d e0 49 8f be ff 06 d0 be 9f 46 22 be
       0.08126541 -0.2798605 -0.40630338 -0.15847252
000070 42 1b cb ba 2f 07 89 3e 3f ce 3a 3e 22 7a d6 bd
       -0.0015495794 0.26763293 0.18242739 -0.10472514
000080 76 76 a4 bd fb 12 ca 3d 3a d7 14 bd 37 e6 54 bd
       -0.08030407 0.098669015 -0.03633807 -0.051977362

conv2.apply_func.0.bias f4 [6]
000000 f3 1e 64 be 2d 2c 41 bd 0f 1f f7 be 20 07 98 3e
       -0.22277431 -0.04716127 -0.48265883 0.29692936
000010 76 7a 0c 3e 3c 95 50 be
       0.1371859 -0.20369428

conv2.apply_func.2.weight f4 [1, 6]
000000 4c 57 16 be 6b 86 8e be 4b 46 91 be 8c 80 86 be
       -0.14681739 -0.27836928 -0.28373942 -0.26269948
000010 b7 81 f3 bd b0 ca 3b be
       -0.118899755 -0.18339038
