macros/Timing_estimation/models/GNN_Energy_prediction/February_05/events50k_lr0_001_hiddendim6_epoch76_geometry_2.pth (torch, 5736 bytes, 14 tensors)

mlp1.0.weight f4 [6, 4]
00000000: 7134 b0be fc77 96be bd24 a53c 507f a8bb
00000010: 6a76 143d 45c9 f9bd 8708 503e 840c 88be
00000020: a7ff 07bd f42f be3e 216a c73d 33d8 7e3d
00000030: d247 c3bd 423e 8b3e 3e1e c3be a45e 9c3e
00000040: 81ca a4be eed7 613e 0fa8 edbe 9df8 6dbd
00000050: 1db9 7c3e 3d8a c83a 2db4 b53d 2ea8 24be
-0.3441501 -0.29388416 0.02015912 -0.00514213 0.03624574 -0.12196592 0.20315753 -0.2657205
-0.033202793 0.3714596 0.09737039 0.062217902 -0.09535183 0.27195936 -0.3810901 0.30540955
-0.32185748 0.22055027 -0.4641728 -0.058098424 0.2467999 0.0015299987 0.088722564 -0.1607978

mlp1.0.bias f4 [6]
00000000: 8bee c43c 5db5 2e3e c7e7 623d c47e d23d
00000010: e202 4dbe 0d0b bebc
0.024039527 0.17061372 0.05539682 0.10278085 -0.20020631 -0.023198629

mlp1.2.weight f4 [6, 6]
00000000: 9955 903e 62ca a4be e336 a93c 1dea 9f3e
00000010: 5726 8f3e baad c9be 5840 6ebe 272b c4be
00000020: ef3b 30be 4baf 8d3e b692 833d 8e86 8f3e
00000030: 5304 95be dc12 1b3e bda0 223e 73a8 a13e
00000040: 643f 7d3e b954 f13d b62f 65bd fd03 6a3a
00000050: e97d 30bd 9402 a9be b399 bdbe edab 63be
00000060: 776b 93be ec24 e43d 01e0 18be bf7c 48be
00000070: 299d 3d3e e764 b4bd 0588 c5bd 071f 8c3d
00000080: e39c f93c ee87 b23e 2b62 9a3e 8185 473e
0.28190306 -0.32185656 0.020656055 0.31233302 0.27958938 -0.39390355 -0.23266733 -0.38314173
-0.17210363 0.276728 0.06424467 0.28032345 -0.29104862 0.15143913 0.1588163 0.3157383
0.24731213 0.11783738 -0.055953704 0.0008926986 -0.043088827 -0.3300978 -0.37031326 -0.22233553
-0.28792927 0.11139855 -0.149292 -0.19578837 0.18516983 -0.08808308 -0.09645084 0.068418555
0.030470317 0.3486933 0.3015302 0.19484521

mlp1.2.bias f4 [6]
00000000: c84c 85be 3af4 17be f9bf b6be 19e1 693e
00000010: 2898 b3be 6687 e13e
-0.26035142 -0.14839259 -0.3569334 0.22839774 -0.35077024 0.44048613

mlp2.0.weight f4 [6, 6]
00000000: c60d 94be 3090 723e c30b bbbe d436 a3be
00000010: b453 17be 1a7a 8bbb 8c58 72bc b643 c73c
00000020: 2c5d 4ebe be4a 2bbe f679 833e c6f8 d9bd
00000030: 7a2a a0bd b013 c3be 9c0c cdbd 72c0 993e
00000040: c3c2 dbbc 3640 c03c 9e4c 6dbd 4a0f 6c3e
00000050: 43f7 443e ea8b 1b3e c68a 133c 2eae ecbe
00000060: 39c0 9a3d 9903 91be c4e5 d7be 9f46 22be
00000070: 5c9e 34bc 1f91 853e 5df1 343e 15ee dfbd
00000080: 1355 b0bd fb12 ca3d 3aa6 1abd a720 75bd
-0.28916758 0.23687816 -0.3653241 -0.31877768 -0.14778024 -0.004256499 -0.014791619 0.02432428
-0.2015273 -0.1672773 0.25678986 -0.10643153 -0.07820602 -0.38100958 -0.10012171 0.30029637
-0.026826268 0.023468118 -0.057934396 0.23052707 0.19234948 0.15190092 0.009005254 -0.4622664
0.07556195 -0.28323057 -0.42167485 -0.15847252 -0.011024084 0.2608728 0.17670198 -0.109340824
-0.086099766 0.098669015 -0.037756182 -0.059845593

mlp2.0.bias f4 [6]
00000000: 606f 6cbe b46a 4cbd 13d6 fabe f332 963e
00000010: f64e 043e 2594 58be
-0.23089361 -0.049906448 -0.4899145 0.29335746 0.12920746 -0.21150263

mlp2.2.weight f4 [1, 6]
00000000: 089e 11be 9f9d 8dbe 107f 8ebe a43a 85be
00000010: 1ad0 e2bd 85df 37be
-0.1422044 -0.27659318 -0.27831316 -0.26021302 -0.110748485 -0.1795636

conv1.apply_func.0.weight f4 [6, 4]
00000000: 7134 b0be fc77 96be bd24 a53c 507f a8bb
00000010: 6a76 143d 45c9 f9bd 8708 503e 840c 88be
00000020: a7ff 07bd f42f be3e 216a c73d 33d8 7e3d
00000030: d247 c3bd 423e 8b3e 3e1e c3be a45e 9c3e
00000040: 81ca a4be eed7 613e 0fa8 edbe 9df8 6dbd
00000050: 1db9 7c3e 3d8a c83a 2db4 b53d 2ea8 24be
-0.3441501 -0.29388416 0.02015912 -0.00514213 0.03624574 -0.12196592 0.20315753 -0.2657205
-0.033202793 0.3714596 0.09737039 0.062217902 -0.09535183 0.27195936 -0.3810901 0.30540955
-0.32185748 0.22055027 -0.4641728 -0.058098424 0.2467999 0.0015299987 0.088722564 -0.1607978

conv1.apply_func.0.bias f4 [6]
00000000: 8bee c43c 5db5 2e3e c7e7 623d c47e d23d
00000010: e202 4dbe 0d0b bebc
0.024039527 0.17061372 0.05539682 0.10278085 -0.20020631 -0.023198629

conv1.apply_func.2.weight f4 [6, 6]
00000000: 9955 903e 62ca a4be e336 a93c 1dea 9f3e
00000010: 5726 8f3e baad c9be 5840 6ebe 272b c4be
00000020: ef3b 30be 4baf 8d3e b692 833d 8e86 8f3e
00000030: 5304 95be dc12 1b3e bda0 223e 73a8 a13e
00000040: 643f 7d3e b954 f13d b62f 65bd fd03 6a3a
00000050: e97d 30bd 9402 a9be b399 bdbe edab 63be
00000060: 776b 93be ec24 e43d 01e0 18be bf7c 48be
00000070: 299d 3d3e e764 b4bd 0588 c5bd 071f 8c3d
00000080: e39c f93c ee87 b23e 2b62 9a3e 8185 473e
0.28190306 -0.32185656 0.020656055 0.31233302 0.27958938 -0.39390355 -0.23266733 -0.38314173
-0.17210363 0.276728 0.06424467 0.28032345 -0.29104862 0.15143913 0.1588163 0.3157383
0.24731213 0.11783738 -0.055953704 0.0008926986 -0.043088827 -0.3300978 -0.37031326 -0.22233553
-0.28792927 0.11139855 -0.149292 -0.19578837 0.18516983 -0.08808308 -0.09645084 0.068418555
0.030470317 0.3486933 0.3015302 0.19484521

conv1.apply_func.2.bias f4 [6]
00000000: c84c 85be 3af4 17be f9bf b6be 19e1 693e
00000010: 2898 b3be 6687 e13e
-0.26035142 -0.14839259 -0.3569334 0.22839774 -0.35077024 0.44048613

conv2.apply_func.0.weight f4 [6, 6]
00000000: c60d 94be 3090 723e c30b bbbe d436 a3be
00000010: b453 17be 1a7a 8bbb 8c58 72bc b643 c73c
00000020: 2c5d 4ebe be4a 2bbe f679 833e c6f8 d9bd
00000030: 7a2a a0bd b013 c3be 9c0c cdbd 72c0 993e
00000040: c3c2 dbbc 3640 c03c 9e4c 6dbd 4a0f 6c3e
00000050: 43f7 443e ea8b 1b3e c68a 133c 2eae ecbe
00000060: 39c0 9a3d 9903 91be c4e5 d7be 9f46 22be
00000070: 5c9e 34bc 1f91 853e 5df1 343e 15ee dfbd
00000080: 1355 b0bd fb12 ca3d 3aa6 1abd a720 75bd
-0.28916758 0.23687816 -0.3653241 -0.31877768 -0.14778024 -0.004256499 -0.014791619 0.02432428
-0.2015273 -0.1672773 0.25678986 -0.10643153 -0.07820602 -0.38100958 -0.10012171 0.30029637
-0.026826268 0.023468118 -0.057934396 0.23052707 0.19234948 0.15190092 0.009005254 -0.4622664
0.07556195 -0.28323057 -0.42167485 -0.15847252 -0.011024084 0.2608728 0.17670198 -0.109340824
-0.086099766 0.098669015 -0.037756182 -0.059845593

conv2.apply_func.0.bias f4 [6]
00000000: 606f 6cbe b46a 4cbd 13d6 fabe f332 963e
00000010: f64e 043e 2594 58be
-0.23089361 -0.049906448 -0.4899145 0.29335746 0.12920746 -0.21150263

conv2.apply_func.2.weight f4 [1, 6]
00000000: 089e 11be 9f9d 8dbe 107f 8ebe a43a 85be
00000010: 1ad0 e2bd 85df 37be
-0.1422044 -0.27659318 -0.27831316 -0.26021302 -0.110748485 -0.1795636
