macros/Timing_estimation/models/GNN_Energy_prediction/February_05/events50k_lr0_001_hiddendim6_epoch113_geometry_2.pth (torch, 6006 bytes, 14 tensors)

mlp1.0.weight f4 [6, 4]
0	0x3e629971	0.22128846
1	0x3ecbd404	0.39810193
2	0x3ecb77a4	0.39739716
3	0x3e10f915	0.14157517
4	0xbe4cac8b	-0.19987695
5	0xbf00bca0	-0.5028782
6	0xbdf87a56	-0.12132709
7	0x3ecb8f4a	0.39757758
8	0x3e1341d4	0.1438058
9	0xbe793cff	-0.24339674
10	0xbead6884	-0.33868802
11	0xbe71482a	-0.23562685
12	0x3e8fbf48	0.28075624
13	0x3ef17e6e	0.4716677
14	0x3e961a6f	0.29317042
15	0xbec1beee	-0.3784098
16	0xbed7052b	-0.4199613
17	0x3e9c1bb5	0.3048989
18	0x3e31cc0f	0.17362998
19	0x3dbdc100	0.092653275
20	0xbe1c9cd2	-0.15294197
21	0x3d6ff784	0.05858566
22	0xbe06988c	-0.1314413
23	0x3ea53926	0.32270163

mlp1.0.bias f4 [6]
0	0xbdf853e4	-0.12125376
1	0xbea40657	-0.32036087
2	0x3eb79dd8	0.35862613
3	0x3d49c01d	0.04925548
4	0x3eb60ddb	0.35557446
5	0x3e7aed00	0.24504471

mlp1.2.weight f4 [6, 6]
0	0x3de0fc98	0.109856784
1	0x3ddd2d82	0.107996956
2	0xbe87bda7	-0.2651188
3	0x3d8a91e7	0.0676611
4	0x3e404fc3	0.18780427
5	0xbd96b188	-0.0735808
6	0xbe58156a	-0.21101919
7	0xbd46032c	-0.04834287
8	0xbe639919	-0.22226371
9	0xbe501ee1	-0.2032428
10	0xbe9fc1b9	-0.31202486
11	0x3ea246fe	0.31694788
12	0xbe8a34d4	-0.2699343
13	0xbd67d4c7	-0.056599405
14	0xbbec1ce1	-0.007205591
15	0xbea5f622	-0.32414347
16	0xbe0a6286	-0.13514146
17	0x3e92aeef	0.2864909
18	0xbe17b070	-0.148134
19	0xbe9e149f	-0.30875108
20	0xbebc8b89	-0.36825207
21	0xbc03b7e2	-0.008039447
22	0xbc4eff72	-0.012634145
23	0xbe9dba73	-0.30806312
24	0xbdeebd46	-0.11657195
25	0xbeb8395c	-0.35981262
26	0xbdcba246	-0.099430606
27	0xbea3e3be	-0.3200969
28	0x3d83a0bd	0.06427143
29	0xbe046715	-0.12929948
30	0x3dae9561	0.085245855
31	0xbd4c744b	-0.049915593
32	0xbeace850	-0.3377099
33	0xbeb8692f	-0.3601775
34	0x3ea384d8	0.3193729
35	0xbe08a55d	-0.13344331

mlp1.2.bias f4 [6]
0	0x3cea105e	0.028572258
1	0xbd5e170f	-0.05422121
2	0x3e4890a2	0.19586423
3	0x3e7c0378	0.24610698
4	0x3dbd9d01	0.09258462
5	0x3e26121e	0.16217849

mlp2.0.weight f4 [6, 6]
0	0xbd671926	-0.056420468
1	0x3e5b32a6	0.2140604
2	0xbe89e535	-0.26932684
3	0x3d88591a	0.0665762
4	0xbe984da2	-0.2974673
5	0xbdcec1e7	-0.10095578
6	0x3c40f5cd	0.0117773535
7	0xbe8c3f29	-0.27391937
8	0x3ed0cd5b	0.40781674
9	0x3e8a9cf0	0.2707286
10	0x3ebde3dc	0.37087905
11	0xbe9f0632	-0.31059414
12	0xbe4c6eac	-0.19964093
13	0xbeb8c436	-0.36087197
14	0x3e616c87	0.22014056
15	0xbc17ab7a	-0.009257192
16	0xbd01ea4e	-0.03171759
17	0x3e10d1a8	0.14142478
18	0xbe11f63b	-0.14254086
19	0x3d3308b6	0.04370948
20	0x3dcebae5	0.10094241
21	0xbea3fad4	-0.32027304
22	0xbe88d46d	-0.26724568
23	0x3e1fc3f8	0.156021
24	0xbe1a519d	-0.15070195
25	0x3e5d9c0f	0.21641563
26	0xbd992e72	-0.07479562
27	0x3e8e8bf2	0.27841145
28	0x3e83ae1c	0.25718772
29	0xbeb7339c	-0.35781562
30	0xbe7244b9	-0.23659028
31	0xbe49d5bb	-0.19710438
32	0x3e17c51e	0.14821288
33	0x3e7d6e66	0.24749145
34	0x3e401911	0.18759562
35	0x3da049e1	0.07826591

mlp2.0.bias f4 [6]
0	0xbc670137	-0.014099411
1	0xbe4812a1	-0.19538356
2	0x3e5858ef	0.21127675
3	0x3e2ad096	0.16681132
4	0xbe97c11b	-0.29639515
5	0xbeabbd85	-0.3354303

mlp2.2.weight f4 [1, 6]
0	0xbe811b23	-0.25216016
1	0xbe88a7cd	-0.26690522
2	0x3e8bb8b7	0.27289364
3	0xbdea6c00	-0.114463806
4	0xbeae3238	-0.3402269
5	0x3e4c7932	0.19968107

conv1.apply_func.0.weight f4 [6, 4]
0	0x3e629971	0.22128846
1	0x3ecbd404	0.39810193
2	0x3ecb77a4	0.39739716
3	0x3e10f915	0.14157517
4	0xbe4cac8b	-0.19987695
5	0xbf00bca0	-0.5028782
6	0xbdf87a56	-0.12132709
7	0x3ecb8f4a	0.39757758
8	0x3e1341d4	0.1438058
9	0xbe793cff	-0.24339674
10	0xbead6884	-0.33868802
11	0xbe71482a	-0.23562685
12	0x3e8fbf48	0.28075624
13	0x3ef17e6e	0.4716677
14	0x3e961a6f	0.29317042
15	0xbec1beee	-0.3784098
16	0xbed7052b	-0.4199613
17	0x3e9c1bb5	0.3048989
18	0x3e31cc0f	0.17362998
19	0x3dbdc100	0.092653275
20	0xbe1c9cd2	-0.15294197
21	0x3d6ff784	0.05858566
22	0xbe06988c	-0.1314413
23	0x3ea53926	0.32270163

conv1.apply_func.0.bias f4 [6]
0	0xbdf853e4	-0.12125376
1	0xbea40657	-0.32036087
2	0x3eb79dd8	0.35862613
3	0x3d49c01d	0.04925548
4	0x3eb60ddb	0.35557446
5	0x3e7aed00	0.24504471

conv1.apply_func.2.weight f4 [6, 6]
0	0x3de0fc98	0.109856784
1	0x3ddd2d82	0.107996956
2	0xbe87bda7	-0.2651188
3	0x3d8a91e7	0.0676611
4	0x3e404fc3	0.18780427
5	0xbd96b188	-0.0735808
6	0xbe58156a	-0.21101919
7	0xbd46032c	-0.04834287
8	0xbe639919	-0.22226371
9	0xbe501ee1	-0.2032428
10	0xbe9fc1b9	-0.31202486
11	0x3ea246fe	0.31694788
12	0xbe8a34d4	-0.2699343
13	0xbd67d4c7	-0.056599405
14	0xbbec1ce1	-0.007205591
15	0xbea5f622	-0.32414347
16	0xbe0a6286	-0.13514146
17	0x3e92aeef	0.2864909
18	0xbe17b070	-0.148134
19	0xbe9e149f	-0.30875108
20	0xbebc8b89	-0.36825207
21	0xbc03b7e2	-0.008039447
22	0xbc4eff72	-0.012634145
23	0xbe9dba73	-0.30806312
24	0xbdeebd46	-0.11657195
25	0xbeb8395c	-0.35981262
26	0xbdcba246	-0.099430606
27	0xbea3e3be	-0.3200969
28	0x3d83a0bd	0.06427143
29	0xbe046715	-0.12929948
30	0x3dae9561	0.085245855
31	0xbd4c744b	-0.049915593
32	0xbeace850	-0.3377099
33	0xbeb8692f	-0.3601775
34	0x3ea384d8	0.3193729
35	0xbe08a55d	-0.13344331

conv1.apply_func.2.bias f4 [6]
0	0x3cea105e	0.028572258
1	0xbd5e170f	-0.05422121
2	0x3e4890a2	0.19586423
3	0x3e7c0378	0.24610698
4	0x3dbd9d01	0.09258462
5	0x3e26121e	0.16217849

conv2.apply_func.0.weight f4 [6, 6]
0	0xbd671926	-0.056420468
1	0x3e5b32a6	0.2140604
2	0xbe89e535	-0.26932684
3	0x3d88591a	0.0665762
4	0xbe984da2	-0.2974673
5	0xbdcec1e7	-0.10095578
6	0x3c40f5cd	0.0117773535
7	0xbe8c3f29	-0.27391937
8	0x3ed0cd5b	0.40781674
9	0x3e8a9cf0	0.2707286
10	0x3ebde3dc	0.37087905
11	0xbe9f0632	-0.31059414
12	0xbe4c6eac	-0.19964093
13	0xbeb8c436	-0.36087197
14	0x3e616c87	0.22014056
15	0xbc17ab7a	-0.009257192
16	0xbd01ea4e	-0.03171759
17	0x3e10d1a8	0.14142478
18	0xbe11f63b	-0.14254086
19	0x3d3308b6	0.04370948
20	0x3dcebae5	0.10094241
21	0xbea3fad4	-0.32027304
22	0xbe88d46d	-0.26724568
23	0x3e1fc3f8	0.156021
24	0xbe1a519d	-0.15070195
25	0x3e5d9c0f	0.21641563
26	0xbd992e72	-0.07479562
27	0x3e8e8bf2	0.27841145
28	0x3e83ae1c	0.25718772
29	0xbeb7339c	-0.35781562
30	0xbe7244b9	-0.23659028
31	0xbe49d5bb	-0.19710438
32	0x3e17c51e	0.14821288
33	0x3e7d6e66	0.24749145
34	0x3e401911	0.18759562
35	0x3da049e1	0.07826591

conv2.apply_func.0.bias f4 [6]
0	0xbc670137	-0.014099411
1	0xbe4812a1	-0.19538356
2	0x3e5858ef	0.21127675
3	0x3e2ad096	0.16681132
4	0xbe97c11b	-0.29639515
5	0xbeabbd85	-0.3354303

conv2.apply_func.2.weight f4 [1, 6]
0	0xbe811b23	-0.25216016
1	0xbe88a7cd	-0.26690522
2	0x3e8bb8b7	0.27289364
3	0xbdea6c00	-0.114463806
4	0xbeae3238	-0.3402269
5	0x3e4c7932	0.19968107
