macros/Timing_estimation/models/GNN_Energy_prediction/February_05/events50k_lr0_001_hiddendim6_epoch5.pth (torch, 5504 bytes, 14 tensors)

mlp1.0.weight f4 [6, 4]
0	0xbec13178	-0.37733054
1	0xbeced900	-0.40399933
2	0xbe8da49b	-0.27664647
3	0xbea9a394	-0.33132613
4	0xbc90af7d	-0.017661804
5	0xbe875004	-0.26428235
6	0x3da50f0f	0.08059513
7	0xbec7e3d3	-0.39041004
8	0x3dec31da	0.11532946
9	0xbe81ba16	-0.25337285
10	0xbecbc597	-0.39799187
11	0xbef126f5	-0.47100034
12	0x3ee75a5c	0.45186126
13	0x3d273507	0.040822055
14	0xbe54b0e6	-0.20770606
15	0xbede84c1	-0.43460658
16	0x3d36ca55	0.044626553
17	0x3e357319	0.17719688
18	0xbc4ef6da	-0.012632096
19	0x3c1e8202	0.009674551
20	0xbebcec3d	-0.36898986
21	0x3e2546dd	0.16140313
22	0xbed6a385	-0.4192163
23	0xbed4e17e	-0.41578287

mlp1.0.bias f4 [6]
0	0x3e2f24a3	0.1710382
1	0x3e06b70f	0.13155769
2	0xbe358ed8	-0.17730272
3	0xbeb3fb16	-0.351525
4	0x3eb33d28	0.35007596
5	0xbe4aae69	-0.19793095

mlp1.2.weight f4 [6, 6]
0	0x3cb2e4fa	0.0218377
1	0x3eaea713	0.34111843
2	0x3ec1b672	0.37834507
3	0xbdd3d9a8	-0.10344249
4	0xbec3acdc	-0.3821782
5	0x3db5f0f0	0.08883846
6	0xbcbbd637	-0.022929294
7	0xbe94c008	-0.29052758
8	0xbcce7a25	-0.025204727
9	0xbdb8d304	-0.09024623
10	0xbd81e194	-0.06341854
11	0xbe2aa09b	-0.16662829
12	0xbed5699b	-0.41682133
13	0x3e161131	0.14654996
14	0xbe6a6b12	-0.22892407
15	0xbebaa34e	-0.36452717
16	0x3e412987	0.18863498
17	0x3d31933e	0.04335331
18	0xbeaa5077	-0.33264515
19	0xbe26d711	-0.16292979
20	0xbeae57cf	-0.34051368
21	0xbdf6a622	-0.12043406
22	0x3da971eb	0.08273681
23	0x3d3736bb	0.04472993
24	0xbd512896	-0.051064096
25	0xbe98272b	-0.29717383
26	0xbdbf3496	-0.09336202
27	0x3e6e096c	0.23245782
28	0xbe6fbbf3	-0.2341154
29	0xbe93a090	-0.28833437
30	0x3da70dd2	0.08156933
31	0x3e1c6be1	0.15275528
32	0x3ebd5d4d	0.36985245
33	0x3e8b82e4	0.272483
34	0xbda4afd6	-0.080413505
35	0x3dba4542	0.09095241

mlp1.2.bias f4 [6]
0	0x3e6de034	0.23230058
1	0x3e3afade	0.1825976
2	0x3eb1e870	0.34747648
3	0xbe8e2657	-0.27763626
4	0x3e4f76c2	0.20260146
5	0x3ea3e673	0.32011756

mlp2.0.weight f4 [6, 6]
0	0xbdf2382a	-0.11827119
1	0xbdaa0b69	-0.083029576
2	0x3eaf7881	0.34271625
3	0x3ea5cd7b	0.32383332
4	0x3e9e082f	0.3086562
5	0xbe6c01f7	-0.23047625
6	0xbe1e71c5	-0.15473087
7	0xbe942682	-0.2893563
8	0x3beb2f44	0.0071772654
9	0xbeaf82d1	-0.34279492
10	0x3e425940	0.18979359
11	0x3ebf798d	0.37397423
12	0x3e07b444	0.1325236
13	0x3ebc82f3	0.36818656
14	0x3eccd452	0.40005738
15	0x3ec7c19e	0.39014906
16	0xbe093a11	-0.13401057
17	0xbeb1b61f	-0.3470926
18	0xbe620757	-0.22073112
19	0xbe75bd30	-0.2399795
20	0x3dd6d4be	0.10489796
21	0xbe7a774d	-0.24459572
22	0xbdf88d07	-0.12136274
23	0xbe3c1b8c	-0.18369883
24	0xbe08235f	-0.13294743
25	0x3eab39f4	0.33442652
26	0xbe7ebfa8	-0.24877799
27	0x3d643414	0.055713728
28	0x3e1dfd31	0.15428616
29	0xbe899e38	-0.26878524
30	0x3e252185	0.16126068
31	0x3e30853a	0.17238322
32	0x3e77a031	0.24182202
33	0x3b89ac90	0.0042014793
34	0xbe8869a6	-0.26643103
35	0xbe4371b2	-0.1908634

mlp2.0.bias f4 [6]
0	0x3dc9bcc4	0.09850457
1	0xbe0e01d8	-0.13867891
2	0x3ee534dd	0.44766894
3	0xbe94dd88	-0.29075265
4	0x3e256a57	0.16153847
5	0xbdec15c9	-0.11527593

mlp2.2.weight f4 [1, 6]
0	0xbdb0c3cd	-0.08631096
1	0xb6068b98	-2.004881e-06
2	0x3dc6f8b3	0.09715404
3	0xbe6fbdd2	-0.23412254
4	0x3df3c3f2	0.11902608
5	0xbd72e083	-0.059296142

conv1.apply_func.0.weight f4 [6, 4]
0	0xbec13178	-0.37733054
1	0xbeced900	-0.40399933
2	0xbe8da49b	-0.27664647
3	0xbea9a394	-0.33132613
4	0xbc90af7d	-0.017661804
5	0xbe875004	-0.26428235
6	0x3da50f0f	0.08059513
7	0xbec7e3d3	-0.39041004
8	0x3dec31da	0.11532946
9	0xbe81ba16	-0.25337285
10	0xbecbc597	-0.39799187
11	0xbef126f5	-0.47100034
12	0x3ee75a5c	0.45186126
13	0x3d273507	0.040822055
14	0xbe54b0e6	-0.20770606
15	0xbede84c1	-0.43460658
16	0x3d36ca55	0.044626553
17	0x3e357319	0.17719688
18	0xbc4ef6da	-0.012632096
19	0x3c1e8202	0.009674551
20	0xbebcec3d	-0.36898986
21	0x3e2546dd	0.16140313
22	0xbed6a385	-0.4192163
23	0xbed4e17e	-0.41578287

conv1.apply_func.0.bias f4 [6]
0	0x3e2f24a3	0.1710382
1	0x3e06b70f	0.13155769
2	0xbe358ed8	-0.17730272
3	0xbeb3fb16	-0.351525
4	0x3eb33d28	0.35007596
5	0xbe4aae69	-0.19793095

conv1.apply_func.2.weight f4 [6, 6]
0	0x3cb2e4fa	0.0218377
1	0x3eaea713	0.34111843
2	0x3ec1b672	0.37834507
3	0xbdd3d9a8	-0.10344249
4	0xbec3acdc	-0.3821782
5	0x3db5f0f0	0.08883846
6	0xbcbbd637	-0.022929294
7	0xbe94c008	-0.29052758
8	0xbcce7a25	-0.025204727
9	0xbdb8d304	-0.09024623
10	0xbd81e194	-0.06341854
11	0xbe2aa09b	-0.16662829
12	0xbed5699b	-0.41682133
13	0x3e161131	0.14654996
14	0xbe6a6b12	-0.22892407
15	0xbebaa34e	-0.36452717
16	0x3e412987	0.18863498
17	0x3d31933e	0.04335331
18	0xbeaa5077	-0.33264515
19	0xbe26d711	-0.16292979
20	0xbeae57cf	-0.34051368
21	0xbdf6a622	-0.12043406
22	0x3da971eb	0.08273681
23	0x3d3736bb	0.04472993
24	0xbd512896	-0.051064096
25	0xbe98272b	-0.29717383
26	0xbdbf3496	-0.09336202
27	0x3e6e096c	0.23245782
28	0xbe6fbbf3	-0.2341154
29	0xbe93a090	-0.28833437
30	0x3da70dd2	0.08156933
31	0x3e1c6be1	0.15275528
32	0x3ebd5d4d	0.36985245
33	0x3e8b82e4	0.272483
34	0xbda4afd6	-0.080413505
35	0x3dba4542	0.09095241

conv1.apply_func.2.bias f4 [6]
0	0x3e6de034	0.23230058
1	0x3e3afade	0.1825976
2	0x3eb1e870	0.34747648
3	0xbe8e2657	-0.27763626
4	0x3e4f76c2	0.20260146
5	0x3ea3e673	0.32011756

conv2.apply_func.0.weight f4 [6, 6]
0	0xbdf2382a	-0.11827119
1	0xbdaa0b69	-0.083029576
2	0x3eaf7881	0.34271625
3	0x3ea5cd7b	0.32383332
4	0x3e9e082f	0.3086562
5	0xbe6c01f7	-0.23047625
6	0xbe1e71c5	-0.15473087
7	0xbe942682	-0.2893563
8	0x3beb2f44	0.0071772654
9	0xbeaf82d1	-0.34279492
10	0x3e425940	0.18979359
11	0x3ebf798d	0.37397423
12	0x3e07b444	0.1325236
13	0x3ebc82f3	0.36818656
14	0x3eccd452	0.40005738
15	0x3ec7c19e	0.39014906
16	0xbe093a11	-0.13401057
17	0xbeb1b61f	-0.3470926
18	0xbe620757	-0.22073112
19	0xbe75bd30	-0.2399795
20	0x3dd6d4be	0.10489796
21	0xbe7a774d	-0.24459572
22	0xbdf88d07	-0.12136274
23	0xbe3c1b8c	-0.18369883
24	0xbe08235f	-0.13294743
25	0x3eab39f4	0.33442652
26	0xbe7ebfa8	-0.24877799
27	0x3d643414	0.055713728
28	0x3e1dfd31	0.15428616
29	0xbe899e38	-0.26878524
30	0x3e252185	0.16126068
31	0x3e30853a	0.17238322
32	0x3e77a031	0.24182202
33	0x3b89ac90	0.0042014793
34	0xbe8869a6	-0.26643103
35	0xbe4371b2	-0.1908634

conv2.apply_func.0.bias f4 [6]
0	0x3dc9bcc4	0.09850457
1	0xbe0e01d8	-0.13867891
2	0x3ee534dd	0.44766894
3	0xbe94dd88	-0.29075265
4	0x3e256a57	0.16153847
5	0xbdec15c9	-0.11527593

conv2.apply_func.2.weight f4 [1, 6]
0	0xbdb0c3cd	-0.08631096
1	0xb6068b98	-2.004881e-06
2	0x3dc6f8b3	0.09715404
3	0xbe6fbdd2	-0.23412254
4	0x3df3c3f2	0.11902608
5	0xbd72e083	-0.059296142
