macros/Timing_estimation/models/GNN_Energy_prediction/February_05/events50k_lr0_001_hiddendim6_epoch67_geometry_2.pth (torch, 5736 bytes, 14 tensors)

mlp1.0.weight f4 [6, 4]
-0.34427968 -0.29390064 0.020775268 -0.0037905865 0.03611462 -0.121957056 0.20308053 -0.2657622
-0.033289272 0.3715418 0.097452864 0.062305745 -0.095413975 0.27202573 -0.38102394 0.30547032
-0.32193735 0.22062914 -0.46409386 -0.058018267 0.24687456 0.0015803027 0.08876692 -0.16082545
00000000: 6d45 b0be 257a 96be e530 aa3c 7d6b 78bb
00000010: ecec 133d 9fc4 f9bd 58f4 4f3e fc11 88be
00000020: 555a 08bd ba3a be3e 5e95 c73d 4f34 7f3d
00000030: 6768 c3bd f546 8b3e 9215 c3be 9b66 9c3e
00000040: f9d4 a4be 9bec 613e b69d edbe 90a4 6dbd
00000050: afcc 7c3e 2922 cf3a 6ecb b53d 6daf 24be

mlp1.0.bias f4 [6]
0.024900505 0.17047682 0.05548266 0.10284359 -0.2001266 -0.02315588
00000000: 25fc cb3c 7a91 2e3e c941 633d a99f d23d
00000010: fded 4cbe 66b1 bdbc

mlp1.2.weight f4 [6, 6]
0.2821074 -0.3215915 0.020804448 0.312483 0.27974528 -0.39376533 -0.23274152 -0.3832413
-0.17205729 0.276773 0.06428715 0.28040645 -0.2913891 0.15112604 0.15886909 0.3157899
0.24736173 0.11757327 -0.055953704 0.0008926986 -0.043088827 -0.3300978 -0.37031326 -0.22233553
-0.28771982 0.11161 -0.14924882 -0.19574519 0.18521306 -0.08787168 -0.0963092 0.06865801
0.030377122 0.3485999 0.30143565 0.19480063
00000000: 6270 903e a4a7 a4be 176e aa3c c6fd 9f3e
00000010: c63a 8f3e 9c9b c9be cb53 6ebe 3438 c4be
00000020: c92f 30be 31b5 8d3e fba8 833d 6f91 8f3e
00000030: f430 95be c9c0 1a3e 94ae 223e 37af a13e
00000040: 654c 7d3e 41ca f03d b62f 65bd fd03 6a3a
00000050: e97d 30bd 9402 a9be b399 bdbe edab 63be
00000060: 0350 93be c993 e43d afd4 18be 6d71 48be
00000070: 7ea8 3d3e 11f6 b3bd c23d c5bd 929c 8c3d
00000080: 71d9 f83c b07b b23e c655 9a3e d179 473e

mlp1.2.bias f4 [6]
-0.26016068 -0.14834186 -0.3569264 0.22839774 -0.3507264 0.440401
00000000: c833 85be eee6 17be 0fbf b6be 19e1 693e
00000010: 6992 b3be 3d7c e13e

mlp2.0.weight f4 [6, 6]
-0.2890054 0.2370064 -0.36510208 -0.31877768 -0.14778024 -0.0040641376 -0.014677907 0.0243626
-0.2014879 -0.1672773 0.25678986 -0.106383234 -0.07812434 -0.3807988 -0.09988873 0.30029637
-0.026826268 0.023707356 -0.05785649 0.23060481 0.19242828 0.15190092 0.009039932 -0.46218014
0.075701855 -0.28314832 -0.42129952 -0.15847252 -0.010792754 0.2610379 0.17686701 -0.10921433
-0.08593406 0.098669015 -0.037721552 -0.059604537
00000000: 84f8 93be ceb1 723e a9ee babe d436 a3be
00000010: b453 17be 752c 85bb 9b7b 70bc 1394 c73c
00000020: d852 4ebe be4a 2bbe f679 833e 74df d9bd
00000030: a7ff 9fbd 0ff8 c2be 7692 ccbd 72c0 993e
00000040: c3c2 dbbc ee35 c23c edfa 6cbd ab23 6c3e
00000050: eb0b 453e ea8b 1b3e 391c 143c e0a2 ecbe
00000060: 9309 9b3d d1f8 90be 92b4 d7be 9f46 22be
00000070: 17d4 30bc c2a6 853e a01c 353e c3ab dfbd
00000080: 32fe afbd fb12 ca3d ea81 1abd e323 74bd

mlp2.0.bias f4 [6]
-0.23069525 -0.04983942 -0.48973468 0.29344535 0.12941256 -0.21123876
00000000: 603b 6cbe 6b24 4cbd 81be fabe 783e 963e
00000010: ba84 043e f94e 58be

mlp2.2.weight f4 [1, 6]
-0.14231704 -0.2766366 -0.27844572 -0.26027372 -0.11094776 -0.17965768
00000000: 8fbb 11be 50a3 8dbe 7090 8ebe 9942 85be
00000010: 9438 e3bd 2ff8 37be

conv1.apply_func.0.weight f4 [6, 4]
-0.34427968 -0.29390064 0.020775268 -0.0037905865 0.03611462 -0.121957056 0.20308053 -0.2657622
-0.033289272 0.3715418 0.097452864 0.062305745 -0.095413975 0.27202573 -0.38102394 0.30547032
-0.32193735 0.22062914 -0.46409386 -0.058018267 0.24687456 0.0015803027 0.08876692 -0.16082545
00000000: 6d45 b0be 257a 96be e530 aa3c 7d6b 78bb
00000010: ecec 133d 9fc4 f9bd 58f4 4f3e fc11 88be
00000020: 555a 08bd ba3a be3e 5e95 c73d 4f34 7f3d
00000030: 6768 c3bd f546 8b3e 9215 c3be 9b66 9c3e
00000040: f9d4 a4be 9bec 613e b69d edbe 90a4 6dbd
00000050: afcc 7c3e 2922 cf3a 6ecb b53d 6daf 24be

conv1.apply_func.0.bias f4 [6]
0.024900505 0.17047682 0.05548266 0.10284359 -0.2001266 -0.02315588
00000000: 25fc cb3c 7a91 2e3e c941 633d a99f d23d
00000010: fded 4cbe 66b1 bdbc

conv1.apply_func.2.weight f4 [6, 6]
0.2821074 -0.3215915 0.020804448 0.312483 0.27974528 -0.39376533 -0.23274152 -0.3832413
-0.17205729 0.276773 0.06428715 0.28040645 -0.2913891 0.15112604 0.15886909 0.3157899
0.24736173 0.11757327 -0.055953704 0.0008926986 -0.043088827 -0.3300978 -0.37031326 -0.22233553
-0.28771982 0.11161 -0.14924882 -0.19574519 0.18521306 -0.08787168 -0.0963092 0.06865801
0.030377122 0.3485999 0.30143565 0.19480063
00000000: 6270 903e a4a7 a4be 176e aa3c c6fd 9f3e
00000010: c63a 8f3e 9c9b c9be cb53 6ebe 3438 c4be
00000020: c92f 30be 31b5 8d3e fba8 833d 6f91 8f3e
00000030: f430 95be c9c0 1a3e 94ae 223e 37af a13e
00000040: 654c 7d3e 41ca f03d b62f 65bd fd03 6a3a
00000050: e97d 30bd 9402 a9be b399 bdbe edab 63be
00000060: 0350 93be c993 e43d afd4 18be 6d71 48be
00000070: 7ea8 3d3e 11f6 b3bd c23d c5bd 929c 8c3d
00000080: 71d9 f83c b07b b23e c655 9a3e d179 473e

conv1.apply_func.2.bias f4 [6]
-0.26016068 -0.14834186 -0.3569264 0.22839774 -0.3507264 0.440401
00000000: c833 85be eee6 17be 0fbf b6be 19e1 693e
00000010: 6992 b3be 3d7c e13e

conv2.apply_func.0.weight f4 [6, 6]
-0.2890054 0.2370064 -0.36510208 -0.31877768 -0.14778024 -0.0040641376 -0.014677907 0.0243626
-0.2014879 -0.1672773 0.25678986 -0.106383234 -0.07812434 -0.3807988 -0.09988873 0.30029637
-0.026826268 0.023707356 -0.05785649 0.23060481 0.19242828 0.15190092 0.009039932 -0.46218014
0.075701855 -0.28314832 -0.42129952 -0.15847252 -0.010792754 0.2610379 0.17686701 -0.10921433
-0.08593406 0.098669015 -0.037721552 -0.059604537
00000000: 84f8 93be ceb1 723e a9ee babe d436 a3be
00000010: b453 17be 752c 85bb 9b7b 70bc 1394 c73c
00000020: d852 4ebe be4a 2bbe f679 833e 74df d9bd
00000030: a7ff 9fbd 0ff8 c2be 7692 ccbd 72c0 993e
00000040: c3c2 dbbc ee35 c23c edfa 6cbd ab23 6c3e
00000050: eb0b 453e ea8b 1b3e 391c 143c e0a2 ecbe
00000060: 9309 9b3d d1f8 90be 92b4 d7be 9f46 22be
00000070: 17d4 30bc c2a6 853e a01c 353e c3ab dfbd
00000080: 32fe afbd fb12 ca3d ea81 1abd e323 74bd

conv2.apply_func.0.bias f4 [6]
-0.23069525 -0.04983942 -0.48973468 0.29344535 0.12941256 -0.21123876
00000000: 603b 6cbe 6b24 4cbd 81be fabe 783e 963e
00000010: ba84 043e f94e 58be

conv2.apply_func.2.weight f4 [1, 6]
-0.14231704 -0.2766366 -0.27844572 -0.26027372 -0.11094776 -0.17965768
00000000: 8fbb 11be 50a3 8dbe 7090 8ebe 9942 85be
00000010: 9438 e3bd 2ff8 37be
