macros/Timing_estimation/models/GNN_Energy_prediction/February_05/events50k_lr0_001_hiddendim6_epoch41_geometry_2.pth (torch, 5736 bytes, 14 tensors)

mlp1.0.weight f4 [6, 4]
-0.34281558 -0.2979687 0.028965075 0.010580242 0.033548705 -0.121843405 0.20159905 -0.2665166
-0.034889374 0.37311038 0.099023506 0.06391584 -0.09675359 0.27338746 -0.37966377 0.30680287
-0.32347783 0.22216511 -0.46255758 -0.05647637 0.24834982 0.002483383 0.089664094 -0.16129029
00000000: 8685 afbe 5a8f 98be 2a48 ed3c c058 2d3c
00000010: 5e6a 093d 0989 f9bd fb6f 4e3e dd74 88be
00000020: 29e8 0ebd 5308 bf3e d6cc ca3d 4fe6 823d
00000030: bf26 c6bd 71f9 8b3e 4a63 c2be 4415 9d3e
00000040: e39e a5be 407f 633e 59d4 ecbe c453 67bd
00000050: 6a4f 7e3e 41c0 223b cfa1 b73d 4829 25be

mlp1.0.bias f4 [6]
0.035407647 0.1678361 0.057077944 0.104185894 -0.19858663 -0.022276955
00000000: 9c07 113d 3add 2b3e 90ca 693d 6a5f d53d
00000010: 4b5a 4bbe 297e b6bc

mlp1.2.weight f4 [6, 6]
0.28569868 -0.31655303 0.023416426 0.3150837 0.28239855 -0.39110562 -0.23368214 -0.38519797
-0.17099749 0.27782723 0.06532288 0.28203782 -0.2963953 0.14497186 0.16002984 0.31694448
0.24850227 0.11238207 -0.055953704 0.0008926986 -0.043088827 -0.3300978 -0.37031326 -0.22233553
-0.28360325 0.11576637 -0.14840014 -0.19489652 0.1860629 -0.083716236 -0.09342245 0.0733631
0.028605735 0.34683388 0.2996587 0.193924
00000000: 1947 923e 3d13 a2be ced3 bf3c a752 a13e
00000010: 8b96 903e ff3e c8be 5f4a 6fbe ab38 c5be
00000020: f719 2fbe 5f3f 8e3e 01c8 853d 4367 903e
00000030: 20c1 97be 8173 143e ddde 233e 8c46 a23e
00000040: 6177 7e3e 9228 e63d b62f 65bd fd03 6a3a
00000050: e97d 30bd 9402 a9be b399 bdbe edab 63be
00000060: 7234 91be eb16 ed3d 35f6 17be f492 47be
00000070: 4687 3e3e 6b73 abbd 4554 bfbd 653f 963d
00000080: 9356 ea3c 3694 b13e dd6c 993e 0394 463e

mlp1.2.bias f4 [6]
-0.25701097 -0.14714204 -0.35650182 0.22839774 -0.3498648 0.43885383
00000000: f196 83be 67ac 16be 6887 b6be 19e1 693e
00000010: 7b21 b3be 73b1 e03e

mlp2.0.weight f4 [6, 6]
-0.2858171 0.23952682 -0.36073878 -0.31877768 -0.14778024 -0.00028314855 -0.01244281 0.025115866
-0.20071372 -0.1672773 0.25678986 -0.10543397 -0.07651864 -0.3766552 -0.09530951 0.30029637
-0.026826268 0.028408496 -0.05632516 0.23213272 0.19397673 0.15190092 0.009721553 -0.46048453
0.07844935 -0.28153098 -0.41392252 -0.15847252 -0.006245785 0.26428223 0.1796801 -0.106963135
-0.083089754 0.098669015 -0.03704098 -0.055703077
00000000: 9e56 92be 8546 753e c1b2 b8be d436 a3be
00000010: b453 17be 8e73 94b9 eedc 4bbc cabf cd3c
00000020: e687 4dbe be4a 2bbe f679 833e c4ed d7bd
00000030: ceb5 9cbd f3d8 c0be a231 c3bd 72c0 993e
00000040: c3c2 dbbc efb8 e83c 36b5 66bd 33b4 6d3e
00000050: d6a1 463e ea8b 1b3e 2647 1f3c a1c4 ebbe
00000060: 0eaa a03d d424 90be a7ed d3be 9f46 22be
00000070: 71a9 ccbb 0050 873e 0ffe 373e 7d0f dbbd
00000080: f62a aabd fb12 ca3d 48b8 17bd e928 64bd

mlp2.0.bias f4 [6]
-0.22679648 -0.048521962 -0.48624748 0.2951595 0.13333598 -0.20727938
00000000: 563d 68be f7be 46bd 6ef5 f8be 251f 973e
00000010: 3a89 083e 0c41 54be

mlp2.2.weight f4 [1, 6]
-0.14453086 -0.27748895 -0.2810499 -0.26146704 -0.1148632 -0.1814983
00000000: e6ff 13be 0813 8ebe c6e5 8fbe 02df 85be
00000010: 663d ebbd b1da 39be

conv1.apply_func.0.weight f4 [6, 4]
-0.34281558 -0.2979687 0.028965075 0.010580242 0.033548705 -0.121843405 0.20159905 -0.2665166
-0.034889374 0.37311038 0.099023506 0.06391584 -0.09675359 0.27338746 -0.37966377 0.30680287
-0.32347783 0.22216511 -0.46255758 -0.05647637 0.24834982 0.002483383 0.089664094 -0.16129029
00000000: 8685 afbe 5a8f 98be 2a48 ed3c c058 2d3c
00000010: 5e6a 093d 0989 f9bd fb6f 4e3e dd74 88be
00000020: 29e8 0ebd 5308 bf3e d6cc ca3d 4fe6 823d
00000030: bf26 c6bd 71f9 8b3e 4a63 c2be 4415 9d3e
00000040: e39e a5be 407f 633e 59d4 ecbe c453 67bd
00000050: 6a4f 7e3e 41c0 223b cfa1 b73d 4829 25be

conv1.apply_func.0.bias f4 [6]
0.035407647 0.1678361 0.057077944 0.104185894 -0.19858663 -0.022276955
00000000: 9c07 113d 3add 2b3e 90ca 693d 6a5f d53d
00000010: 4b5a 4bbe 297e b6bc

conv1.apply_func.2.weight f4 [6, 6]
0.28569868 -0.31655303 0.023416426 0.3150837 0.28239855 -0.39110562 -0.23368214 -0.38519797
-0.17099749 0.27782723 0.06532288 0.28203782 -0.2963953 0.14497186 0.16002984 0.31694448
0.24850227 0.11238207 -0.055953704 0.0008926986 -0.043088827 -0.3300978 -0.37031326 -0.22233553
-0.28360325 0.11576637 -0.14840014 -0.19489652 0.1860629 -0.083716236 -0.09342245 0.0733631
0.028605735 0.34683388 0.2996587 0.193924
00000000: 1947 923e 3d13 a2be ced3 bf3c a752 a13e
00000010: 8b96 903e ff3e c8be 5f4a 6fbe ab38 c5be
00000020: f719 2fbe 5f3f 8e3e 01c8 853d 4367 903e
00000030: 20c1 97be 8173 143e ddde 233e 8c46 a23e
00000040: 6177 7e3e 9228 e63d b62f 65bd fd03 6a3a
00000050: e97d 30bd 9402 a9be b399 bdbe edab 63be
00000060: 7234 91be eb16 ed3d 35f6 17be f492 47be
00000070: 4687 3e3e 6b73 abbd 4554 bfbd 653f 963d
00000080: 9356 ea3c 3694 b13e dd6c 993e 0394 463e

conv1.apply_func.2.bias f4 [6]
-0.25701097 -0.14714204 -0.35650182 0.22839774 -0.3498648 0.43885383
00000000: f196 83be 67ac 16be 6887 b6be 19e1 693e
00000010: 7b21 b3be 73b1 e03e

conv2.apply_func.0.weight f4 [6, 6]
-0.2858171 0.23952682 -0.36073878 -0.31877768 -0.14778024 -0.00028314855 -0.01244281 0.025115866
-0.20071372 -0.1672773 0.25678986 -0.10543397 -0.07651864 -0.3766552 -0.09530951 0.30029637
-0.026826268 0.028408496 -0.05632516 0.23213272 0.19397673 0.15190092 0.009721553 -0.46048453
0.07844935 -0.28153098 -0.41392252 -0.15847252 -0.006245785 0.26428223 0.1796801 -0.106963135
-0.083089754 0.098669015 -0.03704098 -0.055703077
00000000: 9e56 92be 8546 753e c1b2 b8be d436 a3be
00000010: b453 17be 8e73 94b9 eedc 4bbc cabf cd3c
00000020: e687 4dbe be4a 2bbe f679 833e c4ed d7bd
00000030: ceb5 9cbd f3d8 c0be a231 c3bd 72c0 993e
00000040: c3c2 dbbc efb8 e83c 36b5 66bd 33b4 6d3e
00000050: d6a1 463e ea8b 1b3e 2647 1f3c a1c4 ebbe
00000060: 0eaa a03d d424 90be a7ed d3be 9f46 22be
00000070: 71a9 ccbb 0050 873e 0ffe 373e 7d0f dbbd
00000080: f62a aabd fb12 ca3d 48b8 17bd e928 64bd

conv2.apply_func.0.bias f4 [6]
-0.22679648 -0.048521962 -0.48624748 0.2951595 0.13333598 -0.20727938
00000000: 563d 68be f7be 46bd 6ef5 f8be 251f 973e
00000010: 3a89 083e 0c41 54be

conv2.apply_func.2.weight f4 [1, 6]
-0.14453086 -0.27748895 -0.2810499 -0.26146704 -0.1148632 -0.1814983
00000000: e6ff 13be 0813 8ebe c6e5 8fbe 02df 85be
00000010: 663d ebbd b1da 39be
