macros/Timing_estimation/models/GNN_Energy_prediction/February_05/events50k_lr0_001_hiddendim6_epoch39_geometry_2.pth (torch, 5736 bytes, 14 tensors)

mlp1.0.weight f4 [6, 4]
00000000: 743a afbe a322 99be 0079 fa3c e051 563c
00000010: ee06 073d a98a f9bd dd1a 4e3e 7587 88be
00000020: 5962 10bd 1937 bf3e 0d88 cb3d 0aa4 833d
00000030: 60cb c6bd cc22 8c3e f239 c2be 5b3e 9d3e
00000040: e1cc a5be 4ddb 633e 52a6 ecbe eae3 65bd
00000050: 18a9 7e3e 51a0 2d3b 3414 b83d 6d3b 25be
-0.34224284 -0.29909238 0.030575275 0.013081044 0.032965593 -0.121846505 0.20127435 -0.26665846
-0.03525004 0.37346724 0.09938059 0.06427772 -0.097067595 0.27370298 -0.37934834 0.30711636
-0.32382873 0.22251625 -0.46220642 -0.05612556 0.24869192 0.002649326 0.089882284 -0.1613595

mlp1.0.bias f4 [6]
00000000: 781d 193d ae44 2b3e 1c44 6b3d 1804 d63d
00000010: 4cfe 4abe 66af b4bc
0.03738162 0.16725418 0.057438 0.104499996 -0.19823569 -0.022056293

mlp1.2.weight f4 [6, 6]
00000000: 92ab 923e 7c86 a1be 7894 c43c 029e a13e
00000010: f5e2 903e 9bf2 c7be c87a 6fbe 8073 c5be
00000020: d6d7 2ebe 7060 8e3e 0a4b 863d 5198 903e
00000030: 6f4a 98be 6a01 133e a326 243e 626a a23e
00000040: 9fbe 7e3e 36b8 e33d b62f 65bd fd03 6a3a
00000050: e97d 30bd 9402 a9be b399 bdbe edab 63be
00000060: abb8 90be d00a ef3d 2bc3 17be eb5f 47be
00000070: 61ba 3e3e a27f a9bd e7f5 bdbd 4675 983d
00000080: 030a e73c a75f b13e 1438 993e 4b5f 463e
0.28646523 -0.31547916 0.023996577 0.31565863 0.28298154 -0.3905228 -0.23386681 -0.38564682
-0.17074522 0.2780795 0.06557281 0.28241208 -0.29744288 0.14356008 0.16030364 0.3172179
0.24877404 0.1111912 -0.055953704 0.0008926986 -0.043088827 -0.3300978 -0.37031326 -0.22233553
-0.2826589 0.11671984 -0.14820544 -0.19470184 0.18625785 -0.08276297 -0.09275418 0.07444243
0.028203016 0.3464329 0.29925597 0.19372289

mlp1.2.bias f4 [6]
00000000: 233e 83be fd60 16be 5978 b6be 19e1 693e
00000010: 9307 b3be ee83 e03e
-0.25633344 -0.14685436 -0.35638693 0.22839774 -0.34966716 0.43850654

mlp2.0.weight f4 [6, 6]
00000000: c0f6 91be 17de 753e 8f2f b8be d436 a3be
00000010: b453 17be fd25 193a 5e76 43bc 2e2a cf3c
00000020: 5859 4dbe be4a 2bbe f679 833e 987b d7bd
00000030: aef4 9bbd 5c5c c0be e20a c1bd 72c0 993e
00000040: c3c2 dbbc 888e f13c da44 65bd 1510 6e3e
00000050: f4fe 463e ea8b 1b3e fdd6 213c a591 ebbe
00000060: 51f3 a13d 33f4 8fbe d70f d3be 9f46 22be
00000070: 737b aabb 8cb1 873e 2ea0 383e 7708 dabd
00000080: 54e2 a8bd fb12 ca3d 9314 17bd a4b4 60bd
-0.28508568 0.24010502 -0.35973784 -0.31877768 -0.14778024 0.00058421475 -0.011930076 0.025288668
-0.20053613 -0.1672773 0.25678986 -0.105216205 -0.07615028 -0.37570465 -0.09425904 0.30029637
-0.026826268 0.02948691 -0.055973865 0.23248322 0.19433194 0.15190092 0.009877917 -0.46009555
0.07907737 -0.28115997 -0.41223022 -0.15847252 -0.0052027046 0.26502645 0.18029854 -0.10646146
-0.08246294 0.098669015 -0.036884855 -0.054859772

mlp2.0.bias f4 [6]
00000000: e252 67be 0f82 45bd bb8c f8be ab52 973e
00000010: 716d 093e 8d69 53be
-0.22590211 -0.048219737 -0.4854487 0.29555258 0.13420655 -0.20645733

mlp2.2.weight f4 [1, 6]
00000000: 0885 14be a92c 8ebe 1334 90be e302 86be
00000010: e913 edbd 0949 3abe
-0.14503872 -0.27768448 -0.2816473 -0.26174077 -0.11576063 -0.18191923

conv1.apply_func.0.weight f4 [6, 4]
00000000: 743a afbe a322 99be 0079 fa3c e051 563c
00000010: ee06 073d a98a f9bd dd1a 4e3e 7587 88be
00000020: 5962 10bd 1937 bf3e 0d88 cb3d 0aa4 833d
00000030: 60cb c6bd cc22 8c3e f239 c2be 5b3e 9d3e
00000040: e1cc a5be 4ddb 633e 52a6 ecbe eae3 65bd
00000050: 18a9 7e3e 51a0 2d3b 3414 b83d 6d3b 25be
-0.34224284 -0.29909238 0.030575275 0.013081044 0.032965593 -0.121846505 0.20127435 -0.26665846
-0.03525004 0.37346724 0.09938059 0.06427772 -0.097067595 0.27370298 -0.37934834 0.30711636
-0.32382873 0.22251625 -0.46220642 -0.05612556 0.24869192 0.002649326 0.089882284 -0.1613595

conv1.apply_func.0.bias f4 [6]
00000000: 781d 193d ae44 2b3e 1c44 6b3d 1804 d63d
00000010: 4cfe 4abe 66af b4bc
0.03738162 0.16725418 0.057438 0.104499996 -0.19823569 -0.022056293

conv1.apply_func.2.weight f4 [6, 6]
00000000: 92ab 923e 7c86 a1be 7894 c43c 029e a13e
00000010: f5e2 903e 9bf2 c7be c87a 6fbe 8073 c5be
00000020: d6d7 2ebe 7060 8e3e 0a4b 863d 5198 903e
00000030: 6f4a 98be 6a01 133e a326 243e 626a a23e
00000040: 9fbe 7e3e 36b8 e33d b62f 65bd fd03 6a3a
00000050: e97d 30bd 9402 a9be b399 bdbe edab 63be
00000060: abb8 90be d00a ef3d 2bc3 17be eb5f 47be
00000070: 61ba 3e3e a27f a9bd e7f5 bdbd 4675 983d
00000080: 030a e73c a75f b13e 1438 993e 4b5f 463e
0.28646523 -0.31547916 0.023996577 0.31565863 0.28298154 -0.3905228 -0.23386681 -0.38564682
-0.17074522 0.2780795 0.06557281 0.28241208 -0.29744288 0.14356008 0.16030364 0.3172179
0.24877404 0.1111912 -0.055953704 0.0008926986 -0.043088827 -0.3300978 -0.37031326 -0.22233553
-0.2826589 0.11671984 -0.14820544 -0.19470184 0.18625785 -0.08276297 -0.09275418 0.07444243
0.028203016 0.3464329 0.29925597 0.19372289

conv1.apply_func.2.bias f4 [6]
00000000: 233e 83be fd60 16be 5978 b6be 19e1 693e
00000010: 9307 b3be ee83 e03e
-0.25633344 -0.14685436 -0.35638693 0.22839774 -0.34966716 0.43850654

conv2.apply_func.0.weight f4 [6, 6]
00000000: c0f6 91be 17de 753e 8f2f b8be d436 a3be
00000010: b453 17be fd25 193a 5e76 43bc 2e2a cf3c
00000020: 5859 4dbe be4a 2bbe f679 833e 987b d7bd
00000030: aef4 9bbd 5c5c c0be e20a c1bd 72c0 993e
00000040: c3c2 dbbc 888e f13c da44 65bd 1510 6e3e
00000050: f4fe 463e ea8b 1b3e fdd6 213c a591 ebbe
00000060: 51f3 a13d 33f4 8fbe d70f d3be 9f46 22be
00000070: 737b aabb 8cb1 873e 2ea0 383e 7708 dabd
00000080: 54e2 a8bd fb12 ca3d 9314 17bd a4b4 60bd
-0.28508568 0.24010502 -0.35973784 -0.31877768 -0.14778024 0.00058421475 -0.011930076 0.025288668
-0.20053613 -0.1672773 0.25678986 -0.105216205 -0.07615028 -0.37570465 -0.09425904 0.30029637
-0.026826268 0.02948691 -0.055973865 0.23248322 0.19433194 0.15190092 0.009877917 -0.46009555
0.07907737 -0.28115997 -0.41223022 -0.15847252 -0.0052027046 0.26502645 0.18029854 -0.10646146
-0.08246294 0.098669015 -0.036884855 -0.054859772

conv2.apply_func.0.bias f4 [6]
00000000: e252 67be 0f82 45bd bb8c f8be ab52 973e
00000010: 716d 093e 8d69 53be
-0.22590211 -0.048219737 -0.4854487 0.29555258 0.13420655 -0.20645733

conv2.apply_func.2.weight f4 [1, 6]
00000000: 0885 14be a92c 8ebe 1334 90be e302 86be
00000010: e913 edbd 0949 3abe
-0.14503872 -0.27768448 -0.2816473 -0.26174077 -0.11576063 -0.18191923
