macros/Timing_estimation/models/GNN_Energy_prediction/February_05/events50k_lr0_001_hiddendim6_epoch144_geometry_2.pth (torch, 6006 bytes, 14 tensors)

mlp1.0.weight f4 [6, 4]
00000000: cc2b 623e 55ec cb3e c891 cb3e c67b 113e
00000010: 1eae 4cbe 0bbd 00bf ed6f f8bd 588f cb3e
00000020: 2f44 133e 8d3a 79be 4f6c adbe 5348 71be
00000030: d23c 8e3e 0d1a f23e a0c2 963e 8ee1 bfbe
00000040: c961 d6be bed2 9b3e 4b2f 313e 28b7 ba3d
00000050: cc6f 1ebe 543d 733d 91b7 05be 634e a63e
0.2208702 0.39828745 0.3975966 0.14207372 -0.19988295 -0.50288457 -0.12130723 0.397578
0.14381479 -0.24338742 -0.33871695 -0.23562746 0.27780777 0.472855 0.29445362 -0.37476772
-0.4187148 0.3043422 0.17303197 0.091169655 -0.15472335 0.05938466 -0.13058306 0.3248168

mlp1.0.bias f4 [6]
00000000: f08a f7bd 6fe4 a3be e370 b73e d7a2 543d
00000010: 4d78 b53e ee98 7c3e
-0.12087047 -0.32010219 0.35828313 0.05191311 0.35443345 0.24667713

mlp1.2.weight f4 [6, 6]
00000000: beb2 e13d 455a dd3d 69bb 87be f94f 8b3d
00000010: dd28 413e e7ba 94bd 6a15 58be 2c03 46bd
00000020: 1999 63be e11e 50be b9c1 9fbe fe46 a23e
00000030: d434 8abe 40d5 67bd a420 ecbb 22f6 a5be
00000040: 8662 0abe efae 923e 70b0 17be 9f14 9ebe
00000050: 898b bcbe e2b7 03bc 72ff 4ebc 73ba 9dbe
00000060: 46bd eebd 5c39 b8be 46a2 cbbd bee3 a3be
00000070: bda0 833d 1567 04be 13b0 ad3d ef74 4cbd
00000080: 63e8 acbe a8a4 b8be ecfb a23e bae2 09be
0.110204205 0.10808233 -0.2651017 0.06802363 0.18863244 -0.07262211 -0.21101919 -0.04834287
-0.22226371 -0.2032428 -0.31202486 0.31694788 -0.2699343 -0.056599855 -0.0072060395 -0.32414347
-0.13514146 0.2864909 -0.148134 -0.30875108 -0.36825207 -0.008039447 -0.012634145 -0.30806312
-0.11657195 -0.35981262 -0.099430606 -0.3200969 0.06427143 -0.12929948 0.08480849 -0.049916204
-0.33771047 -0.36063123 0.31832826 -0.13465396

mlp1.2.bias f4 [6]
00000000: 2a2a f53c 0f17 5ebd 8590 483e 7803 7c3e
00000010: 019d bd3d 1751 243e
0.029927332 -0.05422121 0.1958638 0.24610698 0.09258462 0.16046558

mlp2.0.weight f4 [6, 6]
00000000: 2619 67bd a632 5b3e 35e5 89be 1a59 883d
00000010: a24d 98be e7c1 cebd a459 413c 293f 8cbe
00000020: 66cd d03e f09c 8a3e dce3 bd3e 2706 9fbe
00000030: ac6e 4cbe 36c4 b8be 6c6c 613e 7aab 17bc
00000040: 4eea 01bd 99d1 103e d57b 17be b608 333d
00000050: 1dbb ce3d d4fa a3be 6dd4 88be c44a 1c3e
00000060: 9d51 1abe 0f9c 5d3e 722e 99bd f28b 8e3e
00000070: 1cae 833e 9c33 b7be de44 72be bbd5 49be
00000080: 03c5 173e 666e 7d3e 1119 403e 9449 a03d
-0.056420468 0.2140604 -0.26932684 0.0665762 -0.2974673 -0.10095578 0.011801157 -0.27391937
0.40781707 0.2707286 0.37087905 -0.3105938 -0.19964093 -0.36087197 0.22014016 -0.009257192
-0.03171759 0.14142455 -0.14793332 0.04370948 0.10094283 -0.32027304 -0.26724568 0.15262896
-0.15070195 0.21641563 -0.07479562 0.27841145 0.25718772 -0.35781562 -0.23659083 -0.19710438
0.14821248 0.24749145 0.18759562 0.07826534

mlp2.0.bias f4 [6]
00000000: 3701 67bc 4011 48be fe53 583e 8038 213e
00000010: 1bc1 97be 98bd abbe
-0.014099411 -0.1953783 0.2112579 0.1574421 -0.29639515 -0.33543086

mlp2.2.weight f4 [1, 6]
00000000: 231b 81be d8a7 88be a6b8 8b3e 96a7 e8bd
00000010: 3832 aebe 1179 4c3e
-0.25216016 -0.26690555 0.27289313 -0.113600895 -0.3402269 0.19968058

conv1.apply_func.0.weight f4 [6, 4]
00000000: cc2b 623e 55ec cb3e c891 cb3e c67b 113e
00000010: 1eae 4cbe 0bbd 00bf ed6f f8bd 588f cb3e
00000020: 2f44 133e 8d3a 79be 4f6c adbe 5348 71be
00000030: d23c 8e3e 0d1a f23e a0c2 963e 8ee1 bfbe
00000040: c961 d6be bed2 9b3e 4b2f 313e 28b7 ba3d
00000050: cc6f 1ebe 543d 733d 91b7 05be 634e a63e
0.2208702 0.39828745 0.3975966 0.14207372 -0.19988295 -0.50288457 -0.12130723 0.397578
0.14381479 -0.24338742 -0.33871695 -0.23562746 0.27780777 0.472855 0.29445362 -0.37476772
-0.4187148 0.3043422 0.17303197 0.091169655 -0.15472335 0.05938466 -0.13058306 0.3248168

conv1.apply_func.0.bias f4 [6]
00000000: f08a f7bd 6fe4 a3be e370 b73e d7a2 543d
00000010: 4d78 b53e ee98 7c3e
-0.12087047 -0.32010219 0.35828313 0.05191311 0.35443345 0.24667713

conv1.apply_func.2.weight f4 [6, 6]
00000000: beb2 e13d 455a dd3d 69bb 87be f94f 8b3d
00000010: dd28 413e e7ba 94bd 6a15 58be 2c03 46bd
00000020: 1999 63be e11e 50be b9c1 9fbe fe46 a23e
00000030: d434 8abe 40d5 67bd a420 ecbb 22f6 a5be
00000040: 8662 0abe efae 923e 70b0 17be 9f14 9ebe
00000050: 898b bcbe e2b7 03bc 72ff 4ebc 73ba 9dbe
00000060: 46bd eebd 5c39 b8be 46a2 cbbd bee3 a3be
00000070: bda0 833d 1567 04be 13b0 ad3d ef74 4cbd
00000080: 63e8 acbe a8a4 b8be ecfb a23e bae2 09be
0.110204205 0.10808233 -0.2651017 0.06802363 0.18863244 -0.07262211 -0.21101919 -0.04834287
-0.22226371 -0.2032428 -0.31202486 0.31694788 -0.2699343 -0.056599855 -0.0072060395 -0.32414347
-0.13514146 0.2864909 -0.148134 -0.30875108 -0.36825207 -0.008039447 -0.012634145 -0.30806312
-0.11657195 -0.35981262 -0.099430606 -0.3200969 0.06427143 -0.12929948 0.08480849 -0.049916204
-0.33771047 -0.36063123 0.31832826 -0.13465396

conv1.apply_func.2.bias f4 [6]
00000000: 2a2a f53c 0f17 5ebd 8590 483e 7803 7c3e
00000010: 019d bd3d 1751 243e
0.029927332 -0.05422121 0.1958638 0.24610698 0.09258462 0.16046558

conv2.apply_func.0.weight f4 [6, 6]
00000000: 2619 67bd a632 5b3e 35e5 89be 1a59 883d
00000010: a24d 98be e7c1 cebd a459 413c 293f 8cbe
00000020: 66cd d03e f09c 8a3e dce3 bd3e 2706 9fbe
00000030: ac6e 4cbe 36c4 b8be 6c6c 613e 7aab 17bc
00000040: 4eea 01bd 99d1 103e d57b 17be b608 333d
00000050: 1dbb ce3d d4fa a3be 6dd4 88be c44a 1c3e
00000060: 9d51 1abe 0f9c 5d3e 722e 99bd f28b 8e3e
00000070: 1cae 833e 9c33 b7be de44 72be bbd5 49be
00000080: 03c5 173e 666e 7d3e 1119 403e 9449 a03d
-0.056420468 0.2140604 -0.26932684 0.0665762 -0.2974673 -0.10095578 0.011801157 -0.27391937
0.40781707 0.2707286 0.37087905 -0.3105938 -0.19964093 -0.36087197 0.22014016 -0.009257192
-0.03171759 0.14142455 -0.14793332 0.04370948 0.10094283 -0.32027304 -0.26724568 0.15262896
-0.15070195 0.21641563 -0.07479562 0.27841145 0.25718772 -0.35781562 -0.23659083 -0.19710438
0.14821248 0.24749145 0.18759562 0.07826534

conv2.apply_func.0.bias f4 [6]
00000000: 3701 67bc 4011 48be fe53 583e 8038 213e
00000010: 1bc1 97be 98bd abbe
-0.014099411 -0.1953783 0.2112579 0.1574421 -0.29639515 -0.33543086

conv2.apply_func.2.weight f4 [1, 6]
00000000: 231b 81be d8a7 88be a6b8 8b3e 96a7 e8bd
00000010: 3832 aebe 1179 4c3e
-0.25216016 -0.26690555 0.27289313 -0.113600895 -0.3402269 0.19968058
