macros/Timing_estimation/models/GNN_Energy_prediction/February_05/events50k_lr0_001_hiddendim6_epoch4_geometry_2.pth (torch, 5722 bytes, 14 tensors)

mlp1.0.weight f4 [6, 4]
0	0x3e49e079	0.19714536
1	0x3eb6a5db	0.35673413
2	0x3eef6e52	0.46763855
3	0xbccaadfc	-0.024741165
4	0x3ec3b485	0.38223663
5	0xbd4f0fac	-0.050552055
6	0x3e91af4b	0.2845405
7	0x3daa9d47	0.083307795
8	0x3de5ba13	0.112171315
9	0xbed5bdcf	-0.41746375
10	0x3e945070	0.2896762
11	0x3c46211d	0.012092856
12	0x3b7bcc80	0.0038421452
13	0xbda319a4	-0.07963875
14	0x3d891357	0.06693142
15	0x3e8ba2a8	0.27272534
16	0xbe5198d4	-0.20468456
17	0xbef69aa8	-0.48164868
18	0x3e8f121d	0.27943507
19	0xbed7dd4b	-0.4216102
20	0x3eea1955	0.45722452
21	0x3e251b34	0.16123658
22	0x3d90db1f	0.07073044
23	0xbe675e84	-0.22594649

mlp1.0.bias f4 [6]
0	0xbeb3ad08	-0.3509295
1	0xbd0c29fa	-0.03421972
2	0x3ec4e5fa	0.38456708
3	0xbe26f49d	-0.1630425
4	0x3e791d80	0.2432766
5	0x3dacf367	0.08444863

mlp1.2.weight f4 [6, 6]
0	0xbe53e55a	-0.2069296
1	0xbe247499	-0.16060103
2	0xbeb45383	-0.35219964
3	0x3e9d3e5b	0.30711636
4	0x3ebba0db	0.3664616
5	0x3e689c0e	0.2271578
6	0xbd87057a	-0.065928414
7	0x3ea7203b	0.32641777
8	0xbe6310bc	-0.22174352
9	0xbec61a09	-0.38691738
10	0xbeab5e50	-0.33470392
11	0x3d454f12	0.04817111
12	0xbe36e389	-0.17860235
13	0x3d25cd79	0.040479157
14	0xbe56fb19	-0.20994224
15	0xbd80c9da	-0.062885
16	0xbec0d321	-0.3766108
17	0xbe893101	-0.267952
18	0xbc2576d2	-0.01009913
19	0x3ec20114	0.37891448
20	0x3e8c7954	0.27436316
21	0x3e2ff49b	0.17183153
22	0xbef04b4a	-0.4693244
23	0xbe914e1d	-0.28379908
24	0x3e3dc912	0.18533733
25	0x3eb7f23b	0.35926995
26	0xbec37731	-0.38176873
27	0x3dffb99e	0.124865755
28	0xbe522e9b	-0.20525591
29	0x3d93aed4	0.0721108
30	0xbe0495d0	-0.12947774
31	0x3d9beff1	0.076141246
32	0x3e762380	0.2403698
33	0xbbd99b2c	-0.0066408124
34	0xbd3e635b	-0.04648147
35	0xbe1c6f84	-0.15276915

mlp1.2.bias f4 [6]
0	0xbd22d5fc	-0.039754853
1	0xbe876b81	-0.26449206
2	0x3cf67ce6	0.030088853
3	0xbe57783b	-0.21041958
4	0x3eba21d1	0.36353925
5	0xbea0419f	-0.31300065

mlp2.0.weight f4 [6, 6]
0	0xbe72b497	-0.23701702
1	0x3d30ce63	0.043165576
2	0xbe8fcab4	-0.28084338
3	0xbe1836d1	-0.14864661
4	0xbc56c565	-0.013108586
5	0x3ed3a3d0	0.41335917
6	0x3ec5ce88	0.38634133
7	0x3dbaf699	0.09129066
8	0xbe3d455f	-0.18483494
9	0xbd17b695	-0.03703936
10	0xbea84f99	-0.32873228
11	0xbec2fe88	-0.38084817
12	0xbdb7b17c	-0.08969399
13	0x3cd7b98c	0.026333593
14	0xbeab1cc3	-0.3342038
15	0xbe02b570	-0.12764525
16	0x3dde099a	0.10841675
17	0xbe888f12	-0.26671654
18	0x3ebabb73	0.36471137
19	0x3e98247c	0.29715335
20	0x3e357abf	0.17722605
21	0xbe410b9a	-0.18852082
22	0xbe684471	-0.22682358
23	0x3e40b165	0.1881767
24	0xbe443f48	-0.19164765
25	0xbe2748b5	-0.1633633
26	0xbec792bf	-0.38979146
27	0xbd8c728f	-0.06857788
28	0x3d399410	0.04530722
29	0x3e11ed43	0.14250664
30	0x3d7faf1a	0.06242285
31	0xbd922418	-0.071357906
32	0xbe606735	-0.2191437
33	0xbe42feb8	-0.1904248
34	0x3e266492	0.16249302
35	0x3b918a46	0.0044415323

mlp2.0.bias f4 [6]
0	0x3d68cea0	0.056837678
1	0x3e8ec66f	0.27885768
2	0x3f9d4a7d	1.2288357
3	0x3ebe61da	0.3718403
4	0x3f9b3b2b	1.2127432
5	0x3f7aac25	0.9791892

mlp2.2.weight f4 [1, 6]
0	0x3d70fdc3	0.058835756
1	0xbe698410	-0.22804284
2	0x3f295ce2	0.6615735
3	0x3e8005e2	0.25004488
4	0x3e2c3fa6	0.16821155
5	0x3e91ecf4	0.28501093

conv1.apply_func.0.weight f4 [6, 4]
0	0x3e49e079	0.19714536
1	0x3eb6a5db	0.35673413
2	0x3eef6e52	0.46763855
3	0xbccaadfc	-0.024741165
4	0x3ec3b485	0.38223663
5	0xbd4f0fac	-0.050552055
6	0x3e91af4b	0.2845405
7	0x3daa9d47	0.083307795
8	0x3de5ba13	0.112171315
9	0xbed5bdcf	-0.41746375
10	0x3e945070	0.2896762
11	0x3c46211d	0.012092856
12	0x3b7bcc80	0.0038421452
13	0xbda319a4	-0.07963875
14	0x3d891357	0.06693142
15	0x3e8ba2a8	0.27272534
16	0xbe5198d4	-0.20468456
17	0xbef69aa8	-0.48164868
18	0x3e8f121d	0.27943507
19	0xbed7dd4b	-0.4216102
20	0x3eea1955	0.45722452
21	0x3e251b34	0.16123658
22	0x3d90db1f	0.07073044
23	0xbe675e84	-0.22594649

conv1.apply_func.0.bias f4 [6]
0	0xbeb3ad08	-0.3509295
1	0xbd0c29fa	-0.03421972
2	0x3ec4e5fa	0.38456708
3	0xbe26f49d	-0.1630425
4	0x3e791d80	0.2432766
5	0x3dacf367	0.08444863

conv1.apply_func.2.weight f4 [6, 6]
0	0xbe53e55a	-0.2069296
1	0xbe247499	-0.16060103
2	0xbeb45383	-0.35219964
3	0x3e9d3e5b	0.30711636
4	0x3ebba0db	0.3664616
5	0x3e689c0e	0.2271578
6	0xbd87057a	-0.065928414
7	0x3ea7203b	0.32641777
8	0xbe6310bc	-0.22174352
9	0xbec61a09	-0.38691738
10	0xbeab5e50	-0.33470392
11	0x3d454f12	0.04817111
12	0xbe36e389	-0.17860235
13	0x3d25cd79	0.040479157
14	0xbe56fb19	-0.20994224
15	0xbd80c9da	-0.062885
16	0xbec0d321	-0.3766108
17	0xbe893101	-0.267952
18	0xbc2576d2	-0.01009913
19	0x3ec20114	0.37891448
20	0x3e8c7954	0.27436316
21	0x3e2ff49b	0.17183153
22	0xbef04b4a	-0.4693244
23	0xbe914e1d	-0.28379908
24	0x3e3dc912	0.18533733
25	0x3eb7f23b	0.35926995
26	0xbec37731	-0.38176873
27	0x3dffb99e	0.124865755
28	0xbe522e9b	-0.20525591
29	0x3d93aed4	0.0721108
30	0xbe0495d0	-0.12947774
31	0x3d9beff1	0.076141246
32	0x3e762380	0.2403698
33	0xbbd99b2c	-0.0066408124
34	0xbd3e635b	-0.04648147
35	0xbe1c6f84	-0.15276915

conv1.apply_func.2.bias f4 [6]
0	0xbd22d5fc	-0.039754853
1	0xbe876b81	-0.26449206
2	0x3cf67ce6	0.030088853
3	0xbe57783b	-0.21041958
4	0x3eba21d1	0.36353925
5	0xbea0419f	-0.31300065

conv2.apply_func.0.weight f4 [6, 6]
0	0xbe72b497	-0.23701702
1	0x3d30ce63	0.043165576
2	0xbe8fcab4	-0.28084338
3	0xbe1836d1	-0.14864661
4	0xbc56c565	-0.013108586
5	0x3ed3a3d0	0.41335917
6	0x3ec5ce88	0.38634133
7	0x3dbaf699	0.09129066
8	0xbe3d455f	-0.18483494
9	0xbd17b695	-0.03703936
10	0xbea84f99	-0.32873228
11	0xbec2fe88	-0.38084817
12	0xbdb7b17c	-0.08969399
13	0x3cd7b98c	0.026333593
14	0xbeab1cc3	-0.3342038
15	0xbe02b570	-0.12764525
16	0x3dde099a	0.10841675
17	0xbe888f12	-0.26671654
18	0x3ebabb73	0.36471137
19	0x3e98247c	0.29715335
20	0x3e357abf	0.17722605
21	0xbe410b9a	-0.18852082
22	0xbe684471	-0.22682358
23	0x3e40b165	0.1881767
24	0xbe443f48	-0.19164765
25	0xbe2748b5	-0.1633633
26	0xbec792bf	-0.38979146
27	0xbd8c728f	-0.06857788
28	0x3d399410	0.04530722
29	0x3e11ed43	0.14250664
30	0x3d7faf1a	0.06242285
31	0xbd922418	-0.071357906
32	0xbe606735	-0.2191437
33	0xbe42feb8	-0.1904248
34	0x3e266492	0.16249302
35	0x3b918a46	0.0044415323

conv2.apply_func.0.bias f4 [6]
0	0x3d68cea0	0.056837678
1	0x3e8ec66f	0.27885768
2	0x3f9d4a7d	1.2288357
3	0x3ebe61da	0.3718403
4	0x3f9b3b2b	1.2127432
5	0x3f7aac25	0.9791892

conv2.apply_func.2.weight f4 [1, 6]
0	0x3d70fdc3	0.058835756
1	0xbe698410	-0.22804284
2	0x3f295ce2	0.6615735
3	0x3e8005e2	0.25004488
4	0x3e2c3fa6	0.16821155
5	0x3e91ecf4	0.28501093
