macros/Timing_estimation/models/GNN_Energy_prediction/February_05/events50k_lr0_001_hiddendim6_epoch135_geometry_2.pth (torch, 6006 bytes, 14 tensors)

mlp1.0.weight f4 [6, 4]
-0.34372327 -0.29419342 0.019410178 -0.0070884856 0.03633665 -0.121972 0.20321079 -0.2656916
-0.03313466 0.37139878 0.09730908 0.062147424 -0.09531898 0.27191824 -0.38113078 0.30537933
-0.32180023 0.22049461 -0.46422848 -0.05815631 0.24674812 0.0014953093 0.08869159 -0.16077876
00000000: 7ffc afbe 85a0 96be 1802 9f3c 8746 e8bb
00000010: bdd5 143d 75cc f9bd 7d16 503e bb08 88be
00000020: 36b8 07bd fb27 be3e fc49 c73d 4c8e 7e3d
00000030: 9936 c3bd de38 8b3e 9323 c3be ae5a 9c3e
00000040: 00c3 a4be 57c9 613e 5baf edbe 5035 6ebd
00000050: 8aab 7c3e 41fe c33a f0a3 b53d 30a3 24be

mlp1.0.bias f4 [6]
0.022915674 0.17070848 0.05532975 0.10274678 -0.20026343 -0.023228751
00000000: a7b9 bb3c 34ce 2e3e 73a1 623d e76c d23d
00000010: db11 4dbe 394a bebc

mlp1.2.weight f4 [6, 6]
0.28173232 -0.3220405 0.020527838 0.31220013 0.27944714 -0.39399937 -0.23257318 -0.38307273
-0.17212333 0.276711 0.06423204 0.28026584 -0.2906729 0.15165624 0.15878993 0.3157142
0.24729164 0.118020535 -0.055953704 0.0008926986 -0.043088827 -0.3300978 -0.37031326 -0.22233553
-0.2880744 0.11125192 -0.14932196 -0.19581832 0.1851398 -0.08822968 -0.09654069 0.06825196
0.030540055 0.34876394 0.30160278 0.19487607
00000000: 383f 903e 7ee2 a4be ff29 a83c b2d8 9f3e
00000010: b213 8f3e 49ba c9be aa27 6ebe 1c22 c4be
00000020: 1941 30be 10ad 8d3e 168c 833d 017f 8f3e
00000030: 14d3 94be c64b 1b3e d499 223e 4ba5 a13e
00000040: 053a 7d3e c0b4 f13d b62f 65bd fd03 6a3a
00000050: e97d 30bd 9402 a9be b399 bdbe edab 63be
00000060: 7d7e 93be 0cd8 e33d dbe7 18be 9984 48be
00000070: 4a95 3d3e c3b1 b4bd 20b7 c5bd afc7 8b3d
00000080: 232f fa3c 3091 b23e ae6b 9a3e 988d 473e

mlp1.2.bias f4 [6]
-0.26053205 -0.14841072 -0.35691407 0.22839774 -0.35080063 0.4405556
00000000: 7564 85be fbf8 17be 71bd b6be 19e1 693e
00000010: 249c b3be 8190 e13e

mlp2.0.weight f4 [6, 6]
-0.28928003 0.23678924 -0.36547807 -0.31877768 -0.14778024 -0.0043898965 -0.014870472 0.02429771
-0.20155464 -0.1672773 0.25678986 -0.106465004 -0.07826268 -0.38115588 -0.10028329 0.30029637
-0.026826268 0.023301685 -0.057988424 0.2304732 0.19229484 0.15190092 0.0089812055 -0.4623262
0.075464904 -0.2832876 -0.42193514 -0.15847252 -0.011184505 0.26075837 0.17655174 -0.10944812
-0.08624912 0.098669015 -0.037780207 -0.060082603
00000000: 831c 94be e178 723e f11f bbbe d436 a3be
00000010: b453 17be 1fd9 8fbb 48a3 73bc fe0b c73c
00000020: 5764 4ebe be4a 2bbe f679 833e 530a dabd
00000030: 2f48 a0bd dd26 c3be 5361 cdbd 72c0 993e
00000040: c3c2 dbbc 2de3 be3c 4585 6dbd 2b01 6c3e
00000050: f0e8 443e ea8b 1b3e e825 133c 05b6 ecbe
00000060: 588d 9a3d 130b 91be e207 d8be 9f46 22be
00000070: 373f 37bc 1f82 853e fbc9 343e 5626 e0bd
00000080: 61a3 b0bd fb12 ca3d 6bbf 1abd 2d19 76bd

mlp2.0.bias f4 [6]
-0.23103121 -0.049952947 -0.49005902 0.2932905 0.129044 -0.21178599
00000000: 7293 6cbe 769b 4cbd 04e9 fabe 2c2a 963e
00000010: 1c24 043e 6dde 58be

mlp2.2.weight f4 [1, 6]
-0.14212628 -0.2765631 -0.27822113 -0.26017094 -0.11061004 -0.17949818
00000000: 8d89 11be ae99 8dbe 0073 8ebe 2035 85be
00000010: 8487 e2bd 5fce 37be

conv1.apply_func.0.weight f4 [6, 4]
-0.34372327 -0.29419342 0.019410178 -0.0070884856 0.03633665 -0.121972 0.20321079 -0.2656916
-0.03313466 0.37139878 0.09730908 0.062147424 -0.09531898 0.27191824 -0.38113078 0.30537933
-0.32180023 0.22049461 -0.46422848 -0.05815631 0.24674812 0.0014953093 0.08869159 -0.16077876
00000000: 7ffc afbe 85a0 96be 1802 9f3c 8746 e8bb
00000010: bdd5 143d 75cc f9bd 7d16 503e bb08 88be
00000020: 36b8 07bd fb27 be3e fc49 c73d 4c8e 7e3d
00000030: 9936 c3bd de38 8b3e 9323 c3be ae5a 9c3e
00000040: 00c3 a4be 57c9 613e 5baf edbe 5035 6ebd
00000050: 8aab 7c3e 41fe c33a f0a3 b53d 30a3 24be

conv1.apply_func.0.bias f4 [6]
0.022915674 0.17070848 0.05532975 0.10274678 -0.20026343 -0.023228751
00000000: a7b9 bb3c 34ce 2e3e 73a1 623d e76c d23d
00000010: db11 4dbe 394a bebc

conv1.apply_func.2.weight f4 [6, 6]
0.28173232 -0.3220405 0.020527838 0.31220013 0.27944714 -0.39399937 -0.23257318 -0.38307273
-0.17212333 0.276711 0.06423204 0.28026584 -0.2906729 0.15165624 0.15878993 0.3157142
0.24729164 0.118020535 -0.055953704 0.0008926986 -0.043088827 -0.3300978 -0.37031326 -0.22233553
-0.2880744 0.11125192 -0.14932196 -0.19581832 0.1851398 -0.08822968 -0.09654069 0.06825196
0.030540055 0.34876394 0.30160278 0.19487607
00000000: 383f 903e 7ee2 a4be ff29 a83c b2d8 9f3e
00000010: b213 8f3e 49ba c9be aa27 6ebe 1c22 c4be
00000020: 1941 30be 10ad 8d3e 168c 833d 017f 8f3e
00000030: 14d3 94be c64b 1b3e d499 223e 4ba5 a13e
00000040: 053a 7d3e c0b4 f13d b62f 65bd fd03 6a3a
00000050: e97d 30bd 9402 a9be b399 bdbe edab 63be
00000060: 7d7e 93be 0cd8 e33d dbe7 18be 9984 48be
00000070: 4a95 3d3e c3b1 b4bd 20b7 c5bd afc7 8b3d
00000080: 232f fa3c 3091 b23e ae6b 9a3e 988d 473e

conv1.apply_func.2.bias f4 [6]
-0.26053205 -0.14841072 -0.35691407 0.22839774 -0.35080063 0.4405556
00000000: 7564 85be fbf8 17be 71bd b6be 19e1 693e
00000010: 249c b3be 8190 e13e

conv2.apply_func.0.weight f4 [6, 6]
-0.28928003 0.23678924 -0.36547807 -0.31877768 -0.14778024 -0.0043898965 -0.014870472 0.02429771
-0.20155464 -0.1672773 0.25678986 -0.106465004 -0.07826268 -0.38115588 -0.10028329 0.30029637
-0.026826268 0.023301685 -0.057988424 0.2304732 0.19229484 0.15190092 0.0089812055 -0.4623262
0.075464904 -0.2832876 -0.42193514 -0.15847252 -0.011184505 0.26075837 0.17655174 -0.10944812
-0.08624912 0.098669015 -0.037780207 -0.060082603
00000000: 831c 94be e178 723e f11f bbbe d436 a3be
00000010: b453 17be 1fd9 8fbb 48a3 73bc fe0b c73c
00000020: 5764 4ebe be4a 2bbe f679 833e 530a dabd
00000030: 2f48 a0bd dd26 c3be 5361 cdbd 72c0 993e
00000040: c3c2 dbbc 2de3 be3c 4585 6dbd 2b01 6c3e
00000050: f0e8 443e ea8b 1b3e e825 133c 05b6 ecbe
00000060: 588d 9a3d 130b 91be e207 d8be 9f46 22be
00000070: 373f 37bc 1f82 853e fbc9 343e 5626 e0bd
00000080: 61a3 b0bd fb12 ca3d 6bbf 1abd 2d19 76bd

conv2.apply_func.0.bias f4 [6]
-0.23103121 -0.049952947 -0.49005902 0.2932905 0.129044 -0.21178599
00000000: 7293 6cbe 769b 4cbd 04e9 fabe 2c2a 963e
00000010: 1c24 043e 6dde 58be

conv2.apply_func.2.weight f4 [1, 6]
-0.14212628 -0.2765631 -0.27822113 -0.26017094 -0.11061004 -0.17949818
00000000: 8d89 11be ae99 8dbe 0073 8ebe 2035 85be
00000010: 8487 e2bd 5fce 37be
