macros/Timing_estimation/models/GNN_Energy_prediction/February_05/events50k_lr0_001_hiddendim6_epoch145_geometry_2.pth (torch, 6006 bytes, 14 tensors)

mlp1.0.weight f4 [6, 4]
00000000: 2028 623e 26ed cb3e a992 cb3e 2680 113e
00000010: 2aae 4cbe 0ebd 00bf a56f f8bd 588f cb3e
00000020: 4044 133e 7c3a 79be 6a6c adbe 5448 71be
00000030: 7032 8e3e 3b1e f23e 24c7 963e bbd4 bfbe
00000040: a35d d6be e4d0 9b3e 512b 313e 66a3 ba3d
00000050: 0e7c 1ebe 5153 733d a9b1 05be aa55 a63e
0.22085619 0.39829367 0.3976033 0.14209041 -0.19988313 -0.50288475 -0.121306695 0.397578
0.14381504 -0.24338716 -0.33871776 -0.23562747 0.27772856 0.4728869 0.29448807 -0.37466988
-0.41868314 0.30432808 0.1730168 0.09113197 -0.1547701 0.05940563 -0.13056053 0.32487231

mlp1.0.bias f4 [6]
00000000: 3584 f7bd 7fe3 a3be a56f b73e b2ed 543d
00000010: 8174 b53e 29a4 7c3e
-0.12085763 -0.32009503 0.35827366 0.051984496 0.35440448 0.24671997

mlp1.2.weight f4 [6, 6]
00000000: c7b7 e13d 855b dd3d 58bb 87be 5655 8b3d
00000010: d92e 413e eeac 94bd 6a15 58be 2c03 46bd
00000020: 1999 63be e11e 50be b9c1 9fbe fe46 a23e
00000030: d434 8abe 41d5 67bd a820 ecbb 22f6 a5be
00000040: 8662 0abe efae 923e 70b0 17be 9f14 9ebe
00000050: 898b bcbe e2b7 03bc 72ff 4ebc 73ba 9dbe
00000060: 46bd eebd 5c39 b8be 46a2 cbbd bee3 a3be
00000070: bda0 833d 1567 04be f4a9 ad3d f074 4cbd
00000080: 63e8 acbe 47a6 b8be 46f8 a23e 40eb 09be
0.11021381 0.108084716 -0.2651012 0.06803386 0.18865527 -0.07259546 -0.21101919 -0.04834287
-0.22226371 -0.2032428 -0.31202486 0.31694788 -0.2699343 -0.05659986 -0.0072060414 -0.32414347
-0.13514146 0.2864909 -0.148134 -0.30875108 -0.36825207 -0.008039447 -0.012634145 -0.30806312
-0.11657195 -0.35981262 -0.099430606 -0.3200969 0.06427143 -0.12929948 0.084796816 -0.049916208
-0.33771047 -0.3606436 0.31830043 -0.13468647

mlp1.2.bias f4 [6]
00000000: ab78 f53c 0f17 5ebd 8590 483e 7803 7c3e
00000010: 019d bd3d 1b45 243e
0.029964766 -0.05422121 0.1958638 0.24610698 0.09258462 0.16041987

mlp2.0.weight f4 [6, 6]
00000000: 2619 67bd a632 5b3e 35e5 89be 1a59 883d
00000010: a24d 98be e7c1 cebd 615d 413c 293f 8cbe
00000020: 66cd d03e f09c 8a3e dce3 bd3e 2706 9fbe
00000030: ac6e 4cbe 36c4 b8be 6c6c 613e 7aab 17bc
00000040: 4eea 01bd 99d1 103e 28a2 17be b608 333d
00000050: 1dbb ce3d d4fa a3be 6dd4 88be 0b33 1c3e
00000060: 9d51 1abe 0f9c 5d3e 722e 99bd f28b 8e3e
00000070: 1cae 833e 9c33 b7be de44 72be bbd5 49be
00000080: 03c5 173e 666e 7d3e 1119 403e 9449 a03d
-0.056420468 0.2140604 -0.26932684 0.0665762 -0.2974673 -0.10095578 0.011802048 -0.27391937
0.40781707 0.2707286 0.37087905 -0.3105938 -0.19964093 -0.36087197 0.22014016 -0.009257192
-0.03171759 0.14142455 -0.14807951 0.04370948 0.10094283 -0.32027304 -0.26724568 0.15253846
-0.15070195 0.21641563 -0.07479562 0.27841145 0.25718772 -0.35781562 -0.23659083 -0.19710438
0.14821248 0.24749145 0.18759562 0.07826534

mlp2.0.bias f4 [6]
00000000: 3701 67bc 3411 48be d153 583e 25f6 203e
00000010: 1bc1 97be 98bd abbe
-0.014099411 -0.19537812 0.21125723 0.15718897 -0.29639515 -0.33543086

mlp2.2.weight f4 [1, 6]
00000000: 231b 81be d8a7 88be a6b8 8b3e f19d e8bd
00000010: 3832 aebe 1179 4c3e
-0.25216016 -0.26690555 0.27289313 -0.1135825 -0.3402269 0.19968058

conv1.apply_func.0.weight f4 [6, 4]
00000000: 2028 623e 26ed cb3e a992 cb3e 2680 113e
00000010: 2aae 4cbe 0ebd 00bf a56f f8bd 588f cb3e
00000020: 4044 133e 7c3a 79be 6a6c adbe 5448 71be
00000030: 7032 8e3e 3b1e f23e 24c7 963e bbd4 bfbe
00000040: a35d d6be e4d0 9b3e 512b 313e 66a3 ba3d
00000050: 0e7c 1ebe 5153 733d a9b1 05be aa55 a63e
0.22085619 0.39829367 0.3976033 0.14209041 -0.19988313 -0.50288475 -0.121306695 0.397578
0.14381504 -0.24338716 -0.33871776 -0.23562747 0.27772856 0.4728869 0.29448807 -0.37466988
-0.41868314 0.30432808 0.1730168 0.09113197 -0.1547701 0.05940563 -0.13056053 0.32487231

conv1.apply_func.0.bias f4 [6]
00000000: 3584 f7bd 7fe3 a3be a56f b73e b2ed 543d
00000010: 8174 b53e 29a4 7c3e
-0.12085763 -0.32009503 0.35827366 0.051984496 0.35440448 0.24671997

conv1.apply_func.2.weight f4 [6, 6]
00000000: c7b7 e13d 855b dd3d 58bb 87be 5655 8b3d
00000010: d92e 413e eeac 94bd 6a15 58be 2c03 46bd
00000020: 1999 63be e11e 50be b9c1 9fbe fe46 a23e
00000030: d434 8abe 41d5 67bd a820 ecbb 22f6 a5be
00000040: 8662 0abe efae 923e 70b0 17be 9f14 9ebe
00000050: 898b bcbe e2b7 03bc 72ff 4ebc 73ba 9dbe
00000060: 46bd eebd 5c39 b8be 46a2 cbbd bee3 a3be
00000070: bda0 833d 1567 04be f4a9 ad3d f074 4cbd
00000080: 63e8 acbe 47a6 b8be 46f8 a23e 40eb 09be
0.11021381 0.108084716 -0.2651012 0.06803386 0.18865527 -0.07259546 -0.21101919 -0.04834287
-0.22226371 -0.2032428 -0.31202486 0.31694788 -0.2699343 -0.05659986 -0.0072060414 -0.32414347
-0.13514146 0.2864909 -0.148134 -0.30875108 -0.36825207 -0.008039447 -0.012634145 -0.30806312
-0.11657195 -0.35981262 -0.099430606 -0.3200969 0.06427143 -0.12929948 0.084796816 -0.049916208
-0.33771047 -0.3606436 0.31830043 -0.13468647

conv1.apply_func.2.bias f4 [6]
00000000: ab78 f53c 0f17 5ebd 8590 483e 7803 7c3e
00000010: 019d bd3d 1b45 243e
0.029964766 -0.05422121 0.1958638 0.24610698 0.09258462 0.16041987

conv2.apply_func.0.weight f4 [6, 6]
00000000: 2619 67bd a632 5b3e 35e5 89be 1a59 883d
00000010: a24d 98be e7c1 cebd 615d 413c 293f 8cbe
00000020: 66cd d03e f09c 8a3e dce3 bd3e 2706 9fbe
00000030: ac6e 4cbe 36c4 b8be 6c6c 613e 7aab 17bc
00000040: 4eea 01bd 99d1 103e 28a2 17be b608 333d
00000050: 1dbb ce3d d4fa a3be 6dd4 88be 0b33 1c3e
00000060: 9d51 1abe 0f9c 5d3e 722e 99bd f28b 8e3e
00000070: 1cae 833e 9c33 b7be de44 72be bbd5 49be
00000080: 03c5 173e 666e 7d3e 1119 403e 9449 a03d
-0.056420468 0.2140604 -0.26932684 0.0665762 -0.2974673 -0.10095578 0.011802048 -0.27391937
0.40781707 0.2707286 0.37087905 -0.3105938 -0.19964093 -0.36087197 0.22014016 -0.009257192
-0.03171759 0.14142455 -0.14807951 0.04370948 0.10094283 -0.32027304 -0.26724568 0.15253846
-0.15070195 0.21641563 -0.07479562 0.27841145 0.25718772 -0.35781562 -0.23659083 -0.19710438
0.14821248 0.24749145 0.18759562 0.07826534

conv2.apply_func.0.bias f4 [6]
00000000: 3701 67bc 3411 48be d153 583e 25f6 203e
00000010: 1bc1 97be 98bd abbe
-0.014099411 -0.19537812 0.21125723 0.15718897 -0.29639515 -0.33543086

conv2.apply_func.2.weight f4 [1, 6]
00000000: 231b 81be d8a7 88be a6b8 8b3e f19d e8bd
00000010: 3832 aebe 1179 4c3e
-0.25216016 -0.26690555 0.27289313 -0.1135825 -0.3402269 0.19968058
