macros/Timing_estimation/models/GNN_Energy_prediction/February_05/events50k_lr0_001_hiddendim6_epoch125_geometry_2.pth (torch, 6006 bytes, 14 tensors)

mlp1.0.weight f4 [6, 4]
0.22113435 0.39817005 0.39747044 0.14175895 -0.19987936 -0.50288105 -0.12131862 0.39757794
0.14380945 -0.24339274 -0.33870026 -0.23562717 0.27949703 0.4721749 0.29371864 -0.37685448
-0.41941282 0.30465376 0.17336667 0.09200054 -0.15371239 0.058931235 -0.1310701 0.32361642
00000000: 0b71 623e f2dc cb3e 3f81 cb3e 4229 113e
00000010: 2dad 4cbe d0bc 00bf e675 f8bd 568f cb3e
00000020: c942 133e f23b 79be 1f6a adbe 4048 71be
00000030: 3c1a 8f3e e9c0 f13e 4a62 963e 12f3 c0be
00000040: 47bd d6be 94fb 9b3e 0887 313e c76a bc3d
00000050: c866 1dbe e161 713d 3e37 06be 0db1 a53e

mlp1.0.bias f4 [6]
-0.12111257 -0.3202521 0.35848188 0.050390515 0.35507235 0.24575071
00000000: de09 f8bd 15f8 a3be f08a b73e 4966 4e3d
00000010: 0bcc b53e 13a6 7b3e

mlp1.2.weight f4 [6, 6]
0.11000289 0.108032495 -0.265112 0.06781172 0.18815285 -0.073179185 -0.21101919 -0.04834287
-0.22226371 -0.2032428 -0.31202486 0.31694788 -0.2699343 -0.056599732 -0.0072059203 -0.32414347
-0.13514146 0.2864909 -0.148134 -0.30875108 -0.36825207 -0.008039447 -0.012634145 -0.30806312
-0.11657195 -0.35981262 -0.099430606 -0.3200969 0.06427143 -0.12929948 0.08505832 -0.049916044
-0.33771038 -0.36036977 0.31892467 -0.13396038
00000000: 3249 e13d 2440 dd3d c3bc 87be dfe0 8a3d
00000010: 24ab 403e f8de 95bd 6a15 58be 2c03 46bd
00000020: 1999 63be e11e 50be b9c1 9fbe fe46 a23e
00000030: d434 8abe 1fd5 67bd a41f ecbb 22f6 a5be
00000040: 8662 0abe efae 923e 70b0 17be 9f14 9ebe
00000050: 898b bcbe e2b7 03bc 72ff 4ebc 73ba 9dbe
00000060: 46bd eebd 5c39 b8be 46a2 cbbd bee3 a3be
00000070: bda0 833d 1567 04be 0e33 ae3d c474 4cbd
00000080: 60e8 acbe 6382 b8be 184a a33e e92c 09be

mlp1.2.bias f4 [6]
0.02914191 -0.05422121 0.19586389 0.24610698 0.09258462 0.16144437
00000000: 04bb ee3c 0f17 5ebd 8b90 483e 7803 7c3e
00000010: 019d bd3d ac51 253e

mlp2.0.weight f4 [6, 6]
-0.056420468 0.2140604 -0.26932684 0.0665762 -0.2974673 -0.10095578 0.011785392 -0.27391937
0.40781707 0.2707286 0.37087905 -0.3105938 -0.19964093 -0.36087197 0.22014025 -0.009257192
-0.03171759 0.14142457 -0.14483236 0.04370948 0.10094272 -0.32027304 -0.26724568 0.1545668
-0.15070195 0.21641563 -0.07479562 0.27841145 0.25718772 -0.35781562 -0.2365907 -0.19710438
0.14821257 0.24749145 0.18759562 0.07826549
00000000: 2619 67bd a632 5b3e 35e5 89be 1a59 883d
00000010: a24d 98be e7c1 cebd 8417 413c 293f 8cbe
00000020: 66cd d03e f09c 8a3e dce3 bd3e 2706 9fbe
00000030: ac6e 4cbe 36c4 b8be 726c 613e 7aab 17bc
00000040: 4eea 01bd 9ad1 103e ef4e 14be b608 333d
00000050: 0fbb ce3d d4fa a3be 6dd4 88be c246 1e3e
00000060: 9d51 1abe 0f9c 5d3e 722e 99bd f28b 8e3e
00000070: 1cae 833e 9c33 b7be d544 72be bbd5 49be
00000080: 09c5 173e 666e 7d3e 1119 403e a849 a03d

mlp2.0.bias f4 [6]
-0.014099411 -0.19538154 0.21126994 0.16282302 -0.29639515 -0.33543077
00000000: 3701 67bc 1912 48be 2657 583e 14bb 263e
00000010: 1bc1 97be 95bd abbe

mlp2.2.weight f4 [1, 6]
-0.25216016 -0.26690555 0.2728932 -0.11405337 -0.3402269 0.1996807
00000000: 231b 81be d8a7 88be a8b8 8b3e d094 e9bd
00000010: 3832 aebe 1979 4c3e

conv1.apply_func.0.weight f4 [6, 4]
0.22113435 0.39817005 0.39747044 0.14175895 -0.19987936 -0.50288105 -0.12131862 0.39757794
0.14380945 -0.24339274 -0.33870026 -0.23562717 0.27949703 0.4721749 0.29371864 -0.37685448
-0.41941282 0.30465376 0.17336667 0.09200054 -0.15371239 0.058931235 -0.1310701 0.32361642
00000000: 0b71 623e f2dc cb3e 3f81 cb3e 4229 113e
00000010: 2dad 4cbe d0bc 00bf e675 f8bd 568f cb3e
00000020: c942 133e f23b 79be 1f6a adbe 4048 71be
00000030: 3c1a 8f3e e9c0 f13e 4a62 963e 12f3 c0be
00000040: 47bd d6be 94fb 9b3e 0887 313e c76a bc3d
00000050: c866 1dbe e161 713d 3e37 06be 0db1 a53e

conv1.apply_func.0.bias f4 [6]
-0.12111257 -0.3202521 0.35848188 0.050390515 0.35507235 0.24575071
00000000: de09 f8bd 15f8 a3be f08a b73e 4966 4e3d
00000010: 0bcc b53e 13a6 7b3e

conv1.apply_func.2.weight f4 [6, 6]
0.11000289 0.108032495 -0.265112 0.06781172 0.18815285 -0.073179185 -0.21101919 -0.04834287
-0.22226371 -0.2032428 -0.31202486 0.31694788 -0.2699343 -0.056599732 -0.0072059203 -0.32414347
-0.13514146 0.2864909 -0.148134 -0.30875108 -0.36825207 -0.008039447 -0.012634145 -0.30806312
-0.11657195 -0.35981262 -0.099430606 -0.3200969 0.06427143 -0.12929948 0.08505832 -0.049916044
-0.33771038 -0.36036977 0.31892467 -0.13396038
00000000: 3249 e13d 2440 dd3d c3bc 87be dfe0 8a3d
00000010: 24ab 403e f8de 95bd 6a15 58be 2c03 46bd
00000020: 1999 63be e11e 50be b9c1 9fbe fe46 a23e
00000030: d434 8abe 1fd5 67bd a41f ecbb 22f6 a5be
00000040: 8662 0abe efae 923e 70b0 17be 9f14 9ebe
00000050: 898b bcbe e2b7 03bc 72ff 4ebc 73ba 9dbe
00000060: 46bd eebd 5c39 b8be 46a2 cbbd bee3 a3be
00000070: bda0 833d 1567 04be 0e33 ae3d c474 4cbd
00000080: 60e8 acbe 6382 b8be 184a a33e e92c 09be

conv1.apply_func.2.bias f4 [6]
0.02914191 -0.05422121 0.19586389 0.24610698 0.09258462 0.16144437
00000000: 04bb ee3c 0f17 5ebd 8b90 483e 7803 7c3e
00000010: 019d bd3d ac51 253e

conv2.apply_func.0.weight f4 [6, 6]
-0.056420468 0.2140604 -0.26932684 0.0665762 -0.2974673 -0.10095578 0.011785392 -0.27391937
0.40781707 0.2707286 0.37087905 -0.3105938 -0.19964093 -0.36087197 0.22014025 -0.009257192
-0.03171759 0.14142457 -0.14483236 0.04370948 0.10094272 -0.32027304 -0.26724568 0.1545668
-0.15070195 0.21641563 -0.07479562 0.27841145 0.25718772 -0.35781562 -0.2365907 -0.19710438
0.14821257 0.24749145 0.18759562 0.07826549
00000000: 2619 67bd a632 5b3e 35e5 89be 1a59 883d
00000010: a24d 98be e7c1 cebd 8417 413c 293f 8cbe
00000020: 66cd d03e f09c 8a3e dce3 bd3e 2706 9fbe
00000030: ac6e 4cbe 36c4 b8be 726c 613e 7aab 17bc
00000040: 4eea 01bd 9ad1 103e ef4e 14be b608 333d
00000050: 0fbb ce3d d4fa a3be 6dd4 88be c246 1e3e
00000060: 9d51 1abe 0f9c 5d3e 722e 99bd f28b 8e3e
00000070: 1cae 833e 9c33 b7be d544 72be bbd5 49be
00000080: 09c5 173e 666e 7d3e 1119 403e a849 a03d

conv2.apply_func.0.bias f4 [6]
-0.014099411 -0.19538154 0.21126994 0.16282302 -0.29639515 -0.33543077
00000000: 3701 67bc 1912 48be 2657 583e 14bb 263e
00000010: 1bc1 97be 95bd abbe

conv2.apply_func.2.weight f4 [1, 6]
-0.25216016 -0.26690555 0.2728932 -0.11405337 -0.3402269 0.1996807
00000000: 231b 81be d8a7 88be a8b8 8b3e d094 e9bd
00000010: 3832 aebe 1979 4c3e
