macros/Timing_estimation/models/GNN_Energy_prediction/February_05/run_1_events50k_lr0_001_hiddendim6_best_geometry_2.pth (torch, 256290 bytes, 33 tensors)

GCNs.0.apply_func.0.weight f4 [32, 4]
00000000: 982b f1be 908a f23d a81a c33e bc4e ba3e
00000010: be8f b3be 40cd e2bd f4dd e33e 9088 fd3d
00000020: 6c21 c33e 70f6 edbd 6c61 e73e f6fa 8abe
00000030: 808a 1c3c 1060 32be 0c90 dabe 2836 a2bd
00000040: a821 a93e 90f0 83bd c48b 52be 2864 bd3d
00000050: 3cb5 df3e 7eba e3be 70c9 8c3e 82e8 c6be
00000060: f02e a8be b8b4 1b3e 98fd 57be 7024 253e
00000070: ec24 9cbe 8c4a 03be 309a 583d 9874 a2be
00000080: eed4 f9be 18f6 ffbd f840 e1bd ec36 c0be
00000090: a425 eb3e eeb3 80be 8cd6 0bbe 68a6 603e
000000a0: 02ee 81be 7a87 cdbe 2c18 43be 5ad8 a6be
000000b0: 20af d83e d88c fa3e 0837 20be 5071 4cbe
000000c0: 7c5d 9f3e 24fd 91be a61e e33e 3625 dd3e
000000d0: c08b 49bd 94e4 70be 805a 903b c048 cbbc
000000e0: d6ad babe ae7a aa3e d03f 8bbd a82b 32be
000000f0: 48c4 ae3d 26a5 be3e f0fc 7d3e 9eef c0be
00000100: 68ad 2cbe 6c68 19be 905a 46bd a025 68bd
00000110: 9cd0 82be 00fc 203d e86c c2bd 80a8 9fbd
00000120: 8cd2 99be 0c22 91be fa1f 81be 7e31 88be
00000130: f447 923e ba2a a2be 1805 7f3e c441 183e
00000140: 38a4 ccbe bcbf 493e e032 a53c c0df 323c
00000150: b883 c93d 1815 873d 4067 b7be c45a 533e
00000160: 8c85 6ebe c098 30bd 00db 613b 986c 2a3e
00000170: 0e42 e7be ee9a 913e 885d bbbe 6012 13bd
00000180: 90f6 833e cce3 3e3e 7883 84bd 3a1b 9e3e
00000190: 3427 a0be bcbf 563e 404c 1cbc cc48 7b3e
000001a0: 30a7 f93d 6452 543e 2416 c93e f0c3 07bd
000001b0: e2a9 883e f0fb 273e 6cfc f4be cc7f 53be
000001c0: a821 853d 5e55 ca3e 265c d1be 9c97 dc3e
000001d0: 7afa 863e 4875 893d e89d d53d 0cf3 ae3e
000001e0: 4cc8 b3be 1470 2e3e 7811 ec3d 60c7 b03e
000001f0: e4b4 dfbe 08c2 b83e 48bd d83d 1c95 d23e
-0.47103572 0.11842835 0.38106275 0.36388195 -0.35070604 -0.110743046 0.44505274 0.12379563
0.38111436 -0.1161927 0.45191514 -0.27144593 0.009554505 -0.17419457 -0.42688024 -0.07920486
0.3303349 -0.06442368 -0.20561129 0.09247619 0.43692958 -0.4447822 0.27497435 -0.38849264
-0.3284831 0.15205657 -0.21092832 0.16127181 -0.3049692 -0.12821406 0.05288142 -0.3172958
-0.48795265 -0.124981105 -0.1099872 -0.37541902 0.45927155 -0.25137275 -0.13656062 0.21938479
-0.25376898 -0.40142423 -0.1905219 -0.32586938 0.4232111 0.4893558 -0.15645993 -0.199651
0.3112601 -0.28513443 0.4435932 0.43192452 -0.04920554 -0.23524696 0.0044053197 -0.024814963
-0.3646075 0.33296722 -0.06799281 -0.17399466 0.085335314 0.37235373 0.24803519 -0.37682813
-0.16863024 -0.1498124 -0.04842621 -0.056676507 -0.2554978 0.039302826 -0.094934285 -0.07795811
-0.30043447 -0.28346288 -0.2521971 -0.2660026 0.2857052 -0.31673223 0.24904287 0.14868838
-0.3996904 0.19702047 0.02016586 0.010917604 0.098395765 0.0659582 -0.3582096 0.20640093
-0.23293132 -0.043114424 0.003446281 0.16642988 -0.45167583 0.28438514 -0.36594796 -0.035906196
0.2577405 0.18641585 -0.06470388 0.30880147 -0.3127991 0.20971578 -0.009539664 0.24539489
0.121900916 0.20734555 0.39274704 -0.033145845 0.2669211 0.164047 -0.47848833 -0.2065422
0.0650056 0.39518255 -0.40890616 0.4308442 0.26362973 0.06711823 0.10430509 0.34169805
-0.35113752 0.17034942 0.115267694 0.3452711 -0.43692696 0.36085534 0.105829775 0.41129386

GCNs.0.apply_func.0.bias f4 [32]
00000000: c8f4 eebe 0002 4f3b f209 df3e 6034 bcbe
00000010: da1b aabe c818 1ebe 764a be3e d258 b1be
00000020: e08d 753d d021 10be 703f 00bd 000e 94bd
00000030: 1886 d7bd b0b5 b1bd 9c89 31be b42e 5bbe
00000040: 0038 6ebd 6257 ffbe 8045 b3bb 7e13 a23e
00000050: aedb 9d3e 7a7c b1be 049a 10be 7466 38be
00000060: b0e3 3c3e bae7 f33e 6c49 2ebe 0004 3d3e
00000070: 18f0 d5bd 6cde f6be 1c9a 0a3e a876 093e
-0.46671128 0.0031586885 0.43562275 -0.3675871 -0.33224374 -0.15439141 0.37166184 -0.34638077
0.059949756 -0.14075398 -0.0313105 -0.07229233 -0.10523623 -0.08677232 -0.1733765 -0.21404535
-0.058158875 -0.49871355 -0.0054709315 0.31655496 0.30831665 -0.3466528 -0.14121252 -0.18007833
0.18446231 0.4763773 -0.17020196 0.18458557 -0.10446185 -0.4821657 0.1353535 0.1342417

GCNs.0.apply_func.2.weight f4 [32, 32]
00000000: 0579 cb3c e375 f039 3a06 25bd 3059 2e3e
00000010: 623d b1bd 4c54 04be 4b6a 7b3d 56a6 bb3d
00000020: 21b8 6dbd 1bd5 e93d 981c 283e c0a8 0c3d
00000030: 1a96 273e 0ac1 ccbd 3508 2bbd ae11 bfbd
00000040: 978c 273d f6a5 a63d dd4f c1bd a319 30bd
00000050: 57f5 163e b979 84bc de7f bb3d f7b8 ac3d
00000060: 76c6 b63d 6795 b0bd 1984 f83d e0c1 2b3e
00000070: 6fee cb3d 4a5d 03bc 61c8 e73c a7e6 1bbd
00000080: d7ee 043d b791 04be 5ef2 f73c 4ac6 b73d
00000090: be36 273d 2654 ef3c 405d 953d 4136 493c
000000a0: 0c39 fabd 447d ec3d f4bd f53d 453b b83d
000000b0: 6afc 0f3d 1711 09bd 1cc3 fe3d 73a5 853c
000000c0: 0639 11be e1bc 5cbd 7d78 dcbd 1e42 1f3d
000000d0: 1915 bc3d d3ce cb3d b911 aabd 8ff1 9bbd
000000e0: 3c58 fc3d 4a32 28be d2a1 733d 03d1 23be
000000f0: 0d0f 16be b452 e43d 285b a93d fc95 013e
00000100: 2110 03bd d2be 0fbe c3ec d03c 0a92 873d
00000110: 6ecb 9bbd 37be fe3d 6d76 813d e705 08be
00000120: 4c09 a3bd 7bab 233e 9464 aa3c 19a1 1abd
00000130: cfe0 47bd f8cb 293e b5e7 e43c 7463 bcbd
00000140: a7c6 46bd da20 31be b3fe 32be 46b2 24be
00000150: 2fe9 f5bd 05a0 fcbd 28ef 9c3c b1da 753c
00000160: 43ff 18bc 709c 013e 10a8 1c3e 5240 36bb
00000170: 18fe d93d fb2b 6a3c 9363 56bd 659f 9ebd
00000180: d3a5 c2bd 9b8b 24be dc3b 8f3d 542c ca3b
00000190: 6668 33bd 0992 e03d 57a0 d23d 0eb0 c43d
000001a0: 08f2 293e 39e8 1b3d 6b3b 1c3e 4208 f1ba
000001b0: 6327 8b3d 8814 aebd 4519 69bd 8c11 86bc
000001c0: 8bf2 073e 027d 343c a4d8 f6bd 6af8 f4bb
000001d0: b52f 13be 8e9b c33d c4b5 b2bc 34b5 15be
000001e0: 7e2d dc3d 1485 c03c 3b55 e9bd 3d65 f43d
000001f0: ffd8 283d 090d 6c3d f9c4 c23d 9a8a 1e3c
00000200: ffca 00be 7f44 79bb d782 80bd be15 08be
00000210: 5cf4 2fbd 3d8d c93d 2dcf 343e a81d ebbd
00000220: 7c5a a9bb 2f0c 113e bce5 84ba 62ee 6cbd
00000230: 6107 423d e955 2dbd ff2c 963c 5f27 32bd
00000240: fd7b 1b3e 6b22 65bd db1d 9dbd 13cd acbd
00000250: ea2d 0f3e 3e0c 0dbe 01cc 02bd 82eb 303e
00000260: 4046 67bd 930e 15be 4050 2ebe faf3 0abd
00000270: ba92 033e fcea 8a3d e244 c93d 05c1 17bd
00000280: bdfb be3d 824e 253d 34b6 803d 0cd7 2c3e
00000290: 580b 253e 559b 32be 2ce1 17be bca0 eebd
000002a0: 3093 043e 5380 343e d2f3 f4bb 30cf c7bd
000002b0: 6e6d 0a3e e856 8f3c 7989 19be 2b1a 453c
000002c0: 5baa 30be f7d0 9b3d f2cc f53d 126f a63c
000002d0: d653 28be c17e 13be 3c92 04be d546 933d
000002e0: 4908 033e 28b2 7f3d bdea 29be f8bb f43d
000002f0: 2c26 25be cc09 143e 4cd8 1d3e c9ed 0bbe
00000300: 5fed 0f3e ba20 973c 39fe 153e 5c21 c1bd
00000310: 7a01 2fbe a2d8 b23b a2cf 553c 3f14 1b3e
00000320: d216 753c 7bf5 8ebd 77b8 ecba 30ca ff3d
00000330: 7ed0 92bb eec6 21be 6e41 63bd 7d63 2a3e
00000340: 9678 243e 627e 893d 2216 29be 5b7c febd
00000350: 3b9f f03d 572d 4fbc 458b d63d 8b9d d43b
00000360: f0bd d6bd b7f6 013e 0687 ea3d ebd1 abbd
00000370: bf6e 203e 9427 163e adcf 44bd 6b15 27bd
00000380: 4962 6cbc 6f71 023e 7f84 11be 68e5 c73d
00000390: 6067 2e3e 4641 9a3d 686b 9bbd 5a50 e0bd
000003a0: e5ad 93bd 9688 ebbc e900 183e b52e 47bc
000003b0: 7c7f a1bd f4c5 283e b822 9bbd 70a8 43bd
000003c0: 2949 02be 642b 7abd 6fb3 383c 3cd0 113e
000003d0: 773a 3e3d d8dd dd3d 2dae 2c3e 8105 f83d
000003e0: 7651 31be b3b4 eebb 190d 753c 073d 713c
000003f0: 0566 a93c c089 ad3d d4e3 ab3d 46c2 79bc
0.02483798 0.000458642 -0.04028914 0.1702621 -0.08654286 -0.12922782 0.061380666 0.091625854
-0.058036927 0.114176 0.16417158 0.03434062 0.16365853 -0.09997757 -0.041755874 -0.09329544
0.04090556 0.08137123 -0.09439061 -0.0429932 0.14742027 -0.016171323 0.09155248 0.08433717
0.08924572 -0.08622246 0.12134571 0.16773176 0.09957587 -0.008017847 0.02829379 -0.038061764
0.032454338 -0.12946211 0.030266937 0.089733675 0.04082369 0.02921493 0.07293177 0.012281002
-0.12217912 0.1154733 0.11999121 0.0899568 0.03515283 -0.033463564 0.12439558 0.016314244
-0.14181909 -0.053891066 -0.10765169 0.038881414 0.091837116 0.09951558 -0.083041616 -0.07614433
0.12321517 -0.16425434 0.059480496 -0.159977 -0.14654179 0.11148587 0.0826934 0.12654871
-0.031997804 -0.14037636 0.025503522 0.066196516 -0.076071605 0.12438624 0.06321416 -0.13283502
-0.079607576 0.15983383 0.020799913 -0.03775129 -0.04879838 0.16581714 0.027942518 -0.09198657
-0.048529293 -0.17297688 -0.17479973 -0.16083631 -0.12007367 -0.12335209 0.019157007 0.015005753
-0.009338203 0.12657332 0.15298486 -0.0027809334 0.10644168 0.014292712 -0.052341055 -0.07745246
-0.09504285 -0.1606888 0.06993839 0.006169835 -0.043800734 0.10965354 0.10284489 0.09603892
0.16596234 0.03806326 0.15257041 -0.0018389302 0.06794622 -0.0850001 -0.056908865 -0.016365789
0.13276117 0.011016132 -0.1205304 -0.0074759023 -0.14373668 0.09551154 -0.021815188 -0.14619905
0.107508644 0.023500957 -0.113932095 0.11933372 0.04122257 0.05762962 0.09510226 0.0096766
-0.12577437 -0.0038035212 -0.06274956 -0.13289544 -0.04295765 0.09841392 0.17657156 -0.11480266
-0.0051682573 0.14164804 -0.0010139267 -0.057844527 0.04737032 -0.04231826 0.018332003 -0.04349458
0.15184017 -0.055941027 -0.0767171 -0.08437552 0.13982359 -0.13774201 -0.031932835 0.17277339
-0.05646348 -0.14556341 -0.170228 -0.03392408 0.1284894 0.06783101 0.098275915 -0.037049312
0.09325359 0.040358074 0.062847525 0.16878909 0.16117609 -0.17442067 -0.1483199 -0.116517514
0.12946773 0.17627077 -0.0074753547 -0.09756315 0.13518307 0.017497495 -0.14993848 0.012030165
-0.17252485 0.07608216 0.12001981 0.020316634 -0.16438231 -0.14403822 -0.12946409 0.071912445
0.1279613 0.062425762 -0.16593452 0.11949915 -0.16127843 0.14456862 0.15414542 -0.13664927
0.14055394 0.018448222 0.1464776 -0.09430191 -0.17090407 0.0054579535 0.013049992 0.15144442
0.014959054 -0.069804154 -0.0018060346 0.12489736 -0.0044804206 -0.15798542 -0.05548232 0.16639514
0.16061625 0.06713559 -0.16512349 -0.12426063 0.11749121 -0.012645087 0.10475782 0.006488507
-0.104854465 0.1269177 0.11451535 -0.08389648 0.15667246 0.14663535 -0.048049618 -0.04079191
-0.01442773 0.12738584 -0.142107 0.09760553 0.17031622 0.07531981 -0.075888455 -0.10952826
-0.07210902 -0.028751653 0.14844097 -0.012157132 -0.07885644 0.16481763 -0.075749815 -0.047768056
-0.12723221 -0.061076537 0.011273249 0.14239591 0.046442475 0.10833329 0.16863318 0.12110425
-0.17316231 -0.0072847246 0.014956736 0.014724023 0.02067853 0.08473539 0.08393064 -0.015244072

GCNs.0.apply_func.2.bias f4 [32]
00000000: 48e1 02bc 13fe 173e f401 163d f013 8e3d
00000010: 4dc1 283e ea65 143e 4024 c8bb 81e2 b33b
00000020: 48e5 843d a5d8 12be 5191 0e3c 6d36 703d
00000030: 6376 e1bd e9fb 033e bda3 89bd 4b86 173e
00000040: 978d 263d 194c a7bd 21bb c8bc 3ae9 d23d
00000050: 8ab6 8c3d 258f 6c3d 783d fb3d ef17 783d
00000060: def5 5c3d 2089 2dbe 2e1a 32bd 35ee 133d
00000070: e7a5 18be 23c3 293c 0961 66bc 6996 7d3c
-0.007988282 0.14843015 0.036622956 0.069373965 0.16479988 0.14492002 -0.006107837 0.005489648
0.064890444 -0.14340456 0.008701638 0.058645654 -0.110089086 0.12889065 -0.06720684 0.14797322
0.040662374 -0.08168811 -0.024503293 0.10298391 0.06870754 0.0577537 0.122675836 0.0605697
0.053945415 -0.1694684 -0.043482 0.036115844 -0.14907037 0.010361466 -0.014061221 0.015477755

GCNs.1.apply_func.0.weight f4 [32, 32]
00000000: 0195 8abc 2b6f d53d efb2 823d 886b e03d
00000010: 0bd4 ec3c ecd9 b33d 0b90 18be 4050 f1bc
00000020: 1ea5 bc3d 7318 18be cf35 06be 0078 223d
00000030: 7ec2 713d 95bc 5e3d 6f9b efbd 41dd 123e
00000040: 035e 1c3e 7658 22be e038 2dbe 68f9 f73d
00000050: 3e08 dbbd 04a4 f2bc 3cce a8bd 6fc3 0f3e
00000060: 6b1c df3c 2230 e2bc c2ad 40bd e2e6 043d
00000070: 0d57 b73c 5eb9 79bd b610 0ebe 082f c43d
00000080: 1c0d 243e c4d0 eb3d 8f3b 7f3d cf3a 403d
00000090: 292a 0bbd eaf9 e43c 7725 f63d 7840 48bd
000000a0: 754e 3f3d e3bb 83bd a65f 023e 6a53 fd3c
000000b0: e70b d83d 29c5 c23d 8223 8bbd 4e2e bd3d
000000c0: 9c01 193e 0dbf 093e 727f 343e c264 683d
000000d0: 57e7 263e e4ae 313e 83be 24be 3b98 bf3d
000000e0: c434 833d f9a0 023e 0ce1 053d b826 843d
000000f0: 51e3 033e 6fcf c8bd a9f9 6a3c 2cc1 20bc
00000100: fec3 763d 154d 083e 189c bdbd 6d7e 16bd
00000110: bdfd 27be eaf8 95bd 3760 6bbd f42e 18be
00000120: d13a b6bd ec54 f8bd 403c da3d 7d90 e2bd
00000130: 8640 243d e97b cabd 92d7 883c 312f 7ebd
00000140: df58 293e 0c83 c83d 8a66 c8bd c1f3 ca3d
00000150: f05f 1a3e bdbd ce3d e198 293e 4a5e 04be
00000160: 84b3 0b3d af7e c13d 5f28 0f3c d076 e23d
00000170: 8bcb 27be 0a68 ab3c 4256 433d 1d42 063e
00000180: 2ab6 42bc c644 eabd 49a1 c03d 7a0b b1bd
00000190: 2d83 a73d 6cab c1bd 8a59 10be a728 2ebd
000001a0: 4a68 84bd eded 2b3e de1f 86bd fed1 b03d
000001b0: 38f7 4fbc 96ba 893d 430c db3c 5fd4 b6bc
000001c0: f37c 26be 4307 543d 9425 9bbd e2b9 a4bd
000001d0: 049a 2fbe c8d1 00bd 9ed0 2fbe 8a4e 0bbe
000001e0: 0e02 133d e473 d83d dba9 21be 875f 2abe
000001f0: c9f7 0dbe 2bbb 6f3d 6100 083e 4e59 8f3d
00000200: 28e6 c7bd d95b 25be 0f05 8bbd a051 9abd
00000210: fff0 a3bd a55c ebbd a7a1 15bd 38ab f83d
00000220: d0fd efbd 185b af3d 7a67 213e 0259 f0bd
00000230: 1be0 f9bc 6114 213e 481e ec3d 0065 0bbe
00000240: 0a45 83bd cf32 1bbe b40c 19be 4343 f43d
00000250: 7904 093e 5a49 8d3c 0445 21be d992 f6bd
00000260: cd8b fa3d 9a83 2d3e eb61 a93d e762 8c3d
00000270: 0f41 62bd f649 a63d bee6 b0bc 12f8 81bc
00000280: 7964 043e c2ca cf3b bcaf f93d 5288 0a3d
00000290: 1a7c 11be 7214 b03d 7d69 ad3d a36a 83bc
000002a0: bfc8 88bd 375a 163e 5bb4 073e 0c58 10be
000002b0: f3c0 14be 98d7 95bd db7f b0bd 8b75 e6bd
000002c0: 5757 97bd 2679 223e 435c 12bd a45f 2c3d
000002d0: 338a 163e bcc7 afbd 002c 92bc 9bcc 333d
000002e0: 0ec5 54bc 7795 803d 6c69 3ebd 2c78 ee3d
000002f0: 55eb 963d 5326 fb3d 6aed ef3c efcc 8c3d
00000300: f189 233e e17e dd3d 0b32 24be b518 2b3e
00000310: 4aed 093d c208 eabd 5723 05bd b8f0 dc3c
00000320: 106f d63d 7b2b dc3d 9825 f3bc d8cb 31bd
00000330: 34dd bb3c 3df0 06be 3b1a df3d eb6c e9bd
00000340: 55fb bbbd c650 89bd 44fe 363d f520 093e
00000350: 80fb 803c 8066 ed3d 3fb9 77bd e51d 4f3d
00000360: 78c4 1e3e 5797 533d dfbc 66bd 81d2 923d
00000370: d8d7 d9bd 4dc5 153e 18f8 f6bc c61d 593c
00000380: 16ed d13c 9e03 fe3d 5564 a03d 61db b9bd
00000390: 3b93 96bd 53d4 f5bd bcf9 f1bc cb80 953d
000003a0: 0e33 333d 97ac 97bd c201 c13d 86d4 883c
000003b0: 092c 04be 13f2 13be 26b2 aebd cdb5 9a3c
000003c0: aefd efbd 64a9 5c3d 244b dfbd d071 e33d
000003d0: 1678 333e 584f febd 160e 243e 64fd eb3c
000003e0: c783 4c3c 56b4 8fbd 02bb f83d c43d ae3d
000003f0: 5ee7 b53d 920d c53d e345 5cbd 1230 403d
-0.016916754 0.10421594 0.06381785 0.1095801 0.028909704 0.087818 -0.14898698 -0.029457211
0.09211181 -0.14853077 -0.13106464 0.039665222 0.059023373 0.054379065 -0.116995685 0.14342214
0.15270238 -0.15854058 -0.16916227 0.12108117 -0.106949314 -0.029619224 -0.08242461 0.14039396
0.02723523 -0.027610842 -0.04704071 0.03244675 0.022380376 -0.060967796 -0.13873562 0.09579283
0.16020626 0.11514428 0.06231266 0.046931084 -0.033975754 0.0279512 0.120188646 -0.048889607
0.04670568 -0.06432321 0.127318 0.030923564 0.10549145 0.095102616 -0.06793882 0.092373475
0.1494202 0.13451786 0.17626742 0.056736715 0.16299187 0.17351872 -0.160883 0.093552075
0.064065486 0.12756719 0.032685325 0.064526975 0.12879683 -0.0980519 0.01434175 -0.009811681
0.060245506 0.13310654 -0.09258288 -0.036741663 -0.16405387 -0.07322867 -0.057464805 -0.14861661
-0.08897937 -0.121255726 0.10656023 -0.11062715 0.040100597 -0.09886915 0.016704354 -0.062056724
0.16537808 0.0979062 -0.09785183 0.099097736 0.1507566 0.100947835 0.16562225 -0.12926593
0.034106746 0.09447991 0.008737653 0.11057818 -0.16386239 0.020923633 0.047689684 0.13111158
-0.011884252 -0.11438899 0.09405763 -0.08644767 0.08179317 -0.09456524 -0.14096656 -0.042519238
-0.06465204 0.1678998 -0.06549047 0.08633803 -0.012693219 0.067250416 0.026739245 -0.022318063
-0.16258602 0.051764738 -0.07575527 -0.08043267 -0.17148596 -0.031450063 -0.17169425 -0.13604179
0.03589063 0.105689794 -0.15787451 -0.16638003 -0.13864054 0.058528107 0.13281395 0.069994554
-0.09760696 -0.16148318 -0.06788074 -0.075351 -0.08004951 -0.1149228 -0.036531117 0.121420324
-0.11718333 0.08562297 0.1576213 -0.11735727 -0.03050237 0.1573043 0.11529213 -0.13612747
-0.064096525 -0.151561 -0.14946252 0.11926892 0.13380612 0.01724689 -0.15748984 -0.12039728
0.12233696 0.16944733 0.082706295 0.068548016 -0.055237826 0.08119576 -0.021594401 -0.01586536
0.12928952 0.0063413093 0.12191722 0.03382141 -0.14207497 0.0859765 0.08467386 -0.01604206
-0.06678914 0.14682852 0.13252394 -0.14096087 -0.1452673 -0.07316512 -0.086181365 -0.11252888
-0.07389706 0.15866527 -0.03573252 0.042083398 0.14701156 -0.08583018 -0.017843246 0.0438963
-0.012986435 0.06278508 -0.046487257 0.11644015 0.07369105 0.12263169 0.029288013 0.068750255
0.15970589 0.10815216 -0.16034715 0.16708644 0.033673562 -0.11427452 -0.032504406 0.026970252
0.10470402 0.10750481 -0.029681012 -0.04340729 0.022932626 -0.13177581 0.10893675 -0.113977276
-0.09178797 -0.067048594 0.04467608 0.13391478 0.015744925 0.11591816 -0.0604794 0.05056562
0.15504634 0.051658 -0.056332465 0.07169057 -0.10636872 0.14626046 -0.030147597 0.013251727
0.025625747 0.12403034 0.07831637 -0.09075046 -0.07352301 -0.12003388 -0.029538028 0.07299956
0.04374986 -0.07405966 0.094241634 0.016702902 -0.12907423 -0.14447813 -0.08530073 0.018885517
-0.117183074 0.05387248 -0.10903004 0.111056924 0.17526278 -0.12417477 0.16020998 0.02880735
0.01248259 -0.07016818 0.12145044 0.085078746 0.088820204 0.09621729 -0.053777587 0.046920843

GCNs.1.apply_func.0.bias f4 [32]
00000000: a57c 1d3e e62d 033e ad11 5fbd c289 73bd
00000010: d258 0dbd 0bcb c33c a78f 9a3d 2fcf 413d
00000020: c60a d6bd 5096 2e3e 3bb8 d13c f091 193e
00000030: 09cd ecbd b0e6 88bc 84d1 bb3d 5ed6 0abd
00000040: c01d f73d d1fc 45bd 5655 02be 73a3 f0bc
00000050: 374c f8bd a4d2 223d 60a6 cdbd 5d4f aabc
00000060: 2ccf 013e 7701 0b3e 03cb 6f3d e7ef 94bc
00000070: 7a22 4d3d ce01 c33d 000e 54bd b055 29be
0.1537958 0.12810478 -0.054460216 -0.059457548 -0.034508534 0.02390053 0.07546931 0.047316726
-0.104512736 0.17049527 0.025600543 0.14997077 -0.11562545 -0.016711563 0.09170821 -0.033895843
0.12066221 -0.048336808 -0.12727866 -0.029374814 -0.12123912 0.039751664 -0.10041499 -0.020789796
0.12676686 0.13574778 0.058543216 -0.0181808 0.050081708 0.095218286 -0.051771164 -0.16536593

GCNs.1.apply_func.2.weight f4 [32, 32]
00000000: bda8 dcbd 03fb 76bc 4257 18be 7285 133d
00000010: b61a 64bd 194c 183b 94d0 2a3e 2a45 263e
00000020: 639e d13d 7401 24be 5fee ec3d 049f 883d
00000030: 9680 c9bc d573 a23d a1a8 8abd f6a2 12be
00000040: d8d8 a3bd 5724 21be 6b19 34be 5fd3 d43d
00000050: db20 033d a2f4 063e a31f 9fbd ac65 eb3c
00000060: 6710 92bd 9e08 463d d73a 0ebe f0ac 253e
00000070: f48e d53d 8970 223e 8555 203e aacc 21be
00000080: 10e7 f1bd f35c ddbc 3233 573d 63f6 973d
00000090: 4317 7e3d 9a79 fabd c491 b03d 847c abbd
000000a0: daa2 533d 172a 1dbe df5a ffbc 861d f4bc
000000b0: 3b4b 183e bc9e 8d3d 7c52 023e d932 acbc
000000c0: 50f7 783d 2a06 8fbb ebe0 9bbd 9d86 d13d
000000d0: cf48 7dbc bfa8 11be 052d bc3d 5f62 a53c
000000e0: 393b 3dbd e2f8 c9bb b116 033d 6e17 553c
000000f0: e398 183d 2cb4 083d 7716 003e 5420 9c3d
00000100: d46c a0bd 5fb1 00be c04a 03be e4b2 8cbd
00000110: 34d6 71bc 2683 283d d2de 5cbc 9569 133c
00000120: 79a3 dbbd cc0c 9bbd b522 03be a2b4 00be
00000130: 2d63 0f3e 315c 6fbc 457a 343c ceec 01be
00000140: 24e5 34be a1f9 85bd cb8f f9bd 0587 403c
00000150: 8a1e f8bd dedc 66bd e118 e83d 1dc5 d53d
00000160: 3639 7c3d 5fd4 e0bd 6e66 233e 6dbc 1c3e
00000170: 86cb 07be e329 1a3e e757 013e 3f16 a13c
00000180: 955a 003e b886 f33d 0d9b cbbc cc5a 783a
00000190: 9b0c 763d f13f 843d 37ac 04bd 81cd a03c
000001a0: cd64 a5bc c341 f43d 1373 cb3d 3c03 ecbd
000001b0: 1f22 6f3b af0f 263e 9af8 c03c a367 0d3e
000001c0: cac3 07be 785e 0c3e fe6a 2e3e 29d6 643d
000001d0: 4689 343d f151 a7bd 2a7a d2bd b03a b53a
000001e0: 9b4f 65bd afbe d9bd ffbc f2bd 43d1 253e
000001f0: 29f9 b2bd 83d8 ef3d 646c f53d 333e 2f3e
00000200: e967 873d e244 16be 5bbc 24bd ff70 06be
00000210: ab98 39bd 716d 103d ec1d bdbd 704c 9b3d
00000220: 51e7 dcbd 183c 333d 7fe6 80bd 5b48 05bd
00000230: 9af8 09bd 66d2 163e dd6e d83d 9a90 2f3e
00000240: 6244 04be efb0 aabd aa6f 663d 3e7b 40bd
00000250: 23f8 14be c06f 063e 5e7e c33d 6bf3 c2bc
00000260: 38bc eabd ba2b e23d ee8a c9bc a766 3fbd
00000270: aa06 023e 1ebb 353d 02bb bdbd 0839 24bb
00000280: e3a9 8c3d cbc1 4a3d b397 c73d 9eaf 003e
00000290: b524 efbd b2a8 96bc 1d1e 0dbe ebad ebbd
000002a0: 3b75 283e b8d4 37bd 9fec a9bd 96f4 07be
000002b0: cccd 053e 4fc9 04be 5b09 bcbc 6045 f63c
000002c0: 45ff c53c 1fd6 8b3c c7e4 10be 6f4c dd3d
000002d0: 447d fdbd 6230 2c3e 7910 333e cede 303e
000002e0: da6a bfbb 9dd5 34be b3af 0bbe 5d32 0abd
000002f0: 2a11 01be e782 dfbc 7bfd 083e 5577 163d
00000300: 159e ee3d 3869 01be a06b 7e3d 264b 28be
00000310: fb25 2c3e b5bd f3bc 4127 9c3d 2e99 e93d
00000320: c933 db3d bcf1 5c3c aff6 b2bb c9ac 85bc
00000330: 5bf4 9dbd 7a1c 30be 3a0d 653d 6345 febd
00000340: 309b ee3d f9aa 053d b8f9 bbbd 5a44 0c3e
00000350: 11b5 9dbd 9195 bdbd 6fb8 a03d 70c2 2fbe
00000360: 2f7c 6c3d 440c 193e 82a3 8d3d 93c3 0d3e
00000370: 8818 febd fd82 ba3c 29b5 8b3d 3f04 80bd
00000380: 69f8 0cbd 1cfd 05bd f4d8 08be 05c3 54ba
00000390: eab3 31be 2f5a 9fbc bb2e 203e 9ce3 093e
000003a0: 4c50 afbd 11ca f43d c579 003e 7259 abbd
000003b0: 807f 91bd d2a9 49bd 0446 f4bd 3ba3 1bbe
000003c0: e7ae 863d d648 99bd 1260 7ebd 72a4 a03c
000003d0: 1ee5 013e c45a d03d e009 fdbc 8cf9 0cbe
000003e0: 71ac ffbd 3085 eebc a4fa eb3d 3a55 213e
000003f0: 9516 98bc d110 91bd 0cb2 f4bd 4a88 10be
-0.10774372 -0.015074494 -0.14877036 0.036015935 -0.055689536 0.0023238717 0.16681129 0.16237321
0.10235288 -0.1601618 0.11568903 0.06670955 -0.024597447 0.079322495 -0.06770445 -0.14319977
-0.08000344 -0.15736519 -0.17587821 0.10391878 0.032013755 0.13179258 -0.07769706 0.028735004
-0.07132035 0.04834806 -0.13889633 0.16179252 0.10427657 0.15863241 0.15657623 -0.1580073
-0.1181165 -0.02702186 0.052539058 0.074200414 0.062033903 -0.12230225 0.086215526 -0.08373359
0.05166898 -0.15348087 -0.03117126 -0.029799234 0.14872448 0.06915042 0.12726778 -0.02102034
0.06078273 -0.0043647485 -0.07611259 0.102307536 -0.015459253 -0.14224528 0.09188274 0.020188509
-0.046199057 -0.0061637023 0.032004062 0.013006074 0.03725518 0.03337495 0.1250857 0.076233536
-0.07833257 -0.12567662 -0.12821484 -0.06870058 -0.014760543 0.041140698 -0.013480859 0.008997341
-0.10724539 -0.075708 -0.12806208 -0.12568906 0.14002676 -0.0146093825 0.011015479 -0.1268799
-0.17665535 -0.065417536 -0.121856295 0.011750941 -0.121152 -0.05636298 0.1133287 0.10437987
0.061577998 -0.109780066 0.15957043 0.15306254 -0.13261232 0.15055041 0.12631188 0.019663928
0.12534554 0.1189093 -0.024854207 0.0009473979 0.060070615 0.06457508 -0.0323908 0.019629242
-0.020189667 0.119266056 0.09934058 -0.115240544 0.0036488844 0.1621692 0.023556042 0.13809066
-0.13258281 0.13707912 0.17033002 0.0558683 0.044076227 -0.08169926 -0.10277207 0.0013826694
-0.05598412 -0.10632073 -0.118524544 0.16193108 -0.0873893 0.11711218 0.119835645 0.17113571
0.06611616 -0.14674714 -0.040218692 -0.13129042 -0.04531161 0.03526062 -0.09234223 0.07582939
-0.107863076 0.04375848 -0.06293964 -0.032539707 -0.03368435 0.14728698 0.105680205 0.17145005
-0.12916711 -0.08334529 0.056258835 -0.046992533 -0.14547782 0.13128567 0.09545587 -0.023797711
-0.11461681 0.110434964 -0.02460238 -0.046728756 0.12697855 0.044367902 -0.092641845 -0.0025058407
0.06868341 0.04950122 0.09745731 0.12566993 -0.11676923 -0.018390987 -0.13781019 -0.115077816
0.1645097 -0.0448806 -0.08297085 -0.13276896 0.13066787 -0.12967418 -0.02295368 0.030062377
0.024169574 0.017069874 -0.14149772 0.10805594 -0.12377408 0.16815332 0.17486753 0.17272493
-0.005841595 -0.17659612 -0.13641243 -0.033739436 -0.12604204 -0.027284099 0.13377945 0.036734898
0.116512455 -0.12637794 0.062114358 -0.16434917 0.16811363 -0.029753545 0.076246746 0.1140617
0.107032366 0.013485368 -0.005461536 -0.016317742 -0.07712623 -0.17198363 0.055920817 -0.12415578
0.116506934 0.032633755 -0.091784894 0.13697949 -0.07700551 -0.09257043 0.07847678 -0.17164016
0.05773562 0.14946085 0.06915952 0.13844137 -0.12407023 0.022767538 0.06821663 -0.0625081
-0.03441659 -0.032712087 -0.13364011 -0.00081162184 -0.17353788 -0.019452183 0.15642826 0.13465732
-0.08560237 0.119526036 0.12546451 -0.0836667 -0.07104397 -0.04923422 -0.11927417 -0.15198986
0.06576329 -0.074845955 -0.06210334 0.019609664 0.12685058 0.10173562 -0.030888498 -0.1376707
-0.124840625 -0.029116243 0.11522415 0.15755168 -0.018565455 -0.070832856 -0.11948022 -0.1411449

GCNs.1.apply_func.2.bias f4 [32]
00000000: dec3 353c 91ea 31be 3016 113e 0381 dd3a
00000010: d8fd 19bd 23b5 983d fbe9 4fbd 6ce8 303b
00000020: 132f 903d 0007 113e 0d4e 163e 9b5e 6e3c
00000030: dc6a 70bd c371 23bd 8db4 2d3e 3778 81bd
00000040: aa45 14be 3b01 103e a5c8 003e 49ac 273e
00000050: 0bf2 fe3d 7a89 af3d a350 a3bd 2c4a 953d
00000060: 2097 31be 8827 393d 6571 debd 2b3d fc3d
00000070: 8bca 28bd 0cba 333d e1f3 103e f186 cbbd
0.011094062 -0.17374636 0.1416862 0.001689941 -0.0375956 0.07456424 -0.05076025 0.0026994003
0.07040229 0.14162827 0.14678212 0.014548923 -0.05869566 -0.039903414 0.16963406 -0.06321757
-0.144797 0.1406297 0.1257654 0.16374315 0.1244851 0.085711434 -0.079743646 0.07289538
-0.17342806 0.045203716 -0.10861472 0.12316354 -0.041208785 0.0438786 0.14155532 -0.099378474

GCNs.2.apply_func.0.weight f4 [32, 32]
00000000: c70f 31bd 9a0a 01be b174 313c 4c9b fdbd
00000010: b02d 11be 5ab5 8bbd 4a7e 17bd 3909 d9bd
00000020: 1b93 30bd 631a 2dbe 6af3 84bd ac68 d73d
00000030: 3a5e f1bd a525 1dbe 2cf2 afbc ff35 69bd
00000040: 4558 883d f8c6 3cbd a5ae 1d3e 659c c5bd
00000050: 448e 0f3e b74f ccbd 46f6 82bc fa8d 783d
00000060: b895 8dbd e58b 35bd 757b 2b3e ec26 2b3e
00000070: a945 ea3c 1ac8 b9bd 9fab 10be 6d6d e7bd
00000080: f447 623c 9269 76bd 50c3 7d3d e4a6 2f3e
00000090: f742 ddbd bd7b c7bc 21dd d63b 8a43 223e
000000a0: 4041 573d e8e4 17be fd4f 923d 6ac5 573c
000000b0: 9f21 803b f23b 573d 1c38 623d f530 8d3c
000000c0: e0ad c33c 00f5 c43c 5f77 52bd cc3b 163e
000000d0: 9787 02be 1ffe b8bd 0536 013e 11a3 f63c
000000e0: 687f 4fbd 63ca 1d3e 3bb2 d33d f2c9 fabd
000000f0: fb5e 2abe 5d24 063e 710e 3bbd ed7e 35bc
00000100: c03c 20be 9a49 f53d 957b acbd 9167 9c3b
00000110: 73c4 38bd a19b 6cbd e445 01be 3db4 0d3e
00000120: 886e bdbd 0a68 6fbd 2eb1 dabb 5c5d f8bd
00000130: 97ce 733d fcda a43d 339b 02be 4562 d8bd
00000140: fa53 ba3d dbd1 f0bc e3f7 a43d 482c 983c
00000150: abd6 e23d 5fd7 a63b bc9b 31be da4b 15bd
00000160: 38ba cdbd 42bc febc d9c3 7c3d d6f9 a53d
00000170: 9914 013e b082 0ebd 2311 503d f279 b2bd
00000180: d98d 6abd 1fe2 1bbe a899 c73a 032c 223e
00000190: de1c 1e3e 5a2a 2bbe d802 b2bd 3329 f4bd
000001a0: b89f 133e be38 903d 549a 01be 175e b9bd
000001b0: 8be5 0dbe fe78 0b3e 3576 d9bc b6a4 06be
000001c0: 20ee 8e3c 2d1f e83d 077f 993c bb73 323e
000001d0: 740d a7bd 3a05 f6bd d8dd 083e 3bf7 a7bd
000001e0: 59e8 253d 3c31 1d3e ad2e 213e 3930 c03c
000001f0: 8d6d dc3d e0ff 143e 1019 0a3d a979 b23c
00000200: 2e36 c23c d763 143e 269d da3d 2f9d e03d
00000210: 9828 673d 2b38 83bd eaff fbbd c126 18be
00000220: 55e8 673d 792b 13be 63ce bd3d b794 a4bd
00000230: 46bf a83a b2fb d73d cc0e f13b 0caa 223c
00000240: bdc6 983d f025 043e a778 1dbe dd05 03be
00000250: 79b7 5bbd 41a8 403c c1f8 21be c9e6 bdbd
00000260: e167 d4bd 1b15 63bd e285 14be 40f3 c5bc
00000270: 89b8 283d 1c2e 9b3d e262 ad3d a163 cbbd
00000280: 7b3c 023e 89af 0ebe f368 2f3d 344a d43d
00000290: 33d3 47bc dd26 0cbc 315d 05bd e8e7 123e
000002a0: 936b bc3d 77f7 b13c 6069 0bbe b8b6 3e3c
000002b0: 1d89 8bbd 0a35 4dbd 9302 07be 0534 183e
000002c0: 544c b03d e3bb fd3d 7fdb 23bd 20d3 40bb
000002d0: 4427 1bbe 1ef3 b83d 639d 203e 1836 11be
000002e0: 698e 75bc 1e14 2f3e cbec 78bd bcc3 16be
000002f0: f9e0 6b3d 4a7a e7bd 4081 0ebe eaca 14bd
00000300: aedd 863d 3941 17be 8b35 b9bd 4816 1bbe
00000310: 485f 22be bfdf fa3d 657c ea3d b065 babc
00000320: fc15 46bd cefe 0abd 0846 3cbd 2d69 da3d
00000330: 4c2c 19be 2b1b 0fbe 94c7 ec3c 35fe aa3d
00000340: 5833 11be 3ba1 21be fee8 a8bd c9fc 6dbd
00000350: 3742 11be 622b 03be e7d4 a9bc 7bae 07be
00000360: af2a 9d3c 6063 f1bd 92df 933d 1839 24be
00000370: b53e 0cbe 983a 363d ecd2 6fbd a0e0 1c3e
00000380: 6145 10be ff8a 6fbd b371 203e fd6f 52bc
00000390: 2e0a 54bd 7e49 423d f7c1 adbb bbf4 f5bd
000003a0: 68b2 79bd 919f acbd c1f6 173e c57e 98bd
000003b0: d4e8 29be 35c8 ff3b 1bd4 243e 579a 2ebd
000003c0: bc8c 163e bc69 e3bc da83 0bbe a11a d6bc
000003d0: 2ba8 ddbc 13d3 1ebe 16e1 25be 9b57 043e
000003e0: 6836 9fbd 2027 d03c 1028 ca3d 6ef3 323e
000003f0: 8534 293d 70ec 043e 44cb 14be 1e16 2abe
-0.043227937 -0.126017 0.010831044 -0.12383136 -0.14177585 -0.068216994 -0.036985673 -0.10597462
-0.04310904 -0.16904597 -0.0649174 0.105180115 -0.117855504 -0.15346391 -0.021477781 -0.05693626
0.06657461 -0.04608819 0.15398653 -0.096489705 0.14019114 -0.09976142 -0.015986573 0.060682274
-0.06913322 -0.044322867 0.16746314 0.16714066 0.02859767 -0.090713695 -0.14127968 -0.11300168
0.0138111 -0.060159273 0.061953843 0.17153507 -0.10803788 -0.024350995 0.0065571223 0.15846077
0.05255246 -0.14833415 0.07144163 0.013169626 0.003910258 0.052547403 0.05522929 0.017235259
0.023886621 0.024042606 -0.051383372 0.14671248 -0.12747036 -0.09032845 0.12618263 0.030107053
-0.050658613 0.15409236 0.10336729 -0.12245549 -0.16637795 0.13099809 -0.04566807 -0.011077625
-0.15648174 0.11976929 -0.08422009 0.0047730883 -0.045109224 -0.057765607 -0.12624317 0.13838287
-0.09249598 -0.05844883 -0.0066739535 -0.12127182 0.05952319 0.080495805 -0.12754516 -0.105656184
0.090980485 -0.029396942 0.08055093 0.018575802 0.11076101 0.005091592 -0.17344564 -0.03644929
-0.10045284 -0.031095628 0.061710212 0.08104293 0.12605514 -0.034792602 0.050797593 -0.087146655
-0.057264183 -0.15222977 0.0015228288 0.15837102 0.154407 -0.16715375 -0.08691949 -0.119219206
0.14416397 0.07042073 -0.12656528 -0.09051149 -0.13857095 0.13620374 -0.026545623 -0.1314877
0.017447531 0.11334071 0.01873733 0.1742696 -0.08156863 -0.12012716 0.13365877 -0.08201452
0.040504787 0.15350813 0.15740462 0.023460494 0.10763083 0.14550734 0.033715308 0.021786528
0.023707476 0.14491211 0.10674505 0.109674804 0.056435198 -0.064071976 -0.12304671 -0.14858533
0.056618053 -0.14372052 0.09267881 -0.080361776 0.0012874387 0.10546054 0.0073565003 0.009928238
0.07459781 0.12905097 -0.15378056 -0.12795205 -0.05364177 0.011758865 -0.15817548 -0.092725344
-0.10371376 -0.05544005 -0.14504197 -0.024163842 0.04119161 0.07577154 0.08466126 -0.09931112
0.12718384 -0.13934149 0.042824697 0.103657156 -0.01219635 -0.008554188 -0.032559577 0.14346278
0.09200206 0.021724446 -0.13614416 0.011640243 -0.06813262 -0.05009941 -0.13184576 0.14863594
0.086083084 0.12389352 -0.04000425 -0.0029422715 -0.15151697 0.09030746 0.15685038 -0.14180791
-0.0149875665 0.17097518 -0.0607727 -0.14723104 0.057587598 -0.11302622 -0.13916492 -0.036326326
0.06585251 -0.14770974 -0.09043416 -0.15145218 -0.1585666 0.122497074 0.114495076 -0.022753567
-0.04836081 -0.033934407 -0.045965225 0.10664592 -0.14958304 -0.13975208 0.02890376 0.083492674
-0.14179742 -0.15784161 -0.08247565 -0.058102403 -0.14185415 -0.12809518 -0.020731403 -0.13250153
0.019185392 -0.117865324 0.07220377 -0.16037405 -0.13695796 0.044489473 -0.05855076 0.15320063
-0.14088966 -0.058482166 0.15668373 -0.012844083 -0.05176752 0.04743337 -0.0053026634 -0.12009569
-0.060961157 -0.084288724 0.14840223 -0.07446054 -0.16592723 0.007805849 0.16096537 -0.04262766
0.14702123 -0.027760379 -0.13624516 -0.026135745 -0.027057728 -0.15510206 -0.16199145 0.12924044
-0.07774049 0.025409281 0.098709226 0.17475674 0.041309852 0.12980819 -0.14530665 -0.1661

GCNs.2.apply_func.0.bias f4 [32]
00000000: 2de1 8cbd 2371 f4bc fe1c 223e 4799 10be
00000010: 9996 17be f5b2 31be 655f 003e bddf 273e
00000020: 92fc 91bd 2f86 483c 2ce0 a73d e4eb 453d
00000030: 27fb 03bc b6e1 d2bd 7445 a83d 0be4 e1bd
00000040: d91f 34bd ef31 0abe 2c72 d73d 53ca bd3d
00000050: 39b1 163e 35b4 25be ce8c 24be dc97 1cbe
00000060: c9ea 8abd 2172 fd3c 7cd2 10be b9f4 643d
00000070: 23ba 2cbe a06f ccbc bdf8 04bc b3db 85bd
-0.06878886 -0.029839104 0.15831372 -0.1412097 -0.14803542 -0.17353423 0.1253639 0.16393943
-0.07128252 0.012239023 0.08197054 0.048320666 -0.008055485 -0.10296957 0.08216372 -0.11029824
-0.043975685 -0.1349561 0.105198234 0.09267106 0.14716043 -0.16182025 -0.16069338 -0.15292305
-0.06783063 0.03093821 -0.14142793 0.05589745 -0.1686788 -0.02495557 -0.008115944 -0.06536045

GCNs.2.apply_func.2.weight f4 [32, 32]
00000000: 4314 c63c ea7d cdba 0885 0ebc 7c37 033e
00000010: 3ae6 a5bd 6f02 fcbd b1b0 133d a39e 803d
00000020: b514 2c3d 826d a53b 3f8f bbbc 4525 82bd
00000030: 06c9 abbd 4400 bdbd 9365 90bd 0202 3a3d
00000040: 1fd1 2fbe 1cd9 14be b331 17be 1afa f73b
00000050: e807 90bc 1b42 433d e291 70bd eb47 14be
00000060: dd3d c5bd 418d 7bbd 4e93 c93d facf b1bd
00000070: ed17 d3bb dae9 2abe 0a23 cbbd d5a9 47bc
00000080: 8a43 1bbe e1a9 033d 4137 3b3c 6d72 403d
00000090: 4e6a f53d f6cc a43d 1f49 803d 3017 443c
000000a0: 1572 533d 85be d7bb e2d5 ed3d b5fd 93bd
000000b0: 5ff0 0dbe e3ef fcbc 093b 54bd f347 0f3d
000000c0: 41a8 f7bd c609 a33d 2434 31be c858 24be
000000d0: 154a c13d 7aff 213e 6b78 e1bc 2233 2abe
000000e0: 9c95 763d a30b 3b3d 2164 2d3e 2a4a 233e
000000f0: 73a6 14be 5e3b 30be e902 903c 6a16 963b
00000100: 082c dcbd 488b 88bd c2c7 a8bc e961 013e
00000110: be9e 24be fd10 53bd bb87 34be fe76 93bd
00000120: 8dd8 32be 012d 323e 4fb6 cd3d 058c 4c3d
00000130: 5d13 b8bc f250 673d eaa9 6e3d f050 643d
00000140: f250 343d 1dca c3bd dc54 bcbd b701 76bd
00000150: ab10 e6bd 60d2 0e3e 6ebe e83d a38b b43c
00000160: bc7d 97bd ae51 9a3d 3efe 883d b022 f3bd
00000170: 085d 1c3e 8f24 5dbc 324e 47bd 328e 233e
00000180: 8d62 b33d f58d 8ebb c5dc 96bd 4fc9 b83d
00000190: 63ad d63d 7f4d 053e 9c10 d63d c3a5 2b3e
000001a0: 68d3 b43d a9a0 c33d 111b 09be fc49 d43d
000001b0: be61 7bbd 446f c93d a39f eabd 5d4f e9bc
000001c0: cd80 2f3e 9def aabc fe49 723d 554b fcbd
000001d0: c0b6 a7bd 8538 79bd ee2a fd3d 5669 eabd
000001e0: eacb dabd 492a acbd 73b5 ee3d 4964 2ebe
000001f0: 3bb1 02be 7421 063e c4bb 273b 2dd1 323e
00000200: 61dc 8a3a f5b6 d43d 32c3 13be 6da9 87bd
00000210: 3163 813d ad3e 193e 6e98 5a3c 6d79 b23d
00000220: f598 f8bd 0cd1 ad3d a4e7 98bd e4d0 113e
00000230: 96f3 483d 8bb8 ddbd e6c7 89bc b50b 2dbd
00000240: 17fc 0abd 3e43 b5bd 37e6 eabd f8ee dd3c
00000250: 62e9 32bd 7ff5 ad3d b404 2fbe ad0c 02be
00000260: 0e97 df3b 5468 323e b4c1 13bc 5812 da3d
00000270: 8418 05bd ed26 06be 1d25 113d 5ba0 2c3e
00000280: 14eb dd3a a2f2 b6bd d2fb b7bd 07c7 c8bd
00000290: 1626 ae3d 0aa8 bd3d d370 babc ebd5 94bd
000002a0: fdca e2bd 3c2d 86bd 813b f93d 1a40 043e
000002b0: 8606 92bc 593d babd 32ad 0f3d 689a 2b3e
000002c0: a9e7 343e f0b3 18be d430 053e 47eb 2cbe
000002d0: de89 b43c 36d5 03be 288c b6bb 0265 9bbd
000002e0: 44aa cf3d c939 21be 4581 2a3e ca45 49bd
000002f0: 38f1 963d 5adf 793b 8581 d93c ff2c b8bb
00000300: 0eed 3a3d ebe7 ecbd 0da5 24be 2468 fdbd
00000310: 6267 2e3e 618e 3c3d 49b2 813c 0e28 47bd
00000320: b2e2 12be 61a1 8cbd a386 063e df8f 18bd
00000330: 31b9 22be 5832 05bd 18ec fd3d 44c7 b23c
00000340: cea8 1b3d e99b 093e 2031 6fbd 28ab 07be
00000350: 48e2 7fbc a3a0 863d c542 083d 6eba adbd
00000360: 30a7 84bd 9da7 29be 5398 adbd 0e08 b53d
00000370: 06cf 2dbd 1eda db3d bdc3 86ba ce82 823d
00000380: b523 98bd 2ca1 b83d 7d7c 1a3e a539 843c
00000390: 772d 34be d078 273e 231c 133e 120e da3d
000003a0: e13d 063e 376d f23d 2f5b 80bd 243d e8bd
000003b0: 1751 25be ecf7 47bd 442a 31be dd46 943d
000003c0: 324e e0bb 6249 1d3e 8ce8 123e fb3d 6cbd
000003d0: 0cfd 2abe 47e3 0d3d c12f 17bc d3ef 213e
000003e0: b9b0 fe3d ebfe f1bd 1e77 13be 7be6 033e
000003f0: 6600 173d 25bc 55bd f85c 28be 9fb9 8ebd
0.024179583 -0.0015677784 -0.008698709 0.12814134 -0.08100553 -0.12305152 0.036057178 0.062802576
0.042011935 0.0050484547 -0.022895453 -0.06354765 -0.083879516 -0.09228566 -0.07050624 0.04541207
-0.17169617 -0.14535946 -0.14765052 0.007567656 -0.017581895 0.047670465 -0.058732875 -0.1448056
-0.0963094 -0.061414007 0.09842549 -0.086822465 -0.006442061 -0.1669077 -0.099187925 -0.012186487
-0.15162483 0.03214443 0.011426748 0.046984125 0.11983167 0.08046906 0.06263947 0.011968419
0.05162247 -0.006583991 0.116130605 -0.07226125 -0.13861226 -0.030876106 -0.051814113 0.034980725
-0.12092639 0.079608485 -0.17305046 -0.16049492 0.09437958 0.15820113 -0.02752324 -0.16621068
0.060201272 0.045665395 0.16932727 0.1594626 -0.1451662 -0.17210147 0.017579513 0.0045803087
-0.10750586 -0.06667191 -0.020603064 0.12635006 -0.1607618 -0.051529873 -0.17629902 -0.0720043
-0.1746542 0.1739998 0.10044538 0.04993822 -0.02247017 0.05647368 0.05826751 0.05574125
0.044022508 -0.095600344 -0.09195873 -0.06006023 -0.11233648 0.13947439 0.113644466 0.02203924
-0.07397029 0.075351104 0.06689118 -0.118718505 0.15269864 -0.013497486 -0.048658557 0.15972212
0.087590314 -0.0043504187 -0.07366327 0.090227716 0.1048229 0.13017844 0.10452387 0.16762452
0.08829385 0.09552128 -0.13389231 0.10365674 -0.06137251 0.09835675 -0.114562295 -0.028480226
0.17138977 -0.02086621 0.059152596 -0.12319056 -0.08189154 -0.060844917 0.12361704 -0.114458725
-0.10683425 -0.08406503 0.116557024 -0.17030443 -0.1276292 0.13098699 0.0025594095 0.17462607
0.0010594242 0.10386459 -0.1442993 -0.06624112 0.063177474 0.14965315 0.013342006 0.087145664
-0.12138549 0.08487138 -0.07466057 0.14239842 0.049060427 -0.108262144 -0.016818952 -0.042247493
-0.033931818 -0.08850716 -0.11469691 0.027091488 -0.043679602 0.0849409 -0.17091638 -0.12700148
0.006823427 0.1742261 -0.00901835 0.1064803 -0.032494083 -0.13100787 0.035435785 0.16858046
0.0016931021 -0.08932997 -0.08983578 -0.098035865 0.08503358 0.092605665 -0.022758877 -0.07267364
-0.11073873 -0.065515965 0.121695526 0.12915078 -0.017825376 -0.090937324 0.03507728 0.1675812
0.17666496 -0.1491239 0.13006908 -0.16886626 0.022038396 -0.12874302 -0.005570907 -0.07587625
0.101398975 -0.157447 0.16650875 -0.04913882 0.073702276 0.0038127513 0.026551018 -0.0056205983
0.04563623 -0.11567672 -0.16078587 -0.12373379 0.17031625 0.04603422 0.015832083 -0.048622184
-0.1434429 -0.06866718 0.13137297 -0.03724658 -0.15890957 -0.032518715 0.12398547 0.021823533
0.03800278 0.13438381 -0.05839646 -0.13248885 -0.0156179145 0.06573608 0.0332668 -0.08482824
-0.06477201 -0.16567846 -0.08476319 0.08839427 -0.04243376 0.10734962 -0.0010281723 0.06372605
-0.074286856 0.09015116 0.15086551 0.016140768 -0.17595468 0.1635468 0.14366202 0.10647215
0.13109542 0.11837237 -0.06267392 -0.11339787 -0.16144215 -0.04882042 -0.1730128 0.072400786
-0.006845259 0.15360025 0.14346522 -0.057676297 -0.16698092 0.034640577 -0.009227694 0.15814142
0.12436051 -0.118162 -0.14400908 0.1288089 0.036865614 -0.05218138 -0.16441715 -0.06968998

GCNs.2.apply_func.2.bias f4 [32]
00000000: ea5d f43b 547f 1b3d 4cbd 613d 00eb 0abe
00000010: 3611 70bc 54e1 5e3d 02da 57bd 924d 1a3d
00000020: 38f9 273e cbc0 25bd 725e 28be b415 23be
00000030: 4bca bc3d 2d5e 07bd d972 df3d 00a6 a5bd
00000040: 47e1 08be 0024 02bd 5472 bcbd 7176 a83b
00000050: c7c9 663c 6c76 d2bd e448 99ba 0728 193e
00000060: d161 1a3e e48f 30be 6351 ef3d fa41 a5bc
00000070: 3174 38bd f92c dcbd f161 26be e09f 823c
0.0074574845 0.037963226 0.05511217 -0.13566208 -0.014652541 0.05441411 -0.052698143 0.037671633
0.16403663 -0.040467065 -0.16442278 -0.15926248 0.09218272 -0.033048797 0.10910577 -0.080883026
-0.13367186 -0.031772614 -0.09201494 0.0051410724 0.014086193 -0.102764934 -0.0011694697 0.14956675
0.15076376 -0.1724239 0.11685445 -0.020173062 -0.045032684 -0.10750765 -0.16248299 0.015945375

GCNs.3.apply_func.0.weight f4 [32, 32]
00000000: 8ff0 083e b2eb 16bc 2d9c dcbc 6331 f23d
00000010: 2184 053c d727 20be 3db7 2cbe 1323 25be
00000020: 75e5 41bd d237 14be f91e febc 2872 153e
00000030: d9af 6c3d 72c9 eabd 163b a03d bd50 14be
00000040: 39e3 07be cd29 75bd 042c df3c d5c6 30b8
00000050: 6985 0d3c 9a13 193e f89b d53d 04fa 193e
00000060: 7127 a93c 2cf2 e13c 7e6f 12be f87f d8bd
00000070: 3297 253e 6ae6 bcbc f218 9a3d 263d a33d
00000080: 9887 663d d68d 00be 65cb 043c f231 133e
00000090: d519 703d 6989 25be 3e77 233d 38b9 233e
000000a0: 0cbe 3bbb 880b 1cbe 85eb 5d3c 7a2a 263e
000000b0: 2d49 99bd 219f 2bbe 792d f73d 2bc9 79bd
000000c0: 14a6 043e 3d00 8c3c 7cf5 103e 890b e73c
000000d0: 8829 1cbe 6406 b0bd 0ade 9abd d611 973c
000000e0: bc1b d63c 0eb6 31be 27ca 27be 9922 5cbd
000000f0: 3093 eabd f041 ecbc 93bf 2dbe 0903 29be
00000100: af54 04be 144d edbd 1f70 173e d5d6 06bd
00000110: 5aff e8bd 4f77 12bd 4ab6 48bd 4316 243e
00000120: d99e 2ebe 291e dbbd 2cc2 31be b6e4 12be
00000130: bcbe 083b 0c70 82bd c226 9a3d 036a 263e
00000140: 7927 2d3e 3364 d0bc 7e86 013d 287d 9a3d
00000150: 1478 0a3d 50e9 50bc a5b6 c1bd 6438 c4bd
00000160: 309e a1bc a954 e43d 81da 443d 0341 dabd
00000170: 8af6 8fbd 8cbc 883d f185 c6bd 9416 15be
00000180: b9f1 e5bd a423 2ebe 980e b5bd 09c4 b7bd
00000190: 3218 4e3d ed46 4bbd 8f34 97bd 4816 f53d
000001a0: 49fc f83c 8be6 34bc 5241 b53c 14b6 c23b
000001b0: a1c4 6a3d b3c1 943d 9880 0bbe 4c0e 31be
000001c0: 9e25 85bd 43ca 773d bf05 39bd d47d 963d
000001d0: fd38 f03d 86a7 5e3d 2f93 3abd 8876 d23c
000001e0: fc07 773d 6a5f 1fbe d36b 93bd f155 c7bd
000001f0: 825c 0abe d051 03be 660d ea37 141a c5bb
00000200: 9f7f 593c 31d3 0b3e 2be6 10be eed4 30be
00000210: 6bcd 30bd a2bd f1bb 0605 98bd bec3 27bd
00000220: d0a7 ec3d e544 c23d 7b83 aebd e93a 20bb
00000230: 6613 083e 71a8 233e ed13 a3bd c165 073c
00000240: c0be 7f3c edc3 cc3d 3d06 0e3d e4ef 4dbd
00000250: f4eb 26be 9885 093e 9ad7 f83c bb77 33bc
00000260: bf1a bebd 77fd 263c c152 803d 89aa 013e
00000270: b541 11be f951 ac3d 4066 d7bd cfd7 273e
00000280: 3465 5bbd 8437 d5bd 8260 0cbe d719 2abe
00000290: 1720 213e e631 d4bd 7bda 6a3d 0592 e9bd
000002a0: b82a 233e 863f 8cbc 8da4 193d 090d ff3d
000002b0: 09d6 1bbd 1b4e 2e3d fea2 993d d505 a2bd
000002c0: 5fa7 09bc 93fc a3bd a9e1 62bd 0a03 bfbc
000002d0: cee8 953a 624b 243e 6283 84bd 9466 97bd
000002e0: a751 e7bd 17b8 18be e82b dd3d 8148 7cbd
000002f0: 2a51 143e e4a0 2abe a4de 803c 1ef5 1bbe
00000300: ef39 25be 9173 b53d 9c7c 5ebd e19d b63d
00000310: 5c70 043e a802 04be ba51 13be 303a 243e
00000320: 563f 0cbe 045a acbd 19fb eebd bc7c bcbd
00000330: 81e3 3fbd 903f 163e 731e b5bd 8282 1bbe
00000340: c109 abbd 9342 7d3d 7572 1d3e 5537 27be
00000350: af28 b0bd e85b a33d f224 893d 665c a23c
00000360: a48f 723b 2d3e c53d 6ab6 b03d cb20 b7bd
00000370: 6299 14be 8065 c4bd f794 6a3d 2f3e 28be
00000380: 9404 0e3d 50fe 9cbc e923 06bd f904 173c
00000390: 2d00 d7bc 458b 583d 1398 e5bd 18a4 a03b
000003a0: 5f4f 03be bf4c 93bd a73e cf3d 1636 eb3d
000003b0: 21bd 1ebe 98d9 9f3c 9f34 9abc 4a5c a03d
000003c0: e448 9fbd a82a d9bd d1c9 0a3d 37ea 55bd
000003d0: 945e 30bd 0d30 a2bd f038 5cbd d47a e33d
000003e0: 302e b8bd 47ff e53d 5ffa ccbd 9854 c7bd
000003f0: 4ca4 1a3e fa7c 8e3d c0e9 173e cfa3 fc3d
0.13373016 -0.009211468 -0.02692994 0.11825826 0.008149178 -0.15640198 -0.16866775 -0.16126661
-0.047337968 -0.14474419 -0.031020628 0.14594328 0.05778489 -0.11464204 0.0782377 -0.14483924
-0.13270272 -0.059854317 0.027242668 -4.2146847e-05 0.0086377645 0.14948884 0.10430139 0.1503678
0.02064869 0.027581297 -0.14300343 -0.10571283 0.16170958 -0.023059089 0.07524289 0.079706475
0.056281656 -0.12554106 0.008105134 0.14374521 0.058618385 -0.16165699 0.03990864 0.15988624
-0.0028647212 -0.15238774 0.013544922 0.16227141 -0.0748466 -0.16759922 0.1206922 -0.060982864
0.12953979 0.017089957 0.14156145 0.028203743 -0.15250218 -0.08594969 -0.07561882 0.018441122
0.026136272 -0.17354605 -0.16385709 -0.053743932 -0.11453855 -0.028840035 -0.16967611 -0.16505064
-0.12922929 -0.11586967 0.14788865 -0.032919724 -0.113768294 -0.035758313 -0.04900197 0.16024117
-0.17052783 -0.10699112 -0.17359227 -0.14345059 0.002086564 -0.063690275 0.07526924 0.16251378
0.16909589 -0.025438404 0.031622402 0.07543403 0.03380592 -0.012750939 -0.09458665 -0.09581068
-0.01972875 0.1114896 0.048059944 -0.10656931 -0.070294455 0.066765875 -0.09693516 -0.14559394
-0.112277456 -0.17005783 -0.08840674 -0.089729376 0.050316043 -0.049628187 -0.07383072 0.119671404
0.030393736 -0.011041294 0.022125874 0.0059421156 0.057316426 0.07263508 -0.13623273 -0.1729061
-0.065013155 0.060495626 -0.045171496 0.073482186 0.1172962 0.05435898 -0.04555052 0.025691286
0.06031035 -0.15563741 -0.071983 -0.09733189 -0.13511851 -0.12824178 2.7901213e-05 -0.0060150716
0.013275056 0.13654782 -0.14150302 -0.17268726 -0.04316465 -0.0073773423 -0.07422833 -0.04095816
0.11555445 0.09485797 -0.08521172 -0.0024449176 0.1328865 0.15982224 -0.07962785 0.008264006
0.015609443 0.099983074 0.034673918 -0.050277606 -0.16300946 0.13429868 0.030376244 -0.010953839
-0.09282445 0.010192267 0.06265784 0.1266271 -0.14185221 0.084140725 -0.105175495 0.16390918
-0.05356331 -0.104109794 -0.1370869 -0.1661142 0.15734898 -0.1036108 0.057337265 -0.11404804
0.15934265 -0.017120134 0.037510443 0.12453658 -0.038045917 0.042554956 0.075017914 -0.079112686
-0.008401721 -0.08007159 -0.055390988 -0.023316879 0.0011437179 0.16044381 -0.06470372 -0.07392612
-0.11294871 -0.14913975 0.1079939 -0.061592583 0.14484087 -0.16662937 0.015731163 -0.15230224
-0.16135381 0.08859933 -0.054318056 0.08916832 0.12933487 -0.12891638 -0.14386645 0.16037822
-0.13696036 -0.084156066 -0.11668987 -0.09203479 -0.046847824 0.14672685 -0.08843698 -0.15186504
-0.0835147 0.06183107 0.15375693 -0.16329701 -0.0860151 0.07976514 0.066965 0.01981945
0.0037011886 0.09631 0.08628543 -0.08941802 -0.14511636 -0.09589672 0.05727097 -0.16429971
0.034672335 -0.019164234 -0.03274909 0.009217494 -0.026245201 0.052867193 -0.112106465 0.004902374
-0.12823246 -0.071923725 0.10119372 0.114849254 -0.15501834 0.019512936 -0.01882392 0.07830103
-0.07777575 -0.10603839 0.033883873 -0.052225318 -0.043058947 -0.07919321 -0.053765237 0.11107412
-0.089931846 0.11230331 -0.10008692 -0.09732932 0.15101737 0.06957431 0.14835262 0.123359315

GCNs.3.apply_func.0.bias f4 [32]
00000000: 5a01 ebba 8ca0 e13b 8e06 b2bd 205a 01be
00000010: 2627 2abd 37ee 7fbd 3030 e43d daab da3d
00000020: 2b58 783d acde 8d3d 3b01 1bbe 7c9e 033e
00000030: 1c7a 203d 4395 423d aecd 1cbe c618 b23d
00000040: a66a ec3d 6dc7 1cbe 5045 253d 9f27 213e
00000050: c48b 8d3d 1fc0 013e ddcb 143d 2dec 5abd
00000060: e511 2d3a 409a e3bd e7c1 02bc 7b32 a03d
00000070: 609a 88bd a7ca dd3d 3ff9 26be 5584 e7bd
-0.001792948 0.0068855938 -0.086926565 -0.12632036 -0.04154124 -0.06248304 0.111420035 0.10677309
0.06063096 0.06927237 -0.15137188 0.12853426 0.039178953 0.04750563 -0.15312836 0.086961314
0.11543779 -0.1531045 0.040349305 0.1573777 0.06911424 0.12670945 0.03632723 -0.05344789
0.0006602093 -0.11113405 -0.0079808 0.078221284 -0.0667007 0.108296685 -0.16306017 -0.11304537
