macros/Timing_estimation/models/October_23_n_run_1/model.pth (torch, 575092 bytes, 17 tensors)

layers.0.weight f4 [134, 112]
0.05459916 -0.05753021 0.061598703 0.10387157 0.03530144 0.00669329 0.031828 0.024204556
0.05016415 0.074504904 0.06152943 -0.016076451 0.038524557 -0.011093615 0.034981877 0.08663477
-0.009071069 0.041853625 0.0032681893 0.023127297 -0.0030638897 -0.08343851 -0.01582421 0.15873301
0.024643315 -0.056957785 0.02984846 0.08486744 -0.0071685957 0.035743568 -0.018248528 -0.12191556
0.01585191 -0.001490147 0.026528392 0.07564327 0.025270578 0.082493484 0.030112326 0.050394166
0.052671716 -0.00802935 0.04685188 0.045314744 0.050159782 0.11393235 0.06440515 -0.044404954
0.07658856 -0.113824375 0.11304997 0.08673844 0.10601876 0.02255505 0.09171032 -0.025839036
0.16599737 -0.08318729 0.15378419 -0.035963055 0.15699963 -0.059889194 0.16347036 -0.106787264
0.17205913 -0.07005547 0.14438884 -0.15169796 0.13469294 -0.13950503 0.13998419 -0.09576086
0.18774205 -0.21351875 0.18894285 -0.22432795 0.20215303 -0.18731688 0.18628155 -0.20693499
0.17461918 -0.22368838 0.15393436 -0.22963426 0.15819576 -0.21622366 0.13815616 -0.23051551
0.048197392 -0.2429902 0.052791994 -0.24788679 0.052875876 -0.25987127 0.07160179 -0.2401998
0.093480356 -0.26597995 0.12878653 -0.28387508 0.0973005 -0.28422597 0.1005866 -0.26115116
0.024178782 -0.019927891 0.044355933 -0.054130644 0.048639797 -0.058681473 0.076181605 0.07123822
0.059346095 -0.0767722 0.06361258 -0.034678143 0.032476448 -0.007898179 0.041340668 0.0070298733
0.07355959 -0.031743653 0.0805309 -0.010863736 0.09999278 -0.08470422 0.08740796 -0.0652487
0.03189529 -0.030663064 0.031316716 -0.023503533 0.027658373 -0.03719523 0.0045735133 0.017871596
0.013693092 0.07203927 -0.004458381 -0.048866324 0.0038868566 -0.11120793 -0.0075376355 -0.056149743
-0.0076824785 0.043509413 -0.012259603 -0.10746417 -0.0063975044 -0.06395068 -0.015892249 -0.012846888
0.0071559898 -0.10582615 -0.026460597 0.0715725 -0.015013291 -0.010443265 -0.026119614 0.18468216
-0.01401724 0.052728746 -0.009728404 -0.0997503 -0.038587872 0.013405511 -0.04952278 -0.03065508
-0.018282974 0.03171514 -0.02422367 -0.11191247 -0.039623685 -0.007508285 -0.04096845 0.04124088
-0.01596781 0.042048298 -0.0010810334 0.07625755 -0.024180561 0.08653962 0.00804289 0.051941868
0.04443868 -0.08995453 0.042600267 -0.04540036 0.046171173 -0.06022551 0.02904461 -0.08842539
0.01792839 0.049938396 0.013613361 -0.025307082 0.0317201 -0.08758426 0.041310918 -0.07928825
0.017464405 0.015620004 0.01934646 0.056944173 0.022476315 -0.14692722 -0.00587714 -0.07751315
0.017296521 -0.051570714 0.05767756 -0.09363384 0.049102142 -0.121829376 0.046062578 -0.06586644
0.009541235 -0.14444637 0.031442143 -0.0841333 0.015376066 -0.063503526 0.043051198 -0.10513073
-0.026827361 -0.10151105 -0.025145551 0.009597849 -0.029562635 -0.024095492 -0.03454794 0.04172047
-0.04513498 -0.056745697 -0.049584568 -0.043688804 -0.047108494 -0.075564146 -0.0502788 0.058531888
-0.04588693 0.0740974 -0.050616033 0.025094133 -0.037785444 0.05281119 -0.037412703 -0.025716465
-0.059067123 -0.036479827 -0.059610866 0.009053483 -0.051113725 -0.04852634 -0.046854015 -0.05559701
00000000: 5ea3 5f3d cca4 6bbd ec4e 7c3d 9eba d43d
00000010: 3e98 103d 6353 db3b 145e 023d a248 c63c
00000020: ec78 4d3d 0796 983d 4906 7c3d c3b2 83bc
00000030: edcb 1d3d fec1 35bc 2849 0f3d 926d b13d
00000040: d29e 14bc b56e 2b3d 1e2f 563b 7575 bd3c
00000050: 8acb 48bb cfe1 aabd c6a1 81bc e88a 223e
00000060: c7e0 c93c 914c 69bd c284 f43c fbce ad3d
00000070: 8ae6 eabb d967 123d f07d 95bc ddae f9bd
00000080: dddb 813c 0951 c3ba 1252 d93c dcea 9a3d
00000090: 3e04 cf3c 58f2 a83d 20ae f63c 1d6a 4e3d
000000a0: 4cbe 573d 898d 03bc c2e7 3f3d f49b 393d
000000b0: 5874 4d3d 5d55 e93d d9e6 833d f8e1 35bd
000000c0: 77da 9c3d c11c e9bd be86 e73d eca3 b13d
000000d0: 5d20 d93d 5ec5 b83c 9fd2 bb3d 63ac d3bc
000000e0: 37fb 293e 195e aabd 9a79 1d3e ff4d 13bd
000000f0: 83c4 203e 5f4e 75bd c664 273e 48b3 dabd
00000100: 4530 303e 3e79 8fbd abda 133e b656 1bbe
00000110: f2ec 093e 68da 0ebe 0458 0f3e 451e c4bd
00000120: 743f 403e a9a4 5abe 3c7a 413e 3ab6 65be
00000130: 3401 4f3e ffcf 3fbe 97c0 3e3e c4e6 53be
00000140: 5fcf 323e 910e 65be f8a0 1d3e 3e25 6bbe
00000150: 12fe 213e bc69 5dbe cf78 0d3e 420c 6cbe
00000160: a16a 453d 6cd2 78be 6b3c 583d 09d6 7dbe
00000170: 6094 583d d90d 85be f6a3 923d f0f6 75be
00000180: a172 bf3d 862e 88be 9ee0 033e 1358 91be
00000190: 7c45 c73d 1186 91be 5900 ce3d 9bb5 85be
000001a0: 9512 c63c d13f a3bc 91ae 353d 18b8 5dbd
000001b0: 863a 473d fc5b 70bd 1a05 9c3d 58e5 913d
000001c0: e414 733d be3a 9dbd 5047 823d ab0a 0ebd
000001d0: 0606 053d 5d67 01bc d554 293d da5a e63b
000001e0: 69a6 963d a205 02bd 62ed a43d d0fd 31bc
000001f0: 04c9 cc3d 6879 adbd f202 b33d 1ca1 85bd
00000200: a3a4 023d 1b31 fbbc f545 003d 7b8a c0bc
00000210: d093 e23c 075a 18bd 69dd 953b 7467 923c
00000220: fe58 603c 5389 933d 9c17 92bb 0e28 48bd
00000230: a2ba 7e3b fcc0 e3bd 45fe f6bb 46fd 65bd
00000240: 4dbd fbbb ed36 323d 80dc 48bc 2d16 dcbd
00000250: 28a2 d1bb 93f8 82bd 7630 82bc c17b 52bc
00000260: cb7c ea3b 61bb d8bd e5c3 d8bc 9a94 923d
00000270: 4efa 75bc 3a1a 2bbc cdf8 d5bc 521d 3d3e
00000280: 91a8 65bc 19fa 573d e263 1fbc e349 ccbd
00000290: 510e 1ebd caa2 5b3c 66d8 4abd 5d20 fbbc
000002a0: 2dc6 95bc bce7 013d b870 c6bc 5d32 e5bd
000002b0: 724c 22bd 0f08 f6bb 89ce 27bd 32ec 283d
000002c0: edce 82bc d63a 2c3d 76b1 8dba eb2c 9c3d
000002d0: 5016 c6bc af3b b13d 53c6 033c ffc0 543d
000002e0: 5505 363d 153a b8bd 9e7d 2e3d baf5 39bd
000002f0: fc1d 3d3d 06af 76bd f6ee ed3c 5f18 b5bd
00000300: 8fde 923c 348c 4c3d 930a 5f3c cc50 cfbc
00000310: f0ec 013d 605f b3bd a335 293d e161 a2bd
00000320: 8311 8f3c 0ceb 7f3c 787c 9e3c 4b3e 693d
00000330: 4020 b83c 1774 16be 0695 c0bb 37bf 9ebd
00000340: 6fb1 8d3c d03b 53bd 4e3f 6c3d 19c3 bfbd
00000350: 541f 493d ae81 f9bd 1dac 3c3d fce4 86bd
00000360: d752 1c3c c0e9 13be 7ac9 003d 144e acbd
00000370: e5eb 7b3c 230e 82bd 7456 303d c84e d7bd
00000380: 0ec5 dbbc 06e5 cfbd 0bfe cdbc 4c40 1d3c
00000390: 572d f2bc e963 c5bc 2482 0dbd 15e3 2a3d
000003a0: 75df 38bd 2d6e 68bd 3019 4bbd 08f3 32bd
000003b0: d6f4 40bd 60c1 9abd 25f1 4dbd 22bf 6f3d
000003c0: eff3 3bbd 61c0 973d c252 4fbd 3692 cd3c
000003d0: e9c4 1abd 8c50 583d 103e 19bd 56ab d2bc
000003e0: 5ef0 71bd df6b 15bd 862a 74bd 0f55 143c
000003f0: a05c 51bd 8ec3 46bd ffe9 3fbd b1b9 63bd

layers.0.bias f4 [134]
-0.018044217 -0.023861734 0.007328002 -0.0028111364 -0.002164531 0.0020206233 -0.0027457778 -0.009984782
-0.0028502007 -0.09438156 0.0054415087 -0.042476337 0.0021656142 -0.014758976 -0.0436656 -0.004521919
-0.1087705 0.29237455 0.0011657866 0.00021816306 -0.0077289045 0.001301156 0.006790165 -0.035031885
0.0013799437 -0.009700983 -0.0011762185 0.0013141204 0.0024028828 0.00045706084 0.0077845575 -0.0109590385
-0.008204273 0.0023045936 0.0011690498 -0.0031372318 0.08105885 -0.0013867543 -0.0011287613 -0.01813438
-0.000387382 0.0013045804 -0.0060330126 0.02573862 0.0038626832 0.0051872586 -0.03991623 0.0039267857
-0.036024787 -2.098591e-05 0.007319517 0.0031827507 0.024515027 -0.0018227986 -0.001218662 -0.01746275
-0.07481527 -0.0021016896 -0.0008090084 0.0033436522 0.006903423 -0.005231826 0.03456409 -0.002328516
-0.011125309 0.0008136995 -0.04746103 -0.069738455 0.0010108257 -0.004343663 0.017679963 0.084620416
-5.779313e-05 -0.001432208 -0.0006082912 -0.0029917592 0.010025867 -0.054410014 -0.06393605 0.0008603528
-0.032239098 -0.00052869524 -0.011201892 -0.025651213 -0.044309314 0.00019239305 -0.000935685 -0.008098449
-0.026238473 -6.4977066e-05 -0.035254408 -0.0011032585 -0.04646118 -0.0075135427 -0.0018284678 -0.00467439
-0.01571922 -0.0033655637 0.003292272 -0.002108705 -0.045932587 0.012255955 -0.00036341534 -0.006840988
-0.00058912707 0.05984826 0.0022905485 -2.674e-42 0.029703978 0.0020914774 -0.03632538 0.0011883922
0.0023372278 -0.0012053878 -0.0029928377 -0.003518286 -0.0009374646 -0.0047798846 0.0043022297 0.1252203
-0.0036273731 -0.096168496 0.020053534 -0.0021974565 -0.002581291 2.8513605e-05 -0.0009084677 -0.009721182
-0.0150361415 0.03906302 -0.064372644 -0.003863114 -0.0130511345 0.13035944
00000000: 77d1 93bc af79 c3bc bc1f f03b 0b3b 38bb
00000010: ceda 0dbb 6f6c 043b 82f2 33bb 3697 23bc
00000020: 6fca 3abb 1f4b c1bd af4e b23b abfb 2dbd
00000030: faec 0d3b a2cf 71bc b3da 32bd 9b2c 94bb
00000040: 11c3 debd 1eb2 953e 4fcd 983a b3c2 6439
00000050: c042 fdbb 8d8b aa3a 0880 de3b 987d 0fbd
00000060: 3adf b43a dff0 1ebc 582b 9aba 903e ac3a
00000070: af79 1d3b aba1 ef39 9a15 ff3b 8a8d 33bc
00000080: 376b 06bc aa08 173b cd3a 993a 049a 4dbb
00000090: 2f02 a63d c1c3 b5ba f2f2 93ba 8d8e 94bc
000000a0: 8819 cbb9 74fe aa3a 94b0 c5bb ccd9 d23c
000000b0: 1225 7d3b e1f9 a93b 337f 23bd 44ac 803b
000000c0: ba8e 13bd e60a b0b7 8fd8 ef3b b295 503b
000000d0: bdd3 c83c f9ea eeba 83bb 9fba 0b0e 8fbc
000000e0: c038 99bd 80bc 09bb a213 54ba 2d21 5b3b
000000f0: 1c36 e23b bd6f abbb 1393 0d3d 049a 18bb
00000100: ee46 36bc 734e 553a 7f66 42bd 09d3 8ebd
00000110: af7d 843a 4955 8ebb 92d5 903c 784d ad3d
00000120: e766 72b8 edb8 bbba bb75 1fba 6411 44bb
00000130: 8943 243c 09dd 5ebd e7f0 82bd 4d89 613a
00000140: 250d 04bd 2398 0aba 2488 37bc 7e22 d2bc
00000150: af7d 35bd 1ebd 4939 c248 75ba 5baf 04bc
00000160: 11f2 d6bc 4c44 88b8 ed66 10bd 369b 90ba
00000170: 144e 3ebd 2a34 f6bb 33a9 efba a02b 99bb
00000180: 98c5 80bc ca90 5cbb 29c3 573b 3332 0abb
00000190: cf23 3cbd 33cd 483c c888 beb9 5e2a e0bb
000001a0: a66f 1aba 7323 753d 071d 163b 7407 0080
000001b0: c255 f33c 2b11 093b ecc9 14bd d3c3 9b3a
000001c0: 2d2c 193b 1afe 9dba 7c23 44bb 0b93 66bb
000001d0: 2fc0 75ba 94a0 9cbb b8f9 8c3b c039 003e
000001e0: 39b9 6dbb fdf3 c4bd 4f47 a43c 3403 10bb
000001f0: e02a 29bb 8030 ef37 3c26 6eba 9845 1fbc
00000200: 265a 76bc 8c00 203d ced5 83bd 4c2c 7dbb
00000210: 6dd4 55bc f27c 053e

layers.3.weight f4 [134, 134]
0.032891676 0.045002192 -0.12679844 0.027402855 0.028022733 0.07096798 -0.011143928 0.17637134
-0.0037083577 0.10845713 -0.02122127 0.09908712 -0.00543737 0.06782024 -0.021327147 -0.00063957635
0.21036853 -0.16580996 2.7622244e-05 0.06974859 -0.003091562 -0.018538471 -0.00374985 0.016063083
0.03862991 0.046817314 -0.0016171883 -0.00050163094 -0.015064837 -0.014276859 0.011766902 0.03175471
0.005139715 0.019902306 0.0020768042 0.012793181 -0.11448655 0.028109234 0.017072076 0.037547193
0.0003592567 0.010590339 -0.00081040704 -0.25054932 -0.042011168 -0.2875889 0.080407724 -0.021056363
0.011535966 0.0075444523 0.050609063 -0.09627568 -0.015649531 0.07515809 -0.005520211 -0.022993004
0.1586037 0.033530194 0.015176396 0.011641702 -0.10811526 0.0052235997 -0.08324399 -0.00776728
0.026934233 -0.0058983774 0.16107774 0.029134434 -0.0017959186 0.052730396 0.012503613 -0.10444985
0.010915469 -0.02500381 -0.031658147 0.015282445 -0.033004582 0.07627004 0.07547538 0.020743527
0.030935345 0.0057544145 0.098986536 0.017550817 0.04107596 0.023950648 -0.16545162 0.06992786
-0.091458976 -0.022474991 0.06027681 0.105762735 0.018540965 0.02346324 0.06533205 0.015494423
0.008570096 -0.0034313328 0.004260889 0.010811276 0.042523284 0.02495014 0.1033201 0.06301752
0.013193947 -0.057170488 -0.052956495 -1.12972575e-05 -0.051747583 0.006604422 0.11030981 -0.034380578
0.00044600022 0.019423421 -0.030443208 -0.025118707 0.06811421 0.015162328 0.08035488 -0.12483835
0.06600239 0.1189495 -0.5445221 -0.0022802479 0.036340076 0.045622665 0.0058399746 0.075048536
0.023434171 -0.5662451 0.08220026 0.0045880587 0.05563306 -0.10136299 -0.11527457 0.008450381
-0.06209038 -0.021331346 -0.011735641 0.028008075 0.009250058 0.033893425 -0.0023498286 0.014555208
0.014405844 -0.2197205 -0.007951762 -0.015700545 0.039902657 -0.113357134 -0.003335447 0.13449636
-0.030217491 0.037636485 0.0035701022 0.020170966 -0.0020923845 -0.07460636 0.0014818506 -0.009333836
-0.0009637152 0.06747676 -0.0067971586 -0.00565211 -0.07859479 0.0031219288 -0.019438291 -0.017968997
0.002883432 0.026943138 0.023005974 0.09442105 0.052734353 -0.17927106 -0.0054214844 -0.0022098988
0.017307788 -0.2899868 0.05377478 -0.025468534 0.012463225 6.868762e-05 0.0025543317 0.005375023
0.07271253 -0.09238755 -0.01813801 -0.00051428523 0.09461149 -0.024382193 -0.22058824 0.0963219
0.0071190046 0.016943453 0.087124385 0.031896524 0.03432969 -0.006980044 0.03805527 0.018262738
0.00884849 -0.060130913 0.01884507 0.043955132 0.09601515 0.00072467414 0.010740244 0.011357174
-0.00061389536 0.02657113 0.06001887 -0.022917902 -0.024941873 0.040210642 -0.078808874 -0.004725712
0.10998263 -0.03256659 0.047114804 0.01436169 -0.0058695725 -0.018708672 -0.0013000203 -0.018672487
0.028821463 -0.0178348 -0.26641423 -0.025792623 0.17249267 -0.063999385 -0.012741175 0.1401509
0.03961047 -0.0065919966 0.018384863 0.01323799 -0.0924018 0.07207236 0.07029657 0.011850831
-0.054634556 -0.0005395554 0.046395127 -0.12320046 -0.0034388183 0.023864454 -0.02081333 0.007752475
0.11233909 0.013107495 0.10368483 0.009553676 0.009666731 0.00518274 0.03273627 -0.055921443
00000000: 6cb9 063d 3854 383d 73d7 01be f47b e03c
00000010: ee8f e53c a957 913d 0695 36bc b09a 343e
00000020: eb07 73bb c61e de3d 3bd8 adbc 30ee ca3d
00000030: f72b b2bb 57e5 8a3d 45b6 aebc 3ea9 27ba
00000040: d96a 573e 16ca 29be 51b6 e737 59d8 8e3d
00000050: ce9b 4abb fedd 97bc 0bc0 75bb ba96 833c
00000060: 663a 1e3d 83c3 3f3d d6f7 d3ba e27f 03ba
00000070: 82d2 76bc 7de9 69bc f7c9 403c 3a11 023d
00000080: 0e6b a83b 290a a33c fe1a 083b 7e9a 513c
00000090: ed77 eabd 5645 e63c bdda 8b3c 16cb 193d
000000a0: 9e5a bc39 1a83 2d3c 7f71 54ba 0048 80be
000000b0: e713 2cbd da3e 93be ceac a43d 657e acbc
000000c0: 5901 3d3c 7437 f73b 734b 4f3d 2f2c c5bd
000000d0: 7233 80bc 7cec 993d e3e2 b4bb d35b bcbc
000000e0: 0269 223e f556 093d 6ba6 783c d6bc 3e3c
000000f0: 896b ddbd bb2a ab3b d37b aabd ab84 febb
00000100: 2ea5 dc3c 2d47 c1bb 90f1 243e 56ab ee3c
00000110: 0765 ebba d4fb 573d f4db 4c3c cee9 d5bd
00000120: ccd6 323c cad4 ccbc f9ab 01bd 3863 7a3c
00000130: d02f 07bd 7733 9c3d d692 9a3d 54ee a93c
00000140: 1f6c fd3c 878f bc3b 74b9 ca3d bbc6 8f3c
00000150: 443f 283d 2634 c43c 266c 29be 5636 8f3d
00000160: d84e bbbd 791d b8bc d1e4 763d 229a d83d
00000170: 39e3 973c fb35 c03c cfcc 853d 52dc 7d3c
00000180: 9769 0c3c 36e0 60bb ed9e 8b3b c721 313c
00000190: e52c 2e3d 3c64 cc3c 7d99 d33d 540f 813d
000001a0: 6d2b 583c 9a2b 6abd e9e8 58bd 5a89 3db7
000001b0: 46f5 53bd e869 d83b 1cea e13d a6d2 0cbd
000001c0: 23d5 e939 de1d 9f3c 0964 f9bc bfc5 cdbc
000001d0: 777f 8b3d 6a6b 783c 1991 a43d 40ab ffbd
000001e0: 432c 873d cc9b f33d cd65 0bbf 3670 15bb
000001f0: 55d9 143d d5de 3a3d 425d bf3b 0cb3 993d
00000200: 05f9 bf3c 70f5 10bf 9c58 a83d 6d57 963b
00000210: 7edf 633d 6697 cfbd 1315 ecbd 7873 0a3c
00000220: 7b52 7ebd 13bf aebc d946 40bc 3171 e53c
00000230: 8e8d 173c d5d3 0a3d 95ff 19bb f878 6e3c
00000240: 7d06 6c3c 69fe 60be 1b48 02bc 6e9e 80bc
00000250: f870 233d c927 e8bd 8497 5abb 6ab9 093e
00000260: ac8a f7bc b728 1a3d 60f8 693b 953d a53c
00000270: 6320 09bb 38cb 98bd a83a c23a f2ec 18bc
00000280: d5a1 7cba 4131 8a3d b3ba debb 5635 b9bb
00000290: 4ef6 a0bd 4699 4c3b 0d3d 9fbc b833 93bc
000002a0: f6f7 3c3b dbb7 dc3c 0677 bc3c d35f c13d
000002b0: faff 573d d592 37be b5a6 b1bb f3d3 10bb
000002c0: 10c9 8d3c 2679 94be f242 5c3d 63a3 d0bc
000002d0: 8e32 4c3c 630c 9038 9366 273b f620 b03b
000002e0: 4fea 943d af35 bdbd 2a96 94bc 19d1 06ba
000002f0: abc3 c13d 2abd c7bc e2e1 61be 6b44 c53d
00000300: 8a46 e93b ffcc 8a3c 456e b23d eea5 023d
00000310: 4a9d 0c3d dab8 e4bb d8df 1b3d bd9b 953c
00000320: 42f9 103c d54b 76bd fa60 9a3c 4c0a 343d
00000330: 97a3 c43d 0ff8 3d3a d9f7 2f3c 7113 3a3c
00000340: d2ed 20ba b3ab d93c 59d6 753d 53be bbbc
00000350: e652 ccbc eab3 243d 8c66 a1bd 25da 9abb
00000360: 933e e13d 8b64 05bd 74fb 403d 4b4d 6b3c
00000370: 8b55 c0bb ee42 99bc 7165 aaba 0bf7 98bc
00000380: fd1a ec3c 491a 92bc 7267 88be 0d4b d3bc
00000390: eba1 303e 1c12 83bd 5cc0 50bc b883 0f3e
000003a0: 973e 223d ad01 d8bb da9b 963c 28e4 583c
000003b0: 283d bdbd ac9a 933d a6f7 8f3d fd29 423c
000003c0: 7cc8 5fbd f370 0dba d108 3e3d 8650 fcbd
000003d0: cc5d 61bb 637f c33c b780 aabc 7908 fe3b
000003e0: 0912 e63d d2c0 563c b658 d43d 0587 1c3c
000003f0: 3561 1e3c f9d3 a93b 7816 063d e20d 65bd

layers.3.bias f4 [134]
-0.030747712 -0.00078798557 -0.032782886 1.103e-42 0.00012323576 -0.081933625 1.523e-42 4.29e-43
0.0018504116 -0.03166365 -0.031976026 6.8e-43 5.416577e-05 0.019847983 -0.01830848 0.06568231
-5.051764e-19 -0.028808022 -2.377e-42 3.6492868e-18 0.00012936238 -0.011646856 0.010827155 -8.4663067e-20
-0.022411723 0.008674035 -0.010724691 7.06e-43 -4.96e-43 0.01055028 0.0013371684 -0.00034230293
0.00012202464 -0.0014010146 1.899e-42 0.0025922006 0.00078752975 -0.00044913834 4.39e-43 0.0005392779
-0.009606139 -0.0062996815 -0.0010683412 2.946819e-05 -1.223e-42 -0.015535643 -3.89187e-05 -0.00013190757
-0.016255176 -0.0036760152 1.103e-42 -1.052e-42 -2.618e-42 0.005576439 1.253e-42 0.0021400074
-1.583e-42 -0.069239624 -0.026777327 -0.06117078 -0.000115996205 -0.037532255 0.00093088154 -3.4e-44
-0.047185406 0.0019169616 -1.57e-42 0.0015747955 -0.0014522049 -9.8e-43 -0.008909227 -0.06229829
-0.0014917585 9.11e-43 -2.456e-42 -0.00089302036 0.0032340232 -0.0031214682 -0.0051966216 -9.309996e-10
0.0045937733 -0.009759033 1.282e-42 0.007934877 -0.03553112 -0.017713796 -3.35e-43 -0.0037800134
1.153e-42 -0.015475179 0.0024306162 -0.020842578 0.00013095414 -0.0006819679 -0.052139726 -0.0011748249
1.104e-42 -0.05195848 -0.00010643914 -5.756463e-05 -2.9805886e-10 1.171e-42 -0.005405299 -4.9295926e-05
-0.0005156666 -0.0010576578 -2.004e-42 0.00087614206 -1.23e-43 -0.011208426 0.007932147 -1.9397128e-05
-8.1e-43 0.0034682017 -0.06627605 -1.442e-42 0.0011579575 1.8778989e-08 -1.802e-42 2.35e-43
0.004589249 4.6011894e-05 1.471e-42 2.213e-42 -3.46e-43 0.0034069072 -0.022764105 -0.002979997
-0.0017308366 -0.00085663004 0.09864531 0.0058012046 9e-44 -2.487e-42
00000000: a0e2 fbbc d190 4eba 5947 06bd 1303 0000
00000010: d938 0139 d1cc a7bd 3f04 0000 3201 0000
00000020: 8389 f23a beb1 01bd 4bf9 02bd e501 0000
00000030: 0d30 6338 3d98 a23c aafb 95bc 7284 863d
00000040: 0d1a 15a1 cdfe ebbc a006 0080 8aa2 8622
00000050: 73a5 0739 74d2 3ebc 6164 313c afe7 c79f
00000060: ca98 b7bc 8a1d 0e3c 9db6 2fbc f801 0000
00000070: 6201 0080 15db 2c3c ed43 af3a 1f77 b3b9
00000080: 7be7 ff38 40a2 b7ba 4b05 0000 e9e1 293b
00000090: 3a72 4e3a 547a ebb9 3901 0000 545e 0d3a
000000a0: 1163 1dbc 8f6d cebb 9507 8cba 7532 f737
000000b0: 6903 0080 3689 7ebc a33c 23b8 ab50 0ab9
000000c0: 9329 85bc 4de9 70bb 1303 0000 ef02 0080
000000d0: 4c07 0080 90ba b63b 7e03 0000 5e3f 0c3b
000000e0: 6a04 0080 81cd 8dbd 205c dbbc 368e 7abd
000000f0: fd42 f3b8 6cbb 19bd 6706 743a 1800 0080
00000100: 7c45 41bd 8f42 fb3a 6004 0080 5e69 ce3a
00000110: e957 beba bb02 0080 02f8 11bc 7e2c 7fbd
00000120: 1c87 c3ba 8a02 0000 d906 0080 9519 6aba
00000130: e8f1 533b 8c91 4cbb 6c48 aabb 46e9 7fb0
00000140: 5d87 963b 5ae4 1fbc 9303 0000 4901 023c
00000150: 1489 11bd 861c 91bc ef00 0080 1aba 77bb
00000160: 3703 0000 9b8b 7dbc f94a 1f3b 0ebe aabc
00000170: bc50 0939 17c6 32ba 7790 55bd 95fc 99ba
00000180: 1403 0000 6ad2 54bd 1438 dfb8 8d71 71b8
00000190: 0edc a3af 4403 0000 ef1e b1bb 19c3 4eb8
000001a0: cd2d 07ba 1ba1 8aba 9605 0080 e6ac 653a
000001b0: 5800 0080 8ca3 37bc d6f5 013c 04b7 a2b7
000001c0: 4202 0080 c54a 633b bdbb 87bd 0504 0080
000001d0: 9bc6 973a 6f4f a132 0605 0080 a800 0000
000001e0: 6961 963b e5fc 4038 1a04 0000 2b06 0000
000001f0: f700 0080 6b46 5f3b ca7b babc 0e4c 43bb
00000200: 3ddd e2ba 788f 60ba 8d06 ca3d 0818 be3b
00000210: 4000 0000 ef06 0080

layers.6.weight f4 [134, 134]
2.534e-42 -2.215038e-05 8.2307244e-17 1.676e-42 -6.53e-43 7.38e-43 -1.187e-42 1.867e-42
-2.948819e-05 -4.9404294e-05 1.761e-42 1.045e-42 7.327731e-36 -0.0026441168 1.277e-42 -1.478e-42
1.174e-42 1.2645612e-16 0.0001815373 9.68e-43 1.055e-42 9.88e-43 -2.25e-42 -1.264e-42
-1.2813321e-33 -3.79047e-05 -0.0016333521 -1.436e-42 1.35e-42 -0.0014090769 -1.431e-42 6.26e-43
-0.0024274741 -1.89e-42 -1.527e-42 -0.0011205225 -1.757e-42 -0.0029306163 1.3e-43 -1.491e-42
-1.01761756e-07 -5.476123e-12 -5.87e-43 1.299e-42 4.8e-43 -0.0001584752 -7.24e-43 -1.13129765e-07
-0.0030152982 -0.0025512225 1.673e-42 1.398e-42 -7.03e-43 -2.06e-42 -7.61e-43 1.477e-42
2.152e-42 2.371e-42 5.757355e-39 2.514e-42 1.85e-42 3.004325e-17 -7.0955884e-12 -1.827e-42
-2.936582e-10 -8.7249e-06 -7.19e-43 -1.034e-42 -0.0018214087 -2.417e-42 1.82593e-39 3.98e-43
-1.864e-42 -1.382e-42 1.12e-43 -2.004e-42 -1.27e-42 -0.00023002998 -0.0021345145 -1.844e-42
-1.195e-42 -2.255e-42 -2.293e-42 -0.0034496128 -0.002920743 4.2768085e-23 -1.228e-42 -6.463578e-06
1.03e-42 1.2692266e-05 -0.00014707833 -0.001294341 -1.49e-42 1.802e-42 1.785853e-39 -1.121e-42
1.3e-44 4.6381813e-29 -3.9656043e-09 2.328e-42 -1.965e-42 -8.72e-43 -0.0032351813 2.564e-42
-7.33e-43 0.0010094806 2.559e-42 -5.4076165e-05 -1.76e-42 -8.887466e-05 -0.0015765516 -9.91e-43
-1.682e-42 -2.1827881e-07 1.1963297e-36 -9.63e-43 -1.036e-42 -7.99e-43 2.667e-42 -1.164e-42
-7.424291e-05 7.663181e-09 -1.98e-42 -9.26e-43 -2.2e-42 -2.239e-42 1.202e-42 0.00013924057
0.0044109784 2.166e-42 -2.232e-42 -0.00017169118 -7.45e-43 -2.594e-42 0.0001470387 -0.004085482
-0.0062198495 1.923e-42 0.0005762314 0.004343856 -1.125e-42 0.00018154041 0.0028444869 -0.0066536996
-0.0018746187 0.00018153724 -0.008104269 0.0003258103 0.00990655 -0.002750719 -1.431e-42 -0.003859477
-1.91e-42 8.02e-43 3.892729e-10 8.8468696e-05 0.017404838 -9.37e-43 0.0037321537 -0.0054935613
-0.008578615 -1.24e-42 -2.676e-42 -0.0011599426 0.00017992074 0.001405043 0.0053183804 -4.4130982e-05
-1.54e-42 0.011817559 0.00864359 -0.0046756295 7.74e-43 0.009584596 0.007381751 0.0038769073
0.008203354 0.006993191 2.553e-42 -0.0075873053 -2.3391191e-27 0.0038803378 -0.0063109295 0.0058239154
0.00018154037 2.556e-42 -4.7e-43 0.0040257373 -2.668e-42 0.0035822904 -8.8e-43 0.0007228654
-0.0042133746 0.0005267476 -2.515e-42 0.0035790654 0.011193987 2.69e-42 -0.007548827 0.011327464
2.49e-42 0.0039804643 0.003618337 2.6e-43 -0.004633089 0.0011146956 0.0033214751 1.637e-42
1.205e-42 -1.799e-42 0.0150444405 0.006723658 0.005526527 2.8814454e-06 -0.002955915 -0.00040765968
-9.75e-43 -0.004807867 -0.008143023 -0.006064892 -1.407e-42 0.0035472834 -1.42e-42 -0.008894916
0.007001104 0.005685908 -0.006764705 0.00096085493 0.007508401 0.002495475 -1.449e-42 0.0009491433
0.0026112706 0.0038723794 2.412e-42 9.18e-43 -0.007130861 -1.623563e-39 0.0020625396 -6.8293576e-07
-1.967e-42 0.011467588 2.295e-42 -0.0048018275 -0.0005387255 -2.0848545e-07 2.193e-42 -2.6004114e-08
-0.003952626 2.405e-42 -0.0032029632 7.659193e-08 -2.435e-42 -1.694e-42 -0.0032430706 -0.004183705
00000000: 1007 0000 94cf b9b7 9fc9 bd24 ac04 0000
00000010: d201 0080 0f02 0000 4f03 0080 3405 0000
00000020: 685d f7b7 7537 4fb8 e904 0000 ea02 0000
00000030: f6d7 1b05 eb48 2dbb 8f03 0000 1f04 0080
00000040: 4603 0000 42cb 1125 0c5b 3e39 b302 0000
00000050: f102 0000 c102 0000 4606 0080 8603 0080
00000060: d7e5 d488 ddfb 1eb8 3416 d6ba 0104 0080
00000070: c303 0000 c6b0 b8ba fd03 0080 bf01 0000
00000080: 4216 1fbb 4505 0080 4204 0080 7fde 92ba
00000090: e604 0080 950f 40bb 5d00 0000 2804 0080
000000a0: 1e88 dab3 88ac c0ac a301 0080 9f03 0000
000000b0: 5701 0000 5d2c 26b9 0502 0080 bff1 f2b3
000000c0: 4f9c 45bb 6932 27bb aa04 0000 e603 0000
000000d0: f601 0080 be05 0080 1f02 0080 1e04 0000
000000e0: 0006 0000 9c06 0000 2ab1 3e00 0207 0000
000000f0: 2805 0000 cf8c 0a24 61a7 f9ac 1805 0080
00000100: b870 a1af 2961 12b7 0102 0080 e202 0080
00000110: 56bc eeba bd06 0080 f3e1 1300 1c01 0000
00000120: 3205 0080 da03 0080 5000 0000 9605 0080
00000130: 8a03 0080 3434 71b9 36e3 0bbb 2405 0080
00000140: 5503 0080 4906 0080 6406 0080 e612 62bb
00000150: f069 3fbb 53d0 4e1a 6c03 0080 b6e1 d8b6
00000160: df02 0000 def0 5437 0a39 1ab9 e1a6 a9ba
00000170: 2704 0080 0605 0000 3b72 1300 2003 0080
00000180: 0900 0000 092f 6b10 d341 88b1 7d06 0000
00000190: 7a05 0080 6e02 0080 5605 54bb 2607 0000
000001a0: 0b02 0080 8c50 843a 2207 0000 d7cf 62b8
000001b0: e804 0080 3862 bab8 4ba4 ceba c302 0080
000001c0: b004 0080 0660 6ab4 828b cb03 af02 0080
000001d0: e302 0080 3a02 0080 6f07 0000 3f03 0080
000001e0: dcb2 9bb8 07a7 0332 8505 0080 9502 0080
000001f0: 2206 0080 3e06 0080 5a03 0000 1b01 1239
00000200: f889 903b 0a06 0000 3906 0080 0008 34b9
00000210: 1402 0080 3b07 0080 672e 1a39 82df 85bb
00000220: e1cf cbbb 5c05 0000 3c0e 173a e856 8e3b
00000230: 2303 0080 e25b 3e39 926a 3a3b 4707 dabb
00000240: c4b5 f5ba 085b 3e39 c5c7 04bc 85d1 aa39
00000250: 154f 223c 6845 34bb fd03 0080 47ef 7cbb
00000260: 5305 0080 3c02 0000 4a01 d62f 4588 b938
00000270: 9794 8e3c 9d02 0080 2697 743b 5503 b4bb
00000280: 528d 0cbc 7503 0080 7607 0080 3709 98ba
00000290: 1ba9 3c39 6b29 b83a cf45 ae3b 4819 39b8
000002a0: 4b04 0080 6f9e 413c d89d 0d3c 0636 99bb
000002b0: 2802 0000 b608 1d3c 9ee2 f13b b613 7e3b
000002c0: 5c67 063c 2327 e53b 1e07 0000 ee9e f8bb
000002d0: f952 3993 444d 7e3b eacb cebb 8bd6 be3b
000002e0: df5b 3e39 2007 0000 4f01 0080 55ea 833b
000002f0: 7007 0080 dcc4 6a3b 7402 0080 ad7e 3d3a
00000300: 5910 8abb 6f15 0a3a 0307 0080 c18e 6a3b
00000310: fc66 373c 8007 0000 275c f7bb d496 393c
00000320: f106 0000 8e6e 823b 9f21 6d3b ba00 0000
00000330: 2bd1 97bb fa1a 923a 1bad 593b 9004 0000
00000340: 5c03 0000 0405 0080 f57c 763c 2252 dc3b
00000350: de17 b53b db5e 4136 06b8 41bb 28bb d5b9
00000360: b802 0080 508b 9dbb 506a 05bc 00bc c6bb
00000370: ec03 0080 8a79 683b f503 0080 fbbb 11bc
00000380: 8469 e53b da50 ba3b 75aa ddbb e2e1 7b3a
00000390: 0809 f63b 208b 233b 0a04 0080 eecf 783a
000003a0: da21 2b3b bfc7 7d3b b906 0000 8f02 0000
000003b0: ffa9 e9bb d5ad 1180 ac2b 073b fd52 37b5
000003c0: 7c05 0080 8de2 3b3c 6606 0000 a658 9dbb
000003d0: 4239 0dba 0bdc 5fb4 1d06 0000 a75f dfb2
000003e0: 0885 81bb b406 0000 cee8 51bb dc7a a433
000003f0: ca06 0080 b904 0080 b289 54bb 7617 89bb

layers.6.bias f4 [134]
-2.014e-42 -0.0009226574 -8.73e-43 -6.98e-43 -2.683e-42 -0.0020945354 -0.0040832944 -1.767e-42
-0.0035772538 -1.114e-42 -0.0011364301 -2.61e-42 0.003915846 0.005884375 -0.015324308 -2.332e-42
0.0004361033 0.0015627055 -7.6e-43 -1.274e-42 -0.00012445386 -0.011344874 -8.708903e-06 -7.1852355e-08
-5.849805e-06 -1.04e-42 -0.022689365 0.008552764 -1.3439639e-23 -1.417e-42 -2.396e-42 -0.00014018972
0.0001955239 -0.0011257965 -8.629965e-35 -3.3802403e-06 -9.1e-43 -0.008562086 5.1e-43 3.2e-44
-2.679e-42 -0.0004501842 0.00037529532 0.0027693647 -2.099e-42 7.12e-43 -1.506e-42 -0.047840144
-7.8e-43 -0.0005985258 -1.986e-42 -1.155341e-09 -0.0073920963 -0.05009719 -2.416e-42 -2.304e-42
-0.0202535 -1.243e-42 -1.05e-42 -7.2041165e-11 -1.844e-42 2.008e-42 -1.879e-42 -9.313688e-09
-0.011910736 0.00036155953 3.81e-43 5.35e-43 -0.007426417 -2.4106663e-09 -4.803071e-07 1.214e-42
0.008852169 -0.0023125624 -5.58e-43 -1.96e-43 -1.749e-42 -0.0005956199 -1.722e-42 -0.00013668621
0.00054139236 0.0017076092 -1.46e-42 -2.61e-42 -5.59e-43 -0.00018472275 -0.02849684 -0.0317855
-0.0014277356 -3.42e-43 -9.23e-43 -1.541e-42 -1.84e-42 -0.05004507 0.0073827677 0.002142956
-5.51e-43 8.59567e-07 -0.0014820402 -3.24e-43 6.35e-43 2.489e-42 -0.020267576 0.00036786005
-5.8112187e-07 -4.23e-43 -3.11e-43 -0.035276797 1.7118811e-13 1.536e-42 0.0017714954 -4.85e-43
-2.626e-42 -0.016722508 -4.74671e-15 -0.03845421 -2.579835e-07 -0.004825191 -0.03959677 -0.00085443
-0.0154583035 0.023329506 3.14e-43 -2.567e-42 -1.823e-42 -2.55e-43 -0.01205202 -4.4511114e-07
-1.829e-42 -0.0039357455 -0.031400554 -2.4128847e-17 0.0008087937 0.0037308238
00000000: 9d05 0080 7dde 71ba 6f02 0080 f201 0080
00000010: 7b07 0080 7944 09bb 28cd 85bb ed04 0080
00000020: 5c70 6abb 1b03 0080 44f4 94ba 4707 0080
00000030: 7f50 803b b7d1 c03b ce12 7bbc 8006 0080
00000040: cba4 e439 b2d3 cc3a 1e02 0080 8d03 0080
00000050: d47f 02b9 dadf 39bc 741c 12b7 404d 9ab3
00000060: 7149 c4b6 e602 0080 0cdf b9bc e420 0c3c
00000070: effa 8199 f303 0080 ae06 0080 e4ff 12b9
00000080: 8c05 4d39 768f 93ba 806c e586 16d8 62b6
00000090: 8902 0080 fe47 0cbc 6c01 0000 1700 0000
000000a0: 7807 0080 b306 ecb9 49c3 c439 3b7e 353b
000000b0: da05 0080 fc01 0000 3304 0080 07f4 43bd
000000c0: 2d02 0080 63e6 1cba 8905 0080 f3c9 9eb0
000000d0: 6639 f2bb b632 4dbd bc06 0080 6c06 0080
000000e0: abea a5bc 7703 0080 ed02 0080 926b 9eae
000000f0: 2405 0080 9905 0000 3d05 0080 0802 20b2
00000100: 3f25 43bc b38f bd39 1001 0000 7e01 0000
00000110: 4d59 f3bb e4a8 25b1 74ee 00b5 6203 0000
00000120: b008 113c 5c8e 17bb 8e01 0080 8c00 0080
00000130: e004 0080 6023 1cba cd04 0080 6d53 0fb9
00000140: 3aec 0d3a dbd1 df3a 1204 0080 4707 0080
00000150: 8f01 0080 23b2 41b9 3472 e9bc 8331 02bd
00000160: db22 bbba f400 0080 9302 0080 4c04 0080
00000170: 2105 0080 0ffc 4cbd 25eb f13b d670 0c3b
00000180: 8901 0080 ffbc 6635 0441 c2ba e700 0080
00000190: c501 0000 f006 0000 3008 a6bc 57dd c039
000001a0: 64fe 1bb5 2e01 0080 de00 0080 677e 10bd
000001b0: 9dbd 402a 4804 0000 8631 e83a 5a01 0080
000001c0: 5207 0080 a4fd 88bc ac04 aba7 2982 1dbd
000001d0: fb80 8ab4 a31c 9ebb 3930 22bd d4fb 5fba
000001e0: d344 7dbc 851d bf3c e000 0000 2807 0080
000001f0: 1505 0080 b600 0080 d675 45bc 9cf7 eeb4
00000200: 1905 0080 6df7 80bb de9d 00bd a18c dea3
00000210: 3a05 543a d680 743b

layers.9.weight f4 [134, 134]
-1.958e-42 -3.915156e-05 -2.438e-42 -2.24e-42 7.1472766e-07 0.0025999066 0.014778346 1.937e-42
-0.0011239044 -2.511e-42 0.007332301 -0.00020534912 -0.00036766508 -0.00545079 -0.009557228 1.791e-42
0.00047255962 0.0006196027 1.972e-42 -1.233e-42 0.0029559084 0.0049304543 -2.4525063e-05 -1.794e-42
5.6622193e-06 1.665e-42 -0.01984049 0.0041480917 -0.0028063105 2.497e-42 1.652e-42 -0.009132283
-0.002950705 -1.637e-42 1.684e-42 1.1548645e-13 1.184e-42 -0.005932997 1.417e-42 2.162e-42
-1.853e-42 -0.024815805 -0.008748608 0.0020918404 0.00018153958 -8.35e-43 -8.76e-43 -0.002398858
9.6e-43 0.00082960055 -9.65e-43 2.3283267e-06 0.0094925715 -0.005723464 -1.356e-42 -1.177e-42
0.0032635892 2.5308905e-28 -1.7e-42 0.010231876 -1.742e-42 -1.202e-42 -1.696e-42 1.917e-42
0.0068121734 -0.02253863 -1.906e-42 -1.037e-42 -1.432e-42 3.34e-43 -0.00018869182 -1.802e-42
0.00552413 -0.0012553195 -2.172e-42 -1.784e-42 6.81e-43 -0.00024137806 -6.443173e-09 0.004037582
-0.012311718 0.008100271 -1.98e-42 -1.965e-42 2.012e-42 -0.0058574537 -0.0040066983 -0.0027072171
6.371669e-05 -2.014e-42 -2.343476e-13 1.809e-42 7.26e-43 -0.005864989 0.0015198119 -0.004259993
-1.131e-42 -1.1584237e-11 0.0015552985 1.331e-42 -1.914e-42 1.955e-42 -0.0063447705 0.0070451736
-0.00693171 -2.03e-42 1.5e-44 -0.003732896 -0.013405493 1.052e-42 -0.0019189378 1.261e-42
-2.112e-42 -0.019622222 0.00031964306 -0.0015362784 -1.37321625e-14 -0.0006693693 -0.005289255 0.0025921066
0.01131094 0.005537598 2.16e-42 -1.56e-42 0.011079258 1.1236875e-12 0.001242901 -5.1e-43
-1.28e-42 -6.25e-43 -0.0023665088 -8.3619074e-05 -0.0044233943 -2.351e-42 -1.906e-42 1.753e-42
-2.657e-42 -2.033e-42 -1.094e-42 -1.32e-42 -1.11e-42 -6.87e-43 -1.319e-42 -1.998e-42
2.657e-42 1.214e-42 -2.304e-42 -2.187e-42 -1.626e-42 2.344e-42 -9.39e-43 -1.604e-42
-1.742e-42 9.04e-43 -8.8e-43 -1.355e-42 2.653e-42 -1.251e-42 -2.393e-42 -2.311e-42
-1.627e-42 8.55e-43 -2.059e-42 -1.089e-42 2.562e-42 -1.0553238e-38 -9.37e-43 -1.302e-42
-3.63e-43 -2.633e-42 2.129e-42 -9.25e-43 7.6e-43 1.327e-42 -1.117e-42 2.424e-42
-2.507e-42 8.58e-43 -1.149e-42 -8.87e-43 -1.16e-42 -8.34e-43 1.986e-42 -2.235e-42
-1.837e-42 2e-42 -2.249e-42 -1.8e-42 1.185e-42 2.042e-42 -1.796e-42 0.00018182339
-1.586e-42 -2.592e-42 -2.272e-42 -2.228e-42 -2.314e-42 -1.146e-42 -1.505e-42 -9.91e-43
7.64e-43 -1.145e-42 -1.431e-42 -1.19e-42 1.593e-42 -2.522e-42 2.37e-42 -2.501e-42
2.173e-42 -5.45e-43 -6.7e-43 1.638e-42 1.235e-42 -9.7e-43 -9.57e-43 -2.414e-42
-2.124e-42 -1.121e-42 -1.22e-42 1.599e-42 -1.607e-42 -9.3e-43 -8e-43 -2.59e-42
2.66e-42 1.687e-42 1.848e-42 -9.01e-43 -1.826e-42 -2.016e-42 8.69e-43 -2.646e-42
-1.167e-42 2.371e-42 2.11e-42 -1.335e-42 -9.048248e-25 1.658e-42 -1.986e-42 -2.328e-42
-1.953e-42 -7.09e-43 -1.181e-42 -1.808e-42 -1.837e-42 -1.9e-42 -1.988e-42 1.775e-42
2.437e-42 -2.283e-42 -2.472e-42 -1.95e-42 -1.88e-42 -1.285e-42 -1.163e-42 -1.686e-42
00000000: 7505 0080 ab36 24b8 cc06 0080 3f06 0080
00000010: b6db 3f35 3263 2a3b e020 723c 6605 0000
00000020: f94f 93ba 0007 0080 cc43 f03b fc52 57b9
00000030: 2cc3 c0b9 8a9c b2bb eb95 1cbc fe04 0000
00000040: e1c1 f739 d56c 223a 7f05 0000 7003 0080
00000050: eab7 413b a68f a13b 2cbb cdb7 0005 0080
00000060: 18fe bd36 a404 0000 8688 a2bc b7ec 873b
00000070: 14ea 37bb f606 0000 9b04 0000 929f 15bc
00000080: 9d60 41bb 9004 0080 b204 0000 b406 022a
00000090: 4d03 0000 9669 c2bb f303 0000 0706 0000
000000a0: 2a05 0080 844a cbbc 5256 0fbc 4217 093b
000000b0: a95b 3e39 5402 0080 7102 0080 2936 1dbb
000000c0: ad02 0000 8d79 593a b102 0080 5940 1c36
000000d0: bb86 1b3c e58b bbbb c803 0080 4803 0080
000000e0: f1e1 553b 0c6a a011 bd04 0080 99a3 273c
000000f0: db04 0080 5a03 0080 ba04 0080 5805 0000
00000100: a738 df3b efa2 b8bc 5005 0080 e402 0080
00000110: fe03 0080 ee00 0000 93db 45b9 0605 0080
00000120: c303 b53b 8889 a4ba 0e06 0080 f904 0080
00000130: e601 0000 6e1a 7db9 c062 ddb1 b14d 843b
00000140: 17b7 49bc 00b7 043c 8505 0080 7a05 0080
00000150: 9c05 0000 e2ef bfbb 9f4a 83bb 916b 31bb
00000160: a39f 8538 9d05 0080 0ced 83aa 0b05 0000
00000170: 0602 0000 182f c0bb 6d34 c73a 6997 8bbb
00000180: 2703 0080 c4ca 4bad 28db cb3a b603 0000
00000190: 5605 0080 7305 0000 cbe7 cfbb 33db e63b
000001a0: 6623 e3bb a905 0080 0b00 0000 9aa3 74bb
000001b0: b7a2 5bbc ef02 0000 de84 fbba 8403 0000
000001c0: e305 0080 c8be a0bc c495 a739 f35c c9ba
000001d0: 6c60 77a8 9d78 2fba 7d51 adbb 55e0 293b
000001e0: 8551 393c bd74 b53b 0506 0000 5904 0080
000001f0: c785 353c 1c25 9e2b d6e8 a23a 6c01 0080
00000200: 9103 0080 be01 0080 6e17 1bbb a65c afb8
00000210: 1ff2 90bb 8e06 0080 5005 0080 e304 0000
00000220: 6807 0080 ab05 0080 0d03 0080 ae03 0080
00000230: 1803 0080 ea01 0080 ad03 0080 9205 0080
00000240: 6807 0000 6203 0000 6c06 0080 1906 0080
00000250: 8804 0080 8906 0000 9e02 0080 7904 0080
00000260: db04 0080 8502 0000 7402 0080 c703 0080
00000270: 6507 0000 7d03 0080 ac06 0080 7106 0080
00000280: 8904 0080 6202 0000 bd05 0080 0903 0080
00000290: 2407 0000 22ea 7280 9d02 0080 a103 0080
000002a0: 0301 0080 5707 0080 ef05 0000 9402 0080
000002b0: 1e02 0000 b303 0000 1d03 0080 c206 0000
000002c0: fd06 0080 6402 0000 3403 0080 7902 0080
000002d0: 3c03 0080 5302 0080 8905 0000 3b06 0080
000002e0: 1f05 0080 9305 0000 4506 0080 0505 0080
000002f0: 4e03 0000 b105 0000 0205 0080 d8a7 3e39
00000300: 6c04 0080 3a07 0080 5506 0080 3606 0080
00000310: 7306 0080 3203 0080 3204 0080 c302 0080
00000320: 2102 0000 3103 0080 fd03 0080 5103 0080
00000330: 7104 0000 0807 0080 9b06 0000 f906 0080
00000340: 0f06 0000 8501 0080 de01 0080 9104 0000
00000350: 7103 0000 b402 0080 ab02 0080 bb06 0080
00000360: ec05 0080 2003 0080 6703 0080 7504 0000
00000370: 7b04 0080 9802 0080 3b02 0080 3807 0080
00000380: 6a07 0000 b404 0000 2705 0000 8302 0080
00000390: 1705 0080 9f05 0080 6c02 0000 6007 0080
000003a0: 4103 0080 9c06 0000 e205 0000 b903 0080
000003b0: ce03 8c97 9f04 0000 8905 0080 7d06 0080
000003c0: 7205 0080 fa01 0080 4b03 0080 0a05 0080
000003d0: 1f05 0080 4c05 0080 8b05 0080 f304 0000
000003e0: cb06 0000 5d06 0080 e406 0080 7005 0080
000003f0: 3e05 0080 9503 0080 3e03 0080 b304 0080

layers.9.bias f4 [134]
-0.0008485965 -1.344e-42 -8.076974e-37 -0.0054717246 0.0003813679 2.82e-43 -0.0026293122 0.0003480855
-0.026433868 2.504e-42 -2.329e-42 -2.7823588e-13 -8.534673e-26 -1.683e-42 -0.004016974 1.00658535e-05
-6.4e-44 0.00032988185 0.001958313 2.633e-42 -1.319e-42 0.00057969184 -0.0012020553 -0.0005934395
-0.00015546186 -3.9935368e-11 -0.0011033807 -5.95398e-06 -6.860932e-19 -5.6574206e-13 -0.0008837335 0.0057317656
-2.9871937e-05 -5.76e-43 0.011303054 -0.00037080728 -0.054308794 -2.344e-42 1.4473897e-10 1.351e-42
-0.0018450494 -6.47e-43 -2.236e-42 -0.00027567812 -0.00086180685 -0.0011615787 -0.0013617795 -3.8743918e-29
0.0012622034 -0.07385694 0.0013095324 -1.7813215e-13 -0.0038318888 -0.00016976567 -0.000338093 -0.0030406085
-9.820749e-12 0.004841244 -0.005376011 0.0043886853 0.0017182808 -0.009847909 -4.85e-43 -1.398e-42
-1.4479903e-17 -0.0029447665 -2.5718788e-33 0.009586752 -0.0009777495 -0.0067609698 -0.00020673042 -6.2231375e-12
-0.0005773926 0.00035210766 -1.253e-42 -5.655602e-09 -2.033e-42 -0.00071890233 -0.0080996035 -0.030140318
-1.139e-42 -0.0010430904 -0.0013412745 -0.000106693995 -3.2327698e-05 -0.0017026775 -0.003534006 -3.18757e-05
-7e-43 0.022155697 -0.0007205701 -0.019645242 -0.0010411707 -0.0022903327 -1.953115e-24 -0.00090390886
-0.012909169 -2.605e-42 0.003419089 0.011793168 -1.055e-42 0.012966209 -0.0076534273 0.0045872047
-0.003813629 -0.045902543 -4.6449086e-12 -0.0053162444 -0.0013781271 -1.396e-42 4.58e-43 -8.94e-43
-1.888e-42 -1.3489703e-15 0.0058546923 0.004672669 -5.523164e-07 -6.1182544e-07 -2.9226514e-06 -0.0053254017
-0.00099507 0.00014515044 -1.111e-42 0.0006518139 -1.698e-42 0.00023505774 -0.0027049265 -7.331687e-22
-1.7811435e-06 0.008753141 -0.00066521845 -0.0048604887 -2.8496211e-12 1.8007211e-05
00000000: 5974 5eba bf03 0080 2f6c 8983 274c b3bb
00000010: 55f2 c739 c900 0000 8a50 2cbb 3f7f b639
00000020: d78b d8bc fb06 0000 7e06 0080 04a2 9caa
00000030: eb4e d395 b104 0080 d2a0 83bb 83e0 2837
00000040: 2e00 0080 fef3 ac39 0a57 003b 5707 0000
00000050: ad03 0080 76f6 173a 488e 9dba 0d91 1bba
00000060: 7a03 23b9 3aa3 2fae 509f 90ba 4cc8 c7b6
00000070: bd7f 4aa1 033e 1fab 5aaa 67ba 89d1 bb3b
00000080: 7f95 fab7 9b01 0080 7230 393c e968 c2b9
00000090: e672 5ebd 8906 0080 6624 1f2f c403 0000
000000a0: 96d5 f1ba ce01 0080 3c06 0080 e488 90b9
000000b0: e1ea 61ba 1d40 98ba bd7d b2ba 7b74 4490
000000c0: 8570 a53a 4f42 97bd 9ea4 ab3a 198f 48aa
000000d0: 6d20 7bbb 2003 32b9 1342 b1b9 f244 47bb
000000e0: b9c4 2cad 4ca3 9e3b 4029 b0bb f6ce 8f3b
000000f0: f037 e13a 2059 21bc 5a01 0080 e603 0080
00000100: b48d 85a3 fcfc 40bb d0a9 5589 c111 1d3c
00000110: d427 80ba 208b ddbb c6c5 58b9 0af5 daac
00000120: 295c 17ba 179b b839 7e03 0080 3453 c2b1
00000130: ab05 0080 b874 3cba 33b4 04bc d4e8 f6bc
00000140: 2d03 0080 4eb8 88ba b4cd afba e7c0 dfb8
00000150: 9a97 07b8 602c dfba c89a 67bb 46b2 05b8
00000160: f401 0080 dd7f b53c a4e4 3cba 0fef a0bc
00000170: e477 88ba 6819 16bb 6e1d 1798 4cf4 6cba
00000180: fb80 53bc 4307 0080 cb12 603b 2238 413c
00000190: f102 0080 3970 543c 9ac9 fabb 4350 963b
000001a0: 14ee 79bb 4e04 3cbd 9e6d a3ac e433 aebb
000001b0: 46a2 b4ba e403 0080 4701 0000 7e02 0080
000001c0: 4305 0080 3868 c2a6 b8d8 bf3b 301d 993b
000001d0: e542 14b5 533c 24b5 c522 44b6 b580 aebb
000001e0: 026d 82ba 8633 1839 1903 0080 7ede 2a3a
000001f0: bc04 0080 d579 7639 2345 31bb 2e96 5d9c
00000200: a00f efb5 5669 0f3c 0e62 2eba bc44 9fbb
00000210: 3686 48ac 310e 9737

layers.12.weight f4 [134, 134]
-0.031083327 1.519e-42 -0.0019468328 0.0036851647 -0.00044148776 -2.94e-43 0.0011828397 -0.013150871
0.09011566 -1.1454569e-07 1.9327442e-06 -0.0015036189 -2.2e-42 4.5587936e-11 0.0009136147 -0.0072396444
-4.5000353e-34 -5.07818e-05 0.001384674 9.9399884e-05 5.9281004e-13 0.0065695704 0.005811778 0.0043890183
-0.023983272 -6.430823e-05 -0.015128964 0.0032775023 -9.5797225e-21 -0.0033258419 0.014817854 0.010351776
0.0020907747 6.3231052e-12 -0.013861163 0.006660351 0.0905394 -0.00031527784 5.8604163e-12 0.007988944
0.0011450661 -0.0014330642 -5.69e-43 0.0040907655 -0.0052336482 6.985822e-06 -0.003473749 1.858e-42
0.0030259376 0.0060636974 0.0042884243 -4.1799317e-06 0.00989144 -0.0009894343 -0.017492667 0.0013549145
0.00094185065 0.0008454278 -0.0071551115 0.009545553 -0.02860643 0.018583156 3.2850952e-05 9.5713576e-11
4.717325e-11 0.01004434 -3.9815522e-13 -0.0025691774 -0.008779394 -0.00810649 -0.019649519 0.0029541152
0.0010545533 -0.012155219 0.00066327583 -5.1309956e-07 -2.3619662e-06 -0.014787503 0.0064655347 0.09669476
1.708e-42 0.009273835 0.0093289735 -0.0055081686 -0.0012000429 -0.0009767122 0.0029727286 -1.131524e-16
-2.5747113e-07 -0.0444424 2.9396304e-05 -0.08589249 -0.00085064996 0.0028781958 -4.865849e-19 -0.0062335245
0.00547651 -1.935131e-09 -0.009556572 -0.019323017 -0.00019718202 -0.0030039907 -0.0017283165 0.0010152122
-0.009609902 0.06946894 -1.0607179e-20 0.007645908 -0.0065543232 8.63e-43 2.4316252e-22 0.0026127757
1.4911547e-13 -2.619e-42 -0.034247767 0.0013284839 0.0014969086 0.0071825436 0.0006296387 -0.0064182305
-0.01677567 -0.011001656 -2.9411758e-05 -0.00021501874 -9.5805935e-06 0.0039356695 -0.0043878634 -0.0016132009
-6.21e-43 0.001613937 0.00051835866 -0.01449284 0.012042768 -0.0056289355 -0.004443675 1.466e-42
7.85011e-05 0.0076963515 -0.00045073757 -2.05e-42 3.0863157e-05 -1.143e-42 -0.0033365223 8.987804e-14
-2.166e-42 -1.244e-42 -2.406e-42 1.246e-42 -1.4613128e-08 6.15e-43 2.07e-42 3.0035352e-09
0.004181987 2.584e-42 -2.117e-42 -1.497e-42 1e-42 6.82e-43 0.011830216 1.601879e-18
0.0055760043 3.4117669e-09 -1.377e-42 0.00026065105 0.017439706 0.00024087258 0.009588875 -2.508e-42
-0.008428135 0.006649958 -0.0012294248 -9.63e-43 2.214e-42 -0.0017224888 0.0062084915 2.192e-42
-6.71e-43 -4.1427115e-06 0.0111494325 -1.1636969e-06 -0.00021040773 2.304e-42 -0.0010842057 -0.016048813
-1.7031076e-05 -2.227e-42 -0.0030393351 1.403e-42 0.014022026 -2.678e-42 9.16e-43 2.661e-42
0.0063425996 -0.004167608 0.006683282 -0.0016466179 9.1e-43 -2.056e-42 6.29e-43 -0.0037080806
6.835711e-13 -6.363427e-05 -0.00517542 0.011089663 0.0041745175 0.00033102406 7.2419647e-07 9.74e-43
-0.00018301094 7.787087e-09 -0.00018208563 0.0005680617 -0.00021270142 -0.0011950721 6.52e-43 2.62778e-05
-0.00040174267 -0.000647779 3.6022357e-05 -0.0027872857 -1.13e-42 1.7e-42 2.346e-42 -0.002429954
5.873629e-10 -0.013169055 -0.0021790897 -2.56e-42 -7.29e-43 7.134489e-05 0.000104999825 6.57e-43
-0.016253669 -0.005068354 2.427e-42 -0.013409065 -9.129988e-05 -0.00010064542 -0.00648969 -0.0003111698
-2.09e-42 -0.002774644 0.00023489898 -2.622e-42 -1.547e-42 -0.0006966835 -2.063e-42 -5.6547576e-27
0.0057306024 -0.0068450416 -1.19e-42 -5.4605135e-07 -2.068e-42 -1.7547063e-05 -0.00027163234 -0.0043907226
00000000: 76a2 febc 3c04 0000 de2c ffba ce82 713b
00000010: 7c77 e7b9 d200 0080 8409 9b3a c076 57bc
00000020: 8f8e b83d 29fc f5b3 4bb4 0136 1415 c5ba
00000030: 2206 0080 747f 482e a57f 6f3a 8a3a edbb
00000040: 118a 1588 8bfe 54b8 f37d b53a e874 d038
00000050: 77dc 262b 8d45 d73b ba70 be3b c1d1 8f3b
00000060: 9178 c4bc 38dd 86b8 79df 77bc 5dcb 563b
00000070: b2f4 349e 5ef6 59bb 96c6 723c 7f9a 293c
00000080: 6105 093b 7879 de2c ee19 63bc 133f da3b
00000090: b96c b93d e04b a5b9 f031 ce2c 0fe4 023c
000000a0: 0b16 963a a8d5 bbba 9601 0080 d40b 863b
000000b0: 067f abbb c167 ea36 d6a7 63bb 2e05 0000
000000c0: cf4e 463b fbb1 c63b e985 8c3b 5741 8cb6
000000d0: b50f 223c e8af 81ba c84c 8fbc 6397 b13a
000000e0: 87e6 763a b39f 5d3a 6d75 eabb f364 1c3c
000000f0: 0858 eabc b43b 983c 71c9 0938 f479 d22e
00000100: 5c78 4f2e 0491 243c 3724 e0aa a55f 28bb
00000110: 73d7 0fbc 15d1 04bc 07f8 a0bc d499 413b
00000120: f038 8a3a af26 47bc b0df 2d3a efbb 09b5
00000130: 4582 1eb6 4847 72bc d6dc d33b e707 c63d
00000140: c304 0000 49f1 173c 8dd8 183c de7d b4bb
00000150: c24a 9dba 0605 80ba 1cd2 423b b274 02a5
00000160: 903a 8ab4 3c09 36bd 1598 f637 67e8 afbd
00000170: 27fe 5eba 1da0 3c3b 519d 0fa1 9842 ccbb
00000180: 4c74 b33b 2ffb 04b1 2b93 1cbc 4e4b 9ebc
00000190: a5c2 4eb9 9ade 44bb ae88 e2ba de10 853a
000001a0: da72 1dbc bb45 8e3d 2c5d 489e 868a fa3b
000001b0: a6c5 d6bb 6802 0000 94fb 921b 1a3b 2b3b
000001c0: 9ce3 272a 4d07 0080 6347 0cbd 8620 ae3a
000001d0: eb33 c43a 8b5b eb3b 560e 253a 0550 d2bb
000001e0: 216d 89bc 4a40 34bc 45b9 f6b7 a776 61b9
000001f0: 56bc 20b7 caf6 803b 11c8 8fbb 0a72 d3ba
00000200: bb01 0080 bd8a d33a 76e2 073a 6073 6dbc
00000210: 084f 453c ef72 b8bb 3f9c 91bb 1604 0000
00000220: f5a0 a438 ad31 fc3b f950 ecb9 b705 0080
00000230: 1073 0138 3003 0080 8ea9 5abb 2a63 ca29
00000240: 0a06 0080 7803 0080 b506 0080 7903 0000
00000250: 370d 7bb2 b701 0000 c505 0000 c066 4e31
00000260: 0d09 893b 3407 0000 e705 0080 2c04 0080
00000270: ca02 0000 e701 0000 86d3 413c 4765 ec21
00000280: eab6 b63b 7074 6a31 d703 0080 fea7 8839
00000290: b7dd 8e3c be92 7c39 a81a 1d3c fe06 0080
000002a0: 2916 0abc e4e7 d93b a724 a1ba af02 0080
000002b0: 2c06 0000 22c5 e1ba 9a70 cb3b 1c06 0000
000002c0: df01 0080 9f01 8bb6 1cac 363c 5230 9cb5
000002d0: e5a0 5cb9 6c06 0000 e81b 8eba cd78 83bc
000002e0: f5dd 8eb7 3506 0080 952f 47bb e903 0000
000002f0: a4bc 653c 7707 0080 8e02 0000 6b07 0000
00000300: 95d5 cf3b 6e90 88bb 6fff da3b 54d3 d7ba
00000310: 8902 0000 bb05 0080 c101 0000 4503 73bb
00000320: 7d68 402b 6373 85b8 9296 a9bb 6bb1 353c
00000330: 64ca 883b 4c8d ad39 6766 4235 b702 0000
00000340: a0e6 3fb9 f9c7 0532 3dee 3eb9 fae9 143a
00000350: 9a08 5fb9 f7a3 9cba d101 0000 256f dc37
00000360: fda0 d2b9 b6cf 29ba b616 1738 e5aa 36bb
00000370: 2603 0080 bd04 0000 8a06 0000 dd3f 1fbb
00000380: fd73 2130 05c3 57bc 0fcf 0ebb 2307 0080
00000390: 0802 0080 ff9e 9538 5a33 dc38 d501 0000
000003a0: 6a26 85bc 6f14 a6bb c406 0000 b2b1 5bbc
000003b0: 4078 bfb8 9911 d3b8 77a7 d4bb 8124 a3b9
000003c0: d305 0080 cdd6 35bb 374f 7639 4f07 0080
000003d0: 5004 0080 a3a1 36ba c005 0080 0e02 e093
000003e0: c7c7 bb3b 5f4c e0bb 5103 0080 5d94 12b5
000003f0: c405 0080 0832 93b7 e069 8eb9 0de0 8fbb

layers.12.bias f4 [134]
-0.066331565 0.009518047 -0.00945537 -0.105718546 0.01137156 -0.005315523 -0.001749953 -0.0049477736
-0.030909797 -0.0066998587 -0.008260634 0.009467788 -0.0019732537 -0.023011776 -8.10264e-05 0.004630474
-0.0047509517 -2.4038495e-06 -0.00044210377 0.0034684376 0.00683007 -0.054507237 -2.199e-42 -0.0014026633
0.0023028043 -0.0023483168 -0.002380262 -0.0054736747 0.0011443963 0.009517283 -0.21687497 -0.0022791685
-0.008752547 0.0011024458 -0.007817205 0.0035029936 -0.00012384837 -0.017305737 0.018554386 -0.0013134984
-0.0002576616 -5.106951e-05 0.0009143566 -0.0020110197 0.011162656 -0.028975362 0.00237823 0.013797217
-0.008047127 -0.012060351 -0.0006399956 0.0014605832 -0.0008553772 -0.0008523232 -0.0162594 -0.008953288
-3.1643743e-15 -2.340076e-13 -0.00101328 0.0956786 -0.010798736 0.009082432 -0.0072259116 -0.00078995404
-0.0014210908 -0.014069118 0.0021854714 -0.003278175 -0.0017725795 0.014113768 -0.0076531013 -0.004291918
-0.004555735 -4.1822304e-07 -0.012870985 -0.0068999636 -0.006990613 -0.01422385 0.01536708 0.0077826213
0.00071082736 -0.009294077 -0.0019190335 0.009486453 -0.005372388 0.012996668 -0.002432013 0.010077421
0.0011291087 -2.257e-42 -0.0020143634 -0.00837862 0.011551496 -0.0031468992 -0.009305873 0.0039658076
-0.0016116507 -0.006226839 0.008293174 -0.000724145 -0.0037595795 0.002039913 -4.71e-43 0.0057138395
-4.915298e-10 0.0028051077 0.0049950927 -7.058869e-05 0.0035599514 0.0005301728 -0.03974967 -0.0012368822
-4.1685053e-06 -0.008527205 -0.011257158 -0.0026053605 -0.0056960164 -0.009580667 0.0042868387 -0.017012242
-0.0033833024 -0.17596425 -0.0019551492 -0.0034596943 0.016472206 -0.0014718242 -0.011383578 -0.00061977986
0.004743658 0.010978361 -0.0076789134 -0.0048196004 -5.109644e-24 0.014077098
00000000: d8d8 87bd 95f1 1b3c b2ea 1abc f782 d8bd
00000010: c84f 3a3c d72d aebb ae5e e5ba ef20 a2bb
00000020: 8b36 fdbc 7d8a dbbb 9c57 07bc c81e 1b3c
00000030: b451 01bb 3183 bcbc b8ec a9b8 3bbb 973b
00000040: dfad 9bbb d251 21b6 2aca e7b9 ba4e 633b
00000050: c8ce df3b fb42 5fbd 2106 0080 92d9 b7ba
00000060: a5ea 163b 38e6 19bb 2bfe 1bbb 835c b3bb
00000070: 91ff 953a 61ee 1b3c 7914 5ebe 1a5e 15bb
00000080: d866 0fbc f17f 903a bc13 00bc 7b92 653b
00000090: 4bdd 01b9 c3c4 8dbc 5eff 973c b129 acba
000000a0: c116 87b9 7833 56b8 6fb1 6f3a 50cb 03bb
000000b0: 93e3 363c bd5d edbc 14dc 1b3b b90d 623c
000000c0: 19d8 03bc c798 45bc 61c5 27ba 0a71 bf3a
000000d0: 643b 60ba 716e 5fba 6f32 85bc d0b0 12bc
000000e0: 6704 64a7 0dbc 83aa 09d0 84ba 24f3 c33d
000000f0: 2eed 30bc 7bce 143c 57c7 ecbb eb14 4fba
00000100: e543 baba 2882 66bc 203a 0f3b a6d6 56bb
00000110: e655 e8ba 6f3d 673c dec6 fabb 38a3 8cbb
00000120: 4648 95bb 2388 e0b4 d3e0 52bc 1719 e2bb
00000130: 8311 e5bb 270b 69bc 35c6 7b3c 5c05 ff3b
00000140: d156 3a3a 2f46 18bc 1488 fbba 116d 1b3c
00000150: db0a b0bb faef 543c 6862 1fbb c41b 253c
00000160: 9afe 933a 4b06 0080 6903 04bb 7b46 09bc
00000170: 7c42 3d3c 353c 4ebb a977 18bc 9bf3 813b
00000180: 063e d3ba 830a ccbb 18e0 073c 8cd4 3dba
00000190: 4763 76bb 10b0 053b 5001 0080 293b bb3b
000001a0: 561c 07b0 e6d5 373b e0ad a33b 0409 94b8
000001b0: 134e 693b 4bfb 0a3a 8dd0 22bd e11e a2ba
000001c0: 30df 8bb6 b1b5 0bbc f16f 38bc b2be 2abb
000001d0: a6a5 babb 3bf8 1cbc 9c78 8c3b 425d 8bbc
000001e0: 65ba 5dbb f92f 34be f621 00bb 0abc 62bb
000001f0: b8f0 863c 3aea c0ba 3082 3abc b978 22ba
00000200: b070 9b3b 95de 333c 659f fbbb bded 9dbb
00000210: 77ab c598 a1a3 663c
