macros/Timing_estimation/models/February_10/run_0/epoch_9.pth (torch, 310606 bytes, 29 tensors)

mlp1.0.weight f4 [32, 9]
0.20262864 -0.108780794 -0.27090466 0.28705746 -0.2015319 -0.2586888 0.10088607 -0.16831747
0.29345056 0.29082963 -0.3052037 -0.31800923 -0.10207908 0.19695924 0.24737263 0.14269947
0.15354599 0.04560718 -0.25060394 -0.12669113 0.20406279 -0.28230697 0.043087337 -0.13286996
-0.22719224 -0.02824169 0.12924753 0.017085303 0.23482691 -0.1684229 0.2678306 -0.1239528
0.26377326 -0.043689683 0.2325944 -0.14595608 0.077706605 0.123602524 0.011583673 0.18948765
0.30003625 0.01854949 0.15385501 0.06013411 -0.10332233 -0.29824615 0.30347577 0.29615837
0.33132625 -0.23054218 -0.3349763 -0.21524003 0.25574124 -0.2698347 -0.025714556 0.28277472
0.06583645 0.09262955 0.04435502 -0.18410148 0.19723657 -0.25989315 0.26185676 -0.32824168
-0.12658589 -0.2656265 0.13848862 -0.20954217 -0.11979018 0.02808694 0.10375566 0.22156902
-0.1984348 0.12550583 0.13233729 -0.24407126 -0.31675157 -0.043061253 0.046551112 0.24392805
0.09198958 0.28777325 0.14739007 0.31495753 -0.19984183 0.24705033 -0.1024916 0.093849495
-0.24167158 0.2216314 -0.24013975 -0.18899685 0.010506782 -0.11915234 -0.1580166 -0.03277481
-0.3248702 0.10951143 0.10557241 -0.33015302 0.13973919 -0.10376524 0.07013254 0.15147974
-0.096745275 0.17250277 0.30980134 -0.062162627 -0.12746018 -0.18552673 -0.30469725 0.1890828
-0.17676356 -0.21813095 0.072544105 -0.19183587 -0.046058863 -0.08513284 0.053726677 0.15475033
0.17411156 0.108135894 0.14043425 0.30978668 0.31451428 0.15609558 -0.2467953 0.008358562
0.0036399844 0.17288831 -0.12849748 0.064392336 0.008162605 -0.22391449 -0.024449011 0.29669982
0.3264824 -0.27202812 -0.27908865 -0.23563865 -0.00926724 -0.16701135 -0.10688567 0.2212563
-0.037677176 0.17571685 0.07727824 0.2166855 -0.14845428 -0.0007546519 0.11166803 -0.1149672
-0.28819248 0.3318793 0.2360661 0.1939476 -0.20679915 -0.18724701 -0.041018985 0.110286646
-0.20282678 -0.03594793 -0.26230934 0.0075060837 -0.059068445 0.05566746 -0.042571045 -0.027552506
0.047983192 0.14044723 0.27795973 -0.28762114 0.028039206 0.17965473 -0.100269586 0.034103498
-0.013378239 0.3105929 -0.24530247 -0.20124209 0.036805633 -0.18344192 0.1265263 -0.15072718
-0.10067892 0.25652465 0.30143616 0.009399842 -0.2793747 0.2198882 0.019025655 -0.17115434
0.012265616 -0.21166211 -0.1873323 -0.26488462 0.14227869 0.32824 0.0014945706 0.10823841
0.3304579 -0.0017179971 -0.25048742 -0.008393142 -0.24917917 0.117202744 -0.13265245 0.2214842
0.30022228 0.15039393 0.31999534 0.205517 -0.26003197 0.052332293 0.19572107 0.0088702105
0.05555874 -0.2622652 0.31773818 -0.051935043 -0.25431582 -0.022398487 -0.27630365 -0.07009533
0.25388366 -0.024987416 -0.011953936 0.14909334 -0.13230826 0.16681138 -0.08297003 0.23429285
0.1515483 0.13957937 0.14178875 -0.2570399 -0.1626837 -0.2972655 -0.01032817 -0.33337635
0.28806934 0.3038364 -0.31078458 0.08227103 0.027946759 -0.09026079 -0.113487616 -0.22380784
-0.33567706 0.31333604 0.22101565 0.18523516 -0.1592347 -0.24380447 -0.274867 -0.30040726
00000000: e27d 4f3e 77c8 debd 04b4 8abe 32f9 923e
00000010: 615e 4ebe dc72 84be 5b9d ce3d 6a5b 2cbe
00000020: 273f 963e 9fe7 943e a943 9cbe 1bd2 a2be
00000030: d60e d1bd afaf 493e 404f 7d3e cf1f 123e
00000040: 293b 1d3e 98ce 3a3d 294f 80be 52bb 01be
00000050: d6f5 503e 8a8a 90be 597c 303d 100f 08be
00000060: 15a5 68be 1e5b e7bc 7759 043e 7af6 8b3c
00000070: 7776 703e 0d77 2cbe 1821 893e f7da fdbd
00000080: 4a0d 873e f4f3 32bd 3a2d 6e3e 8375 15be
00000090: a424 9f3d 5223 fd3d 72c9 3d3c 0d09 423e
000000a0: 5a9e 993e 1af5 973c 2b8c 1d3e 2f4f 763d
000000b0: a89a d3bd b8b3 98be 2d61 9b3e 12a2 973e
000000c0: 98a3 a93e 4013 6cbe 0382 abbe e267 5cbe
000000d0: 84f0 823e c627 8abe 55a7 d2bc d9c7 903e
000000e0: 43d5 863d 90b4 bd3d 9cad 353d 1985 3cbe
000000f0: 62f8 493e b710 85be 1712 863e 4b0f a8be
00000100: bb9f 01be 3200 88be f6cf 0d3e 3992 56be
00000110: 8e54 f5bd 9516 e63c d97d d43d fde2 623e
00000120: 7e32 4bbe 9a84 003e 6d83 073e d1ed 79be
00000130: 432d a2be ff60 30bd 61ac 3e3d 46c8 793e
00000140: 0865 bc3d 0457 933e 6ced 163e 1d42 a13e
00000150: 56a3 4cbe c3fa 7c3e 1ee7 d1bd 2a34 c03d
00000160: c178 77be 57f3 623e 32e7 75be 6488 41be
00000170: a324 2c3c 2406 f4bd 1bcf 21be e13e 06bd
00000180: 6355 a6be 8747 e03d 5936 d83d d109 a9be
00000190: ca17 0f3e df82 d4bd a6a1 8f3d 811d 1b3e
000001a0: 6322 c6bd 91a4 303e 489e 9e3e 3d9e 7ebd
000001b0: ec84 02be b8fa 3dbe 4701 9cbe ec9e 413e
000001c0: 8201 35be b85d 5fbe 0192 943d 9f70 44be
000001d0: 38a8 3cbd 205a aebd 8110 5c3d df76 1e3e
000001e0: 4d4a 323e 5a76 dd3d ffcd 0f3e 5c9c 9e3e
000001f0: 0408 a13e 85d7 1f3e e8b7 7cbe 5af2 083c
00000200: ce8c 6e3b a209 313e d894 03be 21e0 833d
00000210: 72bc 053c d749 65be 4b49 c8bc 0ae9 973e
00000220: b328 a73e 4547 8bbe b5e4 8ebe 424b 71be
00000230: 9fd5 17bc 0605 2bbe e0e6 dabd 0391 623e
00000240: 6253 1abd 1eef 333e 0e44 9e3d cee2 5d3e
00000250: 6604 18be d5d3 45ba 35b2 e43d ec73 ebbd
00000260: f78d 93be 15ec a93e 50bb 713e 339a 463e
00000270: 28c3 53be aebd 3fbe 8603 28bd f7dd e13d
00000280: d3b1 4fbe 233e 13bd 694d 86be 98f5 f53b
00000290: c1f1 71bd 9003 643d fa5e 2ebd cbb5 e1bc
000002a0: 068a 443d 66d1 0f3e bd50 8e3e 1443 93be
000002b0: 7ab2 e53c 69f7 373e 245a cdbd 1cb0 0b3d
000002c0: 6730 5bbc 0806 9f3e 9230 7bbe 6812 4ebe
000002d0: 81c1 163d 33d8 3bbe 1c90 013e 3a58 1abe
000002e0: c030 cebd 3357 833e d755 9a3e cb01 1a3c
000002f0: 330a 8fbe 5f2a 613e b1db 9b3c 1543 2fbe
00000300: b9f5 483c f4bd 58be 0ad4 3fbe f59e 87be
00000310: 81b1 113e 130f a83e 78e5 c33a 19ac dd3d
00000320: c731 a93e 6b2e e1ba e33f 80be 6483 09bc
00000330: d328 7fbe fe07 f03d 0bd6 07be c1cc 623e
00000340: bcb6 993e de00 1a3e 6ed6 a33e 0c73 523e
00000350: e922 85be 635a 563d 1b6b 483e 5c54 113c
00000360: 9091 633d a047 86be 94ae a23e d7b9 54bd
00000370: af35 82be 087d b7bc ac77 8dbe 248e 8fbd
00000380: 0afd 813e 69b2 ccbc 71da 43bc edab 183e
00000390: d17b 07be 9ad0 2a3e 31ec a9bd 77ea 6f3e
000003a0: 7a2f 1b3e e5ed 0e3e 1231 113e bc9a 83be
000003b0: 8e96 26be 2f33 98be 7c37 29bc 4eb0 aabe
000003c0: d37d 933e 7290 9b3e 281f 9fbe b77d a83d
000003d0: 9af0 e43c a6da b8bd 326c e8bd e22d 65be
000003e0: dddd abbe 956d a03e ed51 623e 49ae 3d3e
000003f0: 6c0e 23be e1a7 79be 5ebb 8cbe fbce 99be

mlp1.0.bias f4 [32]
-0.25746304 -0.30277357 -0.09959935 -0.16771373 -0.13823137 0.24392425 0.22660898 -0.16335082
0.017146701 -0.0037610189 -0.18576968 -0.020806799 -0.12597798 0.16400188 0.0052310647 -0.019330045
-0.06121615 0.19587119 -0.14979428 -0.08141837 -0.29705852 -0.110471606 0.19270279 -0.020094786
0.16868821 -0.19367287 -0.27482557 0.07528116 -0.07276532 -0.31088093 0.28271565 0.047498938
00000000: 32d2 83be 2305 9bbe befa cbbd 26bd 2bbe
00000010: 868c 0dbe 47c7 793e 2f0c 683e 7045 27be
00000020: 3d77 8c3c 6d7b 76bb 683a 3ebe 0573 aabc
00000030: 5f00 01be 1cf0 273e 5a69 ab3b 0b5a 9ebc
00000040: c9bd 7abd 7592 483e ac63 19be adbe a6bd
00000050: 0e18 98be f03e e2bd e153 453e d29d a4bc
00000060: 9abc 2c3e 2e52 46be f0b5 8cbe 022d 9a3d
00000070: fc05 95bd c92b 9fbe 1bc0 903e 3f8e 423d

mlp1.2.weight f4 [32, 32]
0.06783882 -0.17075628 0.04473905 -0.04746727 0.08818683 -0.14254269 0.07483823 0.04854338
0.16445898 0.065267995 0.05344592 -0.0070413724 -0.12918496 -0.078006946 0.08650158 -0.0021561768
-0.057326667 -0.1186136 -0.13556331 -0.1741695 -0.037467577 -0.113416485 0.10340992 0.054443806
0.09717797 -0.009130437 0.018341528 -0.048658963 -0.1584776 -0.15985094 -0.0615396 -0.13496333
0.1194273 -0.07283038 -0.09716048 -0.16475584 -0.16441348 -0.11114347 -0.081914835 -0.050262123
-0.013208745 0.008569285 -0.0419376 -0.10274499 -0.16685869 0.1351334 -0.13737202 0.08352957
0.12131332 0.13952029 -0.0034419296 -0.045786798 -0.13957176 0.12637493 0.0514475 -0.11187286
0.14312944 -0.05885391 0.12415056 -0.15801851 0.07104279 0.10925582 0.07640102 -0.03209116
0.12590827 0.10124326 0.033885688 -0.077080965 -0.040231742 -0.0990083 -0.026536169 0.010143736
0.12615924 -0.119838454 -0.043767765 0.099249505 -0.16475156 -0.050985515 -0.0758978 0.11944943
0.118387096 -0.10675234 -0.0025989197 -0.10736177 -0.09879017 0.16753298 0.13465722 0.04378197
0.049895294 0.100291684 -0.06715523 0.009621519 -0.14973645 -0.024793295 -0.14657141 0.0868947
-0.16643468 -0.105088905 0.051452424 0.011850917 0.06548728 -0.07317345 0.10894096 0.061121505
-0.011854609 0.090421945 -0.0922249 -0.08019809 0.013923615 0.104386725 0.096655816 -0.14908312
0.15468413 0.06172816 0.020649388 0.13675703 -0.07076675 -0.104295805 -0.1377943 0.13980488
0.13738266 0.16421351 -0.12882292 -0.057593543 -0.14171158 -0.099169955 -0.057131164 0.13908574
0.08149226 0.14367223 0.053881053 0.16328146 -0.02323497 0.02788483 0.05854071 0.027408777
0.11076419 -0.008017816 -0.079141915 0.052058607 0.08334112 -0.09061593 0.09332542 0.06437906
0.14590083 0.12016989 0.12643558 -0.110708095 0.01859281 -0.080321655 0.13511762 -0.16778634
-0.10238757 0.067611024 0.097562425 -0.105946295 0.07912677 0.038847815 -0.10668268 -0.099986
0.12879461 -0.122845836 -0.111914404 0.018379187 0.13559876 -0.07806589 0.012015287 -0.06339002
0.0712958 0.14141554 -0.026384855 -0.05967781 -0.021924496 -0.055545624 -0.055410545 -0.087142736
-0.028354144 -0.12885 -0.067441426 0.1510907 -0.14572942 0.046856653 -0.15464167 -0.029095696
-0.06296377 -0.010772713 -0.16756961 -0.1515789 -0.016998457 0.09301761 -0.11386601 -0.06500654
0.13774648 -0.14242056 0.16977131 -0.029466042 0.11432103 -0.07546863 0.051173985 -0.12585114
-0.06327757 0.16654877 -0.092023894 0.13789365 0.008157354 -0.16145255 0.058984786 -0.14477672
-0.010119943 -0.12645273 0.07738812 -0.14992996 -0.027224272 -0.031727176 -0.04632653 -0.104223065
-0.08849905 0.015254778 0.08029295 -0.11157329 0.04063188 -0.06292137 0.07437526 -0.12226434
0.113893695 -0.1470603 -0.14622371 0.055737242 -0.013507683 0.13051955 0.021896487 0.09390429
-0.071277454 -0.113468565 -0.11862297 0.09863513 0.041032117 0.087966844 0.033260968 0.13356583
0.04500997 0.12102955 -0.053354852 0.02833711 -0.06688555 -0.09107174 -0.14082073 0.091006845
0.10073653 0.08293303 0.07291414 -0.08857399 0.15398833 -0.06029927 -0.08348592 -0.13100468
00000000: 14ef 8a3d bcda 2ebe 4b40 373d 0a6d 42bd
00000010: 4c9b b43d b6f6 11be c944 993d 6cd5 463d
00000020: ef67 283e 3aab 853d 1cea 5a3d 50bb e6bb
00000030: 1049 04be 1bc2 9fbd be27 b13d a54e 0dbb
00000040: 5ecf 6abd b0eb f2bd 1cd1 0abe 7d59 32be
00000050: 9a77 19bd e746 e8bd 95c8 d33d 7800 5f3d
00000060: 3e05 c73d d497 15bc f940 963c 9f4e 47bd
00000070: f447 22be f7af 23be f310 7cbd d433 0abe
00000080: 4d96 f43d 1828 95bd 13fc c6bd c1b5 28be
00000090: 025c 28be 309f e3bd f7c2 a7bd a8df 4dbd
000000a0: 7e69 58bc 3066 0c3c c3c6 2bbd f76b d2bd
000000b0: 01dd 2abe 6960 0a3e 40ab 0cbe 8d11 ab3d
000000c0: 1e73 f83d 68de 0e3e ff91 61bb f08a 3bbd
000000d0: e6eb 0ebe 6e68 013e 9dba 523d 991d e5bd
000000e0: 8690 123e cc10 71bd a642 fe3d 9bcf 21be
000000f0: e27e 913d 84c1 df3d 2378 9c3d 0572 03bd
00000100: 19ee 003e a058 cf3d b8cb 0a3d a0dc 9dbd
00000110: 0aca 24bd ddc4 cabd 6162 d9bc ea31 263c
00000120: e32f 013e dd6d f5bd d445 33bd 5343 cb3d
00000130: a2b4 28be 30d6 50bd 4e70 9bbd e7a1 f43d
00000140: ef74 f23d f9a0 dabd a352 2abb 7de0 dbbd
00000150: 8052 cabd c48d 2b3e 95e3 093e b954 333d
00000160: 025f 4c3d ba65 cd3d ae88 89bd 93a3 1d3c
00000170: 8354 19be 4f1b cbbc d116 16be d9f5 b13d
00000180: da6d 2abe da38 d7bd c7bf 523d 592a 423c
00000190: 321e 863d f6db 95bd 701c df3d 8b5a 7a3d
000001a0: d539 42bc 242f b93d 69e0 bcbd e53e a4bd
000001b0: e01f 643c b5c8 d53d 7cf3 c53d 3fa9 18be
000001c0: 8465 1e3e abd6 7c3d e828 a93c 090a 0c3e
000001d0: 28ee 90bd 0a99 d5bd f319 0dbe 0329 0f3e
000001e0: 0aae 0c3e 9627 283e 28ea 03be 35e7 6bbd
000001f0: d71c 11be 9e19 cbbd 5e02 6abd 7e6c 0e3e
00000200: 6ae5 a63d d01e 133e 61b2 5c3d 4133 273e
00000210: 4457 bebc ba6e e43c 62c8 6f3d 5f88 e03c
00000220: 56d8 e23d 285d 03bc 2815 a2bd 683b 553d
00000230: c0ae aa3d d894 b9bd 6621 bf3d 2bd9 833d
00000240: 0767 153e a21b f63d 5478 013e edba e2bd
00000250: f34f 983c ae7f a4bd 465c 0a3e 2fd0 2bbe
00000260: 93b0 d1bd a677 8a3d cfce c73d 5ffa d8bd
00000270: 370d a23d e31e 1f3d 737c dabd 76c5 ccbd
00000280: bce2 033e 9996 fbbd 6133 e5bd f38f 963c
00000290: 67da 0a3e 02e1 9fbd c4db 443c a0d2 81bd
000002a0: 8803 923d 3ccf 103e 0d25 d8bc b870 74bd
000002b0: 009b b3bc cf83 63bd 2bf6 62bd e477 b2bd
000002c0: f346 e8bc 41f1 03be bb1e 8abd 85b7 1a3e
000002d0: 183a 15be c3ec 3f3d 635a 1ebe 195a eebc
000002e0: 26f3 80bd 0980 30bc 5e97 2bbe 8037 1bbe
000002f0: 5940 8bbc 0480 be3d 9532 e9bd 2622 85bd
00000300: 6a0d 0d3e b2d6 11be 88d8 2d3e c562 f1bc
00000310: 2521 ea3d 4c8f 9abd d09b 513d 1fdf 00be
00000320: ac97 81bd c38b 2a3e 0677 bcbd fe33 0d3e
00000330: 6ca6 053c d153 25be 089a 713d 5940 14be
00000340: 1ece 25bc d37c 01be aa7d 9e3d 3d87 19be
00000350: 7005 dfbc 5bf4 01bd e3c0 3dbd e772 d5bd
00000360: fd3e b5bd 2def 793c a170 a43d 8980 e4bd
00000370: 9d6d 263d ebdc 80bd 0e52 983d ba65 fabd
00000380: 1941 e93d fa96 16be abbb 15be bc4c 643d
00000390: 544f 5dbc eba6 053e 4360 b33c e450 c03d
000003a0: eaf9 91bd 3562 e8bd 9af0 f2bd 3701 ca3d
000003b0: 4b11 283d f627 b43d a73c 083d 7bc5 083e
000003c0: 605c 383d 57de f73d 9e8a 5abd 3a23 e83c
000003d0: 4bfb 88bd d283 babd 4f33 10be cc61 ba3d
000003e0: f44e ce3d cbd8 a93d 0254 953d 4866 b5bd
000003f0: 1eaf 1d3e 5efc 76bd abfa aabd 1726 06be

mlp1.2.bias f4 [32]
-0.17554231 -0.13783208 0.073918894 -0.14634334 0.026734797 -0.14294466 -0.12995517 -0.0471663
0.13164444 0.059293617 0.09330554 0.10794199 -0.08704274 -0.047291674 0.15810552 -0.05630128
0.100270726 0.1756728 -0.14095607 0.1538722 0.093848415 -0.024589714 -0.16135062 -0.1359578
0.095481664 -0.023724128 -0.08446573 -0.12602964 0.046019062 0.11628957 0.0076089334 -0.109484576
00000000: 5dc1 33be da23 0dbe ca62 973d 07db 15be
00000010: ef02 db3c 1660 12be f812 05be 7331 41bd
00000020: cdcd 063e dddd 723d fa16 bf3d b110 dd3d
00000030: 7743 b2bd eab4 41bd 6ae6 213e 2c9c 66bd
00000040: bd5a cd3d 92e3 333e ca56 10be ad90 1d3e
00000050: 9933 c03d 5e70 c9bc 1939 25be 8638 0bbe
00000060: e48b c33d 1a59 c2bc 5efc acbd ea0d 01be
00000070: 7c7e 3c3d 3a29 ee3d 5c54 f93b 7339 e0bd

mlp2.0.weight f4 [32, 32]
0.021706596 -0.13682656 0.119624585 0.16802718 -0.12659977 0.036082927 0.0686105 -0.10046654
-0.06857597 0.14428492 0.087127775 0.13765272 -0.12793767 0.03244838 -0.060914695 -0.03225965
0.11400549 0.17773439 0.05455359 -0.007607332 -0.012174256 -0.05481227 -0.039677195 0.16356695
-0.16945277 -0.047977 0.047547292 0.18063769 -0.06765005 -0.025903942 0.0079652695 0.14562379
0.1469642 0.16476369 0.03599811 0.16741847 0.08607927 0.16586554 0.12748419 -0.072678834
-0.024234451 0.14758426 0.10684486 -0.12890722 0.10937617 -0.037485637 0.11845607 0.17052892
0.010473554 -0.08895198 0.07886425 0.16932194 -0.093315676 -0.032135624 -0.097185135 -0.096217915
-0.095692426 0.12139885 0.0071774772 -0.065725915 -0.09425015 -0.077474356 -0.13041943 0.15326086
0.073530294 -0.14439175 0.015011168 0.159024 0.04111697 0.0681142 -0.03376913 -0.013682852
0.023419742 -0.07908994 -0.07264214 0.018940764 0.10822662 -0.040754862 -0.10579723 0.051245682
-0.17582534 0.024014406 -0.14316721 -0.16322413 0.13506639 0.15692568 -0.0840589 -0.06863918
-0.112857826 -0.11183981 -0.010239797 0.03624497 -0.12085835 0.09263567 0.08190644 0.14356506
0.037062883 0.07658807 -0.13163671 -0.051449712 0.097030364 0.16238378 -0.05539023 0.03802577
-0.1032201 0.16252899 0.054081824 -0.13119964 0.10769325 -0.15619382 -0.10326347 0.09932661
-0.050369993 0.01089751 0.1704133 -0.061934836 0.06035825 0.09877649 0.03657255 -0.041296072
-0.01460559 -0.011748034 -0.04981163 -0.067099676 -0.050975896 -0.11125977 -0.08123255 -0.15925762
0.10905836 -0.14205493 0.081175454 0.053333268 -0.10249928 0.17095305 0.066386156 -0.116555914
-0.1739016 0.090693586 0.054253783 -0.17426324 0.115409344 -0.106547944 -0.02875437 0.13447028
-0.06752752 0.03641132 -0.0016422744 -0.14260407 0.17130487 -0.14298868 0.07663925 -0.043866657
0.068774454 -0.0066331695 -0.07177701 0.08704006 0.03221545 -0.12218006 0.13008907 -0.15998085
-0.03150673 -0.15410344 -0.0076624122 -0.008125595 0.054724094 -0.0030699763 -0.073256575 -0.050849304
0.054163024 0.1149344 0.0772093 0.033592116 0.09368417 -0.14690042 0.018656222 0.15387696
0.08630068 -0.013921109 0.12922873 0.0904235 0.14280789 0.17357463 0.118272245 -0.16092604
0.016184513 -0.15919532 -0.019702135 -0.02947606 -0.102772556 -0.0680982 -0.13762397 0.074803
0.014622506 -0.03696314 0.09231019 0.010387427 0.058350164 -0.0011505879 0.07220881 0.05195651
-0.030702764 -0.005023968 0.16255319 0.0065671676 -0.0724224 -0.11956434 0.10904655 -0.09858776
-0.053530123 0.166509 -0.059618503 -0.11607395 0.094012514 0.11793556 -0.06347884 0.16789828
0.10297886 -0.064018816 -0.12304174 -0.15687533 0.09794485 0.08490426 0.006319581 0.032709043
0.10594668 -0.13298273 -0.0626943 0.04961001 -0.121266514 0.07431377 -0.043550108 0.0949203
-0.16184773 -0.0046656365 -0.014692615 0.04189917 0.0067852344 -0.0040785917 -0.04699663 0.08190155
-0.17192258 -0.13584177 -0.08811149 0.14770107 0.02465262 0.05075334 0.12179236 0.15140812
-0.08204413 -0.022065872 -0.037962377 0.050356016 -0.1223908 0.1515982 -0.026040172 -0.11339647
00000000: 08d2 b13c 431c 0cbe bcfd f43d 510f 2c3e
00000010: 5fa3 01be b1cb 133d a983 8c3d 67c1 cdbd
00000020: 8f71 8cbd 6dbf 133e 0c70 b23d d6f4 0c3e
00000030: 1802 03be 98e8 043d b081 79bd b222 04bd
00000040: b67b e93d 0100 363e 9673 5f3d ed46 f9bb
00000050: 8876 47bc d582 60bd 8e84 22bd 187e 273e
00000060: 0785 2dbe 8883 44bd f3c0 423d 16f9 383e
00000070: 1c8c 8abd 8134 d4bc c380 023c 671e 153e
00000080: c97d 163e d0b7 283e c172 133d bf6f 2b3e
00000090: 544a b03d a8d8 293e 378b 023e a4d8 94bd
000000a0: 5487 c6bc 5420 173e 7ad1 da3d 4100 04be
000000b0: 9d00 e03d 8a8a 19bd 1999 f23d 229f 2e3e
000000c0: 4599 2b3c 752c b6bd 9483 a13d bb62 2d3e
000000d0: 4a1c bfbd a5a0 03bd 0009 c7bd e60d c5bd
000000e0: 64fa c3bd f69f f83d 0b31 eb3b 4f9b 86bd
000000f0: 3906 c1bd e0aa 9ebd ac8c 05be 6af0 1c3e
00000100: 0d97 963d 6edb 13be 67f1 753c 30d7 223e
00000110: 456a 283d 757f 8b3d 8051 0abd 0a2e 60bc
00000120: c2da bf3c e8f9 a1bd 67c5 94bd a929 9b3c
00000130: eba5 dd3d 92ee 26bd 38ac d8bd fee6 513d
00000140: 8f0b 34be dcb9 c43c 6d9a 12be 3a24 27be
00000150: d84e 0a3e 20b1 203e 1327 acbd b392 8cbd
00000160: 0122 e7bd 450c e5bd d2c4 27bc 9b75 143d
00000170: 9584 f7bd c5b7 bd3d 90be a73d b802 133e
00000180: 40cf 173d 35da 9c3d c6cb 06be efbc 52bd
00000190: dbb7 c63d ef47 263e dee0 62bd e9c0 1b3d
000001a0: 0f65 d3bd 006e 263e e784 5d3d 3359 06be
000001b0: 478e dc3d 46f1 1fbe cc7b d3bd c06b cb3d
000001c0: c450 4ebd 788b 323c d380 2e3e 62af 7dbd
000001d0: 363a 773d 544b ca3d 19cd 153d 1226 29bd
000001e0: 494c 6fbc d37a 40bc 4807 4cbd 8e6b 89bd
000001f0: 1acc 50bd 2adc e3bd 405d a6bd 6e14 23be
00000200: fd59 df3d d976 11be 513f a63d fc73 5a3d
00000210: 24eb d1bd 510e 2f3e 77f5 873d deb4 eebd
00000220: 4313 32be 8fbd b93d 3739 5e3d 1072 32be
00000230: bc5b ec3d cf35 dabd 498e ebbc 94b2 093e
00000240: de4b 8abd 0924 153d 9641 d7ba cd06 12be
00000250: 8b6a 2f3e a06b 12be 0af5 9c3d 86ad 33bd
00000260: 9fd9 8c3d 0f5b d9bb d3ff 92bd 0f42 b23d
00000270: 59f4 033d 8a39 fabd 1236 053e 05d2 23be
00000280: 330d 01bd 4bcd 1dbe f914 fbbb 3721 05bc
00000290: 5f26 603d a831 49bb 8b07 96bd 5c47 50bd
000002a0: 0cda 5d3d ba62 eb3d e91f 9e3d e397 093d
000002b0: 7cdd bf3d 106d 16be efd4 983c ec91 1d3e
000002c0: 69be b03d 5d15 64bc 8954 043e f52f b93d
000002d0: 3b3c 123e 8cbd 313e b838 f23d ccc9 24be
000002e0: 6295 843c 1904 23be 5f66 a1bc c777 f1bc
000002f0: 6b7a d2bd 1277 8bbd 4ced 0cbe 5132 993d
00000300: 3c93 6f3c a966 17bd 200d bd3d 0730 2a3c
00000310: 9500 6f3d 53cf 96ba 36e2 933d 59d0 543d
00000320: 5d84 fbbc 19a0 a4bb 5874 263e 6531 d73b
00000330: 3252 94bd 26de f4bd cc53 df3d 61e8 c9bd
00000340: 6742 5bbd 5681 2a3e 8832 74bd 2eb8 edbd
00000350: a289 c03d 3388 f13d 3201 82bd 87ed 2b3e
00000360: 95e6 d23d 4c1c 83bd 4ffd fbbd eda3 20be
00000370: 4f97 c83d 49e2 ad3d 7d14 cf3b ebf9 053d
00000380: 93fa d83d a02c 08be df65 80bd de33 4b3d
00000390: 945a f8bd d131 983d 9961 32bd 9365 c23d
000003a0: 69bb 25be 32e2 98bb 4bb9 70bc 779e 2b3d
000003b0: ac56 de3b b5a5 85bb 8a7f 40bd 00bc a73d
000003c0: 790c 30be 1b1a 0bbe cc73 b4bd f33e 173e
000003d0: 4bf4 c93c bce2 4f3d 466e f93d bb0a 1b3e
000003e0: c106 a8bd 7dc3 b4bc 707e 1bbd 1c42 4e3d
000003f0: 07a8 fabd 8f3c 1b3e 3352 d5bc 693c e8bd

mlp2.0.bias f4 [32]
-0.14124903 -0.08979245 0.05377252 0.003711641 -0.010612654 -0.1758057 0.09285672 0.07176844
0.11966884 0.016927538 0.048011694 -0.09846222 0.13417777 0.09941683 -0.14334959 0.115789086
-0.13491745 -0.13472337 -0.06000253 -0.12028484 0.121504694 0.17795148 -0.11950355 0.034858223
0.030333444 -0.031042142 -0.07431527 -0.019101761 -0.08639211 0.12353053 0.050570484 -0.09143527
00000000: 96a3 10be 1be5 b7bd 9340 5c3d 013f 733b
00000010: b2e0 2dbc 6906 34be aa2b be3d 55fb 923d
00000020: f014 f53d 9fab 8a3c e9a7 443d 8fa6 c9bd
00000030: e665 093e 0d9b cb3d 3cca 12be d422 ed3d
00000040: cd27 0abe ecf4 09be 37c5 75bd e657 f6bd
00000050: 74d7 f83d ea38 363e 47be f4bd 7fc7 0e3d
00000060: d87d f83c 174c febc 9b32 98bd 4c7b 9cbc
00000070: 59ee b0bd 93fd fc3d ff22 4f3d 6a42 bbbd

mlp2.2.weight f4 [32, 32]
0.13840382 0.040790245 0.12801673 -0.060122076 0.054032788 0.11534379 0.110516936 -0.038600933
0.046460744 -0.13455188 0.1351475 0.09845222 -0.028307822 -0.06515426 0.10091688 0.1607646
-0.03444428 -0.09475548 -0.005381816 0.09594438 -0.13082707 -0.012122394 -0.119174525 -0.12030474
0.09378239 -0.11785152 -0.054059405 0.070639126 0.17005605 -0.14845574 -0.07070903 -0.18055841
-0.12738098 0.13572797 0.043424863 0.025698936 -0.029876487 -0.11275937 0.04316031 0.1418881
0.044449866 -0.120355375 -0.033232287 -0.056593962 -0.072925285 0.03938071 0.032870833 0.10945256
0.15223794 0.08232408 -0.03489063 -0.15280765 0.091043636 -0.0034690446 0.045097668 -0.11365517
0.040513933 0.012437766 0.0038014587 0.16462737 0.14702925 -0.015380817 0.012555904 -0.042866275
0.16459176 0.06870678 0.13010357 -0.025522804 -0.16824372 -0.101080246 0.044373535 -0.14102952
0.10698591 -0.07573271 -0.016218422 0.10189889 0.0032550674 -0.10261295 -0.13351975 -0.015235875
-0.124595135 -0.10485578 -0.013941603 0.061249632 0.1423359 0.103581704 0.03761253 -0.13035111
-0.13834603 0.06687514 -0.13258453 0.08307343 -0.10793386 -0.06973699 0.012700278 -0.012390392
-0.08658997 -0.07180723 0.12842384 0.008885946 0.009733434 0.07012613 -0.08946303 -0.12372716
0.1022419 0.15308435 0.058058772 0.108574055 0.15944959 -0.007599517 -0.0507961 -0.052450847
-0.07536191 -0.052184243 0.16238558 0.103033185 0.076694526 0.1465902 -0.065409355 -0.012725019
-0.05052617 0.16335034 -0.13037589 -0.010813467 -0.14575836 -0.13304879 0.14087968 -0.12541823
0.029277576 0.14225902 0.0643356 0.09503842 -0.006780063 0.08272515 0.15058506 0.019312855
0.084035486 -0.07970715 0.036092363 0.12612943 0.035168644 -0.16678256 0.073707506 -0.007737171
-0.14367066 0.17448638 -0.13695288 0.12377381 0.098807864 -0.008564866 0.072794326 -0.05494927
-0.042289577 0.07125769 -0.122588776 -0.010472632 0.09016192 -0.041239295 0.08610774 0.14697148
0.15303504 -0.09241366 0.09372361 -0.044724654 0.005357012 -0.0004302342 0.027172158 0.020415893
-0.16711171 0.06257001 0.0001217105 0.09599878 0.045516416 -0.021859277 0.07462247 -0.16653016
0.16984956 -0.030445926 0.08483107 -0.09205175 -0.13815755 0.07621148 -0.012339715 0.1728824
0.14080718 -0.10653097 0.15453878 0.10540028 -0.09456434 0.07083511 -0.09395828 0.07756472
0.13114941 0.062296897 -0.028344698 -0.022944218 0.042136557 -0.0386448 0.17952102 -0.14815876
0.15489365 -0.10963597 -0.1592546 -0.07263643 -0.0013408333 0.14603455 0.074003205 -0.08641615
0.13605407 0.07332919 0.1309001 -0.16581987 0.13343862 -0.17077053 0.15239806 0.06345644
-0.06722454 -0.0127377445 -0.1347599 0.10312957 0.040516376 0.068446584 0.17008878 0.1172207
-0.10343087 0.1294649 -0.15749612 -0.11529702 0.13123006 -0.041521847 0.109074496 -0.06577255
-0.053478416 -0.14551146 0.12585683 -0.0018712521 -0.061423354 -0.1775406 -0.06535031 -0.13261864
0.11137385 -0.16109408 0.11378964 0.17222632 -0.023305632 -0.13546611 -0.030731779 -0.037085645
0.12485163 0.11643897 0.123214036 -0.0216376 0.1017888 -0.13721746 -0.13497871 0.111431755
00000000: bbb9 0d3e ac13 273d d116 033e 9142 76bd
00000010: 7c51 5d3d 5d39 ec3d b456 e23d 031c 1ebd
00000020: 9f4d 3e3d f8c7 09be 1b64 0a3e 51a1 c93d
00000030: cee5 e7bc 996f 85bd 82ad ce3d 7a9f 243e
00000040: 7215 0dbd 290f c2bd f259 b0bb 7d7e c43d
00000050: 88f7 05be 019d 46bc c611 f4bd 5562 f6bd
00000060: fb10 c03d 235c f1bd 656d 5dbd 3fab 903d
00000070: 2c23 2e3e c804 18be e5cf 90bd 4ee4 38be
00000080: 2970 02be 46fc 0a3e 45de 313d 9386 d23c
00000090: 89bf f4bc 62ee e6bd ddc8 303d 1d4b 113e
000000a0: 1011 363d e17c f6bd 941e 08bd 12cf 67bd
000000b0: da59 95bd ab4d 213d 91a3 063d aa28 e03d
000000c0: 43e4 1b3e 8799 a83d 7ae9 0ebd 9c79 1cbe
000000d0: 1675 ba3d e958 63bb 55b8 383d 0bc4 e8bd
000000e0: f0f1 253d c6c7 4b3c e521 793b 1494 283e
000000f0: d68e 163e d3ff 7bbc 47b7 4d3c 8c94 2fbd
00000100: be8a 283e 24b6 8c3d df39 053e 3315 d1bc
00000110: 1548 2cbe 2903 cfbd 06c1 353d 0b6a 10be
00000120: 6e1b db3d c019 9bbd 7fdc 84bc 5eb0 d03d
00000130: f852 553b bd26 d2bd 67b9 08be e49f 79bc
00000140: bc2b ffbd a1be d6bd 526b 64bc e5e0 7a3d
00000150: 81c0 113e a522 d43d 990f 1a3d c37a 05be
00000160: 95aa 0dbe d5f5 883d 3dc4 07be 6722 aa3d
00000170: 6d0c ddbd 44d2 8ebd d414 503c 1201 4bbc
00000180: 1556 b1bd ab0f 93bd 8a81 033e 5c96 113c
00000190: fb78 1f3c 4a9e 8f3d 6538 b7bd aa64 fdbd
000001a0: 3464 d13d 25c2 1c3e 09cf 6d3d 135c de3d
000001b0: c146 233e 5e05 f9bb 920f 50bd b3d6 56bd
000001c0: 5857 9abd 25bf 55bd 6848 263e 1003 d33d
000001d0: 0512 9d3d be1b 163e 57f5 85bd 997c 50bc
000001e0: 87f4 4ebd 5045 273e 4281 05be f82a 31bc
000001f0: ae41 15be f13d 08be c342 103e a36d 00be
00000200: 87d7 ef3c 59ac 113e 62c2 833d 81a3 c23d
00000210: 4a2b debb ce6b a93d f832 1a3e fe35 9e3c
00000220: cc1a ac3d 813d a3bd 96d5 133d 1328 013e
00000230: ff0c 103d 0cc9 2abe f6f3 963d 1888 fdbb
00000240: 671e 13be 8fac 323e 603d 0cbe 207d fd3d
00000250: c75b ca3d a753 0cbc 3115 953d 7c12 61bd
00000260: d637 2dbd 8def 913d d30f fbbd 6795 2bbc
00000270: d0a6 b83d 89ea 28bd 4159 b03d b17f 163e
00000280: 38b5 1c3e 5f43 bdbd 2af2 bf3d 3331 37bd
00000290: e089 af3b 0f91 e1b9 2598 de3c 3b3f a73c
000002a0: 551f 2bbe b524 803d d43e ff38 029b c43d
000002b0: 6c6f 3a3d 3a12 b3bc aad3 983d e286 2abe
000002c0: 0bed 2d3e bc69 f9bc e9bb ad3d a185 bcbd
000002d0: 2c79 0dbe c414 9c3d 842c 4abc 1508 313e
000002e0: c22f 103e e92c dabd 6a3f 1e3e 1adc d73d
000002f0: f3aa c1bd 0012 913d 336d c0bd 40da 9e3d
00000300: 084c 063e 082b 7f3d 2433 e8bc 83f5 bbbc
00000310: 6297 2c3d 034a 1ebd 5cd4 373e eeb6 17be
00000320: 719c 1e3e d388 e0bd a313 23be 69c2 94bd
00000330: e6be afba 158a 153e fe8e 973d f3fa b0bd
00000340: c251 0b3e 9d2d 963d ad0a 063e afcc 29be
00000350: 22a4 083e 78de 2ebe 3d0e 1c3e 73f5 813d
00000360: 05ad 89bd f9b1 50bc 80fe 09be 9935 d33d
00000370: 80f4 253d b92d 8c3d c12b 2e3e 6811 f03d
00000380: 90d3 d3bd 7292 043e aa46 21be d820 ecbd
00000390: 2c61 063e d012 2abd 7362 df3d c2b3 86bd
000003a0: 2f0c 5bbd f500 15be 9de0 003e cd44 f5ba
000003b0: 0e97 7bbd 34cd 35be 62d6 85bd 2ecd 07be
000003c0: f917 e43d d9f5 24be 8b0a e93d 195c 303e
000003d0: 74eb bebc a1b7 0abe 36c1 fbbc 1ee7 17bd
000003e0: 36b2 ff3d 8e77 ee3d a457 fc3d 5641 b1bc
000003f0: a576 d03d bc82 0cbe dc37 0abe 5536 e43d

mlp2.2.bias f4 [32]
0.1337763 -0.038029917 0.19048694 0.16256477 -0.096453376 -0.1681424 0.162126 -0.11935674
-0.12557317 -0.01844703 0.03680975 -0.1148666 -0.079005815 0.050493747 -0.07088577 0.17159805
0.024362367 -0.12605128 0.11602262 -0.009547128 0.13691644 0.083632015 0.07235013 -0.0071091224
0.15711087 -0.05224005 -0.0303304 0.039214313 -0.031072212 -0.084663376 -0.16255432 -0.11850758
00000000: a8fc 083e 42c5 1bbd 020f 433e 6177 263e
00000010: 5989 c5bd 852d 2cbe 5c04 263e 4e71 f4bd
00000020: 4196 00be 3a1e 97bc d2c5 163d 2e3f ebbd
00000030: cdcd a1bd 88d2 4e3d 8f2c 91bd 66b7 2f3e
00000040: 9693 c73c 9613 01be 449d ed3d 8f6b 1cbc
00000050: d333 0c3e 4347 ab3d 4e2c 943d a4f3 e8bb
00000060: ace1 203e aaf9 55bd 7677 f8bc 309f 203d
00000070: 278b febc fe63 adbd a474 26be 1ab4 f2bd

conv1.apply_func.0.weight f4 [32, 9]
0.20262864 -0.108780794 -0.27090466 0.28705746 -0.2015319 -0.2586888 0.10088607 -0.16831747
0.29345056 0.29082963 -0.3052037 -0.31800923 -0.10207908 0.19695924 0.24737263 0.14269947
0.15354599 0.04560718 -0.25060394 -0.12669113 0.20406279 -0.28230697 0.043087337 -0.13286996
-0.22719224 -0.02824169 0.12924753 0.017085303 0.23482691 -0.1684229 0.2678306 -0.1239528
0.26377326 -0.043689683 0.2325944 -0.14595608 0.077706605 0.123602524 0.011583673 0.18948765
0.30003625 0.01854949 0.15385501 0.06013411 -0.10332233 -0.29824615 0.30347577 0.29615837
0.33132625 -0.23054218 -0.3349763 -0.21524003 0.25574124 -0.2698347 -0.025714556 0.28277472
0.06583645 0.09262955 0.04435502 -0.18410148 0.19723657 -0.25989315 0.26185676 -0.32824168
-0.12658589 -0.2656265 0.13848862 -0.20954217 -0.11979018 0.02808694 0.10375566 0.22156902
-0.1984348 0.12550583 0.13233729 -0.24407126 -0.31675157 -0.043061253 0.046551112 0.24392805
0.09198958 0.28777325 0.14739007 0.31495753 -0.19984183 0.24705033 -0.1024916 0.093849495
-0.24167158 0.2216314 -0.24013975 -0.18899685 0.010506782 -0.11915234 -0.1580166 -0.03277481
-0.3248702 0.10951143 0.10557241 -0.33015302 0.13973919 -0.10376524 0.07013254 0.15147974
-0.096745275 0.17250277 0.30980134 -0.062162627 -0.12746018 -0.18552673 -0.30469725 0.1890828
-0.17676356 -0.21813095 0.072544105 -0.19183587 -0.046058863 -0.08513284 0.053726677 0.15475033
0.17411156 0.108135894 0.14043425 0.30978668 0.31451428 0.15609558 -0.2467953 0.008358562
0.0036399844 0.17288831 -0.12849748 0.064392336 0.008162605 -0.22391449 -0.024449011 0.29669982
0.3264824 -0.27202812 -0.27908865 -0.23563865 -0.00926724 -0.16701135 -0.10688567 0.2212563
-0.037677176 0.17571685 0.07727824 0.2166855 -0.14845428 -0.0007546519 0.11166803 -0.1149672
-0.28819248 0.3318793 0.2360661 0.1939476 -0.20679915 -0.18724701 -0.041018985 0.110286646
-0.20282678 -0.03594793 -0.26230934 0.0075060837 -0.059068445 0.05566746 -0.042571045 -0.027552506
0.047983192 0.14044723 0.27795973 -0.28762114 0.028039206 0.17965473 -0.100269586 0.034103498
-0.013378239 0.3105929 -0.24530247 -0.20124209 0.036805633 -0.18344192 0.1265263 -0.15072718
-0.10067892 0.25652465 0.30143616 0.009399842 -0.2793747 0.2198882 0.019025655 -0.17115434
0.012265616 -0.21166211 -0.1873323 -0.26488462 0.14227869 0.32824 0.0014945706 0.10823841
0.3304579 -0.0017179971 -0.25048742 -0.008393142 -0.24917917 0.117202744 -0.13265245 0.2214842
0.30022228 0.15039393 0.31999534 0.205517 -0.26003197 0.052332293 0.19572107 0.0088702105
0.05555874 -0.2622652 0.31773818 -0.051935043 -0.25431582 -0.022398487 -0.27630365 -0.07009533
0.25388366 -0.024987416 -0.011953936 0.14909334 -0.13230826 0.16681138 -0.08297003 0.23429285
0.1515483 0.13957937 0.14178875 -0.2570399 -0.1626837 -0.2972655 -0.01032817 -0.33337635
0.28806934 0.3038364 -0.31078458 0.08227103 0.027946759 -0.09026079 -0.113487616 -0.22380784
-0.33567706 0.31333604 0.22101565 0.18523516 -0.1592347 -0.24380447 -0.274867 -0.30040726
00000000: e27d 4f3e 77c8 debd 04b4 8abe 32f9 923e
00000010: 615e 4ebe dc72 84be 5b9d ce3d 6a5b 2cbe
00000020: 273f 963e 9fe7 943e a943 9cbe 1bd2 a2be
00000030: d60e d1bd afaf 493e 404f 7d3e cf1f 123e
00000040: 293b 1d3e 98ce 3a3d 294f 80be 52bb 01be
00000050: d6f5 503e 8a8a 90be 597c 303d 100f 08be
00000060: 15a5 68be 1e5b e7bc 7759 043e 7af6 8b3c
00000070: 7776 703e 0d77 2cbe 1821 893e f7da fdbd
00000080: 4a0d 873e f4f3 32bd 3a2d 6e3e 8375 15be
00000090: a424 9f3d 5223 fd3d 72c9 3d3c 0d09 423e
000000a0: 5a9e 993e 1af5 973c 2b8c 1d3e 2f4f 763d
000000b0: a89a d3bd b8b3 98be 2d61 9b3e 12a2 973e
000000c0: 98a3 a93e 4013 6cbe 0382 abbe e267 5cbe
000000d0: 84f0 823e c627 8abe 55a7 d2bc d9c7 903e
000000e0: 43d5 863d 90b4 bd3d 9cad 353d 1985 3cbe
000000f0: 62f8 493e b710 85be 1712 863e 4b0f a8be
00000100: bb9f 01be 3200 88be f6cf 0d3e 3992 56be
00000110: 8e54 f5bd 9516 e63c d97d d43d fde2 623e
00000120: 7e32 4bbe 9a84 003e 6d83 073e d1ed 79be
00000130: 432d a2be ff60 30bd 61ac 3e3d 46c8 793e
00000140: 0865 bc3d 0457 933e 6ced 163e 1d42 a13e
00000150: 56a3 4cbe c3fa 7c3e 1ee7 d1bd 2a34 c03d
00000160: c178 77be 57f3 623e 32e7 75be 6488 41be
00000170: a324 2c3c 2406 f4bd 1bcf 21be e13e 06bd
00000180: 6355 a6be 8747 e03d 5936 d83d d109 a9be
00000190: ca17 0f3e df82 d4bd a6a1 8f3d 811d 1b3e
000001a0: 6322 c6bd 91a4 303e 489e 9e3e 3d9e 7ebd
000001b0: ec84 02be b8fa 3dbe 4701 9cbe ec9e 413e
000001c0: 8201 35be b85d 5fbe 0192 943d 9f70 44be
000001d0: 38a8 3cbd 205a aebd 8110 5c3d df76 1e3e
000001e0: 4d4a 323e 5a76 dd3d ffcd 0f3e 5c9c 9e3e
000001f0: 0408 a13e 85d7 1f3e e8b7 7cbe 5af2 083c
00000200: ce8c 6e3b a209 313e d894 03be 21e0 833d
00000210: 72bc 053c d749 65be 4b49 c8bc 0ae9 973e
00000220: b328 a73e 4547 8bbe b5e4 8ebe 424b 71be
00000230: 9fd5 17bc 0605 2bbe e0e6 dabd 0391 623e
00000240: 6253 1abd 1eef 333e 0e44 9e3d cee2 5d3e
00000250: 6604 18be d5d3 45ba 35b2 e43d ec73 ebbd
00000260: f78d 93be 15ec a93e 50bb 713e 339a 463e
00000270: 28c3 53be aebd 3fbe 8603 28bd f7dd e13d
00000280: d3b1 4fbe 233e 13bd 694d 86be 98f5 f53b
00000290: c1f1 71bd 9003 643d fa5e 2ebd cbb5 e1bc
000002a0: 068a 443d 66d1 0f3e bd50 8e3e 1443 93be
000002b0: 7ab2 e53c 69f7 373e 245a cdbd 1cb0 0b3d
000002c0: 6730 5bbc 0806 9f3e 9230 7bbe 6812 4ebe
000002d0: 81c1 163d 33d8 3bbe 1c90 013e 3a58 1abe
000002e0: c030 cebd 3357 833e d755 9a3e cb01 1a3c
000002f0: 330a 8fbe 5f2a 613e b1db 9b3c 1543 2fbe
00000300: b9f5 483c f4bd 58be 0ad4 3fbe f59e 87be
00000310: 81b1 113e 130f a83e 78e5 c33a 19ac dd3d
00000320: c731 a93e 6b2e e1ba e33f 80be 6483 09bc
00000330: d328 7fbe fe07 f03d 0bd6 07be c1cc 623e
00000340: bcb6 993e de00 1a3e 6ed6 a33e 0c73 523e
00000350: e922 85be 635a 563d 1b6b 483e 5c54 113c
00000360: 9091 633d a047 86be 94ae a23e d7b9 54bd
00000370: af35 82be 087d b7bc ac77 8dbe 248e 8fbd
00000380: 0afd 813e 69b2 ccbc 71da 43bc edab 183e
00000390: d17b 07be 9ad0 2a3e 31ec a9bd 77ea 6f3e
000003a0: 7a2f 1b3e e5ed 0e3e 1231 113e bc9a 83be
000003b0: 8e96 26be 2f33 98be 7c37 29bc 4eb0 aabe
000003c0: d37d 933e 7290 9b3e 281f 9fbe b77d a83d
000003d0: 9af0 e43c a6da b8bd 326c e8bd e22d 65be
000003e0: dddd abbe 956d a03e ed51 623e 49ae 3d3e
000003f0: 6c0e 23be e1a7 79be 5ebb 8cbe fbce 99be

conv1.apply_func.0.bias f4 [32]
-0.25746304 -0.30277357 -0.09959935 -0.16771373 -0.13823137 0.24392425 0.22660898 -0.16335082
0.017146701 -0.0037610189 -0.18576968 -0.020806799 -0.12597798 0.16400188 0.0052310647 -0.019330045
-0.06121615 0.19587119 -0.14979428 -0.08141837 -0.29705852 -0.110471606 0.19270279 -0.020094786
0.16868821 -0.19367287 -0.27482557 0.07528116 -0.07276532 -0.31088093 0.28271565 0.047498938
00000000: 32d2 83be 2305 9bbe befa cbbd 26bd 2bbe
00000010: 868c 0dbe 47c7 793e 2f0c 683e 7045 27be
00000020: 3d77 8c3c 6d7b 76bb 683a 3ebe 0573 aabc
00000030: 5f00 01be 1cf0 273e 5a69 ab3b 0b5a 9ebc
00000040: c9bd 7abd 7592 483e ac63 19be adbe a6bd
00000050: 0e18 98be f03e e2bd e153 453e d29d a4bc
00000060: 9abc 2c3e 2e52 46be f0b5 8cbe 022d 9a3d
00000070: fc05 95bd c92b 9fbe 1bc0 903e 3f8e 423d

conv1.apply_func.2.weight f4 [32, 32]
0.06783882 -0.17075628 0.04473905 -0.04746727 0.08818683 -0.14254269 0.07483823 0.04854338
0.16445898 0.065267995 0.05344592 -0.0070413724 -0.12918496 -0.078006946 0.08650158 -0.0021561768
-0.057326667 -0.1186136 -0.13556331 -0.1741695 -0.037467577 -0.113416485 0.10340992 0.054443806
0.09717797 -0.009130437 0.018341528 -0.048658963 -0.1584776 -0.15985094 -0.0615396 -0.13496333
0.1194273 -0.07283038 -0.09716048 -0.16475584 -0.16441348 -0.11114347 -0.081914835 -0.050262123
-0.013208745 0.008569285 -0.0419376 -0.10274499 -0.16685869 0.1351334 -0.13737202 0.08352957
0.12131332 0.13952029 -0.0034419296 -0.045786798 -0.13957176 0.12637493 0.0514475 -0.11187286
0.14312944 -0.05885391 0.12415056 -0.15801851 0.07104279 0.10925582 0.07640102 -0.03209116
0.12590827 0.10124326 0.033885688 -0.077080965 -0.040231742 -0.0990083 -0.026536169 0.010143736
0.12615924 -0.119838454 -0.043767765 0.099249505 -0.16475156 -0.050985515 -0.0758978 0.11944943
0.118387096 -0.10675234 -0.0025989197 -0.10736177 -0.09879017 0.16753298 0.13465722 0.04378197
0.049895294 0.100291684 -0.06715523 0.009621519 -0.14973645 -0.024793295 -0.14657141 0.0868947
-0.16643468 -0.105088905 0.051452424 0.011850917 0.06548728 -0.07317345 0.10894096 0.061121505
-0.011854609 0.090421945 -0.0922249 -0.08019809 0.013923615 0.104386725 0.096655816 -0.14908312
0.15468413 0.06172816 0.020649388 0.13675703 -0.07076675 -0.104295805 -0.1377943 0.13980488
0.13738266 0.16421351 -0.12882292 -0.057593543 -0.14171158 -0.099169955 -0.057131164 0.13908574
0.08149226 0.14367223 0.053881053 0.16328146 -0.02323497 0.02788483 0.05854071 0.027408777
0.11076419 -0.008017816 -0.079141915 0.052058607 0.08334112 -0.09061593 0.09332542 0.06437906
0.14590083 0.12016989 0.12643558 -0.110708095 0.01859281 -0.080321655 0.13511762 -0.16778634
-0.10238757 0.067611024 0.097562425 -0.105946295 0.07912677 0.038847815 -0.10668268 -0.099986
0.12879461 -0.122845836 -0.111914404 0.018379187 0.13559876 -0.07806589 0.012015287 -0.06339002
0.0712958 0.14141554 -0.026384855 -0.05967781 -0.021924496 -0.055545624 -0.055410545 -0.087142736
-0.028354144 -0.12885 -0.067441426 0.1510907 -0.14572942 0.046856653 -0.15464167 -0.029095696
-0.06296377 -0.010772713 -0.16756961 -0.1515789 -0.016998457 0.09301761 -0.11386601 -0.06500654
0.13774648 -0.14242056 0.16977131 -0.029466042 0.11432103 -0.07546863 0.051173985 -0.12585114
-0.06327757 0.16654877 -0.092023894 0.13789365 0.008157354 -0.16145255 0.058984786 -0.14477672
-0.010119943 -0.12645273 0.07738812 -0.14992996 -0.027224272 -0.031727176 -0.04632653 -0.104223065
-0.08849905 0.015254778 0.08029295 -0.11157329 0.04063188 -0.06292137 0.07437526 -0.12226434
0.113893695 -0.1470603 -0.14622371 0.055737242 -0.013507683 0.13051955 0.021896487 0.09390429
-0.071277454 -0.113468565 -0.11862297 0.09863513 0.041032117 0.087966844 0.033260968 0.13356583
0.04500997 0.12102955 -0.053354852 0.02833711 -0.06688555 -0.09107174 -0.14082073 0.091006845
0.10073653 0.08293303 0.07291414 -0.08857399 0.15398833 -0.06029927 -0.08348592 -0.13100468
00000000: 14ef 8a3d bcda 2ebe 4b40 373d 0a6d 42bd
00000010: 4c9b b43d b6f6 11be c944 993d 6cd5 463d
00000020: ef67 283e 3aab 853d 1cea 5a3d 50bb e6bb
00000030: 1049 04be 1bc2 9fbd be27 b13d a54e 0dbb
00000040: 5ecf 6abd b0eb f2bd 1cd1 0abe 7d59 32be
00000050: 9a77 19bd e746 e8bd 95c8 d33d 7800 5f3d
00000060: 3e05 c73d d497 15bc f940 963c 9f4e 47bd
00000070: f447 22be f7af 23be f310 7cbd d433 0abe
00000080: 4d96 f43d 1828 95bd 13fc c6bd c1b5 28be
00000090: 025c 28be 309f e3bd f7c2 a7bd a8df 4dbd
000000a0: 7e69 58bc 3066 0c3c c3c6 2bbd f76b d2bd
000000b0: 01dd 2abe 6960 0a3e 40ab 0cbe 8d11 ab3d
000000c0: 1e73 f83d 68de 0e3e ff91 61bb f08a 3bbd
000000d0: e6eb 0ebe 6e68 013e 9dba 523d 991d e5bd
000000e0: 8690 123e cc10 71bd a642 fe3d 9bcf 21be
000000f0: e27e 913d 84c1 df3d 2378 9c3d 0572 03bd
00000100: 19ee 003e a058 cf3d b8cb 0a3d a0dc 9dbd
00000110: 0aca 24bd ddc4 cabd 6162 d9bc ea31 263c
00000120: e32f 013e dd6d f5bd d445 33bd 5343 cb3d
00000130: a2b4 28be 30d6 50bd 4e70 9bbd e7a1 f43d
00000140: ef74 f23d f9a0 dabd a352 2abb 7de0 dbbd
00000150: 8052 cabd c48d 2b3e 95e3 093e b954 333d
00000160: 025f 4c3d ba65 cd3d ae88 89bd 93a3 1d3c
00000170: 8354 19be 4f1b cbbc d116 16be d9f5 b13d
00000180: da6d 2abe da38 d7bd c7bf 523d 592a 423c
00000190: 321e 863d f6db 95bd 701c df3d 8b5a 7a3d
000001a0: d539 42bc 242f b93d 69e0 bcbd e53e a4bd
000001b0: e01f 643c b5c8 d53d 7cf3 c53d 3fa9 18be
000001c0: 8465 1e3e abd6 7c3d e828 a93c 090a 0c3e
000001d0: 28ee 90bd 0a99 d5bd f319 0dbe 0329 0f3e
000001e0: 0aae 0c3e 9627 283e 28ea 03be 35e7 6bbd
000001f0: d71c 11be 9e19 cbbd 5e02 6abd 7e6c 0e3e
00000200: 6ae5 a63d d01e 133e 61b2 5c3d 4133 273e
00000210: 4457 bebc ba6e e43c 62c8 6f3d 5f88 e03c
00000220: 56d8 e23d 285d 03bc 2815 a2bd 683b 553d
00000230: c0ae aa3d d894 b9bd 6621 bf3d 2bd9 833d
00000240: 0767 153e a21b f63d 5478 013e edba e2bd
00000250: f34f 983c ae7f a4bd 465c 0a3e 2fd0 2bbe
00000260: 93b0 d1bd a677 8a3d cfce c73d 5ffa d8bd
00000270: 370d a23d e31e 1f3d 737c dabd 76c5 ccbd
00000280: bce2 033e 9996 fbbd 6133 e5bd f38f 963c
00000290: 67da 0a3e 02e1 9fbd c4db 443c a0d2 81bd
000002a0: 8803 923d 3ccf 103e 0d25 d8bc b870 74bd
000002b0: 009b b3bc cf83 63bd 2bf6 62bd e477 b2bd
000002c0: f346 e8bc 41f1 03be bb1e 8abd 85b7 1a3e
000002d0: 183a 15be c3ec 3f3d 635a 1ebe 195a eebc
000002e0: 26f3 80bd 0980 30bc 5e97 2bbe 8037 1bbe
000002f0: 5940 8bbc 0480 be3d 9532 e9bd 2622 85bd
00000300: 6a0d 0d3e b2d6 11be 88d8 2d3e c562 f1bc
00000310: 2521 ea3d 4c8f 9abd d09b 513d 1fdf 00be
00000320: ac97 81bd c38b 2a3e 0677 bcbd fe33 0d3e
00000330: 6ca6 053c d153 25be 089a 713d 5940 14be
00000340: 1ece 25bc d37c 01be aa7d 9e3d 3d87 19be
00000350: 7005 dfbc 5bf4 01bd e3c0 3dbd e772 d5bd
00000360: fd3e b5bd 2def 793c a170 a43d 8980 e4bd
00000370: 9d6d 263d ebdc 80bd 0e52 983d ba65 fabd
00000380: 1941 e93d fa96 16be abbb 15be bc4c 643d
00000390: 544f 5dbc eba6 053e 4360 b33c e450 c03d
000003a0: eaf9 91bd 3562 e8bd 9af0 f2bd 3701 ca3d
000003b0: 4b11 283d f627 b43d a73c 083d 7bc5 083e
000003c0: 605c 383d 57de f73d 9e8a 5abd 3a23 e83c
000003d0: 4bfb 88bd d283 babd 4f33 10be cc61 ba3d
000003e0: f44e ce3d cbd8 a93d 0254 953d 4866 b5bd
000003f0: 1eaf 1d3e 5efc 76bd abfa aabd 1726 06be

conv1.apply_func.2.bias f4 [32]
-0.17554231 -0.13783208 0.073918894 -0.14634334 0.026734797 -0.14294466 -0.12995517 -0.0471663
0.13164444 0.059293617 0.09330554 0.10794199 -0.08704274 -0.047291674 0.15810552 -0.05630128
0.100270726 0.1756728 -0.14095607 0.1538722 0.093848415 -0.024589714 -0.16135062 -0.1359578
0.095481664 -0.023724128 -0.08446573 -0.12602964 0.046019062 0.11628957 0.0076089334 -0.109484576
00000000: 5dc1 33be da23 0dbe ca62 973d 07db 15be
00000010: ef02 db3c 1660 12be f812 05be 7331 41bd
00000020: cdcd 063e dddd 723d fa16 bf3d b110 dd3d
00000030: 7743 b2bd eab4 41bd 6ae6 213e 2c9c 66bd
00000040: bd5a cd3d 92e3 333e ca56 10be ad90 1d3e
00000050: 9933 c03d 5e70 c9bc 1939 25be 8638 0bbe
00000060: e48b c33d 1a59 c2bc 5efc acbd ea0d 01be
00000070: 7c7e 3c3d 3a29 ee3d 5c54 f93b 7339 e0bd

conv2.apply_func.0.weight f4 [32, 32]
0.021706596 -0.13682656 0.119624585 0.16802718 -0.12659977 0.036082927 0.0686105 -0.10046654
-0.06857597 0.14428492 0.087127775 0.13765272 -0.12793767 0.03244838 -0.060914695 -0.03225965
0.11400549 0.17773439 0.05455359 -0.007607332 -0.012174256 -0.05481227 -0.039677195 0.16356695
-0.16945277 -0.047977 0.047547292 0.18063769 -0.06765005 -0.025903942 0.0079652695 0.14562379
0.1469642 0.16476369 0.03599811 0.16741847 0.08607927 0.16586554 0.12748419 -0.072678834
-0.024234451 0.14758426 0.10684486 -0.12890722 0.10937617 -0.037485637 0.11845607 0.17052892
0.010473554 -0.08895198 0.07886425 0.16932194 -0.093315676 -0.032135624 -0.097185135 -0.096217915
-0.095692426 0.12139885 0.0071774772 -0.065725915 -0.09425015 -0.077474356 -0.13041943 0.15326086
0.073530294 -0.14439175 0.015011168 0.159024 0.04111697 0.0681142 -0.03376913 -0.013682852
0.023419742 -0.07908994 -0.07264214 0.018940764 0.10822662 -0.040754862 -0.10579723 0.051245682
-0.17582534 0.024014406 -0.14316721 -0.16322413 0.13506639 0.15692568 -0.0840589 -0.06863918
-0.112857826 -0.11183981 -0.010239797 0.03624497 -0.12085835 0.09263567 0.08190644 0.14356506
0.037062883 0.07658807 -0.13163671 -0.051449712 0.097030364 0.16238378 -0.05539023 0.03802577
-0.1032201 0.16252899 0.054081824 -0.13119964 0.10769325 -0.15619382 -0.10326347 0.09932661
-0.050369993 0.01089751 0.1704133 -0.061934836 0.06035825 0.09877649 0.03657255 -0.041296072
-0.01460559 -0.011748034 -0.04981163 -0.067099676 -0.050975896 -0.11125977 -0.08123255 -0.15925762
0.10905836 -0.14205493 0.081175454 0.053333268 -0.10249928 0.17095305 0.066386156 -0.116555914
-0.1739016 0.090693586 0.054253783 -0.17426324 0.115409344 -0.106547944 -0.02875437 0.13447028
-0.06752752 0.03641132 -0.0016422744 -0.14260407 0.17130487 -0.14298868 0.07663925 -0.043866657
0.068774454 -0.0066331695 -0.07177701 0.08704006 0.03221545 -0.12218006 0.13008907 -0.15998085
-0.03150673 -0.15410344 -0.0076624122 -0.008125595 0.054724094 -0.0030699763 -0.073256575 -0.050849304
0.054163024 0.1149344 0.0772093 0.033592116 0.09368417 -0.14690042 0.018656222 0.15387696
0.08630068 -0.013921109 0.12922873 0.0904235 0.14280789 0.17357463 0.118272245 -0.16092604
0.016184513 -0.15919532 -0.019702135 -0.02947606 -0.102772556 -0.0680982 -0.13762397 0.074803
0.014622506 -0.03696314 0.09231019 0.010387427 0.058350164 -0.0011505879 0.07220881 0.05195651
-0.030702764 -0.005023968 0.16255319 0.0065671676 -0.0724224 -0.11956434 0.10904655 -0.09858776
-0.053530123 0.166509 -0.059618503 -0.11607395 0.094012514 0.11793556 -0.06347884 0.16789828
0.10297886 -0.064018816 -0.12304174 -0.15687533 0.09794485 0.08490426 0.006319581 0.032709043
0.10594668 -0.13298273 -0.0626943 0.04961001 -0.121266514 0.07431377 -0.043550108 0.0949203
-0.16184773 -0.0046656365 -0.014692615 0.04189917 0.0067852344 -0.0040785917 -0.04699663 0.08190155
-0.17192258 -0.13584177 -0.08811149 0.14770107 0.02465262 0.05075334 0.12179236 0.15140812
-0.08204413 -0.022065872 -0.037962377 0.050356016 -0.1223908 0.1515982 -0.026040172 -0.11339647
00000000: 08d2 b13c 431c 0cbe bcfd f43d 510f 2c3e
00000010: 5fa3 01be b1cb 133d a983 8c3d 67c1 cdbd
00000020: 8f71 8cbd 6dbf 133e 0c70 b23d d6f4 0c3e
00000030: 1802 03be 98e8 043d b081 79bd b222 04bd
00000040: b67b e93d 0100 363e 9673 5f3d ed46 f9bb
00000050: 8876 47bc d582 60bd 8e84 22bd 187e 273e
00000060: 0785 2dbe 8883 44bd f3c0 423d 16f9 383e
00000070: 1c8c 8abd 8134 d4bc c380 023c 671e 153e
00000080: c97d 163e d0b7 283e c172 133d bf6f 2b3e
00000090: 544a b03d a8d8 293e 378b 023e a4d8 94bd
000000a0: 5487 c6bc 5420 173e 7ad1 da3d 4100 04be
000000b0: 9d00 e03d 8a8a 19bd 1999 f23d 229f 2e3e
000000c0: 4599 2b3c 752c b6bd 9483 a13d bb62 2d3e
000000d0: 4a1c bfbd a5a0 03bd 0009 c7bd e60d c5bd
000000e0: 64fa c3bd f69f f83d 0b31 eb3b 4f9b 86bd
000000f0: 3906 c1bd e0aa 9ebd ac8c 05be 6af0 1c3e
00000100: 0d97 963d 6edb 13be 67f1 753c 30d7 223e
00000110: 456a 283d 757f 8b3d 8051 0abd 0a2e 60bc
00000120: c2da bf3c e8f9 a1bd 67c5 94bd a929 9b3c
00000130: eba5 dd3d 92ee 26bd 38ac d8bd fee6 513d
00000140: 8f0b 34be dcb9 c43c 6d9a 12be 3a24 27be
00000150: d84e 0a3e 20b1 203e 1327 acbd b392 8cbd
00000160: 0122 e7bd 450c e5bd d2c4 27bc 9b75 143d
00000170: 9584 f7bd c5b7 bd3d 90be a73d b802 133e
00000180: 40cf 173d 35da 9c3d c6cb 06be efbc 52bd
00000190: dbb7 c63d ef47 263e dee0 62bd e9c0 1b3d
000001a0: 0f65 d3bd 006e 263e e784 5d3d 3359 06be
000001b0: 478e dc3d 46f1 1fbe cc7b d3bd c06b cb3d
000001c0: c450 4ebd 788b 323c d380 2e3e 62af 7dbd
000001d0: 363a 773d 544b ca3d 19cd 153d 1226 29bd
000001e0: 494c 6fbc d37a 40bc 4807 4cbd 8e6b 89bd
000001f0: 1acc 50bd 2adc e3bd 405d a6bd 6e14 23be
00000200: fd59 df3d d976 11be 513f a63d fc73 5a3d
00000210: 24eb d1bd 510e 2f3e 77f5 873d deb4 eebd
00000220: 4313 32be 8fbd b93d 3739 5e3d 1072 32be
00000230: bc5b ec3d cf35 dabd 498e ebbc 94b2 093e
00000240: de4b 8abd 0924 153d 9641 d7ba cd06 12be
00000250: 8b6a 2f3e a06b 12be 0af5 9c3d 86ad 33bd
00000260: 9fd9 8c3d 0f5b d9bb d3ff 92bd 0f42 b23d
00000270: 59f4 033d 8a39 fabd 1236 053e 05d2 23be
00000280: 330d 01bd 4bcd 1dbe f914 fbbb 3721 05bc
00000290: 5f26 603d a831 49bb 8b07 96bd 5c47 50bd
000002a0: 0cda 5d3d ba62 eb3d e91f 9e3d e397 093d
000002b0: 7cdd bf3d 106d 16be efd4 983c ec91 1d3e
000002c0: 69be b03d 5d15 64bc 8954 043e f52f b93d
000002d0: 3b3c 123e 8cbd 313e b838 f23d ccc9 24be
000002e0: 6295 843c 1904 23be 5f66 a1bc c777 f1bc
000002f0: 6b7a d2bd 1277 8bbd 4ced 0cbe 5132 993d
00000300: 3c93 6f3c a966 17bd 200d bd3d 0730 2a3c
00000310: 9500 6f3d 53cf 96ba 36e2 933d 59d0 543d
00000320: 5d84 fbbc 19a0 a4bb 5874 263e 6531 d73b
00000330: 3252 94bd 26de f4bd cc53 df3d 61e8 c9bd
00000340: 6742 5bbd 5681 2a3e 8832 74bd 2eb8 edbd
00000350: a289 c03d 3388 f13d 3201 82bd 87ed 2b3e
00000360: 95e6 d23d 4c1c 83bd 4ffd fbbd eda3 20be
00000370: 4f97 c83d 49e2 ad3d 7d14 cf3b ebf9 053d
00000380: 93fa d83d a02c 08be df65 80bd de33 4b3d
00000390: 945a f8bd d131 983d 9961 32bd 9365 c23d
000003a0: 69bb 25be 32e2 98bb 4bb9 70bc 779e 2b3d
000003b0: ac56 de3b b5a5 85bb 8a7f 40bd 00bc a73d
000003c0: 790c 30be 1b1a 0bbe cc73 b4bd f33e 173e
000003d0: 4bf4 c93c bce2 4f3d 466e f93d bb0a 1b3e
000003e0: c106 a8bd 7dc3 b4bc 707e 1bbd 1c42 4e3d
000003f0: 07a8 fabd 8f3c 1b3e 3352 d5bc 693c e8bd

conv2.apply_func.0.bias f4 [32]
-0.14124903 -0.08979245 0.05377252 0.003711641 -0.010612654 -0.1758057 0.09285672 0.07176844
0.11966884 0.016927538 0.048011694 -0.09846222 0.13417777 0.09941683 -0.14334959 0.115789086
-0.13491745 -0.13472337 -0.06000253 -0.12028484 0.121504694 0.17795148 -0.11950355 0.034858223
0.030333444 -0.031042142 -0.07431527 -0.019101761 -0.08639211 0.12353053 0.050570484 -0.09143527
00000000: 96a3 10be 1be5 b7bd 9340 5c3d 013f 733b
00000010: b2e0 2dbc 6906 34be aa2b be3d 55fb 923d
00000020: f014 f53d 9fab 8a3c e9a7 443d 8fa6 c9bd
00000030: e665 093e 0d9b cb3d 3cca 12be d422 ed3d
00000040: cd27 0abe ecf4 09be 37c5 75bd e657 f6bd
00000050: 74d7 f83d ea38 363e 47be f4bd 7fc7 0e3d
00000060: d87d f83c 174c febc 9b32 98bd 4c7b 9cbc
00000070: 59ee b0bd 93fd fc3d ff22 4f3d 6a42 bbbd
