macros/Timing_estimation/models/February_09/run_2/epoch_28.pth (torch, 311082 bytes, 29 tensors)

mlp1.0.weight f4 [32, 9]
000000 a5 eb f5 bc 20 2f 37 3d f3 d4 3c be 96 17 79 be
       -0.03001959 0.044722676 -0.18440609 -0.24325404
000010 48 c5 1c 3c c1 1b 30 3c 80 36 4b bd 84 dc b5 3d
       0.00956852 0.010748805 -0.049612522 0.08879951
000020 11 9e 1d be 1f 9b 42 be ae a6 9f bd 15 e0 80 3e
       -0.15392329 -0.19004487 -0.077954635 0.2517096
000030 d8 4c 0d 3e 0f 96 6c 3e 69 bd 70 bc a8 98 7b be
       0.13798845 0.23104118 -0.014693596 -0.24569952
000040 0b b9 80 3e d2 db 9d 3e 2f 7b b2 3b 1a 6b 48 3d
       0.25141177 0.30831772 0.0054468135 0.048930265
000050 dc 2d 25 3d 88 f3 16 be 54 70 bd 3d 59 58 06 be
       0.040326938 -0.14741337 0.092499405 -0.1311964
000060 b6 21 6d be 28 9c 9a be a4 eb a4 3e 00 fc 89 3e
       -0.23157391 -0.30197263 0.3221103 0.26950073
000070 e2 13 8d 3e 78 4e 3d be 3f 7a 9c bd 4a 09 01 3e
       0.27554232 -0.18486965 -0.07640504 0.126012
000080 3e fb 26 be b2 10 61 3e 6c 32 89 3e 14 2b c6 bd
       -0.16306779 0.21979025 0.2679628 -0.09676185
000090 50 88 84 3e 6f f0 48 be 72 37 c1 3d 1a 8a 98 be
       0.25885248 -0.19622968 0.094344035 -0.29792863
0000a0 ce a9 8c be 94 e4 44 3d 93 b8 8c 3e c6 7a 52 bd
       -0.274733 0.04806955 0.2748457 -0.051386617
0000b0 26 e5 9f be 1d 5b f3 3d 9c f7 75 3d 58 a9 1d be
       -0.31229514 0.11882613 0.06005059 -0.15396631
0000c0 59 d1 c0 bd 3e c2 95 3e 09 a7 23 be c6 e1 4e 3e
       -0.0941493 0.29249758 -0.15981688 0.20203313
0000d0 20 7b 4b be ee cd be bd da cb 9b 3e 09 f6 9d 3e
       -0.19871187 -0.09316622 0.30428964 0.30851772
0000e0 8f b4 9d 3e 78 63 6c be 87 aa 93 3e 08 7f 74 be
       0.30801818 -0.2308482 0.2884104 -0.23876584
0000f0 0f c1 b9 bd 86 9b b2 bd 05 72 f2 3b 09 2a 8a be
       -0.09070026 -0.0872107 0.007398846 -0.26985195
000100 cd da 39 be ab 14 2b be 81 fd 83 be 09 94 25 bd
       -0.18149872 -0.16707103 -0.25779346 -0.04042438
000110 a5 0e 9e 3e e7 9a 8e be 53 11 a5 3e 32 3b 1c be
       0.30870548 -0.27852556 0.3223978 -0.15256956
000120 09 c8 70 be 0c c8 7b 3c d8 6f bf bd 8d 71 4b 3e
       -0.23513807 0.015367519 -0.093475044 0.19867535
000130 44 e0 66 be 9e 79 aa be 0f bf 8e be fa cf f3 3c
       -0.22546488 -0.33295912 -0.2788014 0.029762257
000140 94 26 88 3c 51 36 05 bd 56 40 8b be e2 b7 97 be
       0.016619958 -0.032522503 -0.27197522 -0.2963248
000150 4e 09 a2 3e d7 55 8e be 22 42 a3 be e9 d9 f3 3d
       0.31647724 -0.27799866 -0.31886393 0.119067974
000160 72 60 fb bd cf 7e 10 3e a5 6b 9c 3e 32 d6 39 3d
       -0.12274255 0.14110874 0.30550876 0.04537029
000170 98 80 89 3e 4a 39 73 3e 8f 64 6d be 51 ca 59 3e
       0.26855922 0.23752323 -0.23182891 0.21268584
000180 17 97 13 be 27 f4 35 3e c7 bf 8b 3d 75 df eb 3d
       -0.14413105 0.17768918 0.06823688 0.115172304
000190 aa 9a 7b 3d fe ba 28 3e 5b a8 9e 3c 24 74 3c 3e
       0.061426796 0.16477582 0.019367388 0.18403679
0001a0 7b a6 7b be 4b 46 55 3d 06 ea 9f 3e 12 b0 99 3e
       -0.24575226 0.05206899 0.31233233 0.30017143
0001b0 ff 31 88 be e2 77 e5 bd d6 2c 71 3e b4 90 ec bd
       -0.26600644 -0.112045065 0.2355226 -0.115510374
0001c0 8b f6 8c 3e 6d 79 77 3e f7 fa 29 3e 31 83 96 3e
       0.27531847 0.24167414 0.16599642 0.29396966
0001d0 71 2b a5 bd 99 e0 5d 3e 6c 65 87 3c 65 2a a5 be
       -0.080649264 0.21667708 0.016527854 -0.32258907
0001e0 6d 31 c2 bc 84 1b a1 3e 05 1d 2f be 98 43 34 be
       -0.023705209 0.31466305 -0.17100914 -0.1760391
0001f0 7f e6 80 be f0 70 61 3e 39 70 b2 3d 93 69 0f 3e
       -0.25175855 0.22015738 0.08712811 0.14005117
000200 6f 25 26 3e 95 69 40 be 1c cb 6a be 50 92 0c 3e
       0.16225217 -0.18790276 -0.22929043 0.13727689
000210 48 39 21 be 8d 1b 01 be 94 24 14 3e c4 34 d2 bd
       -0.15744507 -0.12608166 0.14467078 -0.102639705
000220 95 ba 9a 3e 63 48 0c be 76 10 13 3d f0 8e c7 3d
       0.30220476 -0.13699488 0.03590437 0.0974406
000230 1f fd 97 3c 24 12 45 3e e7 fd fd 3c bc 26 86 be
       0.018553315 0.19245201 0.03100486 -0.26201427
000240 ee 1d d1 bd 12 65 09 3d 39 b5 16 3e 63 a9 5a bd
       -0.10210787 0.033543654 0.14717568 -0.053384196
000250 6a 04 9b be b8 e4 18 3d db d4 73 3e 40 f2 a3 3e
       -0.30276805 0.0373275 0.23811667 0.3202076
000260 32 49 da bc 48 09 66 be 9d f7 79 3e 19 d3 3c 3e
       -0.02664623 -0.22464478 0.24410863 0.18439902
000270 c5 19 6b be f2 75 1f 3e c6 8d 35 3d b1 a7 75 be
       -0.22959049 0.15572336 0.04432466 -0.2398975
000280 f4 43 c4 bd e3 44 8d be 47 6f 55 3e 19 aa 3c be
       -0.095832735 -0.2759162 0.2084323 -0.18424262
000290 c6 b7 4c bd 4d 39 6f bb 63 80 e2 bd 1e 72 d3 bd
       -0.049979948 -0.003650266 -0.11059644 -0.103245005
0002a0 cf 3d 00 3e e8 16 53 3e 9b 1d 20 3d a1 69 97 bc
       0.12523578 0.20614207 0.039090734 -0.018482985
0002b0 c0 7a ab 3e e6 d8 48 3d 52 e9 a6 be 56 57 a3 3e
       0.33492088 0.049034975 -0.32599884 0.3190257
0002c0 eb 18 12 3c 1d 49 8c 3e 23 e7 2d be 4c 4f 71 be
       0.008917074 0.2739953 -0.16982703 -0.23565406
0002d0 8e 79 84 be 0b b6 e2 bd cb 3d 37 be 5b 3d 8c be
       -0.2587399 -0.11069878 -0.17894666 -0.2739056
0002e0 2f 16 a1 be 66 60 10 be 0b b9 3c be 53 52 5f be
       -0.31462237 -0.14099273 -0.18429963 -0.21808748
0002f0 9c 89 a4 be 67 0e fc bb cd f4 4f 3d 77 d3 97 3d
       -0.32136238 -0.0076921466 0.05077057 0.074133806
000300 04 51 fd 3c f0 1e 7b 3d 45 f9 7e 3e 3c c4 e4 bd
       0.03092242 0.0613088 0.24899776 -0.11170241
000310 3f 3f 8c 3e f4 79 60 3e 75 df e7 bd ad 56 6e bc
       0.27392003 0.21921521 -0.11321918 -0.014547032
000320 13 fe 73 be d4 30 97 bd 5a d2 52 be a6 0a 9c be
       -0.2382739 -0.0738236 -0.20588055 -0.30476874
000330 84 1b 3a bd 6d fd fd 3d 2d 46 03 3e af 12 38 3d
       -0.045436397 0.12401853 0.12819739 0.044939693
000340 51 e9 68 be 07 84 07 be f2 6f 86 3d a9 5e f7 3d
       -0.22745253 -0.13233958 0.065643206 0.12078602
000350 40 f9 a7 be 1e d4 6f bd 71 33 c6 bd d4 45 3a be
       -0.3280735 -0.0585519 -0.096777804 -0.181907
000360 7f 40 5f 3e 50 a2 05 be 51 32 76 be f2 94 37 be
       0.21801947 -0.13050199 -0.24042632 -0.17927912
000370 a4 7b 6e be 48 27 29 3c bf a9 90 bd 7f 8f 54 bd
       -0.23289353 0.010324307 -0.070636265 -0.05189466
000380 07 80 a2 bc f8 98 7a be 83 6f 27 3e c5 04 73 be
       -0.019836439 -0.24472415 0.16351132 -0.23732288
000390 28 90 b1 3d d1 8e 2d 3e 6b 45 08 3b 59 d7 0b 3e
       0.08670074 0.16949011 0.002079333 0.13656367
0003a0 2d b3 69 bd 8c 55 97 3e fe 2c 99 3e 93 b3 54 bd
       -0.05705564 0.29557455 0.2991714 -0.051929068
0003b0 b7 db 8c 3e 5a bf 92 3e c7 7b a2 be 44 f2 90 be
       0.2751138 0.28661615 -0.3173506 -0.28309834
0003c0 6a 02 63 3d 1e 20 92 3e a5 d5 47 3e f4 9e bb bd
       0.055422224 0.28540128 0.19515093 -0.09161177
0003d0 33 84 c7 3d 11 4c 83 bc bf d8 0f be b6 8e 3c 3e
       0.09742012 -0.016027482 -0.14047526 0.18413815
0003e0 37 f9 84 be d7 d8 43 3e 35 6c 87 be 67 4c 1a be
       -0.25971386 0.19125687 -0.26449743 -0.15068208
0003f0 dd f7 d2 3d d8 19 f7 3d be 1a 9e 3e 31 6b 97 3e
       0.103011824 0.12065476 0.30879778 0.29573968

mlp1.0.bias f4 [32]
000000 5d ba 2e 3e ed 9e cb bc 4d 2f 3a 3e 79 21 04 3e
       0.1706328 -0.024856055 0.18182106 0.12903394
000010 3f 1b d9 bd 50 f0 91 3e c0 12 db bd 85 14 76 be
       -0.106009 0.28503656 -0.10696936 -0.24031265
000020 8f f9 04 bc 1b 4c 36 3d 97 e8 83 be 94 9c 9a 3e
       -0.00811614 0.044506174 -0.2576339 0.30197585
000030 d4 ed fe bd bd 80 29 bc f2 bf 0b be 4f 8b 25 be
       -0.12447706 -0.010345635 -0.1364744 -0.16166423
000040 b7 34 36 3d 74 be 9f be 81 9e 95 be f6 3a 06 3e
       0.044483867 -0.31199992 -0.2922249 0.1310843
000050 0b 05 5b bd eb 4d 16 3e b8 27 8a 3d 5f 3e c1 3d
       -0.053471606 0.14678161 0.06745857 0.094357245
000060 d1 e7 3c 3e c6 c8 34 3e 43 8e 52 3c 5e 6b 9c 3e
       0.18447806 0.17654714 0.012851301 0.30550665
000070 c1 17 86 3e 72 d9 5f bd c2 7e 7d 3e f9 88 65 3e
       0.26189998 -0.05465073 0.24755386 0.22415532

mlp1.2.weight f4 [32, 32]
000000 49 0f d9 3c d8 e2 be bc 3c 87 ca 3d ab 59 96 bd
       0.026496546 -0.023301527 0.09889075 -0.073413216
000010 3f a0 a7 bd b5 af 09 3e f0 d0 c8 3d 07 21 47 bd
       -0.081848614 0.13445933 0.09805477 -0.04861548
000020 20 a7 1c be 4e bd 90 bd 9d cc 18 3d dc c5 f2 3d
       -0.15298128 -0.07067357 0.03730451 0.11854145
000030 bb 01 86 3c f2 b3 15 be 3c 98 ac bd 08 c7 25 be
       0.016358247 -0.14619425 -0.08427474 -0.16189206
000040 1a 5e 9e 3d 7e 85 c3 bd 40 30 11 3e bf ba d5 bd
       0.07732792 -0.09546946 0.14178562 -0.104360096
000050 a0 d4 ff bc 92 45 33 be 42 50 1e 3e 7a 17 ea 3c
       -0.031229317 -0.17507008 0.15460303 0.028575648
000060 90 50 18 3d b2 bb 4f 3d 05 c5 aa bc e7 63 fc 3d
       0.037186205 0.05071611 -0.0208459 0.12323742
000070 eb 81 5c 3d 6e be c2 bd 61 62 8e bd 0a 6d d7 3d
       0.053834837 -0.09508978 -0.06952358 0.105188444
000080 3a ae 25 3d 8b 51 5c 3d 0f 81 13 3d 4d 99 0b 3d
       0.04044936 0.053788703 0.03601175 0.034081746
000090 b8 23 34 bd 0f 4b 2a 3e fe e9 cd bd df 5d ab bd
       -0.043979377 0.16630195 -0.10054396 -0.08367514
0000a0 a9 22 2c be 04 44 fe bc 75 17 2b 3e 86 3c 93 bc
       -0.16810097 -0.031038292 0.16708167 -0.017973196
0000b0 d0 c0 93 bd c5 55 11 be cd 92 30 be 19 7b 00 be
       -0.072145104 -0.14192875 -0.172435 -0.12546958
0000c0 10 1b 76 bd 14 b4 ee 3c 8f 9d a7 bc 8c 02 f4 3c
       -0.060084403 0.029138602 -0.020460872 0.02978637
0000d0 c9 40 87 3d fa 21 03 bc c0 37 2a 3e 1b 17 93 bd
       0.06604154 -0.008003706 0.1662283 -0.071821414
0000e0 7c 3d 26 3c 05 bb 09 3e 84 59 91 3a 4f 7f bc bd
       0.010146495 0.13450249 0.00110893 -0.0920397
0000f0 6f 37 0d be ff 96 34 be 9d e2 08 3e 24 ae 06 3e
       -0.13790677 -0.17635725 0.13367696 0.13152367
000100 b9 5c f1 3c df f4 ba bd ac 9e 0b be 96 24 d9 3c
       0.029463159 -0.09128737 -0.13634747 0.026506703
000110 65 ab 00 be 53 fe 2e 3d bc 9f 1f be 04 b9 eb 3d
       -0.12565382 0.04272301 -0.15588278 0.11509898
000120 ff 5d e3 bc 7f d7 44 bc 42 5a 00 3e 87 c4 03 3e
       -0.027754782 -0.012014269 0.1253443 0.12867938
000130 08 89 2f 3c 31 75 f0 3d 35 eb 20 3d 18 cf d9 bd
       0.010713823 0.117411025 0.03928681 -0.10635203
000140 92 cb b4 bd dd bd 1b be 4f 6f 76 bd a8 7e fa 3c
       -0.088278905 -0.15209146 -0.060164746 0.030577973
000150 aa dd db 3d fb 01 b9 3d 54 f5 1b 3e 68 1d f3 bd
       0.107356384 0.09033581 0.15230304 -0.11870843
000160 e9 38 88 bd 0b 4a 71 3d 52 38 c3 3d 53 78 11 3d
       -0.0665148 0.058908504 0.095322266 0.03551514
000170 62 25 21 be 37 9b f5 3d 52 6f 09 bd 52 5d c4 bd
       -0.15736917 0.119924955 -0.03355343 -0.09588112
000180 17 a3 9b 3d 44 47 57 bb 82 50 00 3e 7c c2 e2 3d
       0.07599466 -0.0032848874 0.12530711 0.11072251
000190 08 16 3e bd f1 18 21 be 32 8a 00 be 56 98 71 3d
       -0.04640773 -0.1573217 -0.12552717 0.05898317
0001a0 0c 07 89 bd e7 12 95 bc 7a b8 2a be 30 b2 07 3e
       -0.06690797 -0.01819749 -0.16671935 0.13251567
0001b0 2c 69 29 3e b3 1f a4 3d b8 8f 55 3d 7a eb 22 3e
       0.16544026 0.08013859 0.052139014 0.1591014
0001c0 9b 8d 71 3c 96 55 cf 3d 9f b2 25 bd 7b 8b b0 bc
       0.014743234 0.10123746 -0.04045355 -0.021550884
0001d0 bc b9 01 bd ef b6 a0 3d 2f 7b 2a be 3c 2a c9 3b
       -0.03167127 0.07847392 -0.16648553 0.006139068
0001e0 b1 8e 86 bd 57 5e b5 3c 55 dc a8 3b 1e e9 2e 3e
       -0.06570185 0.022139711 0.0051532187 0.17081115
0001f0 6f 77 e1 bc 63 c3 8a bd 5d 1c 70 bb a1 01 c3 3d
       -0.02752277 -0.06775548 -0.0036638 0.09521795
000200 c8 66 87 bd ef 59 fd bd 5b f6 4e bc 26 9f f0 bd
       -0.06611401 -0.12370669 -0.012631978 -0.11749105
000210 00 fa 34 be 21 00 90 3d 9a 16 f7 bd d7 7b 15 3d
       -0.17673492 0.070312746 -0.12064858 0.036495056
000220 d3 35 88 bb 53 d9 12 be 8c ea e2 bc c5 23 25 bd
       -0.004156807 -0.14340715 -0.027699731 -0.040317316
000230 81 38 e2 bd f0 bf 12 bd 7c eb 98 bd 5e 26 09 3e
       -0.110459335 -0.035827577 -0.0746679 0.13393542
000240 91 53 f5 bd a0 20 8f bd 86 5a 2e 3c a5 5e 13 3d
       -0.1197883 -0.069886446 0.0106417 0.035978932
000250 79 b3 f2 3d cc ee 0c 3e d9 19 07 3d 46 b9 c0 bc
       0.11850638 0.13762969 0.032983635 -0.023525845
000260 d2 11 1a be ad 88 ea bd 17 aa 9b 3d 44 f8 dc bd
       -0.1504586 -0.1145185 0.076008014 -0.107895404
000270 ba e9 16 3e 09 0d 26 3e c4 ea bd bd 8d 0a 43 bc
       0.14737597 0.1621591 -0.092732936 -0.011904371
000280 50 20 a3 3c 95 d1 58 3d 51 af d7 bc c4 40 04 be
       0.019912869 0.052934248 -0.026328715 -0.12915331
000290 84 ed e2 bd 8d 4c 23 bd 7b 9a d9 bd ef fa f6 3d
       -0.11080459 -0.039867926 -0.10625168 0.120595805
0002a0 23 d5 a2 3d d2 75 b9 bd 7c 64 07 be dd db 6c bd
       0.07950809 -0.090556756 -0.13221925 -0.057826865
0002b0 98 f2 82 bd bd 91 d1 3c 49 47 31 bd c9 71 e6 bd
       -0.06393927 0.025582189 -0.043280873 -0.112521715
0002c0 0f 0e d8 3d 23 f6 9a bd 71 22 fa bd ef 85 13 bd
       0.105495565 -0.07566478 -0.122136004 -0.0360164
0002d0 88 53 d6 bd 8d 8f 16 bd 6f 0c 84 3d 18 a9 cb bd
       -0.10465151 -0.036757994 0.06447684 -0.099443614
0002e0 7e 7e 98 bd 28 56 ce 3c 4a 78 e9 bd 13 dc cc bd
       -0.074460015 0.025187567 -0.113998964 -0.10002913
0002f0 a1 fe f3 3d 00 be 2a be 3d c3 ee 3c d5 36 01 bd
       0.11913801 -0.16674042 0.029145831 -0.031546433
000300 28 8a c3 3d e1 81 83 bd 54 d4 c6 bd d3 fb 48 3d
       0.095478356 -0.06421257 -0.09708467 0.049068283
000310 60 64 e1 3d 96 10 1f 3e cf a6 1b be e9 4b b5 3d
       0.11005473 0.15533671 -0.15200351 0.08852369
000320 16 e3 70 3d 99 1a b7 bd 68 0e 11 3d a7 60 61 bd
       0.058810316 -0.0894062 0.03541413 -0.055023815
000330 cb 73 0c be d6 49 11 be c6 92 18 3d 69 2a 04 3c
       -0.13716047 -0.14188322 0.03724935 0.008066752
000340 93 37 0d 3e 58 2a ec 3c d4 c5 70 3d 0b 71 0c bd
       0.13790731 0.028828785 0.058782414 -0.034287494
000350 24 97 25 3c 49 d4 da 3d 88 c0 0d be 77 bc cb 3d
       0.0101068355 0.106850214 -0.13842976 0.09948056
000360 98 29 e9 bd 73 52 c9 3c ee 79 90 bc 28 6a 41 bd
       -0.113848865 0.024575448 -0.017636266 -0.04722038
000370 33 3d 15 3e ef 18 84 bd 81 0a ac 3c ff f1 85 bc
       0.14574127 -0.06450068 0.021001102 -0.016350744
000380 5c 06 a7 bd 03 41 1a be 38 b2 de 3c ff 75 2d be
       -0.0815551 -0.15063863 0.02718459 -0.16939543
000390 da fc c9 3d a5 e2 3e 3c 07 61 04 be 4a e1 44 3d
       0.09862681 0.011650716 -0.12927638 0.048066415
0003a0 5c bc 45 bc 17 2c 2b 3d 41 55 01 be e1 fe c6 bd
       -0.012068834 0.041790094 -0.12630178 -0.09716583
0003b0 e1 9e d2 3d bb a2 01 bd e6 95 7a 3d ce bc 2a 3e
       0.1028421 -0.031649332 0.06117811 0.16673586
0003c0 98 e4 24 bd c4 3a 59 3c 7f 7b a1 bd 80 f8 12 3e
       -0.040257066 0.01325864 -0.07884883 0.14352608
0003d0 a0 de 90 3d 8a 82 00 be bb 55 4f 3c d6 6c bc 3c
       0.07073712 -0.12549797 0.012654717 0.023001116
0003e0 29 77 43 bd 93 19 12 bd 4e 10 42 bd 94 cb 31 bd
       -0.04772106 -0.03566892 -0.04737883 -0.043407038
0003f0 29 a5 62 3d a6 95 d1 bd 03 66 e5 bc 0d 50 5c bd
       0.05533329 -0.10233621 -0.028002745 -0.05378728

mlp1.2.bias f4 [32]
000000 23 8a 4b 3d a9 68 c2 3c 0b 30 e4 3d 90 2a 1c 3b
       0.049692284 0.023731546 0.11141976 0.002382908
000010 cc e5 ca bd f3 2e 21 3c 7e 5c 2d 3d 02 bd 2a be
       -0.099071115 0.009837854 0.042324536 -0.16673663
000020 2d 63 22 be 48 58 ae 3b f4 14 ea 3d 85 1f f5 bd
       -0.15858145 0.0053205825 0.11429778 -0.119689025
000030 4f bd 16 3d ce 89 d3 bd e8 1a 3d bd ca 00 01 be
       0.036801632 -0.103290185 -0.046168238 -0.12597957
000040 33 2f 40 bd ab 1b 02 3e 0f 98 07 3d a7 e3 a0 3c
       -0.046920013 0.12705867 0.033104 0.019639803
000050 28 b3 33 be 72 9a 19 3e b6 5c 26 be 90 42 de bd
       -0.17548811 0.15000322 -0.16246304 -0.108525395
000060 02 ea 9d bd bb 59 ab bd df e0 84 3c 76 b2 14 3e
       -0.07710649 -0.08366724 0.016220508 0.14521202
000070 75 84 96 bd 06 55 2c 3e f9 af f4 3d 7c cb 1d be
       -0.07349483 0.16829309 0.119476266 -0.15409654

mlp2.0.weight f4 [32, 32]
000000 6b 90 33 be 44 94 22 3e 0c b6 96 3b 10 39 37 3d
       -0.1753556 0.15876871 0.0045993384 0.044732153
000010 62 8e db 3d 47 5b 71 3d d3 0e fe bc b3 69 00 be
       0.10720517 0.05892494 -0.031012928 -0.12540321
000020 5b 90 09 be f4 a9 e6 3d 1b 02 19 be bd 3a 24 3e
       -0.13433973 0.11262885 -0.1494221 0.16038032
000030 0c 84 17 3d 22 04 b6 3d 97 88 29 3e 0b e8 05 3e
       0.036991164 0.08887507 0.16556011 0.13076799
000040 b3 e3 75 bb c2 e6 ad 3d e9 df 8a 3c 5b c0 73 bd
       -0.0037519753 0.08491279 0.016952472 -0.059509616
000050 6e b8 82 ba ae 0e ab 3d 8b 07 d6 bd 49 02 bc bd
       -0.0009973177 0.08352409 -0.104506575 -0.09180123
000060 81 90 ea 3d c2 60 2d 3d 32 0a 8d bd 3a 95 12 3e
       0.11453343 0.042328604 -0.0688671 0.14314738
000070 47 17 32 3d 92 85 20 be a4 3e 94 bd c0 c6 72 3c
       0.04347923 -0.15675953 -0.0723851 0.0148178935
000080 94 58 13 be 17 96 21 be 83 40 13 be fd 43 10 be
       -0.14389259 -0.15779911 -0.14380078 -0.14088435
000090 50 59 a2 3d 2e 2e 12 3e 42 bc 42 bd 47 9c 81 ba
       0.07927191 0.14275429 -0.047542818 -0.0009888493
0000a0 d3 6a 9f 3d da 61 ae 3d 46 a0 d1 bd 26 04 1d be
       0.07784047 0.085147575 -0.10235648 -0.15333614
0000b0 c2 94 30 be 35 40 bb 3d 40 5a dc 3d 42 9e 8e bd
       -0.17244247 0.09143106 0.10759401 -0.06963779
0000c0 b3 3c 18 bd 6f 93 ae 3c 7c c3 ec bd 12 99 ce 3d
       -0.037167262 0.021310536 -0.11560723 0.100877896
0000d0 2e 03 d2 3d 07 44 a4 bc 79 58 fb bd 0d fa ca 3c
       0.10254513 -0.02005197 -0.12272734 0.024777437
0000e0 32 00 da 3d 1c f2 16 3e 8d ce 19 3c b4 54 96 bd
       0.106445685 0.14740795 0.009387624 -0.073403746
0000f0 f1 de 8c bd 96 9d 8c bb 77 b4 51 3c 26 39 23 be
       -0.0687846 -0.0042912466 0.012799374 -0.15939769
000100 b0 db 06 3e 80 f4 8d bc 0d 19 7d bd 46 65 23 3e
       0.13169742 -0.0173285 -0.06179147 0.15956602
000110 9f 16 30 bd 8f 96 93 bd 87 a0 5b bd 4d d1 4f 3d
       -0.042990323 -0.07206451 -0.053619888 0.050736714
000120 63 28 d3 3d 04 4c e3 bd 4d db 08 3d a3 2b 09 3e
       0.103104375 -0.11098483 0.033412267 0.13395552
000130 cd d7 b7 3b 14 6b d0 bc e9 96 44 bd 5b a4 c1 3d
       0.0056104423 -0.025441684 -0.04799548 0.094551764
000140 a9 a3 29 be d8 30 ad 3d ea 98 5f 3d aa de 84 bd
       -0.16566338 0.08456582 0.05458919 -0.06487782
000150 e1 23 db 3d 66 e9 d1 bd f0 fa 76 3d 25 32 eb 3d
       0.10700203 -0.10249595 0.060297906 0.11484174
000160 54 4d 44 bb a7 67 f3 3d 5c 71 e2 bd d0 40 b9 bd
       -0.0029953318 0.118850045 -0.11056778 -0.09045565
000170 87 02 ee bd cd ae d7 3d 72 74 f4 3d b3 21 f9 bd
       -0.11621576 0.105313875 0.11936273 -0.12164631
000180 e7 db b4 3d 15 be b0 3d 49 83 27 bc 59 6b 08 be
       0.088310055 0.08630005 -0.010224172 -0.133222
000190 76 f1 16 3d cb 17 b6 3c e1 d5 2c 3e 6e 5c f0 3d
       0.03685137 0.022228142 0.16878463 0.117363796
0001a0 da 4f dc bd 1b 0c ec 3b c7 94 6c 3d a8 ba d0 3d
       -0.10757418 0.0072035915 0.057759073 0.10191852
0001b0 86 ce f3 bd 37 de d5 bb 01 aa c4 3c 06 58 e3 3d
       -0.119046256 -0.006526734 0.024006845 0.111007735
0001c0 be 50 93 bc a5 14 23 3b e2 c1 a8 bd 73 09 7e bd
       -0.017982837 0.0024884131 -0.08240105 -0.06202073
0001d0 11 af fe bd 0c 9d c5 bd d4 2e 73 3c 9d ef 08 bc
       -0.12435735 -0.09649095 0.014842708 -0.0083579095
0001e0 e9 b2 fc 3d dd bf 23 be 29 b7 81 3d b9 4d cf 3d
       0.12338812 -0.15991159 0.06333763 0.10122246
0001f0 eb 22 88 bd b8 e8 80 3c 16 c7 06 be 7d d9 be 3d
       -0.06647285 0.015735969 -0.13161883 0.09318826
000200 7f 94 12 3e 97 04 b6 3c d7 30 36 3d 7d a6 4e bd
       0.1431446 0.022218985 0.04448017 -0.050451744
000210 62 4f c5 3d f5 b6 0c 3d 6c d6 00 3d 90 b1 a2 3d
       0.09634282 0.03435417 0.03145449 0.079440236
000220 8d a2 25 3e c2 72 b1 bd ee 54 9d bc 7e cd 6d bd
       0.1617529 -0.086644664 -0.019205537 -0.0580573
000230 23 a3 9c 3d 3f 99 2e 3e 70 03 8a 3d 6b 0b 4a bd
       0.07648303 0.17050646 0.06738937 -0.049327295
000240 20 f4 e8 3d 33 5e e8 bd b8 17 2c 3e d4 bb 56 3d
       0.11374688 -0.11346092 0.16805923 0.05242522
000250 7b 29 45 bd 78 0a a8 3c ff 57 b1 bd f6 bf 36 bd
       -0.048135262 0.020512804 -0.08659362 -0.044616662
000260 f7 c5 d7 3d 65 39 52 3d 30 d8 e0 bd 5d c4 ca 3d
       0.10535806 0.051324267 -0.109787345 0.099007346
000270 bb 6c fd bd 75 a8 8e bc 45 4b 87 bd 63 52 e5 3d
       -0.12374254 -0.017414311 -0.066061534 0.11197355
000280 c3 1e 16 be 31 73 db 3d 40 5d c9 bd 12 15 97 bc
       -0.14660172 0.107153304 -0.09832239 -0.018442664
000290 ca 6f 91 3d 40 ef 30 3e ca 7c 5c 3d 60 aa d3 3d
       0.071014 0.17278767 0.053829946 0.10335231
0002a0 e4 01 07 be 21 a6 34 3d 05 6b e4 bd bb 63 29 3e
       -0.13184315 0.044103745 -0.11153225 0.1654195
0002b0 63 6e 39 3d 9c 0d 2d bd 82 81 cc bd 48 28 66 3d
       0.04527129 -0.042249307 -0.09985639 0.05619076
0002c0 9d a3 25 3e af 21 e9 bc e9 09 f6 bc 64 14 0e 3c
       0.16175695 -0.028458444 -0.030034022 0.008671854
0002d0 07 5b 0d 3e 9d 3f 2f be e7 b5 dc bd 28 a5 0a bd
       0.13804255 -0.1711411 -0.107768826 -0.03384891
0002e0 1a f8 2c be f7 21 7e 3c 10 10 06 be dd 98 04 3e
       -0.16891518 0.015511028 -0.13092065 0.12948938
0002f0 2f ef 2b 3e e4 a3 1b be 08 0c e7 bd c9 80 ee 3d
       0.1679046 -0.15199238 -0.11281592 0.116456576
000300 8a 0a d1 bd 1f b1 27 be 97 a4 1c bd 5c f5 42 3d
       -0.10207088 -0.1637616 -0.038242903 0.047597274
000310 b6 fb ac 3d 43 9f f7 3d 82 e0 2c 3e 78 fb fc bc
       0.084464476 0.12090924 0.16882518 -0.030881628
000320 0a 5a 17 be 46 d4 00 3e 20 52 33 3e 4a d3 7f 3d
       -0.14780441 0.12580976 0.17511797 0.06245736
000330 63 5b 98 3d fc c3 a2 3d d8 84 91 bd 35 47 1a 3d
       0.07439306 0.07947537 -0.07105416 0.037665565
000340 5e 97 20 3e 19 7e ee bc 6e 28 18 be d0 b3 36 bd
       0.15682742 -0.029112862 -0.14859173 -0.044605076
000350 63 b9 bd 3d a8 43 2d 3b e1 1d 21 3e 2d 7e 6b bd
       0.09263875 0.0026438031 0.15734054 -0.057493377
000360 de 4c 06 3e dd 89 11 bd 6e b4 89 3d 74 30 4e bd
       0.1311526 -0.035531867 0.06723867 -0.050339177
000370 ce d0 db bb e7 14 ee bd b5 e3 24 be c7 66 c1 bc
       -0.006708241 -0.116250806 -0.16102488 -0.023608578
000380 42 dc c9 bd bd 89 c5 bd 2e 33 4c bd 13 7c 9d bc
       -0.09856464 -0.09645412 -0.049853496 -0.019224202
000390 81 ce 77 3d 5c 0a 03 bd 14 f8 f3 bd d8 0c 0a 3d
       0.06049967 -0.0319923 -0.119125515 0.033703655
0003a0 1a 0b 0e 3e 25 28 05 3e b2 c0 1a 3e ec af 08 be
       0.13871422 0.13003595 0.1511257 -0.13348359
0003b0 36 d3 0a 3e 6f 30 d5 bd 98 05 c8 3d d6 b3 83 bd
       0.13557133 -0.104096286 0.09766692 -0.06430785
0003c0 5f 45 05 be cc 7b f6 bc a7 47 d4 3d 52 0a 97 3d
       -0.13014744 -0.030088328 0.10365229 0.07375015
0003d0 07 03 86 bd d7 54 46 bd 63 ce 35 3e 45 70 1d 3e
       -0.06543546 -0.048420753 0.17754512 0.15374859
0003e0 4b fb 21 3d ba ef b2 bd 97 59 31 be 16 1f d2 bd
       0.039546292 -0.087371305 -0.17319332 -0.102598354
0003f0 31 4a 7d bd 8a 2c 28 3e fb ff 07 3e c2 f9 15 3e
       -0.061838333 0.1642324 0.13281243 0.14646056

mlp2.0.bias f4 [32]
000000 50 a1 53 bd 85 7f a2 3d 67 7d 05 be 85 f4 90 3d
       -0.05166751 0.07934479 -0.13036118 0.070778884
000010 5f 6a 0b bd dc 11 6a 3d 56 48 d9 3d 77 95 c5 bd
       -0.03403699 0.05714594 0.106095 -0.09647649
000020 3d d7 b4 bc ec 08 03 3e 2e f8 9d 3b 33 f8 20 be
       -0.02207529 0.12796372 0.004820845 -0.1571968
000030 a4 e5 4c 3d 7d 52 5d bd fd 6d ec 3d 61 99 81 bd
       0.05002369 -0.054033745 0.11544416 -0.06328083
000040 ba be 1b 3e 0b e0 5c 3d d4 15 37 be 78 1b 91 3d
       0.15209475 0.0539246 -0.1787942 0.070853174
000050 a6 0c 34 bd 28 0d 92 3d 10 78 ab 3d f5 08 b2 ba
       -0.043957375 0.071314156 0.083725095 -0.0013582992
000060 9d 98 22 be c1 41 c2 3d f2 92 1d 3e e2 7b f5 3d
       -0.1587853 0.09485198 0.15388086 0.119865194
000070 16 36 d6 3d 2f 48 03 be 97 bc 4e 3c f8 1f 4f 3d
       0.10459535 -0.12820505 0.0126182055 0.050567597

mlp2.2.weight f4 [32, 32]
000000 25 6b e1 bd e9 ef 59 bd c7 3a 20 be 0e c5 07 3e
       -0.11006764 -0.05320731 -0.15647422 0.13258764
000010 91 38 1a bc 19 90 d0 3d 16 ad 7f bd 24 e8 8f 3d
       -0.009412901 0.101837344 -0.062420927 0.07026699
000020 35 b0 09 bc 69 69 e1 3d 62 d2 2b 3c d9 49 ec 3c
       -0.008403827 0.110064335 0.010487171 0.028843807
000030 db a5 6a 3d 9d a0 04 3e 5b 7f d6 bd 35 cd 1a be
       0.05728708 0.12951894 -0.1047351 -0.15117343
000040 6e 6b 04 3d 9f 85 91 3c 59 ec bd bd ba 6a 11 bd
       0.032329015 0.01776391 -0.09273595 -0.035502173
000050 5b 3c 3b 3e f9 51 f1 3b 03 a8 a5 bd 35 f2 67 3c
       0.18284743 0.007364508 -0.08088686 0.014156868
000060 6c 69 4e ba 0c 89 37 3d ab 1d c0 3d 91 d1 ec 3b
       -0.00078739855 0.044808432 0.09380659 0.0072271307
000070 34 43 4a 3d fc 58 d4 3c f6 ca bc 3c 07 da 0c 3e
       0.049380496 0.025921337 0.023045998 0.13755046
000080 3d 32 9d 3d 34 f5 01 bc ee 7c 99 3d 92 a4 1d be
       0.07675598 -0.007931996 0.074945316 -0.1539481
000090 ef 74 cc bd d4 7b 0a 3e b0 c6 86 3d d9 5b 95 3d
       -0.09983241 0.13523799 0.065808654 0.07292909
0000a0 6d 4f 06 3d 09 5e 0f be ed 89 ac 3d e5 b6 d7 bd
       0.03279059 -0.14000715 0.08424745 -0.10532931
0000b0 bc 5f 51 bc 93 13 f2 3d 00 a4 17 bb 93 14 71 bd
       -0.0127791725 0.1182014 -0.0023138523 -0.05885751
0000c0 04 f0 12 be d1 f5 72 bd 25 c2 15 3e 0f f2 4b 3d
       -0.14349371 -0.05931646 0.14624842 0.049791392
0000d0 c6 43 fa 3a c3 10 dd 3c e9 2f 2c bd 04 79 89 3d
       0.0019093684 0.026985532 -0.04203788 0.06712535
0000e0 46 79 a0 3c e6 28 fa 3c 73 fb b3 3d a8 88 3c 3d
       0.019589078 0.03053708 0.087881945 0.046028763
0000f0 ed 8d bd 3d ee 6c e8 bc d7 f8 02 3e 4e 95 b7 bd
       0.09255586 -0.028372254 0.12790237 -0.089640245
000100 6d 5e bf bc 50 bf 48 3c 62 03 ad 3d ab c1 9e 3d
       -0.023360455 0.012252644 0.08447911 0.07751783
000110 55 2a 89 3d c2 01 24 3e c5 b2 18 3e 9a ae f4 bd
       0.06697527 0.16016296 0.14911945 -0.11947365
000120 13 c5 bf 3c 57 78 44 bc 22 68 f1 bd 01 a4 f4 bd
       0.023409402 -0.011991582 -0.1178744 -0.11945344
000130 24 55 4f bc 2f 2f c9 3d 9b f1 28 3e f4 81 96 bd
       -0.012654576 0.09823453 0.16498415 -0.07349005
000140 93 2e ae bc bb 03 e9 3d 67 82 42 3d c0 6c 14 be
       -0.021262443 0.11377665 0.047487643 -0.1449461
000150 1c 73 94 3d aa af 99 bd bf de 0f 3e b3 c2 b8 3d
       0.07248518 -0.075042084 0.14049815 0.09021511
000160 fd e9 31 bc 34 6e a7 bd cb 2e 12 bd f2 96 91 bd
       -0.01085901 -0.081753165 -0.035689157 -0.07108869
000170 54 30 7c 3d 84 61 eb bd 8c 4e 17 be 42 05 6a bd
       0.061569527 -0.11493209 -0.14776057 -0.05713392
000180 8d 99 70 3d 72 81 5b 3d 3b 88 18 be 9c 47 b4 3d
       0.058740187 0.053590246 -0.14895718 0.08802721
000190 02 41 0e be 2b c0 fc bd d7 16 17 3e 22 93 23 3e
       -0.13891986 -0.12341341 0.14754806 0.15974095
0001a0 60 8c bf bd e2 87 bc 3c b3 50 03 be db 90 29 be
       -0.09352946 0.023014013 -0.12823753 -0.16559164
0001b0 11 12 15 be bb 49 2e bc af 9c 34 3e 01 e2 02 3e
       -0.14557673 -0.010637696 0.17637895 0.12781526
0001c0 5a 5b ce 3d 19 97 20 be 06 32 18 3c 93 01 0e bd
       0.10076018 -0.15682639 0.00928927 -0.03466947
0001d0 02 ff 12 bd 15 6d b3 bd f7 64 84 bd 2a fd e8 3a
       -0.035887726 -0.0876104 -0.0646457 0.0017775644
0001e0 ed ed cd 3d 3b 4a ab bd f6 62 c2 bd 26 a6 0f 3d
       0.10055146 -0.08363768 -0.094915316 0.03507056
0001f0 fb 2f bc 3c cc 1c c1 bd 79 a2 fc bd e3 21 ce bd
       0.022972098 -0.09429321 -0.12335677 -0.10065057
000200 d1 ca fe 3d ea f9 c7 bd 9a 1d 55 bc f0 f0 86 bd
       0.12441028 -0.09764464 -0.013007546 -0.06588924
000210 5d f0 2c 3e b7 b1 a7 3c 1b 0b 0a 3e 00 b9 4d ba
       0.16888566 0.020470483 0.13480799 -0.00078476965
000220 c5 dd 13 3e ac 91 3b bd a0 b7 cb bd 51 13 2c bd
       0.14440067 -0.04579322 -0.09947133 -0.04201061
000230 69 7e e5 bd 52 fc cc 3d 1b d2 12 3e 02 8e 85 3d
       -0.112057514 0.10009064 0.14337961 0.065212265
000240 52 dd 03 be 1a 89 ff bd 14 8a ef 3c c8 25 cd bd
       -0.12877396 -0.12477322 0.029240645 -0.10016972
000250 a9 8b 18 3d b8 95 26 be 56 a9 13 3e 31 59 29 3e
       0.037242565 -0.1626805 0.14420065 0.1653793
000260 41 68 f9 3d d9 45 de 3d 8d 7d 2b bc da 73 18 bd
       0.12178088 0.10853166 -0.010466945 -0.03721986
000270 1b 32 52 bd 9b ef ee bd 75 33 04 3e 50 16 b4 bd
       -0.051317316 -0.11666795 0.12910254 -0.08793318
000280 73 5c 52 3d 54 17 1e be f4 50 cb 3c 16 65 26 3c
       0.051357698 -0.15438586 0.024818875 0.010155937
000290 e0 a6 45 3d 08 64 91 3d 11 e8 3d bc 76 f3 b9 3c
       0.048254848 0.070991576 -0.0115909735 0.022699099
0002a0 4f 1c 64 bd e4 8b 56 bd 30 52 16 be 81 ef ef bd
       -0.05569106 -0.052379504 -0.1467979 -0.117156036
0002b0 c5 b5 09 3e 25 04 c3 bd 50 83 77 3d 16 76 92 3d
       0.13448246 -0.09522275 0.060427964 0.07151429
0002c0 b1 f0 06 be 19 da 11 3e bd 70 19 be 89 28 05 3e
       -0.13177754 0.14243354 -0.14984412 0.13003744
0002d0 d0 b3 ad 3d c8 69 45 bd 75 c1 18 be 9b 7c 43 bb
       0.08481562 -0.048196584 -0.14917548 -0.002982891
0002e0 40 57 1c be 01 fd 2b bd 50 58 8a 3d 09 12 41 3d
       -0.15267658 -0.04198933 0.067551255 0.04713634
0002f0 59 a2 7b bd ae 7e 2e be eb b8 80 3d e3 f3 28 be
       -0.061434124 -0.17040512 0.0628527 -0.16499285
000300 0b f2 c5 bc fc f4 1b 3e d0 09 f8 bc cb 5b 17 bd
       -0.024163267 0.15230173 -0.030278116 -0.036952775
000310 d0 70 20 3e 3a c0 be 3d c4 46 4a 3d c4 9e 23 be
       0.15668035 0.09314008 0.049383894 -0.15978533
000320 36 a0 12 be a3 ac f0 bd 78 03 df 3c 73 db 2b 3e
       -0.14318928 -0.11751678 0.027223334 0.16782932
000330 03 c5 a7 3c 8c 8c 02 bd 37 2a 27 be 67 1b 1d be
       0.020479685 -0.031872317 -0.16324697 -0.15342484
000340 fa 9f 31 be de 00 18 3e 5b 61 2a 3d 47 b9 c5 3c
       -0.17346182 0.14844081 0.04159675 0.024136199
000350 0c 9c 58 bd 6d 61 ca 3d eb 99 bf 3c bb 40 2e 3c
       -0.052883193 0.09881864 0.023388823 0.01063555
000360 1a 25 00 3e 18 db 24 3e 3a 3f 3a 3e cd c3 1a be
       0.12514153 0.16099203 0.18188182 -0.15113755
000370 3e b9 1a be 05 15 17 be 1b ce 22 bd 94 8b c6 3d
       -0.15109727 -0.14754112 -0.03974734 0.09694591
000380 19 22 e1 3d 47 63 e4 bc 2f 45 d5 3d 1c 0e 0d bd
       0.10992832 -0.02787937 0.10413586 -0.034437284
000390 f1 4c fd 3d dc 95 02 3e c5 71 a4 3d 16 95 fb bd
       0.12368191 0.1275248 0.08029512 -0.12284295
0003a0 4b 9a 51 3c 97 6b f5 3d 02 b9 fa bc f0 a3 db 3c
       0.012793134 0.11983412 -0.030605797 0.02681157
0003b0 1b 09 c2 bd d2 ec f7 bc f1 da dd bd a3 a1 1d 3e
       -0.09474393 -0.030264292 -0.108327754 0.15393691
0003c0 e8 95 99 bd 9c cc b4 bd ef 6c 7b bc 74 22 77 3d
       -0.074992955 -0.08828089 -0.015345796 0.06033559
0003d0 d4 ea c4 bd 65 b7 31 3e 5a 37 17 be 68 fd 13 be
       -0.096151024 0.17355116 -0.14767209 -0.14452136
0003e0 20 85 55 3d c8 f0 ab bd 4b 00 54 3b 29 14 d5 bc
       0.05212891 -0.08395535 0.0032348807 -0.02601059
0003f0 05 34 24 be f6 d3 59 bd be 3a 1d 3d f3 45 81 3d
       -0.16035469 -0.053180657 0.0383861 0.0631217

mlp2.2.bias f4 [32]
000000 48 dd a5 bd 75 af a6 3d 58 55 de bd 70 ca a5 bd
       -0.08098847 0.081389345 -0.10856122 -0.080952525
000010 ba 0c 7a bd c0 65 b2 3d 77 b7 96 bb 62 db 2f be
       -0.061047293 0.087108135 -0.0045995074 -0.17173532
000020 17 f9 97 3b 1b 37 18 3e 95 7f 35 3e fc 27 6f bd
       0.004637848 0.14864771 0.1772445 -0.05838774
000030 da 70 22 3d f7 04 29 be 74 1b cd 3c 40 4f bd bd
       0.039658405 -0.165058 0.025037505 -0.09243631
000040 e3 f2 c3 3d c9 d2 bd bd d0 e1 21 be 17 e5 6e 3c
       0.09567811 -0.0926872 -0.15808797 0.014580986
000050 0a b8 df 3d 84 91 82 bd 1c 79 c6 bd a5 54 aa bd
       0.109237745 -0.06375411 -0.096910685 -0.08316926
000060 64 a6 d7 bc 94 cc 94 3c ed d1 f1 3d 2c b8 4b bd
       -0.026324458 0.018163957 0.11807618 -0.049736187
000070 96 52 2b bd 24 53 da bd 27 f5 2c be 58 3b 21 3e
       -0.041826807 -0.10660389 -0.16890393 0.15745294

conv1.apply_func.0.weight f4 [32, 9]
000000 a5 eb f5 bc 20 2f 37 3d f3 d4 3c be 96 17 79 be
       -0.03001959 0.044722676 -0.18440609 -0.24325404
000010 48 c5 1c 3c c1 1b 30 3c 80 36 4b bd 84 dc b5 3d
       0.00956852 0.010748805 -0.049612522 0.08879951
000020 11 9e 1d be 1f 9b 42 be ae a6 9f bd 15 e0 80 3e
       -0.15392329 -0.19004487 -0.077954635 0.2517096
000030 d8 4c 0d 3e 0f 96 6c 3e 69 bd 70 bc a8 98 7b be
       0.13798845 0.23104118 -0.014693596 -0.24569952
000040 0b b9 80 3e d2 db 9d 3e 2f 7b b2 3b 1a 6b 48 3d
       0.25141177 0.30831772 0.0054468135 0.048930265
000050 dc 2d 25 3d 88 f3 16 be 54 70 bd 3d 59 58 06 be
       0.040326938 -0.14741337 0.092499405 -0.1311964
000060 b6 21 6d be 28 9c 9a be a4 eb a4 3e 00 fc 89 3e
       -0.23157391 -0.30197263 0.3221103 0.26950073
000070 e2 13 8d 3e 78 4e 3d be 3f 7a 9c bd 4a 09 01 3e
       0.27554232 -0.18486965 -0.07640504 0.126012
000080 3e fb 26 be b2 10 61 3e 6c 32 89 3e 14 2b c6 bd
       -0.16306779 0.21979025 0.2679628 -0.09676185
000090 50 88 84 3e 6f f0 48 be 72 37 c1 3d 1a 8a 98 be
       0.25885248 -0.19622968 0.094344035 -0.29792863
0000a0 ce a9 8c be 94 e4 44 3d 93 b8 8c 3e c6 7a 52 bd
       -0.274733 0.04806955 0.2748457 -0.051386617
0000b0 26 e5 9f be 1d 5b f3 3d 9c f7 75 3d 58 a9 1d be
       -0.31229514 0.11882613 0.06005059 -0.15396631
0000c0 59 d1 c0 bd 3e c2 95 3e 09 a7 23 be c6 e1 4e 3e
       -0.0941493 0.29249758 -0.15981688 0.20203313
0000d0 20 7b 4b be ee cd be bd da cb 9b 3e 09 f6 9d 3e
       -0.19871187 -0.09316622 0.30428964 0.30851772
0000e0 8f b4 9d 3e 78 63 6c be 87 aa 93 3e 08 7f 74 be
       0.30801818 -0.2308482 0.2884104 -0.23876584
0000f0 0f c1 b9 bd 86 9b b2 bd 05 72 f2 3b 09 2a 8a be
       -0.09070026 -0.0872107 0.007398846 -0.26985195
000100 cd da 39 be ab 14 2b be 81 fd 83 be 09 94 25 bd
       -0.18149872 -0.16707103 -0.25779346 -0.04042438
000110 a5 0e 9e 3e e7 9a 8e be 53 11 a5 3e 32 3b 1c be
       0.30870548 -0.27852556 0.3223978 -0.15256956
000120 09 c8 70 be 0c c8 7b 3c d8 6f bf bd 8d 71 4b 3e
       -0.23513807 0.015367519 -0.093475044 0.19867535
000130 44 e0 66 be 9e 79 aa be 0f bf 8e be fa cf f3 3c
       -0.22546488 -0.33295912 -0.2788014 0.029762257
000140 94 26 88 3c 51 36 05 bd 56 40 8b be e2 b7 97 be
       0.016619958 -0.032522503 -0.27197522 -0.2963248
000150 4e 09 a2 3e d7 55 8e be 22 42 a3 be e9 d9 f3 3d
       0.31647724 -0.27799866 -0.31886393 0.119067974
000160 72 60 fb bd cf 7e 10 3e a5 6b 9c 3e 32 d6 39 3d
       -0.12274255 0.14110874 0.30550876 0.04537029
000170 98 80 89 3e 4a 39 73 3e 8f 64 6d be 51 ca 59 3e
       0.26855922 0.23752323 -0.23182891 0.21268584
000180 17 97 13 be 27 f4 35 3e c7 bf 8b 3d 75 df eb 3d
       -0.14413105 0.17768918 0.06823688 0.115172304
000190 aa 9a 7b 3d fe ba 28 3e 5b a8 9e 3c 24 74 3c 3e
       0.061426796 0.16477582 0.019367388 0.18403679
0001a0 7b a6 7b be 4b 46 55 3d 06 ea 9f 3e 12 b0 99 3e
       -0.24575226 0.05206899 0.31233233 0.30017143
0001b0 ff 31 88 be e2 77 e5 bd d6 2c 71 3e b4 90 ec bd
       -0.26600644 -0.112045065 0.2355226 -0.115510374
0001c0 8b f6 8c 3e 6d 79 77 3e f7 fa 29 3e 31 83 96 3e
       0.27531847 0.24167414 0.16599642 0.29396966
0001d0 71 2b a5 bd 99 e0 5d 3e 6c 65 87 3c 65 2a a5 be
       -0.080649264 0.21667708 0.016527854 -0.32258907
0001e0 6d 31 c2 bc 84 1b a1 3e 05 1d 2f be 98 43 34 be
       -0.023705209 0.31466305 -0.17100914 -0.1760391
0001f0 7f e6 80 be f0 70 61 3e 39 70 b2 3d 93 69 0f 3e
       -0.25175855 0.22015738 0.08712811 0.14005117
000200 6f 25 26 3e 95 69 40 be 1c cb 6a be 50 92 0c 3e
       0.16225217 -0.18790276 -0.22929043 0.13727689
000210 48 39 21 be 8d 1b 01 be 94 24 14 3e c4 34 d2 bd
       -0.15744507 -0.12608166 0.14467078 -0.102639705
000220 95 ba 9a 3e 63 48 0c be 76 10 13 3d f0 8e c7 3d
       0.30220476 -0.13699488 0.03590437 0.0974406
000230 1f fd 97 3c 24 12 45 3e e7 fd fd 3c bc 26 86 be
       0.018553315 0.19245201 0.03100486 -0.26201427
000240 ee 1d d1 bd 12 65 09 3d 39 b5 16 3e 63 a9 5a bd
       -0.10210787 0.033543654 0.14717568 -0.053384196
000250 6a 04 9b be b8 e4 18 3d db d4 73 3e 40 f2 a3 3e
       -0.30276805 0.0373275 0.23811667 0.3202076
000260 32 49 da bc 48 09 66 be 9d f7 79 3e 19 d3 3c 3e
       -0.02664623 -0.22464478 0.24410863 0.18439902
000270 c5 19 6b be f2 75 1f 3e c6 8d 35 3d b1 a7 75 be
       -0.22959049 0.15572336 0.04432466 -0.2398975
000280 f4 43 c4 bd e3 44 8d be 47 6f 55 3e 19 aa 3c be
       -0.095832735 -0.2759162 0.2084323 -0.18424262
000290 c6 b7 4c bd 4d 39 6f bb 63 80 e2 bd 1e 72 d3 bd
       -0.049979948 -0.003650266 -0.11059644 -0.103245005
0002a0 cf 3d 00 3e e8 16 53 3e 9b 1d 20 3d a1 69 97 bc
       0.12523578 0.20614207 0.039090734 -0.018482985
0002b0 c0 7a ab 3e e6 d8 48 3d 52 e9 a6 be 56 57 a3 3e
       0.33492088 0.049034975 -0.32599884 0.3190257
0002c0 eb 18 12 3c 1d 49 8c 3e 23 e7 2d be 4c 4f 71 be
       0.008917074 0.2739953 -0.16982703 -0.23565406
0002d0 8e 79 84 be 0b b6 e2 bd cb 3d 37 be 5b 3d 8c be
       -0.2587399 -0.11069878 -0.17894666 -0.2739056
0002e0 2f 16 a1 be 66 60 10 be 0b b9 3c be 53 52 5f be
       -0.31462237 -0.14099273 -0.18429963 -0.21808748
0002f0 9c 89 a4 be 67 0e fc bb cd f4 4f 3d 77 d3 97 3d
       -0.32136238 -0.0076921466 0.05077057 0.074133806
000300 04 51 fd 3c f0 1e 7b 3d 45 f9 7e 3e 3c c4 e4 bd
       0.03092242 0.0613088 0.24899776 -0.11170241
000310 3f 3f 8c 3e f4 79 60 3e 75 df e7 bd ad 56 6e bc
       0.27392003 0.21921521 -0.11321918 -0.014547032
000320 13 fe 73 be d4 30 97 bd 5a d2 52 be a6 0a 9c be
       -0.2382739 -0.0738236 -0.20588055 -0.30476874
000330 84 1b 3a bd 6d fd fd 3d 2d 46 03 3e af 12 38 3d
       -0.045436397 0.12401853 0.12819739 0.044939693
000340 51 e9 68 be 07 84 07 be f2 6f 86 3d a9 5e f7 3d
       -0.22745253 -0.13233958 0.065643206 0.12078602
000350 40 f9 a7 be 1e d4 6f bd 71 33 c6 bd d4 45 3a be
       -0.3280735 -0.0585519 -0.096777804 -0.181907
000360 7f 40 5f 3e 50 a2 05 be 51 32 76 be f2 94 37 be
       0.21801947 -0.13050199 -0.24042632 -0.17927912
000370 a4 7b 6e be 48 27 29 3c bf a9 90 bd 7f 8f 54 bd
       -0.23289353 0.010324307 -0.070636265 -0.05189466
000380 07 80 a2 bc f8 98 7a be 83 6f 27 3e c5 04 73 be
       -0.019836439 -0.24472415 0.16351132 -0.23732288
000390 28 90 b1 3d d1 8e 2d 3e 6b 45 08 3b 59 d7 0b 3e
       0.08670074 0.16949011 0.002079333 0.13656367
0003a0 2d b3 69 bd 8c 55 97 3e fe 2c 99 3e 93 b3 54 bd
       -0.05705564 0.29557455 0.2991714 -0.051929068
0003b0 b7 db 8c 3e 5a bf 92 3e c7 7b a2 be 44 f2 90 be
       0.2751138 0.28661615 -0.3173506 -0.28309834
0003c0 6a 02 63 3d 1e 20 92 3e a5 d5 47 3e f4 9e bb bd
       0.055422224 0.28540128 0.19515093 -0.09161177
0003d0 33 84 c7 3d 11 4c 83 bc bf d8 0f be b6 8e 3c 3e
       0.09742012 -0.016027482 -0.14047526 0.18413815
0003e0 37 f9 84 be d7 d8 43 3e 35 6c 87 be 67 4c 1a be
       -0.25971386 0.19125687 -0.26449743 -0.15068208
0003f0 dd f7 d2 3d d8 19 f7 3d be 1a 9e 3e 31 6b 97 3e
       0.103011824 0.12065476 0.30879778 0.29573968

conv1.apply_func.0.bias f4 [32]
000000 5d ba 2e 3e ed 9e cb bc 4d 2f 3a 3e 79 21 04 3e
       0.1706328 -0.024856055 0.18182106 0.12903394
000010 3f 1b d9 bd 50 f0 91 3e c0 12 db bd 85 14 76 be
       -0.106009 0.28503656 -0.10696936 -0.24031265
000020 8f f9 04 bc 1b 4c 36 3d 97 e8 83 be 94 9c 9a 3e
       -0.00811614 0.044506174 -0.2576339 0.30197585
000030 d4 ed fe bd bd 80 29 bc f2 bf 0b be 4f 8b 25 be
       -0.12447706 -0.010345635 -0.1364744 -0.16166423
000040 b7 34 36 3d 74 be 9f be 81 9e 95 be f6 3a 06 3e
       0.044483867 -0.31199992 -0.2922249 0.1310843
000050 0b 05 5b bd eb 4d 16 3e b8 27 8a 3d 5f 3e c1 3d
       -0.053471606 0.14678161 0.06745857 0.094357245
000060 d1 e7 3c 3e c6 c8 34 3e 43 8e 52 3c 5e 6b 9c 3e
       0.18447806 0.17654714 0.012851301 0.30550665
000070 c1 17 86 3e 72 d9 5f bd c2 7e 7d 3e f9 88 65 3e
       0.26189998 -0.05465073 0.24755386 0.22415532

conv1.apply_func.2.weight f4 [32, 32]
000000 49 0f d9 3c d8 e2 be bc 3c 87 ca 3d ab 59 96 bd
       0.026496546 -0.023301527 0.09889075 -0.073413216
000010 3f a0 a7 bd b5 af 09 3e f0 d0 c8 3d 07 21 47 bd
       -0.081848614 0.13445933 0.09805477 -0.04861548
000020 20 a7 1c be 4e bd 90 bd 9d cc 18 3d dc c5 f2 3d
       -0.15298128 -0.07067357 0.03730451 0.11854145
000030 bb 01 86 3c f2 b3 15 be 3c 98 ac bd 08 c7 25 be
       0.016358247 -0.14619425 -0.08427474 -0.16189206
000040 1a 5e 9e 3d 7e 85 c3 bd 40 30 11 3e bf ba d5 bd
       0.07732792 -0.09546946 0.14178562 -0.104360096
000050 a0 d4 ff bc 92 45 33 be 42 50 1e 3e 7a 17 ea 3c
       -0.031229317 -0.17507008 0.15460303 0.028575648
000060 90 50 18 3d b2 bb 4f 3d 05 c5 aa bc e7 63 fc 3d
       0.037186205 0.05071611 -0.0208459 0.12323742
000070 eb 81 5c 3d 6e be c2 bd 61 62 8e bd 0a 6d d7 3d
       0.053834837 -0.09508978 -0.06952358 0.105188444
000080 3a ae 25 3d 8b 51 5c 3d 0f 81 13 3d 4d 99 0b 3d
       0.04044936 0.053788703 0.03601175 0.034081746
000090 b8 23 34 bd 0f 4b 2a 3e fe e9 cd bd df 5d ab bd
       -0.043979377 0.16630195 -0.10054396 -0.08367514
0000a0 a9 22 2c be 04 44 fe bc 75 17 2b 3e 86 3c 93 bc
       -0.16810097 -0.031038292 0.16708167 -0.017973196
0000b0 d0 c0 93 bd c5 55 11 be cd 92 30 be 19 7b 00 be
       -0.072145104 -0.14192875 -0.172435 -0.12546958
0000c0 10 1b 76 bd 14 b4 ee 3c 8f 9d a7 bc 8c 02 f4 3c
       -0.060084403 0.029138602 -0.020460872 0.02978637
0000d0 c9 40 87 3d fa 21 03 bc c0 37 2a 3e 1b 17 93 bd
       0.06604154 -0.008003706 0.1662283 -0.071821414
0000e0 7c 3d 26 3c 05 bb 09 3e 84 59 91 3a 4f 7f bc bd
       0.010146495 0.13450249 0.00110893 -0.0920397
0000f0 6f 37 0d be ff 96 34 be 9d e2 08 3e 24 ae 06 3e
       -0.13790677 -0.17635725 0.13367696 0.13152367
000100 b9 5c f1 3c df f4 ba bd ac 9e 0b be 96 24 d9 3c
       0.029463159 -0.09128737 -0.13634747 0.026506703
000110 65 ab 00 be 53 fe 2e 3d bc 9f 1f be 04 b9 eb 3d
       -0.12565382 0.04272301 -0.15588278 0.11509898
000120 ff 5d e3 bc 7f d7 44 bc 42 5a 00 3e 87 c4 03 3e
       -0.027754782 -0.012014269 0.1253443 0.12867938
000130 08 89 2f 3c 31 75 f0 3d 35 eb 20 3d 18 cf d9 bd
       0.010713823 0.117411025 0.03928681 -0.10635203
000140 92 cb b4 bd dd bd 1b be 4f 6f 76 bd a8 7e fa 3c
       -0.088278905 -0.15209146 -0.060164746 0.030577973
000150 aa dd db 3d fb 01 b9 3d 54 f5 1b 3e 68 1d f3 bd
       0.107356384 0.09033581 0.15230304 -0.11870843
000160 e9 38 88 bd 0b 4a 71 3d 52 38 c3 3d 53 78 11 3d
       -0.0665148 0.058908504 0.095322266 0.03551514
000170 62 25 21 be 37 9b f5 3d 52 6f 09 bd 52 5d c4 bd
       -0.15736917 0.119924955 -0.03355343 -0.09588112
000180 17 a3 9b 3d 44 47 57 bb 82 50 00 3e 7c c2 e2 3d
       0.07599466 -0.0032848874 0.12530711 0.11072251
000190 08 16 3e bd f1 18 21 be 32 8a 00 be 56 98 71 3d
       -0.04640773 -0.1573217 -0.12552717 0.05898317
0001a0 0c 07 89 bd e7 12 95 bc 7a b8 2a be 30 b2 07 3e
       -0.06690797 -0.01819749 -0.16671935 0.13251567
0001b0 2c 69 29 3e b3 1f a4 3d b8 8f 55 3d 7a eb 22 3e
       0.16544026 0.08013859 0.052139014 0.1591014
0001c0 9b 8d 71 3c 96 55 cf 3d 9f b2 25 bd 7b 8b b0 bc
       0.014743234 0.10123746 -0.04045355 -0.021550884
0001d0 bc b9 01 bd ef b6 a0 3d 2f 7b 2a be 3c 2a c9 3b
       -0.03167127 0.07847392 -0.16648553 0.006139068
0001e0 b1 8e 86 bd 57 5e b5 3c 55 dc a8 3b 1e e9 2e 3e
       -0.06570185 0.022139711 0.0051532187 0.17081115
0001f0 6f 77 e1 bc 63 c3 8a bd 5d 1c 70 bb a1 01 c3 3d
       -0.02752277 -0.06775548 -0.0036638 0.09521795
000200 c8 66 87 bd ef 59 fd bd 5b f6 4e bc 26 9f f0 bd
       -0.06611401 -0.12370669 -0.012631978 -0.11749105
000210 00 fa 34 be 21 00 90 3d 9a 16 f7 bd d7 7b 15 3d
       -0.17673492 0.070312746 -0.12064858 0.036495056
000220 d3 35 88 bb 53 d9 12 be 8c ea e2 bc c5 23 25 bd
       -0.004156807 -0.14340715 -0.027699731 -0.040317316
000230 81 38 e2 bd f0 bf 12 bd 7c eb 98 bd 5e 26 09 3e
       -0.110459335 -0.035827577 -0.0746679 0.13393542
000240 91 53 f5 bd a0 20 8f bd 86 5a 2e 3c a5 5e 13 3d
       -0.1197883 -0.069886446 0.0106417 0.035978932
000250 79 b3 f2 3d cc ee 0c 3e d9 19 07 3d 46 b9 c0 bc
       0.11850638 0.13762969 0.032983635 -0.023525845
000260 d2 11 1a be ad 88 ea bd 17 aa 9b 3d 44 f8 dc bd
       -0.1504586 -0.1145185 0.076008014 -0.107895404
000270 ba e9 16 3e 09 0d 26 3e c4 ea bd bd 8d 0a 43 bc
       0.14737597 0.1621591 -0.092732936 -0.011904371
000280 50 20 a3 3c 95 d1 58 3d 51 af d7 bc c4 40 04 be
       0.019912869 0.052934248 -0.026328715 -0.12915331
000290 84 ed e2 bd 8d 4c 23 bd 7b 9a d9 bd ef fa f6 3d
       -0.11080459 -0.039867926 -0.10625168 0.120595805
0002a0 23 d5 a2 3d d2 75 b9 bd 7c 64 07 be dd db 6c bd
       0.07950809 -0.090556756 -0.13221925 -0.057826865
0002b0 98 f2 82 bd bd 91 d1 3c 49 47 31 bd c9 71 e6 bd
       -0.06393927 0.025582189 -0.043280873 -0.112521715
0002c0 0f 0e d8 3d 23 f6 9a bd 71 22 fa bd ef 85 13 bd
       0.105495565 -0.07566478 -0.122136004 -0.0360164
0002d0 88 53 d6 bd 8d 8f 16 bd 6f 0c 84 3d 18 a9 cb bd
       -0.10465151 -0.036757994 0.06447684 -0.099443614
0002e0 7e 7e 98 bd 28 56 ce 3c 4a 78 e9 bd 13 dc cc bd
       -0.074460015 0.025187567 -0.113998964 -0.10002913
0002f0 a1 fe f3 3d 00 be 2a be 3d c3 ee 3c d5 36 01 bd
       0.11913801 -0.16674042 0.029145831 -0.031546433
000300 28 8a c3 3d e1 81 83 bd 54 d4 c6 bd d3 fb 48 3d
       0.095478356 -0.06421257 -0.09708467 0.049068283
000310 60 64 e1 3d 96 10 1f 3e cf a6 1b be e9 4b b5 3d
       0.11005473 0.15533671 -0.15200351 0.08852369
000320 16 e3 70 3d 99 1a b7 bd 68 0e 11 3d a7 60 61 bd
       0.058810316 -0.0894062 0.03541413 -0.055023815
000330 cb 73 0c be d6 49 11 be c6 92 18 3d 69 2a 04 3c
       -0.13716047 -0.14188322 0.03724935 0.008066752
000340 93 37 0d 3e 58 2a ec 3c d4 c5 70 3d 0b 71 0c bd
       0.13790731 0.028828785 0.058782414 -0.034287494
000350 24 97 25 3c 49 d4 da 3d 88 c0 0d be 77 bc cb 3d
       0.0101068355 0.106850214 -0.13842976 0.09948056
000360 98 29 e9 bd 73 52 c9 3c ee 79 90 bc 28 6a 41 bd
       -0.113848865 0.024575448 -0.017636266 -0.04722038
000370 33 3d 15 3e ef 18 84 bd 81 0a ac 3c ff f1 85 bc
       0.14574127 -0.06450068 0.021001102 -0.016350744
000380 5c 06 a7 bd 03 41 1a be 38 b2 de 3c ff 75 2d be
       -0.0815551 -0.15063863 0.02718459 -0.16939543
000390 da fc c9 3d a5 e2 3e 3c 07 61 04 be 4a e1 44 3d
       0.09862681 0.011650716 -0.12927638 0.048066415
0003a0 5c bc 45 bc 17 2c 2b 3d 41 55 01 be e1 fe c6 bd
       -0.012068834 0.041790094 -0.12630178 -0.09716583
0003b0 e1 9e d2 3d bb a2 01 bd e6 95 7a 3d ce bc 2a 3e
       0.1028421 -0.031649332 0.06117811 0.16673586
0003c0 98 e4 24 bd c4 3a 59 3c 7f 7b a1 bd 80 f8 12 3e
       -0.040257066 0.01325864 -0.07884883 0.14352608
0003d0 a0 de 90 3d 8a 82 00 be bb 55 4f 3c d6 6c bc 3c
       0.07073712 -0.12549797 0.012654717 0.023001116
0003e0 29 77 43 bd 93 19 12 bd 4e 10 42 bd 94 cb 31 bd
       -0.04772106 -0.03566892 -0.04737883 -0.043407038
0003f0 29 a5 62 3d a6 95 d1 bd 03 66 e5 bc 0d 50 5c bd
       0.05533329 -0.10233621 -0.028002745 -0.05378728

conv1.apply_func.2.bias f4 [32]
000000 23 8a 4b 3d a9 68 c2 3c 0b 30 e4 3d 90 2a 1c 3b
       0.049692284 0.023731546 0.11141976 0.002382908
000010 cc e5 ca bd f3 2e 21 3c 7e 5c 2d 3d 02 bd 2a be
       -0.099071115 0.009837854 0.042324536 -0.16673663
000020 2d 63 22 be 48 58 ae 3b f4 14 ea 3d 85 1f f5 bd
       -0.15858145 0.0053205825 0.11429778 -0.119689025
000030 4f bd 16 3d ce 89 d3 bd e8 1a 3d bd ca 00 01 be
       0.036801632 -0.103290185 -0.046168238 -0.12597957
000040 33 2f 40 bd ab 1b 02 3e 0f 98 07 3d a7 e3 a0 3c
       -0.046920013 0.12705867 0.033104 0.019639803
000050 28 b3 33 be 72 9a 19 3e b6 5c 26 be 90 42 de bd
       -0.17548811 0.15000322 -0.16246304 -0.108525395
000060 02 ea 9d bd bb 59 ab bd df e0 84 3c 76 b2 14 3e
       -0.07710649 -0.08366724 0.016220508 0.14521202
000070 75 84 96 bd 06 55 2c 3e f9 af f4 3d 7c cb 1d be
       -0.07349483 0.16829309 0.119476266 -0.15409654
