macros/Timing_estimation/models/February_09/run_2/epoch_14.pth (torch, 311082 bytes, 29 tensors)

mlp1.0.weight f4 [32, 9]
00000000: ef89 f5bc 3243 393d 33d8 3cbe b8c7 78be
00000010: 2e86 183c f1fb 343c 9f52 4bbd 4d9c b53d
00000020: d7c1 1dbe 90da 44be ed4a 9ebd d709 803e
00000030: 90b0 0c3e 6ea8 6b3e f477 5ebc 2f38 7ebe
00000040: a074 803e 066d 9c3e 36d2 5e3b 285e 543d
00000050: 929c 0c3d 91ca 1dbe b0c9 b13d c08e 0cbe
00000060: 65a9 72be 283c 9dbe e2e6 a13e 37dc 8a3e
00000070: 346d 8b3e af08 41be 0f54 a4bd 8a51 fb3d
00000080: ccdf 29be 1ee4 5d3e 78c2 873e 951a cbbd
00000090: 6ad2 843e 916f 49be 8e1d c23d f94d 98be
000000a0: 8680 8cbe 7a61 433d cbe8 8c3e 73be 51bd
000000b0: 802a a0be 16e5 ea3d 0d56 763d ad7c 20be
000000c0: bd08 c9bd 1445 943e c4bf 27be 7c2f 4b3e
000000d0: 3a0d 4fbe ff78 c3bd a5e1 9b3e ece0 9d3e
000000e0: add3 9d3e 8a3b 6cbe c6cb 933e 2958 74be
000000f0: 6d1d bbbd 5a23 b2bd 0d11 f83b e84a 8bbe
00000100: b0a2 3cbe 7828 28be 1266 81be 8106 1cbd
00000110: 1b96 9e3e 1137 8ebe 77b3 a53e 588f 19be
00000120: c89b 6cbe e2dd 943c bc5b b9bd b1ec 4a3e
00000130: ac2a 63be be17 a8be de97 8cbe 1fc5 f13c
00000140: fe97 9a3c 6a02 edbc 99ac 89be 1b8b 95be
00000150: 9ff1 a13e 4809 8cbe 655c a0be a56d fd3d
00000160: 0ad6 f8bd 0e83 133e 053a 9b3e 09f5 3d3d
00000170: 660f 8a3e 1cdf 733e ad0c 6cbe 186c 593e
00000180: f864 12be 2067 373e 8250 8d3d d8bd e43d
00000190: 379b 723d 27b0 243e 699b a33c 6ed2 373e
000001a0: 1e65 7ebe fce7 413d 79ce 9e3e 4be3 973e
000001b0: 4ed0 88be 8d5a ebbd 45f9 6d3e baab e6bd
000001c0: d1b3 8b3e d83e 793e b7d2 263e 25d4 953e
000001d0: 3eac abbd 3a78 5a3e f477 7c3c 4d2f a7be
000001e0: 4ea0 e8bc 8131 9f3e ddda 32be 0b1a 39be
000001f0: 7d64 82be 11d1 5d3e bf33 b03d 4c9e 0f3e
00000200: 74ae 213e 9a6b 45be 6e20 6fbe cea6 093e
00000210: c791 25be a223 04be 50f3 0f3e 100e dabd
00000220: a951 983e 7e34 0fbe 6f4f 133d c225 c13d
00000230: 0b3f 813c 9b70 403e 1cc1 fe3c 33bc 86be
00000240: 9d33 d8bd 881f f53c faba 143e 4bc1 62bd
00000250: bfb4 9bbe c8f3 153d e180 703e e9a5 a33e
00000260: 7ccf e0bc 99be 6abe 98e0 793e 3de0 373e
00000270: 24fa 6fbe 0e7c 1a3e 3a5b 223d d285 79be
00000280: fa01 cebd 0ba1 8fbe 0942 573e 03c4 3cbe
00000290: 4e50 58bd 6aeb a0bb de01 e9bd 6d74 dcbd
000002a0: f47a fc3d fbe1 4f3e 1b31 1a3d 8bad a6bc
000002b0: 7944 aa3e ffba 3d3d 9c7a a8be 495d a23e
000002c0: 41ba 103c 57fc 8a3e 0939 30be 72a1 72be
000002d0: 8e79 84be 0bb6 e2bd cb3d 37be 5b3d 8cbe
000002e0: 2f16 a1be 6660 10be 0bb9 3cbe 5352 5fbe
000002f0: 9c89 a4be 96b1 3bbc 0e16 3f3d 4a85 8e3d
00000300: c3de fb3c f4d6 683d 3230 7d3e 9ffa eebd
00000310: 6df1 8a3e 37ab 5c3e 0d64 e4bd 67ff 4ebc
00000320: 297f 71be 2393 90bd 5280 50be 87a4 9abe
00000330: aa6c 2ebd c48e 003e bd7e 053e ac47 353d
00000340: 43eb 68be 24ac 07be 12d6 863d bb55 f73d
00000350: dc2b a8be 03a2 6fbd 780c c5bd 031e 3abe
00000360: 3c9e 613e 47d7 05be d6c8 73be f0f5 34be
00000370: 65ea 6bbe bdb3 503c c406 8dbd 62b7 4abd
00000380: db4c 91bc 37d9 7bbe 8bdc 263e bafa 77be
00000390: b953 b23d f797 283e e21c 9f3a a74e 073e
000003a0: 2667 74bd 8249 953e bda4 993e 136f 59bd
000003b0: 543d 8b3e 5ea1 923e ed4c a4be 6c1c 93be
000003c0: a08a 563d 32d0 903e 86d7 463e dc7e babd
000003d0: cd63 c63d 85d4 87bc 3167 10be eefe 3b3e
000003e0: 3040 85be 5348 433e 32b3 87be 27dd 1abe
000003f0: 38a9 d93d 9d5f fb3d 9b51 9e3e 9a19 973e
-0.029972998 0.045230098 -0.18441848 -0.24294937 0.009309335 0.011046396 -0.04963934 0.08867703
-0.15405975 -0.19224 -0.07729135 0.25007507 0.13739228 0.2301347 -0.013578404 -0.2482612
0.25088978 0.30551928 0.0033999807 0.051847607 0.034329005 -0.15409304 0.08681047 -0.1372633
-0.23697431 -0.30709958 0.31621462 0.27121136 0.27231753 -0.18850969 -0.080238454 0.12271412
-0.16589278 0.21669051 0.26515555 -0.099171795 0.25941783 -0.19671465 0.09478293 -0.29746988
-0.27441806 0.047700383 0.27521357 -0.051207017 -0.31282425 0.11469476 0.06014066 -0.1567256
-0.0981612 0.28958952 -0.16381747 0.19842333 -0.2021989 -0.095445625 0.3044559 0.30835664
0.30825558 -0.23069587 0.28866404 -0.23861755 -0.09136472 -0.08698149 0.007570392 -0.27205586
-0.18421435 -0.16421688 -0.25273186 -0.03809214 0.30973896 -0.27776387 0.32363483 -0.14996088
-0.23106301 0.018172208 -0.090507 0.19816853 -0.22184247 -0.32830614 -0.27459615 0.02951294
0.018871304 -0.028931815 -0.26889494 -0.29207692 0.31629655 -0.2735083 -0.3132049 0.12374429
-0.121502 0.14405462 0.30317703 0.04637626 0.26964873 0.23815578 -0.2305171 0.2123264
-0.14296329 0.17910433 0.06900121 0.11169022 0.059230056 0.16082822 0.019971566 0.17951366
-0.2484326 0.04734038 0.310169 0.29665598 -0.26721424 -0.114918806 0.2323962 -0.11263223
0.27285627 0.24340379 0.16291319 0.29263416 -0.08382462 0.21334925 0.015409458 -0.32653275
-0.028396752 0.31092456 -0.17466302 -0.18076341 -0.2546729 0.21661784 0.0860362 0.14025229
0.15789205 -0.19279328 -0.23352215 0.13442537 -0.16168891 -0.12904218 0.1405766 -0.106472135
0.29749802 -0.13984868 0.035964426 0.0943103 0.015777132 0.18792956 0.031097941 -0.2631546
-0.105567195 0.029922262 0.14524451 -0.05536012 -0.30411336 0.03660944 0.23486663 0.31962517
-0.027442686 -0.2292427 0.24402082 0.17956634 -0.23435265 0.15086386 0.03963778 -0.24367455
-0.10058971 -0.28052554 0.21021284 -0.18434148 -0.05281096 -0.004910876 -0.11377309 -0.10764394
0.12328139 0.20301048 0.037644487 -0.020346424 0.33255365 0.04632091 -0.32906044 0.31711796
0.008833469 0.27145645 -0.17209257 -0.23694399 -0.2587399 -0.11069878 -0.17894666 -0.2739056
-0.31462237 -0.14099273 -0.18429963 -0.21808748 -0.32136238 -0.011455914 0.046651892 0.069590166
0.03074587 0.05684562 0.24725416 -0.11668896 0.27137318 0.21549688 -0.11151896 -0.012634135
-0.23583664 -0.07059314 -0.2036145 -0.3020365 -0.0425841 0.12554461 0.13036628 0.044257805
-0.22745995 -0.1324926 0.065837994 0.12076899 -0.32845962 -0.058504116 -0.09621519 -0.18175511
0.22033018 -0.13070403 -0.23807082 -0.17671943 -0.23038633 0.012738165 -0.06886056 -0.049491294
-0.017736843 -0.2459458 0.16295068 -0.24216738 0.08707375 0.1646422 0.0012139345 0.13213597
-0.059668683 0.29157645 0.30008498 -0.053084444 0.27195227 0.28638738 -0.3208994 -0.28732622
0.052378297 0.2828384 0.19418153 -0.09106228 0.09687004 -0.01658083 -0.14101864 0.18358967
-0.26025534 0.19070558 -0.26503903 -0.15123425 0.10627979 0.12274096 0.30921635 0.2951172

mlp1.0.bias f4 [32]
00000000: 8c92 2e3e f49b d7bc 31c1 333e a9ac 003e
00000010: 6c66 d8bd 1487 903e 8bc1 dabd 953f 73be
00000020: fe09 abbb b5f1 473d d070 83be dbad 983e
00000030: 794b 02be 09eb 6bbc 1f4f 10be 5464 28be
00000040: 516f 2e3d 1f3c a2be aa40 97be 31b3 033e
00000050: 0b05 5bbd 459c 113e d155 8f3d 70ff c03d
00000060: c974 3f3e 9bee 2f3e 2a8b 1c3c 9b23 9c3e
00000070: 5c48 863e 06d0 71bd 7136 813e 322c 683e
0.1704809 -0.026319481 0.17554165 0.12565865 -0.105664104 0.28228056 -0.10681447 -0.23754723
-0.005219697 0.048814494 -0.25672007 0.2982014 -0.12724103 -0.0143992985 -0.14092682 -0.16444522
0.04258663 -0.31686494 -0.29541522 0.12861325 -0.053471606 0.14219768 0.0699879 0.09423721
0.18696894 0.17180865 0.009554664 0.30495915 0.2622708 -0.059036277 0.25236848 0.22673109

mlp1.2.weight f4 [32, 32]
00000000: 9693 db3c 5caa b0bc e523 ce3d 4b0c 90bd
00000010: b9db a5bd 8e24 0d3e 5513 ca3d 6e99 40bd
00000020: f4bc 1ebe fcc9 8bbd f4b2 203d 80df f63d
00000030: 44f3 973c d4c4 13be c879 a9bd 9a8e 22be
00000040: d130 a33d 7e85 c3bd ca70 133e e6a8 d3bd
00000050: a0d4 ffbc 5e60 31be 85c6 1f3e 7a17 ea3c
00000060: 9050 183d 76b4 583d 5836 99bc e8c4 fc3d
00000070: 6f70 693d 859c bfbd 0fff 87bd 2516 da3d
00000080: 1a0f 273d e08f 693d 5a0e 203d a81b 183d
00000090: ac46 30bd e1fe 2d3e 4019 cbbd d6dd a5bd
000000a0: c420 29be 815f e2bc 7eab 2e3e 0f2d 74bc
000000b0: 5e6c 8dbd 9410 0ebe 5e98 2dbe d1b4 f8bd
000000c0: 5cfc 69bd 14b4 ee3c 8c88 8ebc 1add f33c
000000d0: c940 873d 4876 99bb 2caf 2c3e 1b17 93bd
000000e0: 7c3d 263c 4e3c 0d3e d30c 903b 6947 bbbd
000000f0: 1f28 09be 5607 31be 88e0 0c3e 5435 093e
00000100: e74f eb3c fc59 b9bd 3fe0 0cbe 8f6b c23c
00000110: f8ca 00be 6e36 213d 633a 20be 0918 eb3d
00000120: be68 d6bc ae9f 2fbc c84a 013e d39b 033e
00000130: f939 243c 0b4a ed3d d4e3 1e3d 4803 d7bd
00000140: 6796 b7bd 059b 1bbe f450 7cbd 1336 ef3c
00000150: aadd db3d 6df9 b73d 93d6 1a3e 2a5c efbd
00000160: 0632 88bd 05c8 723d 39a3 c53d 4992 103d
00000170: e2df 1fbe 0712 f83d 7cd1 03bd 6276 c6bd
00000180: 5de2 9b3d 6218 53bb 245e 013e 9314 e33d
00000190: 802e 4abd 6876 23be 5982 00be 6e6d 693d
000001a0: a453 8abd ee01 94bc 571c 2cbe 311b 083e
000001b0: 95a3 273e c23b a63d 0718 503d 4e2c 203e
000001c0: 2e47 603c 8a6e c83d 87c6 24bd 8ea9 b5bc
000001d0: bcb9 01bd 5c69 9e3d 59b3 29be 3c2a c93b
000001e0: 518f 8cbd 475b b53c 686f ac3b bd84 2d3e
000001f0: f2bf ebbc 2521 8bbd 17bb 9cbb 9edc c33d
00000200: c866 87bd c590 ffbd c16d 7dbc 8615 eebd
00000210: 00fa 34be 2100 903d 9a16 f7bd 5806 063d
00000220: fc48 a4bb 42b9 13be 5ccc ecbc 81a4 28bd
00000230: eebf e9bd 2efa 04bd e3d2 a3bd 5a4f 083e
00000240: b2dc f7bd a020 8fbd 0088 393c a55e 133d
00000250: 79b3 f23d 76d0 0a3e 5d86 f53c b24b c7bc
00000260: d211 1abe dfe1 ecbd cae4 993d 44f8 dcbd
00000270: 1ff1 153e 960a 253e ffcb bfbd 6529 47bc
00000280: 5020 a33c 95d1 583d 51af d7bc c440 04be
00000290: 84ed e2bd 8d4c 23bd 7b9a d9bd effa f63d
000002a0: 23d5 a23d d275 b9bd 7c64 07be dddb 6cbd
000002b0: 98f2 82bd bd91 d13c 4947 31bd c971 e6bd
000002c0: 0f0e d83d 23f6 9abd 7122 fabd ef85 13bd
000002d0: 8853 d6bd 8d8f 16bd 6f0c 843d 18a9 cbbd
000002e0: 7e7e 98bd 2856 ce3c 4a78 e9bd 13dc ccbd
000002f0: a1fe f33d 00be 2abe 3dc3 ee3c d536 01bd
00000300: 0a0b c33d fe15 85bd d56b cbbd f4cc 373d
00000310: 54e9 e83d 8339 1a3e cfa6 1bbe eb37 b83d
00000320: edc1 743d 5f44 b6bd d186 0f3d fc63 66bd
00000330: 0259 0cbe baa8 16be a5f1 1d3d 4295 103c
00000340: 87ce 0b3e 7cdf 073d 6384 603d 29c2 15bd
00000350: 2497 253c 308e d83d 2d6e 11be 6bf0 ce3d
00000360: 1970 e2bd 63d7 be3c 621b 8fbc 280b 46bd
00000370: 9f41 153e 7e4f 84bd 4e7d af3c 39d0 92bc
00000380: 5c06 a7bd 0341 1abe 38b2 de3c ff75 2dbe
00000390: dafc c93d a5e2 3e3c 0761 04be 4ae1 443d
000003a0: 5cbc 45bc 172c 2b3d 4155 01be e1fe c6bd
000003b0: e19e d23d bba2 01bd e695 7a3d cebc 2a3e
000003c0: 98e4 24bd c43a 593c 7f7b a1bd 80f8 123e
000003d0: a0de 903d 8a82 00be bb55 4f3c d66c bc3c
000003e0: 2977 43bd 9319 12bd 4e10 42bd 94cb 31bd
000003f0: 29a5 623d a695 d1bd 0366 e5bc 0d50 5cbd
0.026803773 -0.021565609 0.1006544 -0.07033595 -0.080985494 0.13783476 0.098669685 -0.047021322
-0.15501767 -0.06825635 0.039233163 0.12054348 0.018548615 -0.14430553 -0.08275181 -0.1587471
0.07968295 -0.09546946 0.14398494 -0.10334949 -0.031229317 -0.17321917 0.15603073 0.028575648
0.037186205 0.052906476 -0.018702671 0.123422444 0.05699199 -0.093560256 -0.066404454 0.10648755
0.040785886 0.057021976 0.039076187 0.03713575 -0.043036148 0.1699176 -0.099169254 -0.080989525
-0.16516405 -0.02763343 0.17057607 -0.014903321 -0.06905435 -0.13873512 -0.16952655 -0.12143863
-0.057125434 0.029138602 -0.017399095 0.029768515 0.06604154 -0.0046832897 0.16863698 -0.071821414
0.010146495 0.13792536 0.00439606 -0.0914448 -0.13394211 -0.17287955 0.13757527 0.1339925
0.028724624 -0.09050366 -0.13757418 0.023732929 -0.12577426 0.03935855 -0.15647273 0.11479194
-0.026172992 -0.010719223 0.12626183 0.12852411 0.010023587 0.11586388 0.038791493 -0.10498673
-0.08964234 -0.15195854 -0.06160064 0.02920059 0.107356384 0.08983121 0.15120916 -0.11687501
-0.06650166 0.059272785 0.09650273 0.03529576 -0.15612748 0.121128134 -0.0321822 -0.096905485
0.07611535 -0.0032210578 0.12633568 0.110879086 -0.049360752 -0.15963137 -0.12549724 0.056989126
-0.067542344 -0.018067326 -0.16807686 0.13291623 0.16370995 0.08116867 0.050804164 0.15641901
0.013688846 0.09786709 -0.040228393 -0.022175577 -0.03167127 0.077349395 -0.16572322 0.006139068
-0.06863273 0.022138251 0.005262304 0.16945167 -0.02877805 -0.06793431 -0.004783045 0.09563564
-0.06611401 -0.124787845 -0.015468062 -0.11625199 -0.17673492 0.070312746 -0.12064858 0.032720894
-0.005013583 -0.14426139 -0.02890604 -0.04117251 -0.11413561 -0.032465152 -0.07999208 0.1331152
-0.12102641 -0.069886446 0.011323929 0.035978932 0.11850638 0.13556084 0.029971296 -0.024328087
-0.1504586 -0.11566519 0.07514341 -0.107895404 0.14642762 0.1611732 -0.09365081 -0.012155865
0.019912869 0.052934248 -0.026328715 -0.12915331 -0.11080459 -0.039867926 -0.10625168 0.120595805
0.07950809 -0.090556756 -0.13221925 -0.057826865 -0.06393927 0.025582189 -0.043280873 -0.112521715
0.105495565 -0.07566478 -0.122136004 -0.0360164 -0.10465151 -0.036757994 0.06447684 -0.099443614
-0.074460015 0.025187567 -0.113998964 -0.10002913 0.11913801 -0.16674042 0.029145831 -0.031546433
0.0952359 -0.06498335 -0.09932677 0.044873193 0.11372629 0.15061001 -0.15200351 0.089950405
0.059755255 -0.088997595 0.03504068 -0.056247696 -0.13705829 -0.14712802 0.03856053 0.008824648
0.13653003 0.033172116 0.054813754 -0.03656212 0.0101068355 0.10573995 -0.14202185 0.1010445
-0.11056537 0.023296064 -0.017469112 -0.048350483 0.14575814 -0.064604744 0.021422055 -0.017921554
-0.0815551 -0.15063863 0.02718459 -0.16939543 0.09862681 0.011650716 -0.12927638 0.048066415
-0.012068834 0.041790094 -0.12630178 -0.09716583 0.1028421 -0.031649332 0.06117811 0.16673586
-0.040257066 0.01325864 -0.07884883 0.14352608 0.07073712 -0.12549797 0.012654717 0.023001116
-0.04772106 -0.03566892 -0.04737883 -0.043407038 0.05533329 -0.10233621 -0.028002745 -0.05378728

mlp1.2.bias f4 [32]
00000000: a58d 553d bcc2 e03c b0bd e03d 9662 ec3a
00000010: 964e cdbd f32e 213c c294 1e3d 02bd 2abe
00000020: da4d 28be dfff ae39 6f04 f03d 4498 ecbd
00000030: 8b43 093d d7d3 d6bd 1e3d 4bbd 03a4 febd
00000040: 4d80 2dbd b83f fa3d e0c4 193d 7175 a03c
00000050: 1526 31be 3b00 173e 7458 2bbe 5f29 d9bd
00000060: 3d4d 9dbd d7ba adbd 5f6a 8b3c fd4e 153e
00000070: 15de 9dbd b091 273e 24f3 ed3d 3c52 1bbe
0.052137036 0.027436607 0.1097368 0.0018034752 -0.10024755 0.009837854 0.038716085 -0.16673663
-0.16435948 0.00033378505 0.11719596 -0.1155248 0.03351168 -0.10489624 -0.049618833 -0.124336265
-0.042358685 0.12219185 0.03754127 0.01958725 -0.17299683 0.14746182 -0.16732961 -0.10603594
-0.07680748 -0.084829025 0.017018495 0.14580913 -0.077083744 0.16364169 0.11618641 -0.15168089

mlp2.0.weight f4 [32, 32]
00000000: 376a 32be 778b 253e 2ba8 d63b 16d8 353d
00000010: f3a6 e43d 475b 713d b103 efbc b369 00be
00000020: 8a84 06be 1811 ea3d f48a 16be 68fa 243e
00000030: e777 1e3d e0b8 ad3d 4ca5 2c3e 7db3 053e
00000040: d94e 37bb 0b3e b23d 9ac1 903c f4ef 6cbd
00000050: 3c74 293b 297c ac3d af6a d2bd e96e c3bd
00000060: f050 ec3d c158 343d cf93 8bbd e2ab 133e
00000070: 8b03 403d 0205 1cbe 932c 8fbd bd82 8a3c
00000080: 0de2 16be cd1b 23be 85f3 14be 1dc4 12be
00000090: ae8a 9c3d 2e2e 123e 5680 47bd 479c 81ba
000000a0: 3665 9b3d 6e1c ab3d 7eae d2bd d22f 1ebe
000000b0: 447a 33be 6a60 bc3d b3de d93d 88ce 8dbd
000000c0: e797 1abd eee5 9b3c dab3 edbd 45f6 cc3d
000000d0: 1e36 ce3d 86f7 a6bc 7046 fdbd 0dfa ca3c
000000e0: 6363 da3d 47f4 153e 3f0f 1a3c 3d56 97bd
000000f0: f7fb 91bd e282 d6bb 3531 293c 2b43 24be
00000100: 0aa3 093e a61d 75bc 5f94 7abd 8e50 243e
00000110: a05d 2abd 8f96 93bd 2007 64bd 4dd1 4f3d
00000120: 3611 d93d 5433 e5bd 2356 153d 6037 063e
00000130: 0a9c d83b e010 f5bc fc24 3bbd 7ac4 c53d
00000140: 6b46 28be 5c84 ad3d 37d5 6e3d 909b 83bd
00000150: 4af3 da3d ec29 cbbd 8f53 813d 9879 e23d
00000160: d3c4 c5bb 39ed f23d d884 e6bd cb19 b3bd
00000170: 7e46 e5bd b6c1 d93d dfbd f33d df76 fbbd
00000180: e7db b43d 15be b03d 4983 27bc 596b 08be
00000190: 76f1 163d cb17 b63c e1d5 2c3e 6e5c f03d
000001a0: da4f dcbd 1b0c ec3b c794 6c3d a8ba d03d
000001b0: 86ce f3bd 37de d5bb 01aa c43c 0658 e33d
000001c0: be50 93bc a514 233b e2c1 a8bd 7309 7ebd
000001d0: 11af febd 0c9d c5bd d42e 733c 9def 08bc
000001e0: e9b2 fc3d ddbf 23be 29b7 813d b94d cf3d
000001f0: eb22 88bd b8e8 803c 16c7 06be 7dd9 be3d
00000200: f220 153e a77d cd3c 6dce 3d3d e114 4bbd
00000210: abab cc3d f5b6 0c3d de4a 033d 90b1 a23d
00000220: 3ee2 283e 7a32 b0bd 328f 87bc cb23 72bd
00000230: 1715 a03d dffa 283e d6cd 8f3d 50b3 45bd
00000240: 61dc e93d 5a74 e4bd 7862 2c3e cfc9 5b3d
00000250: 5f67 39bd ac5f a73c 9956 adbd eee2 4bbd
00000260: 7220 d63d 647e 573d 7c71 e2bd 0063 cd3d
00000270: 960c f5bd d700 64bc baeb 83bd 13b0 e73d
00000280: 4fc4 14be fb0b e03d 30c0 c6bd edcd 91bc
00000290: 2c4b 953d 40ef 303e 27f0 603d 60aa d33d
000002a0: bc7c 05be cc78 393d e3b6 e2bd b074 2a3e
000002b0: ca14 3e3d 2253 2cbd 9f3e cabd d69e 673d
000002c0: f00e 263e 0590 dcbc aa03 f4bc 63b9 183c
000002d0: b853 0f3e 7e00 2fbe d14e dbbd 30c1 09bd
000002e0: dec7 2cbe f94a 853c 15d7 05be 92f3 043e
000002f0: d978 2e3e 9ba7 19be 59fe e3bd 046f f03d
00000300: b490 d6bd 3f93 24be 10fc 22bd 0e0a 333d
00000310: d76d ad3d 439f f73d 6612 2c3e 78fb fcbc
00000320: 9742 18be 7b47 f93d 17f4 313e 594c 7a3d
00000330: 4a5a 903d 3a0f 9b3d d0ef 91bd 3547 1a3d
00000340: 0246 203e b829 03bd 668d 18be c31d 38bd
00000350: 5196 bc3d 529c 0e3b 82e5 203e 8e8f 7abd
00000360: 9fe3 053e 443b 13bd 1ab5 883d 90db 4fbd
00000370: 01aa 1abc 6d96 edbd b557 29be bd72 c5bc
00000380: 6523 cfbd 09fa cbbd 48a3 59bd d05a b2bc
00000390: 59f5 613d 5c0a 03bd 3e5f f9bd d80c 0a3d
000003a0: 9ccc 093e 9705 023e 22c8 163e 48a3 09be
000003b0: 5b7b 073e 5867 c8bd 3592 bf3d 2a20 88bd
000003c0: 08c5 08be 9423 09bd 6c15 cd3d 9415 8f3d
000003d0: 5533 8dbd 8e4a 51bd 7a62 313e 7fe4 213e
000003e0: 8f02 163d 0243 babd 5455 33be efe1 d9bd
000003f0: 824a 89bd 1042 233e 389c 043e 5a8b 123e
-0.1742333 0.16166483 0.006550809 0.04439553 0.111646555 0.05892494 -0.029176565 -0.12540321
-0.13136497 0.114290416 -0.14701444 0.16111147 0.038688567 0.08482528 0.16859931 0.1305675
-0.002797058 0.0870324 0.017670441 -0.057846025 0.0025856635 0.08422119 -0.102742545 -0.09542639
0.11538875 0.044029955 -0.068153016 0.14421037 0.04687838 -0.15236285 -0.06990924 0.016908044
-0.14734669 -0.15928574 -0.1454602 -0.14332624 0.076436386 0.14275429 -0.048706375 -0.0009888493
0.07587664 0.08355032 -0.10287188 -0.1544793 -0.1752711 0.09198077 0.1063818 -0.06924158
-0.03774252 0.019030537 -0.116065696 0.1000791 0.10068916 -0.0203817 -0.123669505 0.024777437
0.10663488 0.14643966 0.009403049 -0.073894955 -0.071281366 -0.006546364 0.010326673 -0.16041248
0.134411 -0.014960682 -0.061176654 0.16046354 -0.041593194 -0.07206451 -0.055670857 0.050736714
0.10598986 -0.11191431 0.0364591 0.13107061 0.006610398 -0.029915273 -0.045689568 0.096566156
-0.16433112 0.08472511 0.058308806 -0.064261556 0.10690935 -0.09920105 0.06314766 0.110583484
-0.006035426 0.11861653 -0.11255807 -0.08745154 -0.11195086 0.106326506 0.119014494 -0.12278532
0.088310055 0.08630005 -0.010224172 -0.133222 0.03685137 0.022228142 0.16878463 0.117363796
-0.10757418 0.0072035915 0.057759073 0.10191852 -0.119046256 -0.006526734 0.024006845 0.111007735
-0.017982837 0.0024884131 -0.08240105 -0.06202073 -0.12435735 -0.09649095 0.014842708 -0.0083579095
0.12338812 -0.15991159 0.06333763 0.10122246 -0.06647285 0.015735969 -0.13161883 0.09318826
0.14563349 0.02508433 0.04633944 -0.04958046 0.099936806 0.03435417 0.03205382 0.079440236
0.16492555 -0.08603378 -0.016547773 -0.059116166 0.078165226 0.1650195 0.07021682 -0.04826671
0.11418987 -0.11155005 0.16834438 0.053659257 -0.045264598 0.020431362 -0.08463783 -0.049776964
0.10455407 0.05261077 -0.11056802 0.100286484 -0.11965291 -0.013916216 -0.06441446 0.1131288
-0.14528011 0.10939785 -0.097046256 -0.017798388 0.072897285 0.17278767 0.054916527 0.10335231
-0.13035864 0.045281217 -0.11070039 0.16646075 0.046406545 -0.04207147 -0.09875225 0.056547962
0.16216636 -0.026924143 -0.029786903 0.009321543 0.1399678 -0.17090032 -0.107083924 -0.033631504
-0.16873118 0.016271101 -0.13070329 0.1298354 0.17038287 -0.15005343 -0.11132497 0.117399246
-0.10476819 -0.16071795 -0.039791167 0.04371076 0.08468216 0.12090924 0.16803893 -0.030881628
-0.14869152 0.12171837 0.17378269 0.061107967 0.07048471 0.075712636 -0.07125819 0.037665565
0.15651706 -0.032022208 -0.14897689 -0.044950258 0.09208358 0.0021760655 0.1571255 -0.06117206
0.13075112 -0.035945192 0.066751674 -0.0507465 -0.009439946 -0.11600957 -0.16537364 -0.024102563
-0.10114173 -0.099598 -0.053134233 -0.021771818 0.055165622 -0.0319923 -0.12176369 0.033703655
0.13456959 0.12697445 0.14724782 -0.13441193 0.1323065 -0.09785336 0.09354059 -0.0664676
-0.13356411 -0.033481196 0.100138515 0.069865376 -0.068945564 -0.05109649 0.17322722 0.1580982
0.036623534 -0.09094812 -0.17513019 -0.106387965 -0.06703664 0.1594317 0.12950218 0.14310971

mlp2.0.bias f4 [32]
00000000: 5f2a 45bd cac0 9b3d 297d 02be 85f4 903d
00000010: 291c f7bc 5eda 723d 7544 d83d ad8c cebd
00000020: fa11 a1bc 87eb fc3d 4aa6 d139 33f8 20be
00000030: ee13 493d 861b 59bd 3273 eb3d 4e1c 7bbd
00000040: 5cba 183e 9b61 4a3d b51f 32be 5096 8f3d
00000050: 7186 43bd 280d 923d 1078 ab3d 8bf5 f5b8
00000060: 9f72 25be 4f18 c13d d53c 1a3e e27b f53d
00000070: 3eae db3d bb3d 06be bc4d 603c d418 423d
-0.04813611 0.07605131 -0.12743057 0.070778884 -0.030164795 0.059290282 0.10559932 -0.100854255
-0.019661892 0.12349611 0.0003998748 -0.1571968 0.049091272 -0.053004764 0.11496581 -0.06130629
0.1491484 0.04940949 -0.17394908 0.07011092 -0.047735635 0.071314156 0.083725095 -0.00011728246
-0.16157006 0.094284646 0.15062268 0.119865194 0.107265934 -0.13109486 0.013690408 0.04738696

mlp2.2.weight f4 [32, 32]
00000000: 3392 dfbd 7c61 74bd 8889 22be 0ec5 073e
00000010: 7a04 2abc 3001 d23d 4760 78bd d902 843d
00000020: 63bd 21bc d93f d73d 17b4 e43b d949 ec3c
00000030: 0ca8 623d b892 043e 1e7b d3bd dabc 19be
00000040: 35c9 003d 88c9 6f3c 9d19 bebd 19e5 12bd
00000050: 373d 373e f951 f13b 03a8 a5bd 90be 5f3c
00000060: 2e8b babb 37c4 233d 8798 b63d 91d1 ec3b
00000070: b90c 3d3d 61be a83c fb6e ac3c 18b8 073e
00000080: 4790 9b3d b14a c4bb c1cc 993d 92a4 1dbe
00000090: 7bc5 ccbd 4802 0a3e 0c19 853d 601a 9b3d
000000a0: 5db3 063d d8c4 0dbe b98e ae3d e5b6 d7bd
000000b0: 80b7 50bc 9882 f13d b1ae 48bb a9aa 73bd
000000c0: 19fb 12be ab96 71bd 6580 153e 363d 4b3d
000000d0: 046f 4f3b c310 dd3c e92f 2cbd 4c1a 893d
000000e0: 3dc0 ae3c aa88 033d e0e8 b73d a888 3c3d
000000f0: 8550 c03d 002c ddbc 9cfa 023e 3316 b3bd
00000100: 9787 bdbc 5316 293c 4c2f a93d abc1 9e3d
00000110: 3ac4 893d 1566 243e 524a 193e 7704 fabd
00000120: a9d0 bf3c e6bb 6fbc 3a74 f6bd 01a4 f4bd
00000130: c4da 4bbc 9cdd c93d 6b9c 293e ae1d 95bd
00000140: 30bf acbc 22f6 e83d 07d2 433d 8ff7 14be
00000150: 8d57 903d aaaf 99bd bfde 0f3e 1e59 b93d
00000160: 2e75 55bc 4ff3 abbd 27a7 13bd f296 91bd
00000170: 5430 7c3d 9585 eebd 25a9 17be 7a34 6cbd
00000180: 8d99 703d 7281 5b3d 3b88 18be 9c47 b43d
00000190: 0241 0ebe 2bc0 fcbd d716 173e 2293 233e
000001a0: 608c bfbd e287 bc3c b350 03be db90 29be
000001b0: 1112 15be bb49 2ebc af9c 343e 01e2 023e
000001c0: 5a5b ce3d 1997 20be 0632 183c 9301 0ebd
000001d0: 02ff 12bd 156d b3bd f764 84bd 2afd e83a
000001e0: eded cd3d 3b4a abbd f662 c2bd 26a6 0f3d
000001f0: fb2f bc3c cc1c c1bd 79a2 fcbd e321 cebd
00000200: dfb7 ff3d f372 bfbd 24ff 31bc f0f0 86bd
00000210: 1f37 2d3e 0546 a43c d9e2 083e c1cf 2d3b
00000220: 42cd 143e 5514 2cbd e87e c5bd 5113 2cbd
00000230: 3140 e3bd 4273 cc3d 5a80 113e 0505 833d
00000240: 5e83 03be 17e4 fbbd 63fb ed3c 025a cebd
00000250: 07ef 243d b895 26be 56a9 133e 3366 293e
00000260: ff6f ff3d 380f e43d c27f 07bc da73 18bd
00000270: 87d9 47bd 49f0 e9bd 2329 063e b1d2 aebd
00000280: 47d8 4f3d 8bd1 1dbe e4c2 c23c 1665 263c
00000290: 7446 473d a0d4 913d b213 36bc 0013 c53c
000002a0: d028 63bd 7a3b 59bd 691b 17be 81ef efbd
000002b0: 87f2 093e 7231 c2bd 0b43 7a3d 789d 933d
000002c0: ca81 06be 48ea 113e 8c02 19be dd4c 053e
000002d0: b4b8 ac3d c869 45bd 75c1 18be 90b4 25bb
000002e0: 377b 1bbe 0518 2abd a485 8c3d 0912 413d
000002f0: dd74 7bbd 15d7 2cbe 876a 7f3d 1dc1 27be
00000300: fd3f c1bc 4ea5 193e ff75 0cbd cb5b 17bd
00000310: 77b8 203e 8d73 c03d ac26 503d 288b 28be
00000320: eb21 12be 0641 fcbd 0f40 b93c 73db 2b3e
00000330: 5752 a33c 52e7 febc 1398 25be a7cd 1bbe
00000340: 9fed 30be 46c8 153e 33ed 2d3d 7afe c23c
00000350: b77c 67bd 6d61 ca3d eb99 bf3c d3b5 3b3c
00000360: 405a f73d d13f 203e 8302 363e cdc3 1abe
00000370: 89d5 1dbe 7750 1bbe 0904 29bd f8b2 bd3d
00000380: 068c e03d 07dc e2bc a3a5 d43d 1c0e 0dbd
00000390: 15c8 fd3d 77b5 023e 81e8 a43d bae7 fabd
000003a0: 25f2 523c cd15 f53d 7435 febc f0a3 db3c
000003b0: 9ad6 c1bd 9556 f6bc 4252 ddbd 55ed 1d3e
000003c0: c83c 99bd 6fa8 b4bd b67d 77bc 2a1e 773d
000003d0: 54b0 c5bd 65b7 313e 5a37 17be 49bf 13be
000003e0: ff85 563d 81c9 abbd 4f2a 5a3b 2914 d5bc
000003f0: f92d 24be a9a9 59bd 2364 1c3d 417d 813d
-0.10916557 -0.05966328 -0.15872777 0.13258764 -0.010377044 0.10254133 -0.060638692 0.06445856
-0.0098718135 0.10510225 0.006979476 0.028843807 0.055336043 0.12946594 -0.10326217 -0.15013447
0.031441886 0.014635451 -0.09282229 -0.035863016 0.17894445 0.007364508 -0.08088686 0.0136562735
-0.005692861 0.039982047 0.08915811 0.0072271307 0.04615471 0.020598592 0.021049013 0.1325382
0.07595878 -0.005990349 0.07509757 -0.1539481 -0.09998604 0.13477433 0.06498918 0.0757339
0.032885898 -0.13844621 0.08523316 -0.10532931 -0.012739062 0.11792487 -0.0030621702 -0.059488926
-0.14353599 -0.05898158 0.1459976 0.049618922 0.0031651864 0.026985532 -0.04203788 0.06694469
0.0213319 0.032112755 0.08979964 0.046028763 0.09390358 -0.02699852 0.12790912 -0.087444685
-0.023135943 0.010320264 0.08260974 0.07751783 0.0672688 0.16054566 0.14969757 -0.12207883
0.023414927 -0.014632201 -0.12033887 -0.11945344 -0.0124422945 0.09856722 0.16563575 -0.072810516
-0.021087259 0.11375071 0.04780772 -0.14547561 0.07047949 -0.075042084 0.14049815 0.09050201
-0.013028426 -0.08396017 -0.03604808 -0.07108869 0.061569527 -0.116465725 -0.14810617 -0.057667233
0.058740187 0.053590246 -0.14895718 0.08802721 -0.13891986 -0.12341341 0.14754806 0.15974095
-0.09352946 0.023014013 -0.12823753 -0.16559164 -0.14557673 -0.010637696 0.17637895 0.12781526
0.10076018 -0.15682639 0.00928927 -0.03466947 -0.035887726 -0.0876104 -0.0646457 0.0017775644
0.10055146 -0.08363768 -0.094915316 0.03507056 0.022972098 -0.09429321 -0.12335677 -0.10065057
0.124862425 -0.09348097 -0.010864053 -0.06588924 0.16915558 0.02005292 0.13367786 0.0026521536
0.14531425 -0.042011578 -0.09643346 -0.04201061 -0.11096228 0.09982921 0.14209118 0.06397442
-0.12843081 -0.12299364 0.029050535 -0.100757614 0.040267017 -0.1626805 0.14420065 0.16542892
0.124725334 0.11135715 -0.008270206 -0.03721986 -0.048791435 -0.11422784 0.1310163 -0.0853628
0.050743368 -0.15411966 0.023774572 0.010155937 0.048651174 0.07120633 -0.011113094 0.024056911
-0.055458844 -0.053035237 -0.1475655 -0.117156036 0.13471423 -0.09482087 0.061099093 0.07207769
-0.13135448 0.14249527 -0.14942378 0.13017602 0.08433667 -0.048196584 -0.14917548 -0.0025284626
-0.15183721 -0.041526813 0.068614274 0.04713634 -0.061390746 -0.16878922 0.06235745 -0.1638226
-0.023590082 0.15004465 -0.034292217 -0.036952775 0.15695368 0.093970396 0.05081813 -0.16459334
-0.14270751 -0.1231709 0.022613553 0.16782932 0.019936724 -0.031116161 -0.16171293 -0.15215169
-0.17278145 0.1462718 0.04246254 0.023802985 -0.05651542 0.09881864 0.023388823 0.0114569245
0.12077761 0.15649344 0.17774396 -0.15113755 -0.15413488 -0.15167414 -0.041263614 0.09262651
0.10964207 -0.027692808 0.10383155 -0.034437284 0.12391678 0.12764536 0.08052159 -0.122512296
0.012875115 0.11967049 -0.031031348 0.02681157 -0.0946476 -0.030070582 -0.10806705 0.15422566
-0.07482296 -0.08821189 -0.015105655 0.0603315 -0.096527725 0.17355116 -0.14767209 -0.14428438
0.052373882 -0.08388043 0.0033289378 -0.02601059 -0.16033162 -0.053140316 0.038181435 0.063227184

mlp2.2.bias f4 [32]
00000000: 6e28 b0bd e340 aa3d 2a7b e2bd 70ca a5bd
00000010: b8a7 6bbd c598 b13d 6560 11bc c189 2fbe
00000020: bfde df3a f3c2 1c3e 9f48 333e 6030 60bd
00000030: 9fe5 1b3d 96d8 27be 941d e33c 8b5a c6bd
00000040: 1554 be3d 37f8 bdbd a576 1fbe fe28 793c
00000050: 0f6c d43d 8263 82bd 3c52 cdbd 9162 abbd
00000060: 3249 dabc b687 673c 7ca5 f43d 4ce8 4dbd
00000070: 9652 2bbd 1030 eabd c4fa 31be 17cd 233e
-0.08601461 0.083131574 -0.11058648 -0.080952525 -0.057532996 0.086717166 -0.00887308 -0.17142393
0.0017079933 0.15308742 0.17508171 -0.054733634 0.03806078 -0.16391215 0.027724065 -0.096852385
0.09293381 -0.09275859 -0.15572603 0.015207527 0.10372173 -0.06366636 -0.100254506 -0.083684094
-0.02664623 0.014131477 0.11945626 -0.050270364 -0.041826807 -0.114349484 -0.17380816 0.15996204

conv1.apply_func.0.weight f4 [32, 9]
00000000: ef89 f5bc 3243 393d 33d8 3cbe b8c7 78be
00000010: 2e86 183c f1fb 343c 9f52 4bbd 4d9c b53d
00000020: d7c1 1dbe 90da 44be ed4a 9ebd d709 803e
00000030: 90b0 0c3e 6ea8 6b3e f477 5ebc 2f38 7ebe
00000040: a074 803e 066d 9c3e 36d2 5e3b 285e 543d
00000050: 929c 0c3d 91ca 1dbe b0c9 b13d c08e 0cbe
00000060: 65a9 72be 283c 9dbe e2e6 a13e 37dc 8a3e
00000070: 346d 8b3e af08 41be 0f54 a4bd 8a51 fb3d
00000080: ccdf 29be 1ee4 5d3e 78c2 873e 951a cbbd
00000090: 6ad2 843e 916f 49be 8e1d c23d f94d 98be
000000a0: 8680 8cbe 7a61 433d cbe8 8c3e 73be 51bd
000000b0: 802a a0be 16e5 ea3d 0d56 763d ad7c 20be
000000c0: bd08 c9bd 1445 943e c4bf 27be 7c2f 4b3e
000000d0: 3a0d 4fbe ff78 c3bd a5e1 9b3e ece0 9d3e
000000e0: add3 9d3e 8a3b 6cbe c6cb 933e 2958 74be
000000f0: 6d1d bbbd 5a23 b2bd 0d11 f83b e84a 8bbe
00000100: b0a2 3cbe 7828 28be 1266 81be 8106 1cbd
00000110: 1b96 9e3e 1137 8ebe 77b3 a53e 588f 19be
00000120: c89b 6cbe e2dd 943c bc5b b9bd b1ec 4a3e
00000130: ac2a 63be be17 a8be de97 8cbe 1fc5 f13c
00000140: fe97 9a3c 6a02 edbc 99ac 89be 1b8b 95be
00000150: 9ff1 a13e 4809 8cbe 655c a0be a56d fd3d
00000160: 0ad6 f8bd 0e83 133e 053a 9b3e 09f5 3d3d
00000170: 660f 8a3e 1cdf 733e ad0c 6cbe 186c 593e
00000180: f864 12be 2067 373e 8250 8d3d d8bd e43d
00000190: 379b 723d 27b0 243e 699b a33c 6ed2 373e
000001a0: 1e65 7ebe fce7 413d 79ce 9e3e 4be3 973e
000001b0: 4ed0 88be 8d5a ebbd 45f9 6d3e baab e6bd
000001c0: d1b3 8b3e d83e 793e b7d2 263e 25d4 953e
000001d0: 3eac abbd 3a78 5a3e f477 7c3c 4d2f a7be
000001e0: 4ea0 e8bc 8131 9f3e ddda 32be 0b1a 39be
000001f0: 7d64 82be 11d1 5d3e bf33 b03d 4c9e 0f3e
00000200: 74ae 213e 9a6b 45be 6e20 6fbe cea6 093e
00000210: c791 25be a223 04be 50f3 0f3e 100e dabd
00000220: a951 983e 7e34 0fbe 6f4f 133d c225 c13d
00000230: 0b3f 813c 9b70 403e 1cc1 fe3c 33bc 86be
00000240: 9d33 d8bd 881f f53c faba 143e 4bc1 62bd
00000250: bfb4 9bbe c8f3 153d e180 703e e9a5 a33e
00000260: 7ccf e0bc 99be 6abe 98e0 793e 3de0 373e
00000270: 24fa 6fbe 0e7c 1a3e 3a5b 223d d285 79be
00000280: fa01 cebd 0ba1 8fbe 0942 573e 03c4 3cbe
00000290: 4e50 58bd 6aeb a0bb de01 e9bd 6d74 dcbd
000002a0: f47a fc3d fbe1 4f3e 1b31 1a3d 8bad a6bc
000002b0: 7944 aa3e ffba 3d3d 9c7a a8be 495d a23e
000002c0: 41ba 103c 57fc 8a3e 0939 30be 72a1 72be
000002d0: 8e79 84be 0bb6 e2bd cb3d 37be 5b3d 8cbe
000002e0: 2f16 a1be 6660 10be 0bb9 3cbe 5352 5fbe
000002f0: 9c89 a4be 96b1 3bbc 0e16 3f3d 4a85 8e3d
00000300: c3de fb3c f4d6 683d 3230 7d3e 9ffa eebd
00000310: 6df1 8a3e 37ab 5c3e 0d64 e4bd 67ff 4ebc
00000320: 297f 71be 2393 90bd 5280 50be 87a4 9abe
00000330: aa6c 2ebd c48e 003e bd7e 053e ac47 353d
00000340: 43eb 68be 24ac 07be 12d6 863d bb55 f73d
00000350: dc2b a8be 03a2 6fbd 780c c5bd 031e 3abe
00000360: 3c9e 613e 47d7 05be d6c8 73be f0f5 34be
00000370: 65ea 6bbe bdb3 503c c406 8dbd 62b7 4abd
00000380: db4c 91bc 37d9 7bbe 8bdc 263e bafa 77be
00000390: b953 b23d f797 283e e21c 9f3a a74e 073e
000003a0: 2667 74bd 8249 953e bda4 993e 136f 59bd
000003b0: 543d 8b3e 5ea1 923e ed4c a4be 6c1c 93be
000003c0: a08a 563d 32d0 903e 86d7 463e dc7e babd
000003d0: cd63 c63d 85d4 87bc 3167 10be eefe 3b3e
000003e0: 3040 85be 5348 433e 32b3 87be 27dd 1abe
000003f0: 38a9 d93d 9d5f fb3d 9b51 9e3e 9a19 973e
-0.029972998 0.045230098 -0.18441848 -0.24294937 0.009309335 0.011046396 -0.04963934 0.08867703
-0.15405975 -0.19224 -0.07729135 0.25007507 0.13739228 0.2301347 -0.013578404 -0.2482612
0.25088978 0.30551928 0.0033999807 0.051847607 0.034329005 -0.15409304 0.08681047 -0.1372633
-0.23697431 -0.30709958 0.31621462 0.27121136 0.27231753 -0.18850969 -0.080238454 0.12271412
-0.16589278 0.21669051 0.26515555 -0.099171795 0.25941783 -0.19671465 0.09478293 -0.29746988
-0.27441806 0.047700383 0.27521357 -0.051207017 -0.31282425 0.11469476 0.06014066 -0.1567256
-0.0981612 0.28958952 -0.16381747 0.19842333 -0.2021989 -0.095445625 0.3044559 0.30835664
0.30825558 -0.23069587 0.28866404 -0.23861755 -0.09136472 -0.08698149 0.007570392 -0.27205586
-0.18421435 -0.16421688 -0.25273186 -0.03809214 0.30973896 -0.27776387 0.32363483 -0.14996088
-0.23106301 0.018172208 -0.090507 0.19816853 -0.22184247 -0.32830614 -0.27459615 0.02951294
0.018871304 -0.028931815 -0.26889494 -0.29207692 0.31629655 -0.2735083 -0.3132049 0.12374429
-0.121502 0.14405462 0.30317703 0.04637626 0.26964873 0.23815578 -0.2305171 0.2123264
-0.14296329 0.17910433 0.06900121 0.11169022 0.059230056 0.16082822 0.019971566 0.17951366
-0.2484326 0.04734038 0.310169 0.29665598 -0.26721424 -0.114918806 0.2323962 -0.11263223
0.27285627 0.24340379 0.16291319 0.29263416 -0.08382462 0.21334925 0.015409458 -0.32653275
-0.028396752 0.31092456 -0.17466302 -0.18076341 -0.2546729 0.21661784 0.0860362 0.14025229
0.15789205 -0.19279328 -0.23352215 0.13442537 -0.16168891 -0.12904218 0.1405766 -0.106472135
0.29749802 -0.13984868 0.035964426 0.0943103 0.015777132 0.18792956 0.031097941 -0.2631546
-0.105567195 0.029922262 0.14524451 -0.05536012 -0.30411336 0.03660944 0.23486663 0.31962517
-0.027442686 -0.2292427 0.24402082 0.17956634 -0.23435265 0.15086386 0.03963778 -0.24367455
-0.10058971 -0.28052554 0.21021284 -0.18434148 -0.05281096 -0.004910876 -0.11377309 -0.10764394
0.12328139 0.20301048 0.037644487 -0.020346424 0.33255365 0.04632091 -0.32906044 0.31711796
0.008833469 0.27145645 -0.17209257 -0.23694399 -0.2587399 -0.11069878 -0.17894666 -0.2739056
-0.31462237 -0.14099273 -0.18429963 -0.21808748 -0.32136238 -0.011455914 0.046651892 0.069590166
0.03074587 0.05684562 0.24725416 -0.11668896 0.27137318 0.21549688 -0.11151896 -0.012634135
-0.23583664 -0.07059314 -0.2036145 -0.3020365 -0.0425841 0.12554461 0.13036628 0.044257805
-0.22745995 -0.1324926 0.065837994 0.12076899 -0.32845962 -0.058504116 -0.09621519 -0.18175511
0.22033018 -0.13070403 -0.23807082 -0.17671943 -0.23038633 0.012738165 -0.06886056 -0.049491294
-0.017736843 -0.2459458 0.16295068 -0.24216738 0.08707375 0.1646422 0.0012139345 0.13213597
-0.059668683 0.29157645 0.30008498 -0.053084444 0.27195227 0.28638738 -0.3208994 -0.28732622
0.052378297 0.2828384 0.19418153 -0.09106228 0.09687004 -0.01658083 -0.14101864 0.18358967
-0.26025534 0.19070558 -0.26503903 -0.15123425 0.10627979 0.12274096 0.30921635 0.2951172

conv1.apply_func.0.bias f4 [32]
00000000: 8c92 2e3e f49b d7bc 31c1 333e a9ac 003e
00000010: 6c66 d8bd 1487 903e 8bc1 dabd 953f 73be
00000020: fe09 abbb b5f1 473d d070 83be dbad 983e
00000030: 794b 02be 09eb 6bbc 1f4f 10be 5464 28be
00000040: 516f 2e3d 1f3c a2be aa40 97be 31b3 033e
00000050: 0b05 5bbd 459c 113e d155 8f3d 70ff c03d
00000060: c974 3f3e 9bee 2f3e 2a8b 1c3c 9b23 9c3e
00000070: 5c48 863e 06d0 71bd 7136 813e 322c 683e
0.1704809 -0.026319481 0.17554165 0.12565865 -0.105664104 0.28228056 -0.10681447 -0.23754723
-0.005219697 0.048814494 -0.25672007 0.2982014 -0.12724103 -0.0143992985 -0.14092682 -0.16444522
0.04258663 -0.31686494 -0.29541522 0.12861325 -0.053471606 0.14219768 0.0699879 0.09423721
0.18696894 0.17180865 0.009554664 0.30495915 0.2622708 -0.059036277 0.25236848 0.22673109

conv1.apply_func.2.weight f4 [32, 32]
00000000: 9693 db3c 5caa b0bc e523 ce3d 4b0c 90bd
00000010: b9db a5bd 8e24 0d3e 5513 ca3d 6e99 40bd
00000020: f4bc 1ebe fcc9 8bbd f4b2 203d 80df f63d
00000030: 44f3 973c d4c4 13be c879 a9bd 9a8e 22be
00000040: d130 a33d 7e85 c3bd ca70 133e e6a8 d3bd
00000050: a0d4 ffbc 5e60 31be 85c6 1f3e 7a17 ea3c
00000060: 9050 183d 76b4 583d 5836 99bc e8c4 fc3d
00000070: 6f70 693d 859c bfbd 0fff 87bd 2516 da3d
00000080: 1a0f 273d e08f 693d 5a0e 203d a81b 183d
00000090: ac46 30bd e1fe 2d3e 4019 cbbd d6dd a5bd
000000a0: c420 29be 815f e2bc 7eab 2e3e 0f2d 74bc
000000b0: 5e6c 8dbd 9410 0ebe 5e98 2dbe d1b4 f8bd
000000c0: 5cfc 69bd 14b4 ee3c 8c88 8ebc 1add f33c
000000d0: c940 873d 4876 99bb 2caf 2c3e 1b17 93bd
000000e0: 7c3d 263c 4e3c 0d3e d30c 903b 6947 bbbd
000000f0: 1f28 09be 5607 31be 88e0 0c3e 5435 093e
00000100: e74f eb3c fc59 b9bd 3fe0 0cbe 8f6b c23c
00000110: f8ca 00be 6e36 213d 633a 20be 0918 eb3d
00000120: be68 d6bc ae9f 2fbc c84a 013e d39b 033e
00000130: f939 243c 0b4a ed3d d4e3 1e3d 4803 d7bd
00000140: 6796 b7bd 059b 1bbe f450 7cbd 1336 ef3c
00000150: aadd db3d 6df9 b73d 93d6 1a3e 2a5c efbd
00000160: 0632 88bd 05c8 723d 39a3 c53d 4992 103d
00000170: e2df 1fbe 0712 f83d 7cd1 03bd 6276 c6bd
00000180: 5de2 9b3d 6218 53bb 245e 013e 9314 e33d
00000190: 802e 4abd 6876 23be 5982 00be 6e6d 693d
000001a0: a453 8abd ee01 94bc 571c 2cbe 311b 083e
000001b0: 95a3 273e c23b a63d 0718 503d 4e2c 203e
000001c0: 2e47 603c 8a6e c83d 87c6 24bd 8ea9 b5bc
000001d0: bcb9 01bd 5c69 9e3d 59b3 29be 3c2a c93b
000001e0: 518f 8cbd 475b b53c 686f ac3b bd84 2d3e
000001f0: f2bf ebbc 2521 8bbd 17bb 9cbb 9edc c33d
00000200: c866 87bd c590 ffbd c16d 7dbc 8615 eebd
00000210: 00fa 34be 2100 903d 9a16 f7bd 5806 063d
00000220: fc48 a4bb 42b9 13be 5ccc ecbc 81a4 28bd
00000230: eebf e9bd 2efa 04bd e3d2 a3bd 5a4f 083e
00000240: b2dc f7bd a020 8fbd 0088 393c a55e 133d
00000250: 79b3 f23d 76d0 0a3e 5d86 f53c b24b c7bc
00000260: d211 1abe dfe1 ecbd cae4 993d 44f8 dcbd
00000270: 1ff1 153e 960a 253e ffcb bfbd 6529 47bc
00000280: 5020 a33c 95d1 583d 51af d7bc c440 04be
00000290: 84ed e2bd 8d4c 23bd 7b9a d9bd effa f63d
000002a0: 23d5 a23d d275 b9bd 7c64 07be dddb 6cbd
000002b0: 98f2 82bd bd91 d13c 4947 31bd c971 e6bd
000002c0: 0f0e d83d 23f6 9abd 7122 fabd ef85 13bd
000002d0: 8853 d6bd 8d8f 16bd 6f0c 843d 18a9 cbbd
000002e0: 7e7e 98bd 2856 ce3c 4a78 e9bd 13dc ccbd
000002f0: a1fe f33d 00be 2abe 3dc3 ee3c d536 01bd
00000300: 0a0b c33d fe15 85bd d56b cbbd f4cc 373d
00000310: 54e9 e83d 8339 1a3e cfa6 1bbe eb37 b83d
00000320: edc1 743d 5f44 b6bd d186 0f3d fc63 66bd
00000330: 0259 0cbe baa8 16be a5f1 1d3d 4295 103c
00000340: 87ce 0b3e 7cdf 073d 6384 603d 29c2 15bd
00000350: 2497 253c 308e d83d 2d6e 11be 6bf0 ce3d
00000360: 1970 e2bd 63d7 be3c 621b 8fbc 280b 46bd
00000370: 9f41 153e 7e4f 84bd 4e7d af3c 39d0 92bc
00000380: 5c06 a7bd 0341 1abe 38b2 de3c ff75 2dbe
00000390: dafc c93d a5e2 3e3c 0761 04be 4ae1 443d
000003a0: 5cbc 45bc 172c 2b3d 4155 01be e1fe c6bd
000003b0: e19e d23d bba2 01bd e695 7a3d cebc 2a3e
000003c0: 98e4 24bd c43a 593c 7f7b a1bd 80f8 123e
000003d0: a0de 903d 8a82 00be bb55 4f3c d66c bc3c
000003e0: 2977 43bd 9319 12bd 4e10 42bd 94cb 31bd
000003f0: 29a5 623d a695 d1bd 0366 e5bc 0d50 5cbd
0.026803773 -0.021565609 0.1006544 -0.07033595 -0.080985494 0.13783476 0.098669685 -0.047021322
-0.15501767 -0.06825635 0.039233163 0.12054348 0.018548615 -0.14430553 -0.08275181 -0.1587471
0.07968295 -0.09546946 0.14398494 -0.10334949 -0.031229317 -0.17321917 0.15603073 0.028575648
0.037186205 0.052906476 -0.018702671 0.123422444 0.05699199 -0.093560256 -0.066404454 0.10648755
0.040785886 0.057021976 0.039076187 0.03713575 -0.043036148 0.1699176 -0.099169254 -0.080989525
-0.16516405 -0.02763343 0.17057607 -0.014903321 -0.06905435 -0.13873512 -0.16952655 -0.12143863
-0.057125434 0.029138602 -0.017399095 0.029768515 0.06604154 -0.0046832897 0.16863698 -0.071821414
0.010146495 0.13792536 0.00439606 -0.0914448 -0.13394211 -0.17287955 0.13757527 0.1339925
0.028724624 -0.09050366 -0.13757418 0.023732929 -0.12577426 0.03935855 -0.15647273 0.11479194
-0.026172992 -0.010719223 0.12626183 0.12852411 0.010023587 0.11586388 0.038791493 -0.10498673
-0.08964234 -0.15195854 -0.06160064 0.02920059 0.107356384 0.08983121 0.15120916 -0.11687501
-0.06650166 0.059272785 0.09650273 0.03529576 -0.15612748 0.121128134 -0.0321822 -0.096905485
0.07611535 -0.0032210578 0.12633568 0.110879086 -0.049360752 -0.15963137 -0.12549724 0.056989126
-0.067542344 -0.018067326 -0.16807686 0.13291623 0.16370995 0.08116867 0.050804164 0.15641901
0.013688846 0.09786709 -0.040228393 -0.022175577 -0.03167127 0.077349395 -0.16572322 0.006139068
-0.06863273 0.022138251 0.005262304 0.16945167 -0.02877805 -0.06793431 -0.004783045 0.09563564
-0.06611401 -0.124787845 -0.015468062 -0.11625199 -0.17673492 0.070312746 -0.12064858 0.032720894
-0.005013583 -0.14426139 -0.02890604 -0.04117251 -0.11413561 -0.032465152 -0.07999208 0.1331152
-0.12102641 -0.069886446 0.011323929 0.035978932 0.11850638 0.13556084 0.029971296 -0.024328087
-0.1504586 -0.11566519 0.07514341 -0.107895404 0.14642762 0.1611732 -0.09365081 -0.012155865
0.019912869 0.052934248 -0.026328715 -0.12915331 -0.11080459 -0.039867926 -0.10625168 0.120595805
0.07950809 -0.090556756 -0.13221925 -0.057826865 -0.06393927 0.025582189 -0.043280873 -0.112521715
0.105495565 -0.07566478 -0.122136004 -0.0360164 -0.10465151 -0.036757994 0.06447684 -0.099443614
-0.074460015 0.025187567 -0.113998964 -0.10002913 0.11913801 -0.16674042 0.029145831 -0.031546433
0.0952359 -0.06498335 -0.09932677 0.044873193 0.11372629 0.15061001 -0.15200351 0.089950405
0.059755255 -0.088997595 0.03504068 -0.056247696 -0.13705829 -0.14712802 0.03856053 0.008824648
0.13653003 0.033172116 0.054813754 -0.03656212 0.0101068355 0.10573995 -0.14202185 0.1010445
-0.11056537 0.023296064 -0.017469112 -0.048350483 0.14575814 -0.064604744 0.021422055 -0.017921554
-0.0815551 -0.15063863 0.02718459 -0.16939543 0.09862681 0.011650716 -0.12927638 0.048066415
-0.012068834 0.041790094 -0.12630178 -0.09716583 0.1028421 -0.031649332 0.06117811 0.16673586
-0.040257066 0.01325864 -0.07884883 0.14352608 0.07073712 -0.12549797 0.012654717 0.023001116
-0.04772106 -0.03566892 -0.04737883 -0.043407038 0.05533329 -0.10233621 -0.028002745 -0.05378728

conv1.apply_func.2.bias f4 [32]
00000000: a58d 553d bcc2 e03c b0bd e03d 9662 ec3a
00000010: 964e cdbd f32e 213c c294 1e3d 02bd 2abe
00000020: da4d 28be dfff ae39 6f04 f03d 4498 ecbd
00000030: 8b43 093d d7d3 d6bd 1e3d 4bbd 03a4 febd
00000040: 4d80 2dbd b83f fa3d e0c4 193d 7175 a03c
00000050: 1526 31be 3b00 173e 7458 2bbe 5f29 d9bd
00000060: 3d4d 9dbd d7ba adbd 5f6a 8b3c fd4e 153e
00000070: 15de 9dbd b091 273e 24f3 ed3d 3c52 1bbe
0.052137036 0.027436607 0.1097368 0.0018034752 -0.10024755 0.009837854 0.038716085 -0.16673663
-0.16435948 0.00033378505 0.11719596 -0.1155248 0.03351168 -0.10489624 -0.049618833 -0.124336265
-0.042358685 0.12219185 0.03754127 0.01958725 -0.17299683 0.14746182 -0.16732961 -0.10603594
-0.07680748 -0.084829025 0.017018495 0.14580913 -0.077083744 0.16364169 0.11618641 -0.15168089

conv2.apply_func.0.weight f4 [32, 32]
00000000: 376a 32be 778b 253e 2ba8 d63b 16d8 353d
00000010: f3a6 e43d 475b 713d b103 efbc b369 00be
00000020: 8a84 06be 1811 ea3d f48a 16be 68fa 243e
00000030: e777 1e3d e0b8 ad3d 4ca5 2c3e 7db3 053e
00000040: d94e 37bb 0b3e b23d 9ac1 903c f4ef 6cbd
00000050: 3c74 293b 297c ac3d af6a d2bd e96e c3bd
00000060: f050 ec3d c158 343d cf93 8bbd e2ab 133e
00000070: 8b03 403d 0205 1cbe 932c 8fbd bd82 8a3c
00000080: 0de2 16be cd1b 23be 85f3 14be 1dc4 12be
00000090: ae8a 9c3d 2e2e 123e 5680 47bd 479c 81ba
000000a0: 3665 9b3d 6e1c ab3d 7eae d2bd d22f 1ebe
000000b0: 447a 33be 6a60 bc3d b3de d93d 88ce 8dbd
000000c0: e797 1abd eee5 9b3c dab3 edbd 45f6 cc3d
000000d0: 1e36 ce3d 86f7 a6bc 7046 fdbd 0dfa ca3c
000000e0: 6363 da3d 47f4 153e 3f0f 1a3c 3d56 97bd
000000f0: f7fb 91bd e282 d6bb 3531 293c 2b43 24be
00000100: 0aa3 093e a61d 75bc 5f94 7abd 8e50 243e
00000110: a05d 2abd 8f96 93bd 2007 64bd 4dd1 4f3d
00000120: 3611 d93d 5433 e5bd 2356 153d 6037 063e
00000130: 0a9c d83b e010 f5bc fc24 3bbd 7ac4 c53d
00000140: 6b46 28be 5c84 ad3d 37d5 6e3d 909b 83bd
00000150: 4af3 da3d ec29 cbbd 8f53 813d 9879 e23d
00000160: d3c4 c5bb 39ed f23d d884 e6bd cb19 b3bd
00000170: 7e46 e5bd b6c1 d93d dfbd f33d df76 fbbd
00000180: e7db b43d 15be b03d 4983 27bc 596b 08be
00000190: 76f1 163d cb17 b63c e1d5 2c3e 6e5c f03d
000001a0: da4f dcbd 1b0c ec3b c794 6c3d a8ba d03d
000001b0: 86ce f3bd 37de d5bb 01aa c43c 0658 e33d
000001c0: be50 93bc a514 233b e2c1 a8bd 7309 7ebd
000001d0: 11af febd 0c9d c5bd d42e 733c 9def 08bc
000001e0: e9b2 fc3d ddbf 23be 29b7 813d b94d cf3d
000001f0: eb22 88bd b8e8 803c 16c7 06be 7dd9 be3d
00000200: f220 153e a77d cd3c 6dce 3d3d e114 4bbd
00000210: abab cc3d f5b6 0c3d de4a 033d 90b1 a23d
00000220: 3ee2 283e 7a32 b0bd 328f 87bc cb23 72bd
00000230: 1715 a03d dffa 283e d6cd 8f3d 50b3 45bd
00000240: 61dc e93d 5a74 e4bd 7862 2c3e cfc9 5b3d
00000250: 5f67 39bd ac5f a73c 9956 adbd eee2 4bbd
00000260: 7220 d63d 647e 573d 7c71 e2bd 0063 cd3d
00000270: 960c f5bd d700 64bc baeb 83bd 13b0 e73d
00000280: 4fc4 14be fb0b e03d 30c0 c6bd edcd 91bc
00000290: 2c4b 953d 40ef 303e 27f0 603d 60aa d33d
000002a0: bc7c 05be cc78 393d e3b6 e2bd b074 2a3e
000002b0: ca14 3e3d 2253 2cbd 9f3e cabd d69e 673d
000002c0: f00e 263e 0590 dcbc aa03 f4bc 63b9 183c
000002d0: b853 0f3e 7e00 2fbe d14e dbbd 30c1 09bd
000002e0: dec7 2cbe f94a 853c 15d7 05be 92f3 043e
000002f0: d978 2e3e 9ba7 19be 59fe e3bd 046f f03d
00000300: b490 d6bd 3f93 24be 10fc 22bd 0e0a 333d
00000310: d76d ad3d 439f f73d 6612 2c3e 78fb fcbc
00000320: 9742 18be 7b47 f93d 17f4 313e 594c 7a3d
00000330: 4a5a 903d 3a0f 9b3d d0ef 91bd 3547 1a3d
00000340: 0246 203e b829 03bd 668d 18be c31d 38bd
00000350: 5196 bc3d 529c 0e3b 82e5 203e 8e8f 7abd
00000360: 9fe3 053e 443b 13bd 1ab5 883d 90db 4fbd
00000370: 01aa 1abc 6d96 edbd b557 29be bd72 c5bc
00000380: 6523 cfbd 09fa cbbd 48a3 59bd d05a b2bc
00000390: 59f5 613d 5c0a 03bd 3e5f f9bd d80c 0a3d
000003a0: 9ccc 093e 9705 023e 22c8 163e 48a3 09be
000003b0: 5b7b 073e 5867 c8bd 3592 bf3d 2a20 88bd
000003c0: 08c5 08be 9423 09bd 6c15 cd3d 9415 8f3d
000003d0: 5533 8dbd 8e4a 51bd 7a62 313e 7fe4 213e
000003e0: 8f02 163d 0243 babd 5455 33be efe1 d9bd
000003f0: 824a 89bd 1042 233e 389c 043e 5a8b 123e
-0.1742333 0.16166483 0.006550809 0.04439553 0.111646555 0.05892494 -0.029176565 -0.12540321
-0.13136497 0.114290416 -0.14701444 0.16111147 0.038688567 0.08482528 0.16859931 0.1305675
-0.002797058 0.0870324 0.017670441 -0.057846025 0.0025856635 0.08422119 -0.102742545 -0.09542639
0.11538875 0.044029955 -0.068153016 0.14421037 0.04687838 -0.15236285 -0.06990924 0.016908044
-0.14734669 -0.15928574 -0.1454602 -0.14332624 0.076436386 0.14275429 -0.048706375 -0.0009888493
0.07587664 0.08355032 -0.10287188 -0.1544793 -0.1752711 0.09198077 0.1063818 -0.06924158
-0.03774252 0.019030537 -0.116065696 0.1000791 0.10068916 -0.0203817 -0.123669505 0.024777437
0.10663488 0.14643966 0.009403049 -0.073894955 -0.071281366 -0.006546364 0.010326673 -0.16041248
0.134411 -0.014960682 -0.061176654 0.16046354 -0.041593194 -0.07206451 -0.055670857 0.050736714
0.10598986 -0.11191431 0.0364591 0.13107061 0.006610398 -0.029915273 -0.045689568 0.096566156
-0.16433112 0.08472511 0.058308806 -0.064261556 0.10690935 -0.09920105 0.06314766 0.110583484
-0.006035426 0.11861653 -0.11255807 -0.08745154 -0.11195086 0.106326506 0.119014494 -0.12278532
0.088310055 0.08630005 -0.010224172 -0.133222 0.03685137 0.022228142 0.16878463 0.117363796
-0.10757418 0.0072035915 0.057759073 0.10191852 -0.119046256 -0.006526734 0.024006845 0.111007735
-0.017982837 0.0024884131 -0.08240105 -0.06202073 -0.12435735 -0.09649095 0.014842708 -0.0083579095
0.12338812 -0.15991159 0.06333763 0.10122246 -0.06647285 0.015735969 -0.13161883 0.09318826
0.14563349 0.02508433 0.04633944 -0.04958046 0.099936806 0.03435417 0.03205382 0.079440236
0.16492555 -0.08603378 -0.016547773 -0.059116166 0.078165226 0.1650195 0.07021682 -0.04826671
0.11418987 -0.11155005 0.16834438 0.053659257 -0.045264598 0.020431362 -0.08463783 -0.049776964
0.10455407 0.05261077 -0.11056802 0.100286484 -0.11965291 -0.013916216 -0.06441446 0.1131288
-0.14528011 0.10939785 -0.097046256 -0.017798388 0.072897285 0.17278767 0.054916527 0.10335231
-0.13035864 0.045281217 -0.11070039 0.16646075 0.046406545 -0.04207147 -0.09875225 0.056547962
0.16216636 -0.026924143 -0.029786903 0.009321543 0.1399678 -0.17090032 -0.107083924 -0.033631504
-0.16873118 0.016271101 -0.13070329 0.1298354 0.17038287 -0.15005343 -0.11132497 0.117399246
-0.10476819 -0.16071795 -0.039791167 0.04371076 0.08468216 0.12090924 0.16803893 -0.030881628
-0.14869152 0.12171837 0.17378269 0.061107967 0.07048471 0.075712636 -0.07125819 0.037665565
0.15651706 -0.032022208 -0.14897689 -0.044950258 0.09208358 0.0021760655 0.1571255 -0.06117206
0.13075112 -0.035945192 0.066751674 -0.0507465 -0.009439946 -0.11600957 -0.16537364 -0.024102563
-0.10114173 -0.099598 -0.053134233 -0.021771818 0.055165622 -0.0319923 -0.12176369 0.033703655
0.13456959 0.12697445 0.14724782 -0.13441193 0.1323065 -0.09785336 0.09354059 -0.0664676
-0.13356411 -0.033481196 0.100138515 0.069865376 -0.068945564 -0.05109649 0.17322722 0.1580982
0.036623534 -0.09094812 -0.17513019 -0.106387965 -0.06703664 0.1594317 0.12950218 0.14310971

conv2.apply_func.0.bias f4 [32]
00000000: 5f2a 45bd cac0 9b3d 297d 02be 85f4 903d
00000010: 291c f7bc 5eda 723d 7544 d83d ad8c cebd
00000020: fa11 a1bc 87eb fc3d 4aa6 d139 33f8 20be
00000030: ee13 493d 861b 59bd 3273 eb3d 4e1c 7bbd
00000040: 5cba 183e 9b61 4a3d b51f 32be 5096 8f3d
00000050: 7186 43bd 280d 923d 1078 ab3d 8bf5 f5b8
00000060: 9f72 25be 4f18 c13d d53c 1a3e e27b f53d
00000070: 3eae db3d bb3d 06be bc4d 603c d418 423d
-0.04813611 0.07605131 -0.12743057 0.070778884 -0.030164795 0.059290282 0.10559932 -0.100854255
-0.019661892 0.12349611 0.0003998748 -0.1571968 0.049091272 -0.053004764 0.11496581 -0.06130629
0.1491484 0.04940949 -0.17394908 0.07011092 -0.047735635 0.071314156 0.083725095 -0.00011728246
-0.16157006 0.094284646 0.15062268 0.119865194 0.107265934 -0.13109486 0.013690408 0.04738696
